models/rl/ppo/ppo_20250315_232105/ppo_episode_14.pt (torch, 286386 bytes, 33 tensors)

network.0.weight f4 [128, 22]
0.10685089 0.14985766 -0.2428867 0.22652557 0.020356853 0.09483415 -0.00971723 0.06764363
0.29371312 -0.4846865 0.114740714 0.20677818 0.10088376 -0.012618918 0.015226656 -0.08234158
0.12988824 -0.21819746 -0.24996823 0.10505848 -0.1031705 0.21529755 -0.09431577 0.08064928
-0.34482226 -0.16496083 -0.061230972 -0.13224247 0.010346513 -0.20696817 0.20204748 -0.21211009
0.15747902 0.31338766 -0.07693625 0.06622648 -0.023360264 0.16456212 -0.045388397 -0.28446895
-0.27151468 -0.010383384 0.038675696 0.39363852 0.105099626 -0.11680964 0.1377707 0.028376205
0.09572754 -0.15630393 -0.23853946 -0.08395313 -0.18887237 0.17493948 0.056654334 0.09483522
0.048589587 -0.025465056 0.15957443 -0.15410146 -0.0101100495 -0.14566252 0.07758486 -0.05731074
0.043327905 -0.061640788 0.17240053 -0.16181536 -0.008767046 -0.1395214 0.13229772 0.019621022
0.22637539 -0.2828538 -0.20890246 -0.23359272 -0.24617495 -0.1712475 0.07229959 0.1581924
-0.080012485 -0.15405387 0.08714148 0.08171136 0.5809908 -0.06553601 0.09828145 -0.30421004
-0.014461544 0.062403053 -0.10783606 -0.040854476 0.16396123 0.184208 -0.16389947 -0.05205408
0.21409713 -0.10388459 -0.034167945 0.03942812 -0.024795426 0.034774594 -0.07960952 -0.060740534
-0.0047608083 -0.44156072 -0.6029263 -0.09984252 -0.19302706 0.0738174 0.19137612 -0.00022902773
0.06904309 -0.21582516 -0.17944255 -0.11051785 0.000910996 -0.20612314 -0.11992672 -0.12763657
-0.026138082 -0.07994259 -0.036514927 -0.18623692 -0.15026507 -0.14963372 -0.11475803 -0.17398497
0.19965367 -0.021255206 0.14679548 0.029452244 -0.20321266 0.09643051 0.13007547 -0.13918184
-0.28441188 -0.3165534 -0.019728918 -0.09295304 -0.016128136 0.027282404 0.1304524 -0.35228708
-0.059413716 0.0075177783 0.16096272 0.14952774 0.15856636 0.07489339 0.3496853 -0.09635633
-0.068375364 -0.4416775 0.17239924 -0.17708765 0.12047219 0.060170658 0.052016027 -0.13528445
0.17275886 0.04361863 0.00639532 -0.18788415 0.086266905 -0.018683573 -0.11664882 0.1619791
0.042193856 -0.12837511 -0.12919626 -0.0031328683 0.11934984 -0.03944022 -0.14277892 -0.09641874
-0.08259398 0.021970397 0.044523966 -0.18927005 0.036355905 0.09387365 0.018987257 -0.08722157
0.120260604 0.10037208 0.03465614 0.20131879 0.020270666 -0.04097063 -0.055181522 0.013246865
0.081493914 -0.041276045 -0.42181292 0.0017664025 -0.016616907 0.033510227 0.0501507 0.03774707
-0.2607327 -0.09208996 0.1547019 0.05969271 -0.07323981 -0.06423992 -0.17280239 -0.112155005
-0.017260816 0.24017671 0.13505365 0.06847403 -0.177275 -0.13946934 -0.060465273 0.16238187
-0.34860948 -0.016767085 0.062403094 -0.084589615 -0.14614551 0.1244386 -0.16939937 -0.013564639
-0.24399558 0.10780875 0.087272644 0.14222427 -0.20048311 -0.10636945 -0.12482807 0.29394123
0.094251625 0.1404052 0.1581157 0.04584515 -0.036357902 -0.16839379 -0.5477067 -0.16144328
0.064406365 -0.18129274 -0.051359914 -0.13222514 -0.029537842 -0.15888886 -0.14881295 0.06121996
-0.07286595 0.13161802 -0.07790013 -0.15639706 -0.03761691 -0.095560044 -0.07361332 -0.21249326
00000000: a4d4 da3d 4974 193e 4bb7 78be 52f6 673e
00000010: 6ac3 a63c 6838 c23d 0435 1fbc be88 8a3d
00000020: 9161 963e d428 f8be 2efd ea3d a9bd 533e
00000030: 259c ce3d 94bf 4ebc 3979 793c b4a2 a8bd
00000040: 6c01 053e 286f 5fbe acf7 7fbe e628 d73d
00000050: 0e4b d3bd f676 5c3e a028 c1bd 732b a53d
00000060: 8b8c b0be 7eeb 28be 54cd 7abd 926a 07be
00000070: 6c84 293c 77ef 53be 89e5 4e3e 6333 59be
00000080: 2e42 213e 5974 a03e c190 9dbd c0a1 873d
00000090: 065e bfbc f982 283e 2fe9 39bd eaa5 91be
000000a0: f903 8bbe 121f 2abc 686a 1e3d fd8a c93e
000000b0: 793e d73d e439 efbd c313 0d3e 3775 e83c
000000c0: cd0c c43d 230e 20be b043 74be 9eef abbd
000000d0: c267 41be 5623 333e 600e 683d f838 c23d
000000e0: e005 473d 189c d0bc 7b67 233e c6cc 1dbe
000000f0: 9fa4 25bc 8e28 15be d0e4 9e3d abbe 6abd
00000100: 9a78 313d 0d7b 7cbd c489 303e edb2 25be
00000110: a8a3 0fbc b3de 0ebe 0e79 073e 44bc a03c
00000120: f3ce 673e 37d2 90be 87ea 55be ee32 6fbe
00000130: 4915 7cbe 815b 2fbe cf11 943d 30fd 213e
00000140: 96dd a3bd 4cc0 1dbe 3b77 b23d 4958 a73d
00000150: d0bb 143f be37 86bd c947 c93d 6bc1 9bbe
00000160: 1df0 6cbc 589a 7f3d 27d9 dcbd 0657 27bd
00000170: 74e5 273e 06a1 3c3e 43d5 27be a936 55bd
00000180: 473c 5b3e 72c1 d4bd b0f3 0bbd 617f 213d
00000190: c71f cbbc ce6f 0e3d 510a a3bd 11cb 78bd
000001a0: 8e00 9cbb 3f14 e2be 6159 1abf 3c7a ccbd
000001b0: e3a8 45be 942d 973d 1af8 433e 2a27 70b9
000001c0: 7766 8d3d 4501 5dbe cabf 37be 2f57 e2bd
000001d0: e8cf 6e3a f211 53be 249c f5bd 29b3 02be
000001e0: 881f d6bc f1b8 a3bd ad90 15bd e4b4 3ebe
000001f0: 16df 19be 9539 19be 4206 ebbd 1e29 32be
00000200: 0372 4c3e 661f aebc 8e51 163e d545 f13c
00000210: fb16 50be 5c7d c53d 8132 053e af85 0ebe
00000220: 6f9e 91be 4a13 a2be 8a9e a1bc 2a5e bebd
00000230: 271f 84bc 597f df3c 5095 053e f95e b4be
00000240: cc5b 73bd b257 f63b 69d3 243e cd1d 193e
00000250: 385f 223e b561 993d f409 b33e 7856 c5bd
00000260: 6208 8cbd 8e23 e2be 6d89 303e 7756 35be
00000270: 20ba f63d 8275 763d c20e 553d 0288 0abe
00000280: b3e7 303e 73a9 323d d58f d13b b464 40be
00000290: b4ac b03d 4b0e 99bc 94e5 eebd d9dd 253e
000002a0: 77d3 2c3d c474 03be 064c 04be cf50 4dbb
000002b0: b06d f43d 118c 21bd a334 12be 3077 c5bd
000002c0: 0827 a9bd 43fb b33c c35e 363d 02d0 41be
000002d0: eee9 143d d440 c03d 2a8b 9b3c 39a1 b2bd
000002e0: 314b f63d e18f cd3d 99f3 0d3d 8326 4e3e
000002f0: ab0e a63c d2d0 27bd 0506 62bd 6109 593c
00000300: 48e6 a63d 1211 29bd ddf7 d7be a286 e73a
00000310: 2e20 88bc 0542 093d d26a 4d3d ac9c 1a3d
00000320: c27e 85be a999 bcbd 2d6a 1e3e 5880 743d
00000330: c1fe 95bd 3890 83bd 1cf3 30be 86b1 e5bd
00000340: 8e66 8dbc e2f0 753e 814b 0a3e 1d3c 8c3d
00000350: 9487 35be 0dd1 0ebe 6faa 77bd 6f47 263e
00000360: f17c b2be 205b 89bc 639a 7f3d 523d adbd
00000370: 2ba7 15be aad9 fe3d 0777 2dbe 383e 5ebc
00000380: fad9 79be d5ca dc3d 00bc b23d 3da3 113e
00000390: 724b 4dbe 3ad8 d9bd dca5 ffbd 777f 963e
000003a0: ff06 c13d 61c6 0f3e 15e9 213e 20c8 3b3d
000003b0: 06ec 14bd 6c6f 2cbe 8236 0cbf 6351 25be
000003c0: 7ce7 833d cea4 39be c65e 52bd 0766 07be
000003d0: 58f9 f1bc c3b3 22be 6c62 18be c8c1 7a3d
000003e0: be3a 95bd e0c6 063e 1a8a 9fbd 8d26 20be
000003f0: 3014 1abd fcb4 c3bd 95c2 96bd d597 59be

network.0.bias f4 [128]
0.20464195 -0.11139442 -0.12142312 0.10987752 0.12529722 -0.16069871 -0.043128617 0.08745901
-0.20280153 0.01847034 0.016150493 -0.017807031 0.25112623 -0.15151253 0.115579635 -0.06404767
-0.15055248 0.14891003 -0.16157411 -0.040910393 0.13078785 -0.17794992 -0.20080255 0.07320067
0.1515732 -0.021520091 0.124464184 0.12277672 0.055283718 -0.13914023 0.16489951 0.09243664
-0.0038681524 0.094870314 -0.18966874 -0.031123132 -0.11928328 0.012256543 0.02421179 0.09647738
0.05590537 -0.132485 -0.13288745 -0.004327513 -0.03547323 -0.1848566 0.20683582 -0.07686919
-0.22053166 0.08969501 0.04516536 -0.19209492 0.097528994 -0.11708735 0.06816126 0.2427808
0.12132648 0.08833831 -0.027769458 0.04207753 0.060542602 0.029528992 -0.036342476 0.029747292
-0.055578582 -0.05600795 -0.23728368 -0.16965634 -0.21004878 0.2138838 0.05036569 -0.19260965
-0.1431767 0.025545241 -0.058324717 -0.100934885 -0.07998379 -0.011062993 -0.023214411 0.0024852098
0.14584067 0.14664951 0.13297202 -0.060659856 -0.17677294 -0.057929084 -0.16623425 0.059544884
-0.106667414 -0.13951671 -0.24644522 0.10326058 0.026717866 0.21695441 -0.10603131 -0.02729777
-0.025645945 -0.08587792 -0.15736414 0.12061679 -0.13803315 0.09026724 0.07084461 0.068146065
0.16782403 0.0947832 0.12804739 0.05906497 -0.099839404 -0.113056384 -0.09835073 0.08647226
0.13151404 0.21408609 -0.06981812 -0.02512819 -0.1942248 0.11173748 -0.18197939 -0.071608305
0.17605379 0.039720286 -0.04261577 -0.19028996 -0.24981046 0.10199143 -0.19486637 0.13180467
00000000: a98d 513e c222 e4bd afac f8bd 7707 e13d
00000010: ea4d 003e 348e 24be a2a7 30bd b61d b33d
00000020: 34ab 4fbe 1c4f 973c 0a4e 843c 0de0 91bc
00000030: 9e93 803e 1a26 1bbe 04b5 ec3d 6d2b 83bd
00000040: 6e2a 1abe df7b 183e af73 25be a891 27bd
00000050: 40ed 053e 8138 36be 2f9f 4dbe 3cea 953d
00000060: 0136 1b3e e74a b0bc 14e7 fe3d 5c72 fb3d
00000070: 2e71 623d c77a 0ebe 6bdb 283e 6c4f bd3d
00000080: d480 7dbb 5e4b c23d 8638 42be f0f5 febc
00000090: cb4a f4bd abcf 483c ce57 c63c ef95 c53d
000000a0: 07fd 643d 26aa 07be a613 08be cfcd 8dbb
000000b0: 614c 11bd 0c4b 3dbe c5cc 533e 986d 9dbd
000000c0: 0dd3 61be 04b2 b73d 50ff 383d 88b4 44be
000000d0: 48bd c73d 7ecb efbd 2198 8b3d 889b 783e
000000e0: 047a f83d b7ea b43d c67c e3bc 7d59 2c3d
000000f0: 85fb 773d c9e6 f13c d9db 14bd 98b0 f33c
00000100: 5ea6 63bd 9868 65bd 7efa 72be 64ba 2dbe
00000110: 0717 57be 5b04 5b3e 414c 4e3d 773b 45be
00000120: ea9c 12be 4144 d13c e6e5 6ebd f3b6 cebd
00000130: 8bce a3bd 8e41 35bc 262c bebc e7de 223b
00000140: 4257 153e 4a2b 163e d129 083e 7876 78bd
00000150: f703 35be 0c47 6dbd 5039 2abe 56e5 733d
00000160: 7274 dabd 78dd 0ebe 235c 7cbe 487a d33d
00000170: 6ddf da3c 4c29 5e3e f226 d9bd 939f dfbc
00000180: 7217 d2bc c3e0 afbd 1124 21be f005 f73d
00000190: 9058 0dbe 08de b83d fb16 913d 2a90 8b3d
000001a0: 10da 2b3e b21d c23d db1e 033e 1cee 713d
000001b0: 9a78 ccbd 1b8a e7bd 1c6c c9bd 5e18 b13d
000001c0: 9eab 063e 6239 5b3e cdfc 8ebd a2d9 cdbc
000001d0: dee2 46be 9fd6 e43d ce58 3abe 60a7 92bd
000001e0: 7247 343e bdb1 223d e08d 2ebd 5fdb 42be
000001f0: 50ce 7fbe e2e0 d03d 0d8b 47be cef7 063e

network.2.weight f4 [64, 128]
0.06416486 -0.006451595 0.005281926 0.06660717 0.023650136 0.09747256 0.058403403 -0.04976171
0.043674897 0.041067272 -0.076326974 0.042450435 -0.05847822 -0.05811777 0.0016489774 -0.012227236
-0.014588571 -0.06570776 0.03714318 0.088129364 -0.03717219 -0.059553772 -0.01249111 -0.07694895
-0.07975244 -0.037174296 0.041217536 -0.045465022 -0.024189156 -0.04589743 -0.09170741 -0.030547967
0.009280591 -0.012259947 0.06685634 0.02893482 0.06302354 0.049581975 0.0067815664 0.039860215
-0.06426256 0.05900317 0.052928735 -0.030944224 0.006637432 -0.080206305 -0.07423709 -0.010883535
0.016037926 -0.030945681 0.012677573 -0.053721044 -0.044460915 0.07751059 -0.0956955 0.02787305
0.080166325 0.05126737 0.022502303 -0.091818996 0.0003860026 -0.025934186 -0.012260477 0.06772248
-0.042157125 -0.053863753 -0.082297206 0.042655684 -0.009337746 0.09111985 0.0056827525 -0.06834848
0.014137512 0.07588871 0.048424702 0.040874515 -0.07664141 -0.053283326 0.06816401 -0.07040407
0.02016434 -0.01653406 0.021879941 0.017563896 -0.054794163 -0.04046195 0.072265714 0.0026708313
0.057019446 -0.029979186 0.08190767 -0.006824274 -0.029897824 0.008137811 -0.04302792 -0.041577414
-0.022869457 -0.0043234704 -0.04829402 0.018002084 -0.07377484 0.06110053 0.09658468 0.007861072
-0.0339532 -0.07696004 0.027980411 0.059477825 0.07556545 0.007881597 0.009634881 0.08469456
0.027426777 -0.03484265 -0.072038904 0.029333765 0.04216558 0.09212711 -0.05104714 0.05212396
-0.029243663 -0.026422862 0.04303618 -0.08342209 0.0785212 0.029904705 -0.052530903 0.05021845
-0.0340417 -0.00044202572 -0.024952995 -0.09646791 -0.02145713 0.041832097 -0.021901606 -0.04480509
-0.0060666082 0.00932894 -0.034478668 -0.068543755 -0.05603045 -0.0050777667 0.031832427 0.06570423
-0.0026901953 0.03164675 0.038738023 -0.03854189 -0.038354192 0.058628507 0.0573888 0.017303664
-0.075188324 0.05016803 -0.08766946 -0.0063147736 -0.02595185 0.028550737 -0.09004652 -0.03706376
0.03624604 0.063621655 -0.017886061 0.06693637 -0.021111988 -0.057948403 -0.046333063 -0.0019912808
-0.021122731 0.03857214 -0.05020962 -0.026323533 -0.09195474 0.066611215 -0.022452163 -0.07942069
-0.014750842 -0.009652362 0.015323658 -0.01396673 0.033001803 -0.033087824 -0.031167397 -0.029820941
0.014279589 0.05816066 -0.017982548 0.054885216 0.056102846 -0.0924884 -0.008938704 -0.041724514
0.025270738 -0.041541398 0.017050935 -0.008195293 -0.06628476 -0.07555527 -0.09315261 -0.05372197
0.026944513 -0.0035640125 0.05765427 -0.081393294 -0.0075246748 -0.08280124 -0.0038812081 0.022179887
-0.1002813 0.07150963 -0.027452622 0.0740051 -0.018876446 0.04195558 0.079015285 -0.032179855
-0.025055537 0.043438546 -0.0782102 0.051035587 -0.05889187 0.07432936 -0.06652755 -0.04070727
0.05646689 -0.0536168 0.07105299 0.049595717 0.07372814 -0.09014484 -0.00028031596 -0.030396014
0.01034848 -0.076338984 0.031232432 -0.015664198 -0.04178017 -0.07951447 0.037669096 -0.045694966
0.06392249 -0.0037569173 0.022507302 -0.008653396 -0.018296858 -0.031320598 -0.086315006 0.05123208
-0.05566176 0.041562673 -0.041037742 0.048541863 0.071379535 -0.058516573 0.07298451 -0.0019956587
00000000: de68 833d e767 d3bb 0214 ad3b 5769 883d
00000010: eebd c13c b29f c73d 6838 6f3d efd2 4bbd
00000020: 73e4 323d 2836 283d 5151 9cbd 82e0 2d3d
00000030: dc86 6fbd e60c 6ebd 8022 d83a bf54 48bc
00000040: e704 6fbc ca91 86bd 7223 183d 2b7d b43d
00000050: de41 18bd a8ee 73bd 83a7 4cbc 6997 9dbd
00000060: 3f55 a3bd 1344 18bd b8d3 283d 8839 3abd
00000070: 5628 c6bc f2fe 3bbd 18d1 bbbd bb3f fabc
00000080: 9f0d 183c f2dd 48bc faeb 883d b708 ed3c
00000090: 7c12 813d 7816 4b3d e737 de3b 7744 233d
000000a0: 179c 83bd 4fad 713d cdcb 583d be7e fdbc
000000b0: d17e d93b 3443 a4bd 9e09 98bd db50 32bc
000000c0: f861 833c cc81 fdbc 98b5 4f3c 990a 5cbd
000000d0: a61c 36bd dfbd 9e3d 01fc c3bd 0656 e43c
000000e0: 3e2e a43d bcfd 513d c056 b83c 990b bcbd
000000f0: 6460 ca39 ee73 d4bc 2be0 48bc 15b2 8a3d
00000100: f3ac 2cbd 3da0 5cbd 708b a8bd bab7 2e3d
00000110: 58fd 18bc 0b9d ba3d 6236 ba3b 4afa 8bbd
00000120: 06a1 673c 8a6b 9b3d fb58 463d 096c 273d
00000130: 2cf6 9cbd 9e3f 5abd 9399 8b3d 0230 90bd
00000140: b02f a53c 7072 87bc 903d b33c 29e2 8f3c
00000150: d86f 60bd 6ebb 25bd 0c00 943d 1d09 2f3b
00000160: 398d 693d e996 f5bc 35bf a73d 299e dfbb
00000170: 48ec f4bc 7454 053c 0b3e 30bd 144d 2abd
00000180: ba58 bbbc e6ab 8dbb f3cf 45bd 1b79 933c
00000190: 4317 97bd 8d44 7a3d 30ce c53d bacb 003c
000001a0: 8312 0bbd 3a9d 9dbd 2d37 e53c 059f 733d
000001b0: 0fc2 9a3d d021 013c 9fdb 1d3c 5774 ad3d
000001c0: 1fae e03c 2bb7 0ebd 2289 93bd 5d4d f03c
000001d0: d1b5 2c3d 23ad bc3d ce16 51bd ef7f 553d
000001e0: 6890 efbc c274 d8bc b546 303d 33d9 aabd
000001f0: b9cf a03d b6fa f43c a52a 57bd ddb1 4d3d
00000200: 4f6f 0bbd b0bf e7b9 396a ccbc f890 c5bd
00000210: ddc6 afbc 2258 2b3d ff6a b3bc 8b85 37bd
00000220: 66ca c6bb 69d8 183c 8139 0dbd ab60 8cbd
00000230: 2f80 65bd 6563 a6bb b862 023d f08f 863d
00000240: fd4d 30bb 06a0 013d c3ab 1e3d 1ade 1dbd
00000250: 4919 1dbd 7224 703d 8510 6b3d 6ac0 8d3c
00000260: 56fc 99bd fe7c 4d3d 0c8c b3bd 29ec cebb
00000270: f998 d4bc 3ce3 e93c 4f6a b8bd 2bd0 17bd
00000280: ba76 143d 124c 823d ca85 92bc f015 893d
00000290: 0cf3 acbc 4e5b 6dbd bdc7 3dbd 2680 02bb
000002a0: 9409 adbc d2fd 1d3d 9aa8 4dbd 73a4 d7bc
000002b0: c452 bcbd 766b 883d 99ed b7bc 51a7 a2bd
000002c0: 84ad 71bc f124 1ebc 1410 7b3c b6d4 64bc
000002d0: e62c 073d 1987 07bd c552 ffbc 0c4b f4bc
000002e0: f0f4 693c df39 6e3d 2350 93bc 52cf 603d
000002f0: 19cc 653d 8f6a bdbd a473 12bc 53e7 2abd
00000300: 9404 cf3c 5027 2abd 67ae 8b3c 8d45 06bc
00000310: 4ec0 87bd b9bc 9abd ccc6 bebd 920b 5cbd
00000320: bdba dc3c 3592 69bb e226 6c3d 87b1 a6bd
00000330: 8c91 f6bb b293 a9bd de5b 7ebb 98b2 b53c
00000340: 4860 cdbd a473 923d 52e4 e0bc fc8f 973d
00000350: c7a2 9abc 9dd9 2b3d c4d2 a13d 06cf 03bd
00000360: 4541 cdbc 9eec 313d ab2c a0bd b10a 513d
00000370: 9a38 71bd fe39 983d 993f 88bd abbc 26bd
00000380: d349 673d 4a9d 5bbd 3b84 913d e124 4b3d
00000390: c7fe 963d dc9d b8bd 5ff7 92b9 1001 f9bc
000003a0: ac8c 293c 9d57 9cbd 28db ff3c 3452 80bc
000003b0: af21 2bbd 7cd8 a2bd e94a 1a3d a52a 3bbd
000003c0: cbe9 823d 9d36 76bb 3c61 b83c f9c6 0dbc
000003d0: 4be3 95bc 074a 00bd ecc5 b0bd bbd8 513d
000003e0: 96fd 63bd 9f3d 2a3d 3117 28bd d5d3 463d
000003f0: 6f2f 923d 13af 6fbd e778 953d 99c9 02bb

network.2.bias f4 [64]
-0.07988411 -0.015974332 -0.025723206 -0.08944891 0.037355665 -0.0026963537 0.0054512904 -0.011837894
-0.027829269 -0.041542765 0.018541692 -0.06946211 0.021573875 -0.007848667 0.06928066 -0.074460395
-0.015939767 -0.047231264 0.03267255 -0.002332223 0.0005736031 -0.009575843 -0.061719738 0.031340636
-0.0577432 -0.016690873 0.016856635 0.06268241 0.024477504 0.059939813 0.026191104 0.019978896
-0.007999397 -0.048308082 -0.00022525797 0.030331628 -0.03967521 0.043078743 -0.07928288 0.042016376
0.09190771 0.030047419 -0.0815402 -0.013968351 0.03566445 0.060664203 -0.004755508 0.011340273
0.047619835 -0.0050099147 0.091938004 0.08672849 -0.069965996 -0.051020857 -0.047909684 -0.03029376
0.060255937 -0.071792394 0.031215655 0.06453762 -0.004173109 -0.09157315 -0.06702441 0.00514328
00000000: 489a a3bd 9adc 82bc 79b9 d2bc fd30 b7bd
00000010: 4102 193d 4fb5 30bb bda0 b23b baf3 41bc
00000020: 35fa e3bc bf28 2abd bfe4 973c 2742 8ebd
00000030: b2bb b03c b297 00bc 05e3 8d3d b17e 98bd
00000040: 1d94 82bc 9275 41bd a7d3 053d 36d8 18bb
00000050: da5d 163a ffe3 1cbc d6cd 7cbd 0a5f 003d
00000060: 2284 6cbd 4cbb 88bc ed16 8a3c a35f 803d
00000070: 0c85 c83c 7383 753d ba8e d63c c8aa a33c
00000080: e70f 03bc b2de 45bd 3a33 6cb9 097a f83c
00000090: 7982 22bd 5673 303d 105f a2bd 5d19 2c3d
000000a0: 1c3a bc3d 0126 f63c 8cfe a6bd 83db 64bc
000000b0: e314 123d 077b 783d 18d4 9bbb 8dcc 393c
000000c0: 040d 433d 362a a4bb fe49 bc3d b59e b13d
000000d0: 554a 8fbd 3ffb 50bd f23c 44bd 9f2a f8bc
000000e0: eece 763d e407 93bd f9b7 ff3c 4d2c 843d
000000f0: 93be 88bb b48a bbbd 1844 89bd f688 a83b

output_layer.weight f4 [3, 64]
0.036079664 0.04455487 0.06481373 0.07784152 -0.10094608 0.020429894 0.05377646 -0.05391085
-0.05755946 -0.118809074 -0.13603821 0.06531146 0.029186385 -0.07168698 -0.108641975 -0.08461987
0.0731279 0.055978652 0.023222229 0.005749902 -0.003584734 0.010028046 0.020078015 -0.0137519175
-0.07337958 -0.047458343 0.013748257 0.04324374 0.04042323 -0.05655553 0.056061238 -0.10345009
-0.014119716 -0.08144348 -0.025531957 -0.06339051 0.121223845 0.11521937 -0.04853732 0.004251565
-0.051729236 -0.021328872 -0.058844324 0.021750584 -0.0986251 -0.020094803 0.00086723367 -0.050573185
-0.03659664 0.034542058 0.049584027 -0.07062893 -0.08729611 0.0074807503 0.022136135 0.09517858
0.09979762 -0.091474734 -0.024874572 -0.103135556 0.034638204 0.042470604 -0.08949224 -0.06612463
0.069316395 0.046709146 -0.057697263 0.0017044981 -0.0961888 0.0485193 0.033678137 0.025762253
-0.025900863 0.00039979402 -0.04264854 0.11668533 0.009202956 -0.038389772 0.0045405584 -0.15172802
0.049490087 0.0980578 0.035382777 0.0050776736 0.06264585 0.032162316 0.0061892034 0.067852385
0.03217688 0.031564146 -0.049000464 0.015184111 0.12670374 0.08833219 -0.074101605 0.032102715
-0.06843696 0.024894655 0.045508537 -0.06822423 0.07702861 0.098866686 0.099766634 0.028306188
0.057266343 -0.06354391 -0.05649957 0.031829916 -0.059997924 0.025584323 -0.04607703 -0.037480615
-0.08195923 -0.0060310583 0.07011409 0.0340524 0.00079394283 0.039783556 0.11031399 -0.03573645
-0.04890407 0.09167108 -0.09237166 -0.09534676 -0.08954376 -0.061519958 -0.08051609 -0.0028437492
-0.053335194 0.06968305 -0.10996575 -0.08509557 -0.09920234 -0.0716956 0.04209027 -0.08513643
-0.025519717 -0.055224255 -0.06893766 -0.05233164 0.06560626 -0.018440709 -0.05275639 0.07754132
0.13580334 0.1016445 0.018409234 0.012812505 -0.04640428 -0.012553019 0.04092682 -0.054846946
-0.00900545 0.044021644 0.025090052 0.08576813 -0.049847487 -0.09238664 -0.10975115 0.05833535
-0.051056374 -0.107344255 -0.015820153 -0.05988219 -0.06561168 0.08181069 -0.075612694 0.060635936
0.05844913 0.066448964 -0.06306841 0.09261267 -0.09241926 0.09985794 -0.039677165 -0.022241343
0.026172772 0.086648695 0.04134151 0.0663113 0.014778152 -0.0068312013 -0.07639363 0.100564726
0.09470668 0.07700931 0.09282388 -0.08599849 -0.058978252 -0.021537662 -0.07832729 -0.02594518
00000000: 45c8 133d 2b7f 363d 10bd 843d 606b 9f3d
00000010: d2bc cebd 985c a73c b544 5c3d a0d1 5cbd
00000020: 78c3 6bbd 2c52 f3bd 9a4d 0bbe 04c2 853d
00000030: 4918 ef3c a0d0 92bd af7f debd 2f4d adbd
00000040: 15c4 953d df49 653d 8b3c be3c ad69 bc3b
00000050: dbed 6abb ac4c 243c a67a a43c b94f 61bc
00000060: 0948 96bd ae63 42bd 5f40 613c 5920 313d
00000070: d492 253d c5a6 67bd 78a0 653d a4dd d3bd
00000080: 6256 67bc d7cb a6bd 6528 d1bc e2d2 81bd
00000090: 3544 f83d 22f8 eb3d 12cf 46bd b650 8b3b
000000a0: 09e2 53bd e3b9 aebc bf06 71bd 482e b23c
000000b0: f5fb c9bd db9d a4bc 1157 633a d425 4fbd
000000c0: 5ce6 15bd f97b 0d3d 9f18 4b3d e7a5 90bd
000000d0: 4ec8 b2bd 1521 f53b d756 b53c fdec c23d
000000e0: b262 cc3d 1b57 bbbd c2c5 cbbc bc38 d3bd
000000f0: cae0 0d3d a8f5 2d3d b547 b7bd 5a6c 87bd
00000100: c1f5 8d3d 1752 3f3d f753 6cbd 7769 df3a
00000110: a2fe c4bd 2cbc 463d 16f2 093d 5c0b d33c
00000120: 0c2e d4bc 729b d139 3cb0 2ebd b8f8 ee3d
00000130: ffc7 163c 983e 1dbd f7c8 943b 975e 1bbe
00000140: 1eb6 4a3d 87d2 c83d 88ed 103d 9d62 a63b
00000150: 784c 803d a2bc 033d cdce ca3b 31f6 8a3d
00000160: e7cb 033d 6849 013d b6b4 48bd c7c6 783c
00000170: a0be 013e 82e7 b43d 95c2 97bd 237e 033d
00000180: ad28 8cbd e0ef cb3c 2967 3a3d 25b9 8bbd
00000190: 2dc1 9d3d 9e7a ca3d 7352 cc3d 61e2 e73c
000001a0: 1d90 6a3d 4f23 82bd 186c 67bd 1660 023d
000001b0: 62c0 75bd 3796 d13c 45bb 3cbd 4685 19bd
000001c0: 3eda a7bd 2fa0 c5bb fa97 8f3d 887a 0b3d
000001d0: 9a20 503a 15f4 223d 4dec e13d 6260 12bd
000001e0: a24f 48bd 0cbe bb3d 5a2d bdbd 2945 c3bd
000001f0: b862 b7bd 5afc 7bbd 9fe5 a4bd 325e 3abb
00000200: 0176 5abd fdb5 8e3d b935 e1bd 9646 aebd
00000210: 992a cbbd 25d5 92bd d966 2c3d 025c aebd
00000220: ba0e d1bc d432 62bd 302f 8dbd b459 56bd
00000230: 935c 863d f810 97bc 1617 58bd fccd 9e3d
00000240: 0810 0b3e fe2a d03d f6ce 963c 8aeb 513c
00000250: 6a12 3ebd 2eab 4dbc e2a2 273d 31a7 60bd
00000260: 988b 13bc 0a50 343d a789 cd3c 34a7 af3d
00000270: e12c 4cbd 3535 bdbd 36c5 e0bd 0cf1 6e3d
00000280: 7d20 51bd 4ed7 dbbd 4499 81bc 0747 75bd
00000290: 6b5f 86bd 5d8c a73d d4da 9abd 635d 783d
000002a0: 5b68 6f3d 6516 883d 032a 81bd b6ab bd3d
000002b0: 4f46 bdbd 5282 cc3d 8684 22bd 7a33 b6bc
000002c0: 4868 d63c df74 b13d b755 293d 38ce 873d
000002d0: 1020 723c 45d8 dfbb 4374 9cbd e1f4 cd3d
000002e0: 93f5 c13d 0fb7 9d3d 721a be3d fa1f b0bd
000002f0: 2e93 71bd c06f b0bc 0f6a a0bd fc8a d4bc

output_layer.bias f4 [3]
-0.022245739 0.07165509 0.086241566
00000000: b23c b6bc e7bf 923d 6b9f b03d

network.0.weight f4 [128, 22]
-0.10630415 0.11029539 -0.15334615 0.109330736 0.14221448 0.004845469 0.29646623 -0.018880464
0.0064247986 -0.012751385 -0.30761352 -0.17407191 -0.11280784 -0.14754908 -0.09617157 -0.19142243
0.13456859 -0.1125958 -0.085002616 0.103519775 0.014038718 -0.1574207 0.059312105 -0.13291273
-0.16932507 -0.12798177 -0.16625322 0.16702184 0.0815188 0.18682352 -0.17157002 -0.16925256
0.08457708 -0.099807024 -0.06534153 -0.12526062 -0.17938887 -0.12559757 -0.13406938 0.10923174
-0.0056272745 0.13323227 0.18535435 0.14079764 -0.24291557 0.082452245 0.4418577 -0.24473268
-0.22281152 -0.100504495 -0.13975835 -0.23016211 -0.14386897 -0.08136149 0.018949892 0.13770126
0.06390544 -0.046233125 -0.169667 0.13879357 -0.03771492 0.07262251 -0.12068368 -0.004491382
0.005581118 -0.3493552 -0.16186744 0.027649207 0.17116567 0.06890539 -0.027752955 -0.01374172
0.08425231 -0.106829576 0.14959025 0.112491846 -0.24885783 0.21537256 -0.02891386 -0.19041932
-0.072361566 0.16813166 -0.20725861 0.055621188 -0.041829217 -0.12853871 0.033268932 0.08910583
0.13102183 -0.4148196 0.22144482 0.14735606 -0.013707187 -0.07725132 0.30681467 -0.5575278
0.13330117 0.050807744 -0.30516988 0.041471668 -0.06696104 -0.32720244 0.13121462 0.012064673
-0.15152147 -0.10018663 -0.154788 0.25554818 -0.40376943 -0.46153834 -0.07222905 0.11173985
-0.102462746 -0.2068037 -0.14067715 -0.21609521 0.12523091 -0.09024111 -0.103671834 -0.16350818
0.052266445 -0.18505761 -0.15851593 -0.07668978 0.13703312 -0.13182002 -0.19123407 0.03245176
-0.17209142 0.19481732 0.035877675 0.060739014 0.083388366 0.12503995 0.021124491 0.115706176
0.10311769 0.034691926 0.044306345 -0.34716892 -0.054336764 -0.03704241 -0.2136867 0.07680344
0.092620954 -0.22454226 0.15017113 -0.06123834 -0.06700615 0.10904126 0.08139745 -0.13689485
-0.088964365 -0.75001013 -0.13620633 -0.19502138 0.09326645 -0.03306826 -0.15378936 -0.060388803
-0.020713374 0.053503733 0.17183347 -0.14156033 -0.033090156 0.21638004 0.12226705 0.08280199
-0.055627223 0.003934039 -0.000693387 0.028381474 0.15373158 -0.046366055 -0.08026301 0.13190022
-0.041812807 -0.26776865 -0.021939468 0.054455318 0.035662867 0.06854676 -0.18120968 -0.20456073
0.019103246 0.16361412 0.11868621 0.12995234 0.039074786 -0.20267992 0.044213142 -0.06976577
-0.055159323 0.10920619 -0.17341459 0.07910471 -0.1428349 0.0805039 -0.23849924 -0.12704903
-0.22889312 0.09446619 0.07289374 0.21049373 0.28534135 -0.008994692 0.07827072 0.018044997
-0.011793795 0.124109134 -0.12620462 0.1332666 -0.34224084 0.18301456 0.07666211 0.115223765
0.037243456 0.03487962 -0.058912415 0.034781434 -0.120999224 -0.16337241 -0.08137044 0.0060629356
-0.009016238 0.10161654 0.26723418 -0.08787807 -0.031201186 -0.074536055 0.10141519 -0.2491871
0.09291183 0.15785389 0.07880322 -0.010923694 -0.07750535 0.16989416 -0.2230342 0.022707338
-0.034708355 0.16659021 -0.07484617 -0.15270843 -0.09291843 0.092274144 0.044706006 -0.14726293
-0.115092844 -0.093915485 0.0031726214 -0.059943214 0.093181975 0.017412707 -0.053897258 -0.027793821
00000000: fdb5 d9bd 8de2 e13d c606 1dbe cbe8 df3d
00000010: aca0 113e bdc6 9e3b 6cca 973e 34ab 9abc
00000020: 1e87 d23b 2feb 50bc 857f 9dbe e83f 32be
00000030: cc07 e7bd 1b17 17be 9af5 c4bd 3e04 44be
00000040: 59cc 093e a098 e6bd da15 aebd 2d02 d43d
00000050: a702 663c e432 21be 40f1 723d 461a 08be
00000060: 8d63 2dbe a70d 03be 493e 2abe c607 2b3e
00000070: 54f3 a63d aa4e 3f3e 0db0 2fbe 8b50 2dbe
00000080: c036 ad3d a067 ccbd c8d1 85bd 5244 00be
00000090: b7b1 37be a69c 00be 7c49 09be e4b4 df3d
000000a0: 0065 b8bb 0a6e 083e 88cd 3d3e 422d 103e
000000b0: dcbe 78be b9dc a83d 2c3b e23e 349b 7abe
000000c0: b428 64be 4dd5 cdbd d01c 0fbe 9eaf 6bbe
000000d0: 6352 13be daa0 a6bd ce3c 9b3c 8f01 0d3e
000000e0: dbe0 823d f25e 3dbd 30bd 2dbe e71f 0e3e
000000f0: f67a 1abd 1cbb 943d 0129 f7bd 712c 93bb
00000100: d0e1 b63b afde b2be 94c0 25be 9780 e23c
00000110: 0e46 2f3e 451e 8d3d 2a5a e3bc f324 61bc
00000120: 7a8c ac3d 77c9 dabd 302e 193e 2062 e63d
00000130: 96d4 7ebe a08a 5c3e c2dc ecbc 48fd 42be
00000140: 4d32 94bd b52a 2c3e 9a3b 54be 0bd3 633d
00000150: 1d55 2bbd a79f 03be 0145 083d 1e7d b63d
00000160: 962a 063e 3c63 d4be 6ec2 623e 82e4 163e
00000170: 1c94 60bc f135 9ebd d016 9d3e 24ba 0ebf
00000180: 1a80 083e c81b 503d 3a3f 9cbe 32de 293d
00000190: df22 89bd 1487 a7be 205d 063e e8aa 453c
000001a0: 7228 1bbe a62e cdbd bf80 1ebe 36d7 823e
000001b0: deba cebe c14e ecbe d3ec 93bd ddd7 e43d
000001c0: fdd7 d1bd 59c4 53be ac0d 10be 1048 5dbe
000001d0: 883c 003e 55d0 b8bd e651 d4bd b06e 27be
000001e0: 5715 563d be7f 3dbe 0052 22be 880f 9dbd
000001f0: 6952 0c3e d4fb 06be ddd2 43be 23ec 043d
00000200: bc38 30be 317e 473e 78f4 123d 79c9 783d
00000210: 85c7 aa3d 790a 003e 450d ad3c 5cf7 ec3d
00000220: 5e2f d33d 1f19 0e3d 927a 353d 20c0 b1be
00000230: 3a90 5ebd c8b9 17bd b0d0 5abe 1f4b 9d3d
00000240: 0eb0 bd3d 68ee 65be 76c6 193e 0ed5 7abd
00000250: 853a 89bd 0651 df3d b5b3 a63d 2a2e 0cbe
00000260: f332 b6bd aa00 40bf ac79 0bbe afb3 47be
00000270: 7b02 bf3d 9572 07bd f57a 1dbe 405a 77bd
00000280: 18af a9bc bb26 5b3d 1df5 2f3e 31f5 10be
00000290: 8b89 07bd bb92 5d3e 2667 fa3d 1794 a93d
000002a0: 5fd9 63bd 1ce9 803b 6ac4 35ba 4480 e83c
000002b0: d06b 1d3e 55ea 3dbd ef60 a4bd da10 073e
000002c0: e843 2bbd f918 89be 66ba b3bc 8a0c 5f3d
000002d0: 3a13 123d 3e62 8c3d 088f 39be 5e78 51be
000002e0: 697e 9c3c 768a 273e c111 f33d 3a12 053e
000002f0: e20c 203d 538b 4fbe d718 353d 5be1 8ebd
00000300: beee 61bd 7fa7 df3d 9893 31be a601 a23d
00000310: 5043 12be 3bdf a43d 2539 74be 2419 02be
00000320: f562 6abe 7d77 c13d 5049 953d ab8b 573e
00000330: 4318 923e 795e 13bc 664c a03d 1ad3 933c
00000340: c33a 41bc ee2c fe3d c93b 01be 0a77 083e
00000350: 313a afbe 2b68 3b3e 0601 9d3d 70fa eb3d
00000360: 988c 183d efdd 0e3d 254e 71bd fa76 0e3d
00000370: 71ce f7bd 194b 27be 8ca5 a6bd 97ab c63b
00000380: d8b8 13bc 551c d03d ebd2 883e 6bf9 b3bd
00000390: a199 ffbc 5ca6 98bd c4b2 cf3d e72a 7fbe
000003a0: 8f48 be3d 73a4 213e 9563 a13d 4bf9 32bc
000003b0: 20bb 9ebd bcf8 2d3e 1463 64be bd04 ba3c
000003c0: 592a 0ebd a096 2a3e f348 99bd 995f 1cbe
000003d0: 054c bebd 3afa bc3d a51d 373d 18cc 16be
000003e0: ccb5 ebbd c356 c0bd c1eb 4f3b 0487 75bd
000003f0: 31d6 be3d 18a5 8e3c 5fc3 5cbd deaf e3bc

network.0.bias f4 [128]
-0.010541967 -0.12067869 -0.38670054 0.033832096 -0.3806631 0.064343885 -0.20051193 -0.029549748
-0.14197622 -0.004467522 -0.042847708 -0.17498307 0.1686035 0.20366147 -0.11481684 0.18896165
-0.0025865356 -0.1321138 -0.011765159 -0.07652893 -0.055774894 -0.11295983 -0.20186922 0.13102213
0.099181786 -0.08586189 -0.054165337 -0.045241427 0.1891663 -0.07848383 0.06302298 -0.14694072
-0.11394497 0.05584971 0.11190589 -0.19811346 -0.03273014 0.43112466 -0.16931625 0.11972593
-0.21021673 -0.21457751 0.15720093 -0.1563941 -0.2442921 -0.27981287 -0.16143642 0.5083261
0.016720241 -0.040302638 -0.100863166 0.20569462 0.1272116 0.2836396 0.11167052 -0.055527665
-0.06294369 -0.0015498945 -0.08520526 -0.06522634 0.3252783 0.22741146 0.000927162 -0.08296317
-0.39672875 -0.16021559 -0.40141585 0.003917508 -0.0034889416 -0.32284045 0.19542147 0.15178359
0.089936614 -0.086309895 -0.09966389 0.0010628098 0.15734108 0.061802715 0.09962207 -0.55384254
-0.2250294 0.31914443 -0.19997786 -0.1864039 -0.023882002 -0.097276665 0.14797762 -0.6969278
-0.035595056 -0.20473923 0.5331933 0.2357628 -0.046856284 -0.17419703 0.16331883 0.44981617
-0.22081184 -0.18318732 0.15376212 -0.18650629 -0.15620749 0.08141038 0.01364798 -0.22613028
-0.23849334 0.016612131 0.171704 0.04808876 0.1181268 0.3972321 0.2452463 -0.16764233
0.5659989 -0.26875782 0.31638086 -0.37527096 -0.13447942 -0.26063883 -0.11251641 -0.11720028
0.06785298 -0.15801217 -0.038755838 -0.13015534 -0.114575185 -0.17674385 0.046637267 0.101345934
00000000: 37b8 2cbc 6426 f7bd 9dfd c5be 8693 0a3d
00000010: 46e6 c2be bac6 833d 0053 4dbe 5012 f2bc
00000020: 3762 11be 4a64 92bb 1481 2fbd c32e 33be
00000030: 65a6 2c3e a28c 503e 1725 ebbd 2a7f 413e
00000040: de82 29bb d748 07be a7c2 40bc 33bb 9cbd
00000050: 3774 64bd 7c57 e7bd ceb6 4ebe aa2a 063e
00000060: d21f cb3d 5cd8 afbd 79dc 5dbd 134f 39bd
00000070: d0b4 413e 21bc a0bd 3112 813d a177 16be
00000080: fb5b e9bd aac2 643d ea2e e53d 41de 4abe
00000090: 0a10 06bd 5fbc dc3e 3d61 2dbe de32 f53d
000000a0: 0e43 57be 35ba 5bbe 48f9 203e c625 20be
000000b0: b527 7abe a243 8fbe 974f 25be a921 023f
000000c0: e3f8 883c 6114 25bd 5991 cebd 9ca1 523e
000000d0: c243 023e 3639 913e 83b3 e43d fa70 63bd
000000e0: 9fe8 80bd d425 cbba 1880 aebd 6395 85bd
000000f0: e18a a63e 8dde 683e ca0c 733a 98e8 a9bd
00000100: 0820 cbbe 8e0f 24be 6186 cdbe 705e 803b
00000110: baa6 64bb 584b a5be 911c 483e 286d 1b3e
00000120: b030 b83d 3ec3 b0bd 951c ccbd fb4d 8b3a
00000130: 051e 213e d824 7d3d a806 cc3d a0c8 0dbf
00000140: 1b6e 66be e666 a33e ffc6 4cbe aae0 3ebe
00000150: 30a4 c3bc fd38 c7bd 7287 173e dc69 32bf
00000160: 1fcc 11bd 29a7 51be 5b7f 083f ce6b 713e
00000170: 60ec 3fbd b560 32be 0d3d 273e 4e4e e63e
00000180: 801c 62be 7595 3bbe d173 1d3e 81fb 3ebe
00000190: dbf4 1fbe 7cba a63d c79b 5f3c b28e 67be
000001a0: 9937 74be 2a16 883c 2cd3 2f3e b8f8 443d
000001b0: 77ec f13d 0162 cb3e d921 7b3e 6eaa 2bbe
000001c0: 4ee5 103f a09a 89be acfc a13e 8423 c0be
000001d0: f9b4 09be 7472 85be 016f e6bd b306 f0bd
000001e0: 81f6 8a3d f1cd 21be 71be 1ebd 7147 05be
000001f0: 65a6 eabd 57fc 34be b806 3f3d 758e cf3d

network.2.weight f4 [64, 128]
0.025596587 0.026801474 -0.053784225 -0.08984272 0.001507557 0.09286559 0.012436552 0.061898783
-0.055358235 0.0673893 0.09037728 0.048484668 -0.061409958 0.05564964 -0.07670072 -0.05367187
0.04622347 0.051405095 0.038444787 -0.077498734 -0.10986167 0.025483022 -0.060802888 0.052642994
-0.008653997 0.03562247 0.0038508417 -0.033309422 -0.050123032 -0.033098273 -0.020688456 -0.09372141
0.024563104 0.01884226 -0.09395817 -0.036546115 -0.093235165 0.01608019 -0.049408864 0.05013754
-0.06740589 -0.059772402 0.07805758 -0.015250926 0.025986057 -0.08608692 0.07643617 -0.10154492
-0.035139184 -0.09718248 0.070452675 0.03370119 -0.0313374 0.069416635 -0.04980047 -0.07769044
-0.06971646 0.022257306 0.06413912 -0.0019529605 0.091721356 -0.012301168 0.034750562 0.10359249
0.05632958 0.021690598 -0.06847836 0.06261201 -0.054819513 -0.10331785 -0.060505807 0.048181772
0.006252988 0.031370237 -0.04863325 -0.09174104 0.022336466 -0.08526128 0.018619329 -0.06642691
0.0006987583 0.049686875 -0.098203726 0.025576798 -0.06851441 -0.02921754 -0.13073803 -0.0700985
0.009504198 0.032187007 -0.09357705 -0.022660712 0.03330142 0.04248929 -0.03623911 0.055997226
0.058711804 -0.11031487 0.05189752 -0.017166436 -0.020293472 -0.053853642 -0.05136986 0.010310185
-0.034510806 0.018031519 -0.020027177 -0.058499783 0.094963655 -0.09321184 -0.030337082 0.058534157
0.051191382 0.018668424 0.03265114 -0.07590511 0.045690358 -0.017215516 0.06200978 -0.017466411
0.046689395 0.028373186 0.041058976 -0.021352254 -0.06383522 0.040661916 0.025609244 -0.04896271
-0.048130415 0.03002236 -0.0850964 -0.053148914 0.011132076 0.08336986 -0.08937246 -0.015365161
-0.065053016 -0.009403877 0.078172885 -0.067792214 0.059526198 0.021632351 0.011584789 0.058164664
0.043665297 0.028028056 0.012508877 -0.057480365 -0.11067932 0.059231095 -0.032291524 -0.079961956
-0.028886806 -0.062233426 0.07205465 0.065287136 -0.10539157 0.035899937 -0.036068935 0.08448107
0.008334994 -0.0054255202 0.034782864 -0.07581038 -0.035058316 0.073005594 0.07571981 -0.04229525
0.06651121 -0.07253766 -0.06965566 -0.044652343 -0.10947981 0.04926626 -0.012973905 -0.04710081
0.027067982 -0.041628167 0.05198986 0.050712563 -0.06517715 0.019595355 -0.044492256 0.04346121
-0.061496634 0.0014308542 0.026695527 -0.07021652 0.027208202 -0.033916507 0.032797985 -0.03749429
-0.019197002 -0.08461555 -0.038715135 0.066559486 0.031138629 -0.093234 -0.07362145 0.06695395
-0.03802395 -0.07030158 -0.03620523 0.019677034 0.010727882 -0.045184445 0.0438172 0.061450765
0.019884303 -0.09300581 -0.024161175 -0.08799469 0.075428195 -0.05784405 -0.0025474802 -0.07860168
-0.029359898 -0.062490627 -0.069824174 -0.06372083 0.037631743 -0.08838796 0.046913218 0.038113154
0.047392733 0.05594734 -0.020169158 -0.022513494 -0.081500836 -0.052519713 -0.060402416 -0.10769225
-0.036635473 -0.0018188879 -0.029374862 0.013760179 -0.060762435 0.025739413 -0.08212981 0.030195348
-0.035149682 0.048854616 -0.073149115 0.08245406 -0.06433964 -0.084647164 -0.009069331 -0.061513916
0.008979641 -0.06317679 -0.009317055 -0.011321224 -0.031293847 0.014350668 -0.050218623 0.051577576
00000000: efaf d13c c48e db3c d94c 5cbd 76ff b7bd
00000010: 3899 c53a 5030 be3d aec2 4b3c 9489 7d3d
00000020: 51bf 62bd 6703 8a3d b917 b93d dc97 463d
00000030: 0289 7bbd e0f0 633d 4415 9dbd 09d7 5bbd
00000040: d254 3d3d 268e 523d 4878 1d3d a8b7 9ebd
00000050: 28ff e0bd c5c1 d03c 730c 79bd 2ea0 573d
00000060: 7fc9 0dbc dee8 113d 675e 7c3b 766f 08bd
00000070: cf4d 4dbd 0e92 07bd d67a a9bc 03f1 bfbd
00000080: 9038 c93c 155b 9a3c 246d c0bd 61b1 15bd
00000090: 14f2 bebd 9aba 833c f360 4abd 055d 4d3d
000000a0: 190c 8abd e8d3 74bd a7dc 9f3d 05df 79bc
000000b0: b6e0 d43c 574e b0bd 918a 9c3d c8f6 cfbd
000000c0: 1bee 0fbd 9c07 c7bd 7e49 903d 420a 0a3d
000000d0: a55b 00bd 4f2a 8e3d 94fb 4bbd 2a1c 9fbd
000000e0: 81c7 8ebd f454 b63c 5f5b 833d 7bfa ffba
000000f0: 68d8 bb3d d78a 49bc 9b56 0e3d 4d28 d43d
00000100: d8b9 663d 7bb0 b13c 623e 8cbd ba3a 803d
00000110: 6d8a 60bd 4f98 d3bd f0d4 77bd 405a 453d
00000120: dde5 cc3b 147e 003d a933 47bd bae2 bbbd
00000130: f7fa b63c 779d aebd 9087 983c d50a 88bd
00000140: e02c 373a 7784 4b3d 091f c9bd 6f86 d13c
00000150: 4851 8cbd 9f59 efbc 31e0 05be cd8f 8fbd
00000160: 7fb7 1b3c 86d6 033d 53a5 bfbd f5a2 b9bc
00000170: 1267 083d 4009 2e3d 766f 14bd 595d 653d
00000180: ca7b 703d c3ec e1bd 7e92 543d a0a0 8cbc
00000190: 7f3e a6bc a395 5cbd 3469 52bd 0dec 283c
000001a0: 345b 0dbd d6b6 933c 0910 a4bc 789d 6fbd
000001b0: 4e7c c23d d9e5 bebd 7985 f8bc 83c1 6f3d
000001c0: 0eae 513d 86ee 983c 34bd 053d 2374 9bbd
000001d0: d025 3b3d 8e07 8dbc f8fd 7d3d b815 8fbc
000001e0: 613d 3f3d e26e e83c 752d 283d ecea aebc
000001f0: 0abc 82bd 1c8d 263d 7aca d13c 1f8d 48bd
00000200: 6624 45bd 74f1 f53c 0547 aebd adb2 59bd
00000210: 5063 363c d1bd aa3d e908 b7bd 28be 7bbc
00000220: 843a 85bd b812 1abc 1b19 a03d a5d6 8abd
00000230: bed1 733d 5436 b13c 20ce 3d3c 123e 6e3d
00000240: 62da 323d 189b e53c 08f2 4c3c 8870 6bbd
00000250: d7ab e2bd 4e9c 723d 1e44 04bd 18c3 a3bd
00000260: 06a4 ecbc 7ae8 7ebd 6391 933d 43b5 853d
00000270: 89d7 d7bd d00b 133d 05bd 13bd 6904 ad3d
00000280: 808f 083c 90c8 b1bb 7a78 0e3d 7942 9bbd
00000290: 4f99 0fbd f583 953d fd12 9b3d c93d 2dbd
000002a0: 0737 883d a08e 94bd a0a7 8ebd 60e5 36bd
000002b0: f336 e0bd 6bcb 493d 8090 54bc c7ec 40bd
000002c0: acbd dd3c 4c82 2abd 52f3 543d fab7 4f3d
000002d0: 997b 85bd 7086 a03c 833d 36bd 6204 323d
000002e0: e5e3 7bbd 808b bb3a 94b0 da3c aecd 8fbd
000002f0: bce3 de3c 09ec 0abd 2e57 063d 9d93 19bd
00000300: 0843 9dbc eb4a adbd c393 1ebd 5750 883d
00000310: 7016 ff3c 78f1 bebd d8c6 96bd 271f 893d
00000320: 00bf 1bbd 46fa 8fbd ef4b 14bd bb31 a13c
00000330: 00c4 2f3c 5313 39bd aa79 333d ccb3 7b3d
00000340: 68e4 a23c d579 bebd a8ed c5bc 8f36 b4bd
00000350: 197a 9a3d e2ed 6cbd a0f3 26bb ebf9 a0bd
00000360: 2b84 f0bc 2cf6 7fbd faff 8ebd 1180 82bd
00000370: be23 1a3d bf04 b5bd 1328 403d 8a1c 1c3d
00000380: e21e 423d 0a29 653d ca39 a5bc 386e b8bc
00000390: e9e9 a6bd e91e 57bd 8668 77bd c18d dcbd
000003a0: 140f 16bd c067 eeba 8da3 f0bc 6072 613c
000003b0: 08e2 78bd 76db d23c ac33 a8bd 3c5c f73c
000003c0: 1df9 0fbd c71b 483d 34cf 95bd addd a83d
000003d0: 80c4 83bd 7e5b adbd 8897 14bc 04f6 7bbd
000003e0: 581f 133c d562 81bd 90a6 18bc a87c 39bc
000003f0: fa2d 00bd 101f 6b3c 0bb2 4dbd 0243 533d

network.2.bias f4 [64]
0.08286796 -0.009880533 0.04936739 -0.07601124 0.21878445 -0.048110068 0.031003043 -0.06755321
-0.020157047 0.112571105 -0.028196637 -0.23805436 -0.03802615 -0.11044609 -0.16667321 -0.10143664
0.38657004 -0.086879015 0.009144077 0.051676966 0.009338788 0.052500423 0.10244535 -0.048352756
-0.022859233 -0.08022749 0.0089694215 0.040741686 -0.011441615 -0.09897114 -0.05227462 0.024104094
0.0332125 -0.064442314 -0.035714142 -0.11322774 0.035437223 -0.08180939 0.17606021 -0.09110379
0.0872068 0.027495617 -0.030863438 0.013704861 -0.04842394 0.29997858 0.080450274 -0.13055979
0.15144579 0.07470141 0.10950389 -0.14466305 -0.084891535 0.034538087 0.041608173 0.0019517005
-0.14445287 0.25639036 -0.19208023 0.17558365 0.080260314 -0.052859053 0.0048497575 -0.0526403
00000000: adb6 a93d f6e1 21bc 7635 4a3d c8ab 9bbd
00000010: 0809 603e 100f 45bd 18fa fd3c 5659 8abd
00000020: 6420 a5bc ae8b e63d a2fc e6bc 86c4 73be
00000030: 4fc1 1bbd 8f31 e2bd 62ac 2abe 03be cfbd
00000040: 82ec c53e a0ed b1bd 0ad1 153c 3aab 533d
00000050: b701 193c af0a 573d dece d13d 8a0d 46bd
00000060: 4943 bbbc 4f4e a4bd 7bf4 123c c1e0 263d
00000070: 9d75 3bbc 62b1 cabd e91d 56bd f375 c53c
00000080: d509 083d 55fa 83bd fe48 12bd f2e3 e7bd
00000090: 9f26 113d ae8b a7bd 2149 343e a094 babd
000000a0: 7b99 b23d 7d3e e13c 52d5 fcbc 5a8a 603c
000000b0: 2e58 46bd cb96 993e 1dc3 a43d 77b1 05be
000000c0: 9b14 1b3e 0efd 983d 9343 e03d 8d22 14be
000000d0: 9ddb adbd cf77 0d3d 556d 2a3d 34d0 ff3a
000000e0: 74eb 13be 9945 833e aeb0 44be 33cc 333e
000000f0: 855f a43d bc82 58bd b7ea 9e3b 5b9d 57bd

network.4.weight f4 [1, 64]
0.003609176 -0.0802465 -0.08705263 0.051803328 -0.111693494 -0.0040364033 0.07462044 -0.022050235
0.10832629 -0.0016692354 -0.014213646 0.008661652 0.015449539 0.0754106 -0.00033711822 -0.05292144
0.04509283 -0.0338549 0.010501102 -0.00040404775 0.062313613 -0.009801574 -0.00031092265 0.02980493
-0.0054918737 0.0021781672 0.012238381 -0.039348073 -0.07948985 -0.0012125067 0.0051111584 -0.0028467153
-0.0014503088 0.06389143 0.040925715 0.01572742 -0.0005001726 -0.065313496 -0.02134135 0.018275239
0.005047959 -0.0050887777 0.059284896 0.006931789 -0.0054258783 -0.079048 0.00062484207 -0.036101557
-0.039032143 0.003022848 -0.004840478 0.008922481 -0.024383642 0.0822491 0.010217506 -0.01401705
0.002462182 -0.036871728 0.003920678 -0.027586745 0.017947182 -0.011331931 0.004087113 -0.006027254
00000000: ed87 6c3b 4758 a4bd a648 b2bd ba2f 543d
00000010: 8fbf e4bd ce43 84bb 9ad2 983d b2a2 b4bc
00000020: 2dda dd3d 3fca daba 5ae0 68bc 9ae9 0d3c
00000030: 1020 7d3c df70 9a3d 3ebf b0b9 27c4 58bd
00000040: 42b3 383d 70ab 0abd d00c 2c3c 5fd6 d3b9
00000050: 8f3c 7f3d c896 20bc 5503 a3b9 7829 f43c
00000060: 2df5 b3bb 95bf 0e3b 7e83 483c 722b 21bd
00000070: 93cb a2bd f9ec 9eba 817b a73b f58f 3abb
00000080: 4a18 beba 83d9 823d b9a1 273d cad6 803c
00000090: 041e 03ba 15c3 85bd 0ed4 aebc f4b5 953c
000000a0: 5969 a53b c3bf a6bb b8d4 723d 1024 e33b
000000b0: 91cb b1bb ebe3 a1bd 71cc 233a 3adf 13bd
000000c0: 2be0 1fbd f91a 463b df9c 9ebb 992f 123c
000000d0: 34c0 c7bc 3772 a83d 5467 273c c5a7 65bc
000000e0: 8f5c 213b cf06 17bd 0879 803b 99fd e1bc
000000f0: f805 933c 90a9 39bc 30ed 853b 4580 c5bb

exp_avg f4 [128, 22]
-0.00023842444 0.002700929 -1.3325451e-06 8.714628e-07 7.8146186e-05 7.643122e-05 9.1949376e-05 -1.4675689e-05
9.196294e-05 -1.2918477e-07 -1.4560068e-05 -8.791273e-07 -0.00025688313 0.0029908614 -4.3359496e-08 -0.00027685243
0.0032742487 -3.9868814e-07 -0.00018695623 2.3634324e-05 0.0006355577 1.3379802e-05 0.00037040302 -0.00086923665
-1.5071365e-06 3.1406572e-07 7.8754565e-06 6.592136e-06 5.6974633e-05 -4.9414295e-05 6.001352e-05 -2.5005917e-07
-5.220313e-05 -7.530873e-07 0.00039885455 -0.000750304 -5.9801334e-07 0.00042944946 -0.0003283925 -4.1588225e-07
-0.00011684365 2.1839928e-06 0.00017515919 5.0481513e-06 -1.934366e-17 -1.6077071e-18 3.0722899e-22 -8.810315e-22
-3.9570046e-20 -3.8498983e-20 -3.866948e-20 -1.4763325e-36 -3.866948e-20 0.0 -1.4763325e-36 1.4771733e-21
-2.0831513e-17 -8.796239e-19 -2.2621643e-22 -7.9537945e-22 -7.361469e-19 3.3255748e-22 -3.866948e-20 -6.380323e-22
-2.8451934e-19 -7.733893e-21 -0.0006011834 -0.009463368 6.3973634e-06 -3.1039913e-06 -0.00027515044 -0.0002675048
-0.00025492534 -1.7111191e-05 -0.00025531402 5.7229744e-07 -1.72948e-05 1.3341968e-06 -0.0006470772 -0.010567948
1.8890723e-06 -0.0006962066 -0.011509779 2.1642954e-06 0.00024645016 -5.4794767e-05 -0.004069991 -6.62306e-05
0.00010737431 0.0073868246 -4.7112608e-06 2.416707e-06 0.00024619492 0.00024104002 0.0003839592 -0.0001401986
0.00037684597 -9.047228e-07 -0.00013218065 -4.3473808e-08 0.00011528534 0.008155492 -8.0327374e-07 0.00012340397
0.009275645 -2.4232468e-06 -0.00040959238 4.867955e-05 0.0012793891 5.4750955e-05 -2.3716402e-15 -1.9711382e-16
3.7667967e-20 -1.0801934e-19 -4.8515057e-18 -4.720187e-18 -4.7410895e-18 -5.607577e-36 -4.7410895e-18 0.0
-5.607577e-36 1.8110964e-19 -2.5540587e-15 -1.0784675e-16 -2.7735376e-20 -9.751791e-20 -9.0255695e-17 4.0773387e-20
-4.7410895e-18 -7.8226296e-20 -3.4883632e-17 -9.482181e-19 -3.2130743e-06 -0.0036390813 3.5214443e-06 -1.5175099e-06
-0.00010989153 -0.00010594223 -0.00011097457 2.6053365e-06 -0.00011918201 2.0636516e-07 1.0606417e-05 1.3817474e-06
-3.2817513e-06 -0.0039516073 8.722378e-07 -3.2310134e-06 -0.004895642 4.788635e-07 0.0002568293 -2.5474066e-05
-0.0014285629 -2.394142e-05 -6.3393593e-15 -5.2688234e-16 1.0068591e-19 -2.887342e-19 -1.2968006e-17 -1.2616991e-17
-1.2672865e-17 -1.13942775e-35 -1.2672865e-17 0.0 -1.13942775e-35 4.8410337e-19 -6.826963e-15 -2.8827281e-16
-7.413627e-20 -2.6066392e-19 -2.4125214e-16 1.0898666e-19 -1.2672865e-17 -2.0909778e-19 -9.3243465e-17 -2.5345728e-18
6.5978807e-06 0.0016422179 -2.5998384e-06 9.1705766e-07 7.032427e-05 6.758589e-05 8.064617e-05 -1.1239552e-05
7.8121535e-05 -2.5311238e-07 -8.461819e-06 -4.9604034e-07 6.9966427e-06 0.0019784973 -8.07145e-07 7.331256e-06
0.0023303072 -1.1305526e-06 -0.000113741706 1.023777e-05 0.00089759234 2.0531832e-05 -0.00014408729 0.005268621
-4.4172634e-06 1.9021468e-06 0.00016385574 0.00015879089 0.00016311041 -1.1639559e-06 0.00015801018 -4.3123316e-07
4.367477e-06 -5.738741e-07 -0.00015538669 0.005935651 -1.4100168e-06 -0.00016778542 0.0066332235 -1.6333245e-06
-0.00014680203 1.6866104e-05 0.0024451646 4.4012675e-05 4.8936927e-05 0.004754061 -4.431722e-06 1.7896264e-06
0.00015307618 0.00014816984 0.00016393141 -1.2652569e-05 0.00015435852 -4.359196e-07 -2.6437676e-06 -3.8534463e-07
5.2493695e-05 0.005299712 -1.4211446e-06 5.610305e-05 0.005963827 -1.6248554e-06 -0.00019216737 1.3047001e-05
0.001991777 4.183905e-05 6e-45 6e-45 -6e-45 6e-45 6e-45 6e-45
6e-45 0.0 6e-45 0.0 0.0 -6e-45 6e-45 6e-45
00000000: 9301 7ab9 1202 313b e7d9 b2b5 78ee 6935
00000010: 6ae2 a338 b349 a038 f2d4 c038 9b37 76b7
00000020: 3adc c038 0ab6 0ab4 0447 74b7 2bfd 6bb5
00000030: 45ae 86b9 5402 443b 453a 3ab3 8126 91b9
00000040: c794 563b 480b d6b4 ae09 44b9 5342 c637
00000050: 8e9b 263a d079 6037 a732 c239 7cdd 63ba
00000060: d148 cab5 dd9c a834 d420 0437 0432 dd36
00000070: 0cf8 6e38 3242 4fb8 07b7 7b38 df3f 86b4
00000080: aff4 5ab8 c427 4ab5 5a1d d139 0db0 44ba
00000090: 2a87 20b5 bb27 e139 182c acb9 6c46 dfb4
000000a0: f509 f5b8 b690 1236 f0aa 3739 4a63 a936
000000b0: ed69 b2a3 7541 eda1 62b5 b91b 4123 859c
000000c0: 40dd 3a9f 6ace 359f 889c 369f 592f fb83
000000d0: 889c 369f 0000 0000 592f fb83 6039 df1c
000000e0: 0523 c0a3 40cf 81a1 4cbd 889b 8163 709c
000000f0: b045 59a1 c704 c91b 889c 369f 5cd5 409c
00000100: 59f3 a7a0 d016 129e bc98 1dba 3e0c 1bbc
00000110: efa8 d636 2a4e 50b6 1142 90b9 e33f 8cb9
00000120: 80a7 85b9 018a 8fb7 abdb 85b9 fb9f 1935
00000130: 4d14 91b7 a712 b335 9ea0 29ba 3025 2dbc
00000140: 088c fd35 a281 36ba 8393 3cbc 503e 1136
00000150: fb35 8139 6fd3 65b8 8f5d 85bb 48e5 8ab8
00000160: 252e e138 2d0d f23b 6c15 9eb6 b62e 2236
00000170: b913 8139 b0bf 7c39 224e c939 4602 13b9
00000180: 6993 c539 14dc 72b5 f999 0ab9 f5b7 3ab3
00000190: 58c5 f138 9d9e 053c 8da0 57b5 0066 0139
000001a0: e0f8 173c 109f 22b6 8fbe d6b9 452d 4c38
000001b0: 2db1 a73a 64a4 6538 0ae5 2aa7 bb41 63a5
000001c0: c7e1 311f af0d ff9f 2dfd b2a2 e824 aea2
000001d0: 53ea aea2 1b85 ee84 53ea aea2 0000 0000
000001e0: 1b85 ee84 08d1 5520 110a 38a7 7cad f8a4
000001f0: 03fa 029f f641 e69f 8f1d d0a4 008c 401f
00000200: 53ea aea2 e5b4 b89f 53df 20a4 abee 8ba1
00000210: 32a0 57b6 a77d 6ebb f451 6c36 3ead cbb5
00000220: 9175 e6b8 4d2d deb8 05bb e8b8 57d7 2e36
00000230: 5bf1 f9b8 3995 5d34 37f2 3137 7b74 b935
00000240: 0f3c 5cb6 7c7c 81bb ba23 6a35 63d4 58b6
00000250: 9f6b a0bb 408b 0035 0ca7 8639 24b1 d5b7
00000260: 9e3e bbba cfd5 c8b7 4566 e4a7 0edd 17a6
00000270: e6bc ed1f 4770 aaa0 ad37 6fa3 0ebe 68a3
00000280: eac5 69a3 5954 7285 eac5 69a3 0000 0000
00000290: 5954 7285 d1e1 0e21 9ff7 f5a7 8f2d a6a5
000002a0: a00c af9f 6bde 99a0 8812 8ba5 32ab 0020
000002b0: eac5 69a3 eddb 76a0 3a01 d7a4 ba04 3ba2
000002c0: 5d63 dd36 b03f d73a e278 2eb6 b92b 7635
000002d0: 0e7b 9338 e6bc 8d38 9520 a938 8291 3cb7
000002e0: 2ed5 a338 80e3 87b4 3cf7 0db7 a227 05b5
000002f0: b4c4 ea36 ada9 013b 95aa 58b5 02ff f536
00000300: 11b8 183b 7ebd 97b5 9d88 eeb8 e3c2 2b37
00000310: 674c 6b3a c63b ac37 2316 17b9 65a4 ac3b
00000320: 0138 94b6 444d ff35 b1d0 2b39 1b81 2639
00000330: 9e08 2b39 3839 9cb5 89af 2539 3c84 e7b4
00000340: 578c 9236 540c 1ab5 4cef 22b9 d97f c23b
00000350: cf3f bdb5 8eef 2fb9 835b d93b 9a38 dbb5
00000360: dfee 19b9 af7b 8d37 0e3f 203b 409a 3838
00000370: a041 4d38 f4c7 9b3b 34b4 94b6 1833 f035
00000380: 1383 2039 0a5e 1b39 01e5 2b39 5f46 54b7
00000390: 4ddb 2139 5508 eab4 956b 31b6 5de1 ceb4
000003a0: ad2c 5c38 35a9 ad3b 28be beb5 3150 6b38
000003b0: 356c c33b 9b15 dab5 8980 49b9 71e4 5a37
000003c0: 7988 023b 567c 2f38 0400 0000 0400 0000
000003d0: 0400 0080 0400 0000 0400 0000 0400 0000
000003e0: 0400 0000 0000 0000 0400 0000 0000 0000
000003f0: 0000 0000 0400 0080 0400 0000 0400 0000
