models/rl/ppo/ppo_20250315_232105/ppo_episode_3.pt (torch, 286334 bytes, 33 tensors)

network.0.weight f4 [128, 22]
0	0x3e1ec64a	0.15505329
1	0x3e24f3d6	0.16108641
2	0xbd5ba7c8	-0.053626806
3	0x3e5adb2b	0.21372668
4	0xbd19b058	-0.03752169
5	0x3d1fd954	0.03902562
6	0xbdd43bda	-0.10362978
7	0x3dbb5bc1	0.0914836
8	0x3e471120	0.19440126
9	0xbeac4050	-0.33642817
10	0x3e100965	0.14066084
11	0x3d56ae9a	0.052412607
12	0x3e18ac56	0.14909491
13	0x3be8cf21	0.00710477
14	0x3da52726	0.080641076
15	0xbd04e254	-0.032442406
16	0x3e164a8f	0.1467688
17	0xbd8b9bad	-0.06816802
18	0xbe139f7e	-0.1441631
19	0x3d62c1ee	0.055360727
20	0xbdd22888	-0.10261637
21	0x3cbbfc7f	0.022947548
22	0xbdd57eda	-0.10424586
23	0x3de3aeba	0.11117311
24	0xbe182685	-0.14858444
25	0xbe1ef134	-0.15521699
26	0xbdb1bf47	-0.086790614
27	0xbe1e18b9	-0.15439118
28	0xbc17be06	-0.009261614
29	0xbe6412a4	-0.22272736
30	0x3e21c0be	0.15796182
31	0xbe21e004	-0.15808111
32	0x3e276f7a	0.16351119
33	0x3dee50eb	0.11636528
34	0xbdb1e939	-0.08687062
35	0x3dca02e8	0.098638356
36	0xbd62b0a6	-0.055344246
37	0x3e1e5683	0.15462689
38	0xbbf72996	-0.007542799
39	0xbdd2fd1a	-0.103021815
40	0xbcc44944	-0.023960717
41	0xbd3f84ac	-0.046757385
42	0x3d91fac9	0.071279116
43	0x3e72a6ca	0.23696437
44	0x3ded866e	0.11597906
45	0xbdda2640	-0.10651827
46	0x3e0987f4	0.13430768
47	0x3d039b2b	0.0321304
48	0x3dcbdf58	0.09954709
49	0xbe15718c	-0.14594096
50	0xbe695c21	-0.2278905
51	0xbdabef9e	-0.08395313
52	0xbe36819d	-0.17822881
53	0x3e332356	0.17493948
54	0x3d680e60	0.056654334
55	0x3db190fb	0.08670231
56	0x3d7308cf	0.059334572
57	0xbc848911	-0.01617864
58	0x3e26af73	0.16277866
59	0xbe1dcc39	-0.15409936
60	0xba8bd8d3	-0.0010669477
61	0xbe199f60	-0.15002203
62	0x3d90553d	0.07047508
63	0xbd8823c2	-0.06647445
64	0x3d598401	0.053104404
65	0xbd54352b	-0.051808517
66	0x3e2d4069	0.16919102
67	0xbe0f4505	-0.13991173
68	0xbe2e1b18	-0.17002523
69	0xbe00174e	-0.1250889
70	0x3e429577	0.19002329
71	0x3d9ad4ec	0.07560143
72	0x3e78e802	0.24307254
73	0xbe63be57	-0.22240578
74	0xbe2254d0	-0.15852666
75	0xbe95986f	-0.2921786
76	0xbe619370	-0.22028899
77	0xbd252a4a	-0.040323533
78	0x3d8d7f66	0.06909065
79	0x3e298b61	0.16557075
80	0xbd163f17	-0.03668126
81	0xbe218b2d	-0.15775748
82	0x3dca77df	0.09886145
83	0xbddb12e6	-0.10696964
84	0x3e6905a8	0.22756064
85	0xbd210ae2	-0.03931702
86	0x3de96c09	0.11397559
87	0xbe455c08	-0.19273388
88	0xbd68c9be	-0.05683302
89	0x3d708b37	0.058726516
90	0x3d64cc79	0.055859063
91	0xbd7dca7b	-0.06196068
92	0x3def1107	0.116731696
93	0x3e0f26c7	0.13979636
94	0xbe2bc1ad	-0.167731
95	0xbde4b7af	-0.11167847
96	0x3e3476b1	0.17623402
97	0xbd2d7401	-0.042346958
98	0xbd7f65fd	-0.062353123
99	0xbde67c4f	-0.11254179
100	0xbd89b5ed	-0.06724153
101	0x3d24fb04	0.04027845
102	0xbdd12a06	-0.102130935
103	0xbdcc241c	-0.09967825
104	0xbb955170	-0.0045568272
105	0xbe5c6d4d	-0.2152607
106	0xbe8e0305	-0.2773668
107	0xbdfcb0d6	-0.12338416
108	0xbe3dabe1	-0.18522598
109	0xbd94ff26	-0.07275228
110	0x3e5208bb	0.20511143
111	0x3c1e142e	0.009648366
112	0x3d8a18a6	0.067429826
113	0xbe55d8a6	-0.20883426
114	0xbe2cd61b	-0.1687855
115	0xbdcca6b3	-0.09992733
116	0x3c197911	0.009367243
117	0xbe4e4072	-0.20141771
118	0xbde47b23	-0.11156299
119	0xbe02b329	-0.12763657
120	0xbcade122	-0.021225516
121	0xbdb3b5f9	-0.08774943
122	0xbcba9c4b	-0.022779604
123	0xbe36956a	-0.17830434
124	0xbe185879	-0.148775
125	0xbe121c15	-0.14268525
126	0xbddc8a98	-0.10768622
127	0xbe362830	-0.17788768
128	0x3e42851b	0.18996088
129	0xbcec259b	-0.028826525
130	0x3e20ded8	0.15710008
131	0x3d0db07b	0.034592133
132	0xbe4e7c7c	-0.20164675
133	0x3e0d13f1	0.13777138
134	0xbd534377	-0.05157801
135	0xbd6c535f	-0.057696696
136	0xbe45d582	-0.19319728
137	0xbe6a2f40	-0.22869587
138	0x3d5a06d2	0.05322916
139	0xbd3dcb5c	-0.046336517
140	0x3d95935a	0.07303496
141	0xbd18fc95	-0.037350256
142	0x3e25b4e9	0.16182293
143	0xbe5e5932	-0.21713713
144	0xbd6cf644	-0.057852045
145	0x3d215eff	0.039397236
146	0x3e3c5390	0.18391252
147	0x3e1ab55c	0.15108246
148	0x3e3faa5a	0.18717328
149	0xbda1143a	-0.07865186
150	0x3e04b2f6	0.12958893
151	0xbd9e6004	-0.07733157
152	0xbd131f72	-0.03591866
153	0xbe847081	-0.25867084
154	0x3e3e42c6	0.1858016
155	0xbe27455f	-0.16335057
156	0x3decd6ac	0.11564383
157	0x3d82f754	0.0639483
158	0x3d64c323	0.05585016
159	0xbdf9aff5	-0.12191764
160	0x3e3ea49c	0.18617481
161	0x3d32a973	0.04361863
162	0x3ca24c01	0.019811632
163	0xbe4064b4	-0.18788415
164	0x3db0acb4	0.086266905
165	0xbce16343	-0.027513152
166	0xbdd3470a	-0.10316284
167	0x3e33dad6	0.17563948
168	0x3d3cde47	0.046110418
169	0xbdf7e7b9	-0.121047445
170	0xbdeca9a9	-0.115557976
171	0xbc04296c	-0.008066516
172	0x3dea03f7	0.114265375
173	0xbd4bb246	-0.04973056
174	0xbe046098	-0.12927473
175	0xbda6b2b1	-0.081395514
176	0xbdf26f25	-0.118376054
177	0x3d386794	0.045020655
178	0x3e3f9f1e	0.18713042
179	0xbe6385ca	-0.22219005
180	0x3c9160ee	0.017746415
181	0x3da097af	0.07841431
182	0x3c97eb3e	0.01854479
183	0xbde3db59	-0.111258216
184	0x3db00e7f	0.08596515
185	0x3e19f418	0.1503452
186	0x3d4a36c7	0.049368646
187	0x3d2b9507	0.04189017
188	0xbc7e6d32	-0.015528964
189	0xbc2bcb01	-0.010485412
190	0xbddc4203	-0.10754778
191	0xbcb8c194	-0.022553243
192	0x3dd4c5a6	0.10389261
193	0x3df348af	0.11879098
194	0xbde5ccf0	-0.11220729
195	0xbd2bb029	-0.041916046
196	0xbc9bcffe	-0.019020077
197	0xbc841e0c	-0.016127609
198	0x3d6d3ceb	0.057919424
199	0x3d591e09	0.05300716
200	0xbe204a4e	-0.15653345
201	0xbdccbfa8	-0.09997493
202	0x3e1cbb5f	0.15305851
203	0x3d7836a1	0.060598973
204	0xbd5a2f95	-0.053268034
205	0xbdbb6bda	-0.091514304
206	0xbe3f2735	-0.186673
207	0xbd4f4fc7	-0.05061319
208	0xbbdccda2	-0.0067383805
209	0x3e06edd0	0.13176656
210	0x3e123e15	0.14281495
211	0x3dbfb829	0.09361298
212	0xbe6082ea	-0.2192494
213	0xbe06b6f8	-0.13155735
214	0xbd1eb995	-0.038751204
215	0x3e96f12f	0.29480883
216	0xbc629a14	-0.01383068
217	0xbd454ec4	-0.04817082
218	0x3d9dba9d	0.07701609
219	0xbde638c2	-0.112412944
220	0xbe199195	-0.14996941
221	0x3e120168	0.14258349
222	0xbd763902	-0.06011296
223	0xbd84ed5d	-0.06490586
224	0xbe77cd30	-0.24199367
225	0x3de77d38	0.113031805
226	0x3df159cf	0.11784708
227	0x3de0cf62	0.10977055
228	0xbe51e213	-0.20496397
229	0xbd0d8718	-0.034552664
230	0xbdf39fb1	-0.11895693
231	0x3e49fe9f	0.19726036
232	0x3db92cc5	0.09041742
233	0x3e2dd177	0.16974436
234	0x3de9ae0a	0.114101484
235	0x3d2c13d3	0.042011093
236	0xbc4662b8	-0.012108497
237	0xbd78d725	-0.060752053
238	0xbe4d87e0	-0.20071363
239	0xbe3f4ee5	-0.1868244
240	0x3d8fd59a	0.07023163
241	0xbe34cd3b	-0.17656414
242	0xbd2fbf74	-0.042907193
243	0xbdfb4929	-0.122698136
244	0xbd1f2160	-0.03885019
245	0xbe19a8d5	-0.1500581
246	0xbe0ea6f0	-0.13930869
247	0x3d90d628	0.07072097
248	0xbd81c430	-0.06336248
249	0x3e06c6e0	0.13161802
250	0xbd8c138c	-0.06839666
251	0xbe20268d	-0.15639706
252	0xbd1a1430	-0.03761691
253	0xbdd3a860	-0.10334849
254	0xbd8595b8	-0.06522697
255	0xbe4fd65c	-0.20296615

network.0.bias f4 [128]
0	0x3e151175	0.1455744
1	0xbe0ca66c	-0.1373536
2	0xbde37347	-0.11105972
3	0x3e2d0767	0.16897355
4	0x3d9fb710	0.07798588
5	0xbe19aa90	-0.1500647
6	0x3d44614e	0.04794436
7	0x3dce80d4	0.10083166
8	0xbe627fa4	-0.22119004
9	0x3c8b9dd1	0.017043026
10	0x3c9a32b6	0.018823009
11	0xbc080ba0	-0.008303553
12	0x3e37cd4b	0.17949407
13	0xbe1209e5	-0.14261587
14	0x3decb504	0.115579635
15	0xbdd40d89	-0.10354144
16	0xbe33f798	-0.17574918
17	0x3e1a35a3	0.15059523
18	0xbdd874dc	-0.10569164
19	0xbc2e78dd	-0.010648933
20	0x3dc940c6	0.09826808
21	0xbe363881	-0.17794992
22	0xbe2d865d	-0.16945787
23	0x3d7a13b2	0.06105394
24	0x3e298543	0.16554742
25	0xbc9dfdcf	-0.019286064
26	0x3e209266	0.15680847
27	0x3db09394	0.08621898
28	0x3d55ac99	0.052166555
29	0xbe0e7ac7	-0.13914023
30	0x3e304668	0.17214358
31	0x3db10a1e	0.08644508
32	0x3c8e1844	0.017345555
33	0x3e058553	0.1303914
34	0xbe44cbea	-0.19218412
35	0x3d3fb198	0.046800226
36	0xbde7fb49	-0.11327226
37	0xbd1deb89	-0.038554702
38	0x3d7be911	0.061501566
39	0x3d7515fe	0.059835427
40	0x3d969447	0.073525004
41	0xbe3eedba	-0.18645373
42	0xbe0aee17	-0.13567387
43	0xbabffef8	-0.001464813
44	0xbd51108a	-0.051041164
45	0xbe4a0872	-0.19729784
46	0x3e53ccc5	0.20683582
47	0xbc6b2e89	-0.014354357
48	0xbe2e526a	-0.17023626
49	0x3d87dfe7	0.06634503
50	0x3d7fbeb8	0.062437743
51	0xbdf5c027	-0.11999541
52	0x3ddc6bf8	0.10762781
53	0xbded3ef2	-0.115842715
54	0x3da8485f	0.08216929
55	0x3e4ed45d	0.20198198
56	0x3e0678e1	0.13132049
57	0x3dcb40f6	0.099245
58	0xbd6225a1	-0.055211667
59	0x3d640592	0.055669375
60	0x3daa530f	0.083166234
61	0x3cf3dc0c	0.029768012
62	0xbc9f9020	-0.019477904
63	0x3cf3b098	0.029747292
64	0xbdc71de2	-0.097224966
65	0xbde0ba6e	-0.10973059
66	0xbe64a870	-0.22329879
67	0xbe30ff9e	-0.1728501
68	0xbe24b683	-0.16085248
69	0x3e5eec0d	0.21769734
70	0x3ce7355d	0.028223688
71	0xbe557633	-0.2084587
72	0xbdff182b	-0.124557815
73	0x3d77bf49	0.060485158
74	0xbdaa818d	-0.08325491
75	0xbd8db437	-0.06919139
76	0xbd8d0fdf	-0.06887793
77	0xbd5bf039	-0.05369589
78	0xb97b718a	-0.00023979522
79	0x3c27e178	0.010246627
80	0x3e0aeb8d	0.13566418
81	0x3e070121	0.13184024
82	0x3e0cd3be	0.13752648
83	0xbd713ae0	-0.05889404
84	0xbdb0d2a4	-0.086339265
85	0xbc9d755c	-0.019221
86	0xbe184c52	-0.14872864
87	0x3d88144e	0.06644498
88	0xbdaaee2d	-0.0834621
89	0xbdcc12c6	-0.09964518
90	0xbe56ffc5	-0.20996006
91	0x3dbf3014	0.09335342
92	0x3d8e3d76	0.069453165
93	0x3e53bd85	0.20677765
94	0xbd8b3ffb	-0.06799313
95	0x3c858550	0.01629892
96	0xbd1c8bdd	-0.03821932
97	0xbdc30bf9	-0.09523768
98	0xbdea9059	-0.114533134
99	0x3df89c67	0.121392064
100	0xbdf5d506	-0.120035216
101	0x3dfdf269	0.12399752
102	0x3da310a9	0.07962162
103	0x3d8cf615	0.06882874
104	0x3dff39c8	0.12462193
105	0x3db4fa71	0.088368304
106	0x3dc0d970	0.09416473
107	0x3dbad28a	0.091221884
108	0xbdb94b1f	-0.09047531
109	0xbde78a1b	-0.113056384
110	0xbd0b99a6	-0.034082077
111	0x3db1185e	0.08647226
112	0x3e117d18	0.14207876
113	0x3e1aab03	0.15104298
114	0xbdb21a6e	-0.08696447
115	0x3c000318	0.007813238
116	0xbe1fa1c3	-0.15589051
117	0x3dfcb00a	0.12338264
118	0xbe27dd96	-0.16393122
119	0xbdbe4f39	-0.09292454
120	0x3e344772	0.17605379
121	0x3d93ee9c	0.072232455
122	0xbddc0845	-0.10743765
123	0xbe3e398e	-0.18576643
124	0xbe2eedad	-0.17082854
125	0x3e1cc914	0.1531108
126	0xbe478b0d	-0.19486637
127	0x3e36ef63	0.17864756

network.2.weight f4 [64, 128]
0	0x3d86cb46	0.0658174
1	0xbaf46cab	-0.0018648108
2	0xba7cac83	-0.00096387434
3	0x3d86a243	0.06573918
4	0x3cede75e	0.029040989
5	0x3dbb2fea	0.09139998
6	0x3d828ed7	0.06374901
7	0xbd5e69bb	-0.05430005
8	0x3d4238ca	0.04741744
9	0x3d275deb	0.04086105
10	0xbd90b2ca	-0.07065351
11	0x3d2de082	0.042450435
12	0xbd5c3cb3	-0.053768825
13	0xbd65c20f	-0.05609327
14	0x3ad82280	0.0016489774
15	0xbc5a7d59	-0.013335549
16	0xbca4558c	-0.020060323
17	0xbd8691ca	-0.06570776
18	0x3d28f3f9	0.041248295
19	0x3db47d2b	0.088129364
20	0xbcfbccf3	-0.030737376
21	0xbd73eea8	-0.059553772
22	0xbc5161ff	-0.012779712
23	0xbd9d9769	-0.07694895
24	0xbd9fcc9d	-0.07802699
25	0xbd184413	-0.037174296
26	0x3d3fd876	0.046837293
27	0xbd39e974	-0.045388654
28	0xbcc47864	-0.023983188
29	0xbd3bfef2	-0.04589743
30	0xbdb4fcaf	-0.08837258
31	0xbcf99f3b	-0.030471435
32	0x3b2fd740	0.002683118
33	0xbc793ac1	-0.015211762
34	0x3d88ebfa	0.06685634
35	0x3cf82c37	0.03029452
36	0x3d81127c	0.06302354
37	0x3d30c4bc	0.04315637
38	0x3bb07c05	0.005385878
39	0x3d2e23e9	0.042514715
40	0xbd8167ab	-0.06318601
41	0x3d589ddf	0.052884933
42	0x3d4157ac	0.04720275
43	0xbcfd7ebe	-0.030944224
44	0x3aaea23e	0.0013323498
45	0xbd9a319a	-0.07528992
46	0xbd98099e	-0.07423709
47	0xbbd8f368	-0.006620813
48	0x3c4b25d4	0.012399156
49	0xbcd8455b	-0.026400259
50	0x3c94ec54	0.018179096
51	0xbd77597d	-0.060388077
52	0xbd4413e0	-0.047870517
53	0x3d8d7e92	0.06908907
54	0xbdc3fc01	-0.0956955
55	0x3ca8afaf	0.020591585
56	0x3d9bfeb6	0.07616942
57	0x3d6a136e	0.057147436
58	0x3ccc7148	0.02495636
59	0xbdb359b8	-0.08757347
60	0x3b966a70	0.004590325
61	0xbce9cad8	-0.028539106
62	0xbc9d0992	-0.019169603
63	0x3d8ab215	0.06772248
64	0xbd1b0854	-0.03784974
65	0xbd72f6b0	-0.05931729
66	0xbda016a7	-0.078168206
67	0x3d3d4472	0.046207853
68	0xbb9685dd	-0.0045935945
69	0x3db1def5	0.08685104
70	0x3c20cea2	0.00981489
71	0xbd98a80c	-0.074539274
72	0x3c67a106	0.014137512
73	0x3d9ceb64	0.07662085
74	0x3d4cd28e	0.050005488
75	0x3d0c9ae6	0.03432741
76	0xbd9cf3e7	-0.07663708
77	0xbd59d17b	-0.05317829
78	0x3d8b9993	0.06816401
79	0xbd86c6ed	-0.06580911
80	0x3ca52fb0	0.02016434
81	0xbc87f891	-0.016598018
82	0x3cb33d90	0.021879941
83	0x3c411cdc	0.011786666
84	0xbd752693	-0.05985124
85	0xbd207375	-0.03917261
86	0x3d94000c	0.072265714
87	0x3b2f091d	0.0026708313
88	0x3d51de68	0.051237494
89	0xbd16a04d	-0.03677397
90	0x3d9b1f27	0.07574301
91	0xbc35d1b4	-0.01109736
92	0xbcf4ec48	-0.029897824
93	0x3c4dd06f	0.0125619015
94	0xbd1f2903	-0.03885747
95	0xbd2a4d14	-0.041577414
96	0xbca8404d	-0.020538474
97	0xbba55a00	-0.005046129
98	0xbd4f62fc	-0.05063151
99	0x3cbe6fea	0.023246724
100	0xbda0cb3d	-0.078512646
101	0x3d7a448d	0.06110053
102	0x3db4ed04	0.0883427
103	0x3c00cbba	0.007861072
104	0xbce8d4c8	-0.028421775
105	0xbda6bedd	-0.08141873
106	0x3d08898c	0.0333343
107	0x3d83eef0	0.06442058
108	0x3d9ac20f	0.07556545
109	0x3c0121d0	0.007881597
110	0x3c610d26	0.013736045
111	0x3dad7457	0.08469456
112	0x3ca94281	0.020661594
113	0xbd175708	-0.036948234
114	0xbd9ef18a	-0.07760914
115	0x3cf04d5d	0.029333765
116	0x3d1fb791	0.038993422
117	0x3db0fdf6	0.08642189
118	0xbd49edcb	-0.049299043
119	0x3d3b6cf6	0.04575821
120	0xbcef9068	-0.029243663
121	0xbccf04b7	-0.025270803
122	0x3d3c019c	0.045899972
123	0xbdacc9ea	-0.084369496
124	0x3d9547d0	0.07289088
125	0x3cf4fab6	0.029904705
126	0xbd572aa5	-0.052530903
127	0x3d3db8a0	0.04631865
128	0xbcf5504c	-0.029945515
129	0x3b0dcc0b	0.0021636512
130	0xbccc6a39	-0.024952995
131	0xbdbc7922	-0.09202792
132	0xbc870f46	-0.016486775
133	0x3d2b5822	0.041832097
134	0xbc8deaac	-0.017323814
135	0xbd37858b	-0.04480509
136	0xbb5fa7d6	-0.0034127138
137	0x3c4058eb	0.01173995
138	0xbcfb4ef0	-0.030677289
139	0xbd8c60ab	-0.068543755
140	0xbd5b5f96	-0.053557955
141	0xbba619b4	-0.005068982
142	0x3d0262b8	0.031832427
143	0x3d8d3131	0.06894148
144	0xbb304dfd	-0.0026901953
145	0x3d01a006	0.03164675
146	0x3d323c04	0.043514267
147	0xbd1dde1a	-0.03854189
148	0xbd0f8cf4	-0.035046533
149	0x3d702472	0.058628507
150	0x3d80bd23	0.06286075
151	0x3c8dc06a	0.017303664
152	0xbd96a024	-0.07354763
153	0x3d4d7cfe	0.05016803
154	0xbda87e65	-0.08227233
155	0x3bbcc78a	0.0057610916
156	0xbc627116	-0.013820907
157	0x3ce9e33c	0.028550737
158	0xbdb628f7	-0.08894532
159	0xbd17d02b	-0.03706376
160	0x3d1476ba	0.03624604
161	0x3d8aa7ef	0.06770312
162	0xbc9285ca	-0.017886061
163	0x3d904123	0.07043674
164	0xbcacf30c	-0.021111988
165	0xbd6d5b4e	-0.057948403
166	0xbd3dc7bd	-0.046333063
167	0xb9b4cc26	-0.00034484378
168	0xbcac034f	-0.020997671
169	0x3d1dfdd2	0.03857214
170	0xbd4da89a	-0.05020962
171	0xbcd7a473	-0.026323533
172	0xbdbc52c4	-0.09195474
173	0x3d8a08fe	0.067399964
174	0xbcb7ed99	-0.022452163
175	0xbd9c5802	-0.07633974
176	0xbc0b5550	-0.008504227
177	0xbbacd333	-0.0052742003
178	0x3c98dd4e	0.018660214
179	0xbc64d4b6	-0.01396673
180	0x3d3b4696	0.045721613
181	0xbd078719	-0.033087824
182	0xbcff6997	-0.031178279
183	0xbc6f3615	-0.0146002965
184	0x3c69f4f0	0.014279589
185	0x3d7f6101	0.06234837
186	0xbc4bcddd	-0.012439218
187	0x3d769348	0.060199052
188	0x3d7bc0a6	0.06146302
189	0xbda7622a	-0.0817302
190	0xbb791b6e	-0.0038010734
191	0xbd2ae753	-0.041724514
192	0x3ceff6d7	0.029292507
193	0xbd266dc3	-0.04063202
194	0x3ca4e726	0.020129751
195	0xbbcdb8a9	-0.0062781167
196	0xbd815787	-0.06315523
197	0xbd8d6b11	-0.06905187
198	0xbdbcb84c	-0.09214839
199	0xbd5c0b92	-0.05372197
200	0x3cdcbabd	0.026944513
201	0xba1dd806	-0.00060212647
202	0x3d768faf	0.06019562
203	0xbda6b187	-0.081393294
204	0xbbf6918c	-0.0075246748
205	0xbd9e2ebf	-0.0772376
206	0xbb7e5bde	-0.0038812081
207	0x3cd45b20	0.025922358
208	0xbdcd6048	-0.1002813
209	0x3d940587	0.07227617
210	0xbce0e452	-0.027452622
211	0x3d978ffc	0.0740051
212	0xbc9aa2c7	-0.018876446
213	0x3d36f60a	0.044668235
214	0x3da1d2c4	0.079015285
215	0xbd03cf06	-0.032179855
216	0xbccd4145	-0.025055537
217	0x3d31ec9e	0.043438546
218	0xbda02cab	-0.0782102
219	0x3d510ab1	0.051035587
220	0xbd71389a	-0.05889187
221	0x3d9a00e7	0.07519703
222	0xbd83464f	-0.06409895
223	0xbd26bcab	-0.04070727
224	0x3d74bf45	0.05975272
225	0xbd5b9d4a	-0.0536168
226	0x3d9255c8	0.07145268
227	0x3d5916cf	0.053000268
228	0x3d96fec7	0.07372814
229	0xbdb89ddc	-0.09014484
230	0xb992f75f	-0.00028031596
231	0xbcf90110	-0.030396014
232	0x3c69a98f	0.014261617
233	0xbd952fac	-0.07284483
234	0x3d042cf8	0.032269448
235	0xbc3630b0	-0.011120006
236	0xbd2b21af	-0.04178017
237	0xbda2d87c	-0.07951447
238	0x3d3656c0	0.044516325
239	0xbd3b2aa5	-0.045694966
240	0x3d82e9cb	0.06392249
241	0x3c577f67	0.013152934
242	0x3cb8613c	0.022507302
243	0xbc0dc6f9	-0.008653396
244	0xbc91eaa2	-0.017812077
245	0xbd004a07	-0.031320598
246	0xbda971c9	-0.08273656
247	0x3d51d8bb	0.05123208
248	0xbd63fd96	-0.05566176
249	0x3d570853	0.052498173
250	0xbd1c5407	-0.038166072
251	0x3d5361cd	0.051606942
252	0x3d922f6f	0.071379535
253	0xbd6faf13	-0.058516573
254	0x3d9578e7	0.07298451
255	0xbb02c999	-0.0019956587

network.2.bias f4 [64]
0	0xbd9c168c	-0.07621488
1	0xbc5636ee	-0.01307462
2	0xbca7afac	-0.020469509
3	0xbdb4c47f	-0.08826541
4	0x3d2bc333	0.041934203
5	0xbb0a7de2	-0.002113216
6	0x3c900536	0.01758061
7	0xbb59b32b	-0.0033218365
8	0xbc56913f	-0.013096153
9	0xbd0e4ceb	-0.034741323
10	0xbae042bc	-0.0017109732
11	0xbd8e4227	-0.06946211
12	0x3d115955	0.035485584
13	0x3ca647db	0.020297935
14	0x3d8f2b62	0.069906965
15	0xbd80f098	-0.062958896
16	0xbc021d94	-0.007941622
17	0xbd417592	-0.047231264
18	0xbc72f5fe	-0.014829157
19	0x3beba0d3	0.0071908026
20	0xbd1910d6	-0.03736957
21	0xbc21a84e	-0.009866787
22	0xbd0dc802	-0.03461457
23	0x3cf2bfc3	0.029632455
24	0xbd45e779	-0.048316453
25	0xbc4ed2b0	-0.012623474
26	0x3d3fc80b	0.046821635
27	0x3d96f320	0.07370591
28	0xbc74aa98	-0.014933251
29	0xbc42809d	-0.011871484
30	0x3cad4606	0.021151554
31	0x3d0e3606	0.03471949
32	0x3a7ef064	0.0009725152
33	0xbd4985cf	-0.049199875
34	0xbd8326e1	-0.064039
35	0x3d05317b	0.03251789
36	0xbd20b668	-0.039236456
37	0x3d3db867	0.046318438
38	0xbda25f10	-0.07928288
39	0x3d2c195d	0.042016376
40	0x3d5f0c57	0.054455128
41	0x3ae53621	0.0017487445
42	0xbd95f4f1	-0.073221095
43	0xbc64db83	-0.013968351
44	0x3d3755bf	0.04475951
45	0x3d787b07	0.060664203
46	0x3b7f8194	0.0038987147
47	0xbc883b1b	-0.016629746
48	0x3d9e4854	0.07728639
49	0x3714bc60	8.865347e-06
50	0x3d8b90ab	0.068147026
51	0x3dbd1110	0.0923177
52	0xbd79940e	-0.06093221
53	0xbdade7bc	-0.084914654
54	0xbd1eff83	-0.038817894
55	0xbcb04b7d	-0.02152037
56	0x3d84d882	0.06486608
57	0xbd9307e4	-0.071792394
58	0x3d1a7fd6	0.03771957
59	0x3d92a665	0.071606435
60	0xbb709bc7	-0.0036713944
61	0xbd9c543e	-0.076332554
62	0xbd894418	-0.06702441
63	0x3bd059ee	0.0063583767

output_layer.weight f4 [3, 64]
0	0x3d42035c	0.047366485
1	0x3d3763d7	0.04477295
2	0x3d9a900b	0.07547005
3	0x3db0f538	0.08640522
4	0xbde14fd0	-0.11001551
5	0x3d30376e	0.043021612
6	0x3d7279fe	0.059198372
7	0xbd59e62b	-0.05319802
8	0xbd778a20	-0.06043446
9	0xbddd4773	-0.108046435
10	0xbde4b22d	-0.11166797
11	0x3d85c204	0.06531146
12	0x3d087a22	0.0333196
13	0xbd4be690	-0.04978043
14	0xbdea0f30	-0.11428678
15	0xbde1dc60	-0.11028361
16	0x3dd94f6b	0.10610851
17	0x3d6549df	0.055978652
18	0x3cd2d4ad	0.025736177
19	0xbb281cff	-0.0025652049
20	0x3d22ab0d	0.039713908
21	0x3ca7009d	0.020386035
22	0x3d37a98d	0.04483943
23	0x3d057fb5	0.032592494
24	0xbd83e2b6	-0.06439726
25	0xbd4a2e9c	-0.049360856
26	0x3c9c2d8c	0.019064687
27	0x3d39542e	0.045246296
28	0x3d9dc965	0.077044286
29	0xbd908c53	-0.07058015
30	0x3d8c131d	0.06839583
31	0xbdd4a889	-0.10383708
32	0xbb9b535a	-0.004740161
33	0xbdc37291	-0.09543336
34	0xbd7b826f	-0.061403688
35	0xbd813bb3	-0.06310215
36	0x3df45477	0.11930173
37	0x3df2acd3	0.1184937
38	0xbd46cf12	-0.04853732
39	0x3b8b50b6	0.004251565
40	0xbd9fc59d	-0.078013636
41	0xbd94c227	-0.07263594
42	0xbd752222	-0.059847005
43	0x3cb22e48	0.021750584
44	0xbddc7532	-0.10764541
45	0xbca49ddb	-0.020094803
46	0x3cb83dea	0.02249046
47	0xbc8e2a3e	-0.017354127
48	0xbc67de2f	-0.014152094
49	0x3ca79ceb	0.020460567
50	0x3db177cf	0.0866543
51	0xbd91adb0	-0.071132064
52	0xbda55de8	-0.08074552
53	0x3d676fdf	0.056503173
54	0x3d0ea9d1	0.03482992
55	0x3dc19d2a	0.09453805
56	0x3db5ace3	0.08870866
57	0xbdbb571b	-0.091474734
58	0xbc75d4e1	-0.015004368
59	0xbdd89bb5	-0.10576574
60	0x3d0e0e9a	0.034681894
61	0x3d60d830	0.054893672
62	0xbdb747b5	-0.08949224
63	0xbd8a176a	-0.06742747
64	0x3d6fcf15	0.0585471
65	0x3d3cb5fd	0.046071995
66	0xbd90738f	-0.07053291
67	0xbbe0c38e	-0.0068592494
68	0xbdaf9a58	-0.085743606
69	0x3d3359b7	0.04378673
70	0x3d1a2d5f	0.037640925
71	0x3ccd3df3	0.025053954
72	0xbca4151b	-0.020029595
73	0x3b96eb0b	0.004605656
74	0xbdac476e	-0.08412062
75	0x3deef8b8	0.11668533
76	0x3c253246	0.010082787
77	0xbca84c11	-0.020544084
78	0x3b8bd034	0.004266763
79	0xbdda91d0	-0.10672343
80	0x3d3e7463	0.046497714
81	0x3dc8d287	0.0980578
82	0x3d428665	0.04749145
83	0x3c1dcd2e	0.009631438
84	0x3cfe23f0	0.031022996
85	0x3c8a0978	0.016850218
86	0x3c001131	0.007816599
87	0x3d440648	0.047857553
88	0x3d28a7f8	0.041175812
89	0x3d04dbef	0.032436308
90	0xbd5b576b	-0.053550165
91	0x3c59f85a	0.0133038405
92	0x3d9758bb	0.07389971
93	0x3d726db1	0.05918664
94	0xbda0b017	-0.078460865
95	0x3d035a20	0.03206837
96	0xbd954642	-0.07288791
97	0x3cb1c95d	0.021702463
98	0x3d26d6a7	0.040732052
99	0xbd8ca3ac	-0.068671554
100	0x3dae15b9	0.08500237
101	0x3dc66639	0.09687466
102	0x3dcc5273	0.099766634
103	0x3ce7e261	0.028306188
104	0x3d4d64e0	0.05014503
105	0xbba17e35	-0.004928375
106	0xbd78bae5	-0.06072511
107	0x3d026016	0.031829916
108	0xbd5dc3d6	-0.05414184
109	0x3cd19637	0.025584323
110	0xbd858fda	-0.06521578
111	0xbd636d65	-0.05552425
112	0xbda8a88a	-0.08235271
113	0xbbd2eb36	-0.0064367307
114	0x3d6d1408	0.05788043
115	0x3d0715ba	0.032979704
116	0xbc062055	-0.0081864195
117	0x3d896f90	0.06710732
118	0x3dc5a9f3	0.09651556
119	0xbd1cd804	-0.038291946
120	0xbd711903	-0.058861744
121	0x3dbbbe0c	0.09167108
122	0xbdd69c31	-0.1047901
123	0xbdbcc83a	-0.09217878
124	0xbdb762b8	-0.08954376
125	0xbd89a1b4	-0.067202955
126	0xbda4e59f	-0.08051609
127	0xbb0dd3db	-0.0021641168
128	0xbd6064b1	-0.054783527
129	0x3d8f75e4	0.07004908
130	0xbde135b9	-0.10996575
131	0xbdae4699	-0.08509559
132	0xbde0be10	-0.109737515
133	0xbdb89b7c	-0.09014031
134	0x3d0a2e2f	0.03373545
135	0xbdaee40b	-0.085395895
136	0xbce9015d	-0.028443033
137	0xbd830838	-0.06398052
138	0xbd4ff13f	-0.05076718
139	0xbd5659b4	-0.05233164
140	0x3d8b04b6	0.06788008
141	0xbd3edac6	-0.046595357
142	0xbd4914d6	-0.049092136
143	0x3d69ad6b	0.05705015
144	0x3ddd50ef	0.108064525
145	0x3dd02afe	0.1016445
146	0x3b0cc09b	0.0021477106
147	0x3cb6d7d0	0.022319704
148	0xbd437f81	-0.04772902
149	0xbc4dab2e	-0.012553019
150	0x3c85787f	0.016292809
151	0xbd7ba2b3	-0.06143446
152	0xbc959118	-0.018257663
153	0x3d509e19	0.050932024
154	0x3cca5d17	0.024702592
155	0x3da4aaad	0.08040366
156	0xbce31a24	-0.027722426
157	0xbd4534e8	-0.04814616
158	0xbde3f22e	-0.111301765
159	0x3d72cc58	0.05927691
160	0xbd639b79	-0.055568192
161	0xbdde835c	-0.108648986
162	0x3c962049	0.018325942
163	0xbd74ad04	-0.059735313
164	0xbd8d156b	-0.06888851
165	0x3da674f9	0.081277795
166	0xbd9adad4	-0.075612694
167	0x3d785d63	0.060635936
168	0x3daf399d	0.08555911
169	0x3d65daa3	0.05611671
170	0xbd6cb273	-0.05778737
171	0x3dbdabb6	0.09261267
172	0xbdb1cdec	-0.086818546
173	0x3dcc8252	0.09985794
174	0xbd06389d	-0.032768834
175	0xbd1532bd	-0.03642534
176	0x3b64334e	0.003482062
177	0x3dc950b8	0.09829849
178	0x3c8404ab	0.016115507
179	0x3d8aa7b0	0.06770265
180	0x3cbd0414	0.023073234
181	0xbd8d4fa6	-0.06899957
182	0xbdaa4aae	-0.08315025
183	0x3dd44682	0.10365011
184	0x3ddf360c	0.108989805
185	0x3d9db70f	0.07700931
186	0x3dd8fa47	0.105946116
187	0xbdbbdfbd	-0.09173534
188	0xbd71becc	-0.05901985
189	0xbcf99dd8	-0.030470774
190	0xbda06a0f	-0.07832729
191	0xbcd198a3	-0.025585478

output_layer.bias f4 [3]
0	0x3ce3ea58	0.027821705
1	0x3c5037cc	0.0127086155
2	0x3dc6ef56	0.097136185

network.0.weight f4 [128, 22]
0	0xbddde495	-0.10834614
1	0x3e1ba932	0.15201262
2	0xbe538f6c	-0.2066018
3	0x3df3113d	0.11868522
4	0x3e270cca	0.16313472
5	0x3d9d2683	0.07673361
6	0x3e8d6356	0.2761485
7	0x3e0c9ea6	0.13732395
8	0xbd54cd34	-0.05195351
9	0x3da7e32e	0.08197628
10	0xbdb30c96	-0.08742635
11	0x3c54baf8	0.01298403
12	0xbe5308fc	-0.20608896
13	0xbdde4dd3	-0.108546875
14	0xbdcb2cd1	-0.099206574
15	0xbe91b739	-0.284601
16	0x3e2b46e5	0.16726263
17	0xbd3e7c98	-0.04650554
18	0xbda03d3e	-0.07824181
19	0x3cd88d7e	0.026434656
20	0x3c806bfb	0.01567649
21	0xbd0ca91a	-0.034340955
22	0x3d72f140	0.059312105
23	0xbe081a46	-0.13291273
24	0xbe2d638d	-0.16932507
25	0xbe030da7	-0.12798177
26	0xbe2a3e49	-0.16625322
27	0x3e2b07c6	0.16702184
28	0x3da6f354	0.0815188
29	0x3e3f4eaa	0.18682352
30	0xbe2fb00d	-0.17157002
31	0xbe2d508b	-0.16925256
32	0x3dad36c0	0.08457708
33	0xbdcc67a0	-0.099807024
34	0xbd85d1c8	-0.06534153
35	0xbe004452	-0.12526062
36	0xbe37b1b7	-0.17938887
37	0xbe009ca6	-0.12559757
38	0xbe09497c	-0.13406938
39	0x3ddfb4e4	0.10923174
40	0xbbb86500	-0.0056272745
41	0x3e086e0a	0.13323227
42	0x3e3dcd88	0.18535435
43	0x3e102d42	0.14079764
44	0xbe781bd0	-0.2422936
45	0x3db846da	0.08997889
46	0x3edae28f	0.42750975
47	0xbe6b0387	-0.22950564
48	0xbe593e18	-0.21215093
49	0xbdb89f76	-0.0901479
50	0xbdfa7321	-0.1222899
51	0xbe7137db	-0.23556463
52	0xbe028075	-0.12744315
53	0xbd72532f	-0.05916136
54	0x3c5ceb3a	0.013483817
55	0x3dc415cf	0.09574472
56	0x3d8424a8	0.06452304
57	0xbd23240e	-0.039829306
58	0xbe2c2274	-0.16810018
59	0x3e0ec1d8	0.13941133
60	0xbcf29975	-0.02961419
61	0x3d67aa3e	0.05655884
62	0xbe0525f3	-0.13002758
63	0x3b306721	0.0026916938
64	0x3c46c386	0.012131577
65	0xbeb47b24	-0.352502
66	0xbe226719	-0.15859641
67	0x3ce9c861	0.02853793
68	0x3e2f2cb4	0.17106897
69	0x3da663af	0.08124482
70	0xbc7c9595	-0.0154165225
71	0xbc4e42bc	-0.012589153
72	0x3dad28e5	0.08455066
73	0xbdd7efdd	-0.10543797
74	0x3e197bb9	0.14988603
75	0x3de66220	0.112491846
76	0xbe7d58a9	-0.24740852
77	0x3e5c81d3	0.21533899
78	0xbcecdcbf	-0.028913854
79	0xbe421665	-0.18953855
80	0xbd940ad3	-0.07228627
81	0x3e2c2ab3	0.16813163
82	0xbe5357d0	-0.20638967
83	0x3d6296e7	0.055319693
84	0xbd1ff7ad	-0.03905456
85	0xbe0452dc	-0.12922233
86	0x3d0deb84	0.034648433
87	0x3db6e15f	0.08929705
88	0x3e03ab5f	0.12858342
89	0xbe8f886c	-0.2803377
90	0x3e563ce3	0.20921664
91	0x3e23c515	0.1599315
92	0x3aaa2c6f	0.0012983213
93	0x3d1b8656	0.03796991
94	0x3df4bc8c	0.11950025
95	0xbe7fd6ea	-0.24984327
96	0x3cd095cd	0.025462056
97	0x3d501bc8	0.050807744
98	0xbd2e4410	-0.04254538
99	0x3c038e66	0.008029556
100	0xbd8e943a	-0.06961866
101	0xbe4cf400	-0.20014954
102	0x3e27ae64	0.16375118
103	0x3cb4a9d3	0.022053635
104	0xbcc0e986	-0.023548853
105	0xbd4a6eac	-0.04942195
106	0xbd9c7f41	-0.07641459
107	0x3e241d0b	0.16026704
108	0xbe297504	-0.16548544
109	0xbe1fb3e9	-0.15595974
110	0xbda4af05	-0.08041195
111	0x3dfa6f2c	0.122282356
112	0xbdc490ef	-0.095979564
113	0xbe4c86fb	-0.19973366
114	0xbe0b83f3	-0.13624553
115	0xbe588d28	-0.21147597
116	0x3e04ac4b	0.1295635
117	0xbdb7a15f	-0.08966326
118	0xbdcb8c07	-0.099388175
119	0xbe276eb0	-0.16350818
120	0x3d594d71	0.05305237
121	0xbe4c6871	-0.19961716
122	0xbe2b21cc	-0.16712111
123	0xbd816fd1	-0.063201554
124	0x3e09a771	0.1344278
125	0xbe1019f0	-0.14072394
126	0xbe35770d	-0.17721196
127	0x3d2d795f	0.042352077
128	0xbe661144	-0.22467524
129	0x3e3ac61b	0.18239634
130	0x3d80738a	0.06272037
131	0x3dba235f	0.09088778
132	0x3e0c9b5f	0.13731144
133	0x3e1d265c	0.15346664
134	0xbcc2bd7a	-0.02377199
135	0x3df603e5	0.120124616
136	0x3dde3cf5	0.108514704
137	0x3d574826	0.05255904
138	0xbced50ff	-0.028969286
139	0xbe5dfca6	-0.21678409
140	0xbdea3359	-0.11435575
141	0xbd17b9c8	-0.03704241
142	0xbdc853a1	-0.09781576
143	0x3dd6c621	0.10487009
144	0x3e160698	0.14650953
145	0xbe49d6df	-0.19710873
146	0x3dffa075	0.124817766
147	0xbc105ffe	-0.008811949
148	0xbd26848c	-0.04065375
149	0x3e0ddf0c	0.13854617
150	0x3dd6d12a	0.10489114
151	0xbe1205e6	-0.14260063
152	0x3a751c33	0.00093502103
153	0xbf0f2a85	-0.55924255
154	0xbe0b79ac	-0.13620633
155	0xbe47b3af	-0.19502138
156	0x3dbf027b	0.09326645
157	0xbd077295	-0.03306826
158	0xbe1d7af5	-0.15378936
159	0xbd775a40	-0.060388803
160	0xbca9af18	-0.020713374
161	0x3d5b26bb	0.053503733
162	0x3e2ff51d	0.17183347
163	0xbe10f531	-0.14156033
164	0xbd07898b	-0.033090156
165	0x3e5d92bb	0.21638004
166	0x3dfa6726	0.12226705
167	0x3da99417	0.08280199
168	0xbd63d95f	-0.055627223
169	0x3b80e91c	0.003934039
170	0xba35c46a	-0.000693387
171	0x3ce88044	0.028381474
172	0x3e1d6bd0	0.15373158
173	0xbd3dea55	-0.046366055
174	0xbda460ef	-0.08026301
175	0x3e0710da	0.13190022
176	0xbd21fec9	-0.039549623
177	0xbe88f483	-0.26749048
178	0xbc8c457c	-0.017122976
179	0x3d84d591	0.06486047
180	0x3d3cad17	0.04606351
181	0x3d8a4a27	0.06752425
182	0xbe3d252e	-0.18471214
183	0xbe4df678	-0.20113552
184	0x3c8021aa	0.015641052
185	0x3e278a76	0.16361412
186	0x3dfa4267	0.122196965
187	0x3e049419	0.1294712
188	0x3d200cca	0.039074697
189	0xbe4eea5d	-0.2020659
190	0x3d3bad14	0.045819357
191	0xbd8ee172	-0.06976594
192	0xbd601daf	-0.05471581
193	0x3dded4a4	0.10880402
194	0xbe292faa	-0.16522089
195	0x3da3a336	0.079901144
196	0xbe114ba1	-0.14189006
197	0x3da389c7	0.07985263
198	0xbe881d21	-0.26584724
199	0xbe0fa285	-0.1402684
200	0xbee31167	-0.44349214
201	0x3dd2fb2e	0.10301815
202	0x3dbd64c7	0.092477374
203	0x3e92e9e9	0.28694084
204	0x3e98f5ab	0.2987493
205	0x3dd0cc34	0.10195199
206	0x3de6c7a4	0.11268547
207	0x3dcd8921	0.10035921
208	0x3d907c9f	0.070550196
209	0xbc70eefe	-0.014705418
210	0xbe5a0df5	-0.21294387
211	0x3e0b6501	0.13612749
212	0xbe2e8d4c	-0.17046088
213	0x3dc4dc23	0.096123
214	0x3d9e3ce3	0.07726457
215	0x3db1f7b8	0.08689827
216	0x3da9c3ea	0.08289321
217	0x3d8bee4d	0.06832562
218	0xbdc06c5f	-0.0939567
219	0x3d878c2c	0.066185325
220	0xbdf7ce71	-0.120999224
221	0xbe274b19	-0.16337241
222	0xbda6a58c	-0.08137044
223	0x3bc6ab97	0.0060629356
224	0xbc13b8d8	-0.009016238
225	0x3dd01c55	0.10161654
226	0x3e88d2eb	0.26723418
227	0xbdb3f96b	-0.08787807
228	0xbcff99a1	-0.031201186
229	0xbd98a65c	-0.074536055
230	0x3dcfb2c4	0.10141519
231	0xbe7f2ae7	-0.2491871
232	0x3dbe488f	0.09291183
233	0x3e21a473	0.15785389
234	0x3da16395	0.07880322
235	0xbc32f94b	-0.010923694
236	0xbd9ebb20	-0.07750535
237	0x3e2df8bc	0.16989416
238	0xbe646314	-0.2230342
239	0x3cba04bd	0.022707338
240	0xbd0e2a59	-0.034708355
241	0x3e2a96a0	0.16659021
242	0xbd839021	-0.06423975
243	0xbe0afe8c	-0.13573664
244	0xbddb050a	-0.106943205
245	0x3dcd5326	0.10025625
246	0x3d57d384	0.05269195
247	0xbe020916	-0.12698779
248	0xbdb88560	-0.09009814
249	0xbdf0cfa3	-0.117583536
250	0x3ce6bf2d	0.028167332
251	0xbd758704	-0.059943214
252	0x3d8e5d51	0.069513924
253	0x3ca92af1	0.020650359
254	0xbd3d23fe	-0.046176903
255	0xbc4d77c7	-0.012540764

network.0.bias f4 [128]
0	0x3d7f5df4	0.06234546
1	0xbdf72664	-0.12067869
2	0xbec09756	-0.3761546
3	0x3d0f58d1	0.03499681
4	0xbe8796c3	-0.2648221
5	0x3d8cb5e5	0.06870631
6	0xbe3a2d68	-0.18181384
7	0xbcf21250	-0.029549748
8	0xbe128267	-0.14307557
9	0x3d9aba72	0.07555093
10	0xbd2f8114	-0.042847708
11	0xbe1e4645	-0.15456493
12	0x3e2ca665	0.1686035
13	0x3c17e169	0.009270051
14	0xbdeb2517	-0.11481684
15	0x3e417f2a	0.18896165
16	0x3cdef208	0.027215019
17	0xbdd9d1d1	-0.106357224
18	0xbc40c2a7	-0.011765159
19	0xbcd8d153	-0.026467001
20	0xbcf9b91a	-0.030483771
21	0x3d113b69	0.03545705
22	0xbd151c0b	-0.036403697
23	0x3e0957b6	0.13412365
24	0x3dcb1fd2	0.099181786
25	0xbdafd85c	-0.08586189
26	0xbd527f24	-0.051390782
27	0xbcf8b7b2	-0.03036103
28	0x3db401d5	0.08789412
29	0xbd9f786b	-0.0778664
30	0x3d887bf1	0.06664265
31	0xbe4afd0d	-0.19823094
32	0x3d81bd0d	0.06334887
33	0x3d99c8a7	0.075089745
34	0x3e01b822	0.12667897
35	0xbe4ade41	-0.19811346
36	0xbccdb55a	-0.02511089
37	0x3e52576d	0.20541163
38	0xbe2d613d	-0.16931625
39	0xbc28c21c	-0.0103001855
40	0xbe57430e	-0.21021673
41	0xbe594506	-0.21217737
42	0x3e20f948	0.15720093
43	0xbd53881c	-0.051643476
44	0xbded0681	-0.11573506
45	0xbde79672	-0.11307992
46	0xbe254f97	-0.16143642
47	0x3eadae27	0.3392193
48	0x3d2ad278	0.041704625
49	0xbd6ba33c	-0.05752872
50	0xbdce9159	-0.100863166
51	0x3e52a19c	0.20569462
52	0x3e0243c2	0.1272116
53	0x3e88b756	0.26702374
54	0x3e8c7611	0.27433828
55	0xbd32d5e4	-0.043661013
56	0xbd1ca0d0	-0.0382393
57	0xbacb25d4	-0.0015498945
58	0xbdae8018	-0.08520526
59	0xbe63f3f2	-0.22261027
60	0x3ea18a12	0.31550652
61	0x3e8406ab	0.25786337
62	0xbc2f86b8	-0.010713272
63	0xbdabb63a	-0.08384366
64	0x3b80dd78	0.003932651
65	0xbe24016a	-0.16016164
66	0xbe08dd37	-0.13365637
67	0xbc849ba4	-0.016187496
68	0x3d16dbd9	0.036830757
69	0xbea29ce9	-0.31760338
70	0x3db18c19	0.086693
71	0x3e1f0757	0.15530144
72	0x3db8b3cc	0.090186685
73	0xbdb0c33e	-0.086309895
74	0xbdcc1c95	-0.09966389
75	0xbc120568	-0.008912422
76	0x3e211e05	0.15734108
77	0x3e4f59bc	0.20249075
78	0x3dcc06a8	0.09962207
79	0xbe9c59df	-0.30537316
80	0xbe7fbef1	-0.24975182
81	0x3e903ef4	0.2817303
82	0xbe4cc6ff	-0.19997786
83	0xbe3ee0aa	-0.1864039
84	0xbd069d9f	-0.032865163
85	0xbd94263b	-0.072338544
86	0x3df39e92	0.11895479
87	0xbe81e22f	-0.25367877
88	0x3d6c23d9	0.057651374
89	0xbe51a729	-0.20473923
90	0x3eab2583	0.33427057
91	0x3e423515	0.18965562
92	0xbdc36059	-0.09539861
93	0xbe1e2ea3	-0.15447478
94	0x3cfdc897	0.030979438
95	0x3eaa3168	0.3324082
96	0xbe48e6af	-0.19619249
97	0xbd65c099	-0.05609188
98	0x3d4a9c06	0.0494652
99	0xbcfdc9e3	-0.030980056
100	0xbe1ff4db	-0.15620749
101	0x3da6ba7c	0.08141038
102	0x3c9638dc	0.01833766
103	0xbd378a47	-0.044809606
104	0xbe48d004	-0.19610602
105	0x3cc584aa	0.02411111
106	0x3decbd90	0.11559594
107	0x3db74254	0.08948198
108	0x3ddfe2f5	0.109319605
109	0x3d8588e3	0.0652025
110	0x3e982c81	0.29721454
111	0xbe0dd213	-0.13849668
112	0xbda0048b	-0.078133665
113	0xbe864a7c	-0.26228702
114	0x3e8b19ea	0.27168208
115	0xbe85dce2	-0.26145083
116	0xbe50d53f	-0.20393847
117	0xbe6f539f	-0.23371743
118	0xbde66f01	-0.11251641
119	0xbdf006b3	-0.11720028
120	0x3dc4f8ba	0.09617753
121	0xbe334406	-0.17506418
122	0xbd1760c5	-0.03695752
123	0xbe1a710a	-0.15082183
124	0xbcc21583	-0.023691898
125	0xbe259b77	-0.16172586
126	0xbca3a048	-0.019973889
127	0x3e0e0429	0.13868774

network.2.weight f4 [64, 128]
0	0x3cb2dab5	0.021832803
1	0x3cdb8ec4	0.026801474
2	0xbd5a8fab	-0.05335967
3	0xbdd6954e	-0.10477696
4	0x3bf45409	0.007456307
5	0x3da66085	0.081238784
6	0x3cc3f0a7	0.023918463
7	0x3d7d8994	0.061898783
8	0xbd81c45b	-0.0633628
9	0x3d5503c9	0.052005563
10	0x3db917b9	0.09037728
11	0x3d3bfebc	0.04589723
12	0xbd7b8902	-0.061409958
13	0x3d44a9dc	0.048013553
14	0xbd9d1544	-0.07670072
15	0xbd5bd709	-0.05367187
16	0x3d3d54d2	0.04622347
17	0x3d528e26	0.051405095
18	0x3d1d7848	0.038444787
19	0xbd16cb83	-0.036815178
20	0xbda20150	-0.079104066
21	0x3d3b06aa	0.045660652
22	0xbd88cd7e	-0.066798195
23	0x3d5b3261	0.053514842
24	0xbc0dc97f	-0.008653997
25	0x3d11e8de	0.03562247
26	0xba91ffb8	-0.0011138832
27	0xbcde3231	-0.027123543
28	0xbd3ef2f7	-0.046618428
29	0xbd225ff4	-0.03964229
30	0xbcdd8818	-0.027042434
31	0xbdc8cbb2	-0.09804477
32	0x3ce3b5cf	0.027796654
33	0x3c720e7a	0.014773959
34	0xbdde45df	-0.108531706
35	0xbd15b161	-0.036546115
36	0xbda8eb13	-0.08247962
37	0x3c01ef4d	0.007930589
38	0xbd4a60f3	-0.049408864
39	0x3d76df6e	0.060271673
40	0xbd8a0c19	-0.06740589
41	0xbd74d3e8	-0.059772402
42	0x3d9fdca7	0.07805758
43	0xbbc1a164	-0.005909132
44	0x3d6d0a29	0.057871018
45	0xbd5ade71	-0.053434793
46	0x3d9c8a91	0.07643617
47	0xbd9083cd	-0.07056389
48	0xbd0fee1b	-0.035139184
49	0xbdba735b	-0.091040336
50	0x3d90497e	0.070452675
51	0x3d0a0a42	0.03370119
52	0xbd005ba5	-0.0313374
53	0x3d3bc590	0.045842707
54	0xbc8a012f	-0.016846268
55	0xbdac6328	-0.0841735
56	0xbda121e0	-0.07867789
57	0x3cb654f4	0.022257306
58	0x3d835b5f	0.06413912
59	0xbbb34f31	-0.005472087
60	0x3dad024d	0.084477045
61	0xbce2069b	-0.02759104
62	0x3d0b75c9	0.034047876
63	0x3da4dac8	0.08049542
64	0x3d92bd23	0.07164981
65	0x3c8bc2b6	0.017060619
66	0xbd820864	-0.06349257
67	0x3d644372	0.055728383
68	0xbd7e2351	-0.0620454
69	0xbda9787e	-0.08274935
70	0xbd773c72	-0.06036038
71	0x3da14b30	0.07875669
72	0xb9f1bd3a	-0.00046108087
73	0x3d007e14	0.031370237
74	0xbd4733a9	-0.04863325
75	0xbdaed80f	-0.08537304
76	0x3cb6faf7	0.022336466
77	0xbdae9d77	-0.08526128
78	0x3c988790	0.018619329
79	0xbd0060e6	-0.03134241
80	0x3a803ce4	0.0009783772
81	0x3d8a8135	0.067629255
82	0xbdc91f09	-0.098203726
83	0x3cd1866f	0.025576798
84	0xbd185128	-0.03718677
85	0xbd142d26	-0.03617587
86	0xbe06d415	-0.1316684
87	0xbd224e8b	-0.039625686
88	0x3cfea91f	0.031086503
89	0x3d03d686	0.032187007
90	0xbdb4ca50	-0.088276505
91	0x3c0e65a6	0.008691227
92	0x3a0b61e5	0.00053170166
93	0x3d1e1fb2	0.038604446
94	0xbc544c53	-0.01295765
95	0x3d925951	0.07145942
96	0x3d70713f	0.05870175
97	0xbdbb22f2	-0.09137525
98	0x3d4b4fef	0.049636777
99	0xbc57dfac	-0.013175886
100	0xbca63e7f	-0.020293472
101	0xbd5c95a3	-0.053853642
102	0xbd5273e2	-0.051380046
103	0x3c3e592b	0.011617939
104	0xbd2ef3d0	-0.042712986
105	0x3c5234ca	0.012829969
106	0xbc4d9847	-0.012548513
107	0xbcdfb1ce	-0.027306464
108	0x3da5596c	0.080736965
109	0xbd9789fb	-0.073993646
110	0xbd0519dc	-0.032495365
111	0x3d703884	0.058647648
112	0x3d0798db	0.03310476
113	0x3d3d71d0	0.04625112
114	0x3d370f86	0.04469254
115	0xbdad828e	-0.08472167
116	0x3d3cb324	0.04606928
117	0xbc86b482	-0.016443495
118	0x3d7dfdf8	0.06200978
119	0xbc8f15b8	-0.017466411
120	0x3d3f3d61	0.046689395
121	0x3bba2d54	0.005681673
122	0x3d282d75	0.041058976
123	0xbcd7116d	-0.026253426
124	0xbcb24e10	-0.021765739
125	0x3d155267	0.036455538
126	0x3d07d09f	0.03315794
127	0xbd88645c	-0.06659767
128	0xbd452466	-0.048130415
129	0x3cf5f174	0.03002236
130	0xbdae4705	-0.0850964
131	0xbd59b2ad	-0.053148914
132	0x3c366350	0.011132076
133	0x3daabdd1	0.08336986
134	0xbdb708e9	-0.08937246
135	0xbc7bbe28	-0.015365161
136	0xbd853a84	-0.065053016
137	0xbc1a12b8	-0.009403877
138	0x3da0191b	0.078172885
139	0xbd8ad6a5	-0.067792214
140	0x3d73d1be	0.059526198
141	0x3cb13654	0.021632351
142	0x3c3dce20	0.011584789
143	0x3d6e3e12	0.058164664
144	0x3d32da62	0.043665297
145	0x3ce59b18	0.028028056
146	0x3c4cf208	0.012508877
147	0xbd6b7088	-0.057480365
148	0xbde2abd7	-0.11067932
149	0x3d729c4e	0.059231095
150	0xbd04441e	-0.032291524
151	0xbda3c318	-0.079961956
152	0xbceca406	-0.028886806
153	0xbd7ee87a	-0.062233426
154	0x3d939163	0.07205465
155	0x3d85b543	0.065287136
156	0xbdd7d789	-0.10539157
157	0x3d130bd0	0.035899937
158	0xbd13bd05	-0.036068935
159	0x3dad0469	0.08448107
160	0x3c088f80	0.008334994
161	0xbbb1c890	-0.0054255202
162	0x3d0e787a	0.034782864
163	0xbd9b4279	-0.07581038
164	0xbd0f994f	-0.035058316
165	0x3d9583f5	0.073005594
166	0x3d9b12fd	0.07571981
167	0xbd2d3dc9	-0.04229525
168	0x3d883707	0.06651121
169	0xbd948ea0	-0.07253766
170	0xbd8ea7a0	-0.06965566
171	0xbd36e560	-0.044652343
172	0xbde036f3	-0.10947981
173	0x3d49cb6b	0.04926626
174	0xbc549080	-0.012973905
175	0xbd40ecc7	-0.04710081
176	0x3cddbdac	0.027067982
177	0xbd2a824c	-0.041628167
178	0x3d54f352	0.05198986
179	0x3d4fb7fa	0.050712563
180	0xbd857b99	-0.06517715
181	0x3ca08670	0.019595355
182	0xbd363d83	-0.044492256
183	0x3d320462	0.04346121
184	0xbd7be3e5	-0.061496634
185	0x3abb8b80	0.0014308542
186	0x3cdab094	0.026695527
187	0xbd8fcdae	-0.07021652
188	0x3cdee3bc	0.027208202
189	0xbd0aec09	-0.033916507
190	0x3d06572e	0.032797985
191	0xbd19939d	-0.03749429
192	0xbc9d4308	-0.019197002
193	0xbdad4aeb	-0.08461555
194	0xbd1e93c3	-0.038715135
195	0x3d885057	0.066559486
196	0x3cff1670	0.031138629
197	0xbdbef178	-0.093234
198	0xbd96c6d8	-0.07362145
199	0x3d891f27	0.06695395
200	0xbd1bbf00	-0.03802395
201	0xbd8ffa46	-0.07030158
202	0xbd144bef	-0.03620523
203	0x3ca131bb	0.019677034
204	0x3c2fc400	0.010727882
205	0xbd391353	-0.045184445
206	0x3d3379aa	0.0438172
207	0x3d7bb3cc	0.061450765
208	0x3ca2e468	0.019884303
209	0xbdbe79d5	-0.09300581
210	0xbcc5eda8	-0.024161175
211	0xbdb4368f	-0.08799469
212	0x3d9a7a19	0.075428195
213	0xbd6cede2	-0.05784405
214	0xbb26f3a0	-0.0025474802
215	0xbda0f9eb	-0.07860168
216	0xbcf0842b	-0.029359898
217	0xbd7ff62c	-0.062490627
218	0xbd8efffa	-0.069824174
219	0xbd828011	-0.06372083
220	0x3d1a23be	0.037631743
221	0xbdb504bf	-0.08838796
222	0x3d402813	0.046913218
223	0x3d1c1c8a	0.038113154
224	0x3d421ee2	0.047392733
225	0x3d65290a	0.05594734
226	0xbca539ca	-0.020169158
227	0xbcb86e38	-0.022513494
228	0xbda6e9e9	-0.081500836
229	0xbd571ee9	-0.052519713
230	0xbd776886	-0.060402416
231	0xbddc8dc1	-0.10769225
232	0xbd160f14	-0.036635473
233	0xbaee67c0	-0.0018188879
234	0xbcf0a38d	-0.029374862
235	0x3c617260	0.013760179
236	0xbd78e208	-0.060762435
237	0x3cd2db76	0.025739413
238	0xbda833ac	-0.08212981
239	0x3cf75c3c	0.030195348
240	0xbd0ff91d	-0.035149682
241	0x3d481bc7	0.048854616
242	0xbd95cf34	-0.073149115
243	0x3da8ddad	0.08245406
244	0xbd83c480	-0.06433964
245	0xbdad5b7e	-0.084647164
246	0xbc149788	-0.009069331
247	0xbd7bf604	-0.061513916
248	0x3c131f58	0.008979641
249	0xbd8162d5	-0.06317679
250	0xbc18a690	-0.009317055
251	0xbc397ca8	-0.011321224
252	0xbd002dfa	-0.031293847
253	0x3c6b1f10	0.014350668
254	0xbd4db20b	-0.050218623
255	0x3d534302	0.051577576

network.2.bias f4 [64]
0	0x3d4e1f61	0.050322894
1	0xbc21e1f6	-0.009880533
2	0x3d80b9b2	0.062854186
3	0xbd464591	-0.048406187
4	0x3e38ebaf	0.18058656
5	0xbdc044db	-0.09388133
6	0x3cfdfa18	0.031003043
7	0xbc8b152f	-0.016977875
8	0xbca52064	-0.020157047
9	0x3da6f2a4	0.08151749
10	0xbc097167	-0.008388854
11	0xbe29834f	-0.16553997
12	0x3d8fdb78	0.07024282
13	0xbda8e35a	-0.08246489
14	0xbdd1cd3e	-0.10244225
15	0xbdb6d423	-0.089271806
16	0x3c209658	0.00980147
17	0x3c45857b	0.01205575
18	0xbc996fc6	-0.018730056
19	0x3d53ab3a	0.051676966
20	0x3c1901b7	0.009338788
21	0x3ceb32a7	0.028710676
22	0x3dcc842e	0.09986149
23	0xbc80a5b9	-0.015704023
24	0xbcbb4349	-0.022859233
25	0xbda44e4f	-0.08022749
26	0x3cc3259b	0.023821643
27	0x3d6c7d4d	0.057736684
28	0xbc3b759d	-0.011441615
29	0x3d31dbe6	0.043422602
30	0xbd843856	-0.06456058
31	0x3cc575f3	0.024104094
32	0x3ca65c3d	0.020307655
33	0xbd5f39b7	-0.0544984
34	0x3a5c651e	0.00084074016
35	0xbd9cfe71	-0.07665718
36	0x3d815727	0.06315451
37	0xbda78bae	-0.08180939
38	0x3e4ee749	0.20205416
39	0xbdba94a0	-0.09110379
40	0x3cab3ae8	0.020902112
41	0x3d0ea41e	0.034824483
42	0xbcfcd552	-0.030863438
43	0x3c608a5a	0.013704861
44	0xbd180c16	-0.0371209
45	0x3e20c7fd	0.1570129
46	0x3da1aef9	0.078947015
47	0xbdcf4078	-0.10119718
48	0x3dc9820d	0.09839258
49	0x3d3aaf71	0.04557747
50	0x3e0f0a20	0.13968706
51	0xbe0d0a98	-0.13773572
52	0xbdce5f01	-0.10076714
53	0x3d0d77cf	0.034538087
54	0xbe17a9e3	-0.148109
55	0x3d2f2093	0.042755675
56	0xbe0ccf91	-0.13751055
57	0x3e1d8eb0	0.15386462
58	0xbe423915	-0.18967088
59	0x3e20202c	0.15637273
60	0x3ddb191f	0.10698151
61	0x3d6bfcb5	0.057614047
62	0x3b9eeab7	0.0048497575
63	0x3e1deaca	0.15421596

network.4.weight f4 [1, 64]
0	0xbd6df916	-0.058098875
1	0xbda45847	-0.0802465
2	0xbddf1a97	-0.108937435
3	0x3d849b32	0.06474914
4	0xbd86eeba	-0.06588502
5	0x3d06af51	0.03288204
6	0x3d98d29a	0.07462044
7	0xbc6c1500	-0.014409304
8	0x3dddda2d	0.10832629
9	0xbaef6070	-0.0018262994
10	0x39474584	0.00019004015
11	0xbaaa9185	-0.0013013339
12	0xbd1db6ec	-0.038504526
13	0x3d9b3938	0.07579273
14	0xbbb86aaf	-0.005627952
15	0xbd591063	-0.052994143
16	0x3b589e7c	0.0033053448
17	0xbc7c2c23	-0.015391382
18	0x3c7b4d2c	0.015338223
19	0xb9d3d65f	-0.00040404775
20	0x3d7f3c8f	0.062313613
21	0xbbcd5fb7	-0.0062675136
22	0xbd0ba157	-0.034089413
23	0xba834768	-0.0010015788
24	0xbbb3f52d	-0.0054918737
25	0x3b0ebf95	0.0021781672
26	0x3c552baa	0.013010899
27	0xbd57178d	-0.052512694
28	0xbda2cb93	-0.07948985
29	0xbd2ce7a3	-0.042213093
30	0x3c10ba6e	0.008833511
31	0xbb3a8ff5	-0.0028467153
32	0xb8836692	-6.265672e-05
33	0x3d9dbb4b	0.07701739
34	0x38ba23c3	8.875832e-05
35	0x3c59502d	0.013263744
36	0x3b0c6141	0.0021420273
37	0xbd85c315	-0.065313496
38	0xbd16b3b6	-0.03679248
39	0x3c95b5f4	0.018275239
40	0xbb67cef8	-0.0035371166
41	0x39059b70	0.00012741773
42	0x3d72d4b8	0.059284896
43	0x3be32410	0.006931789
44	0xbbbeee3d	-0.00582674
45	0xbc0418a0	-0.008062512
46	0xbb688dc7	-0.0035484897
47	0xbd639487	-0.05556157
48	0xbcd1ac8c	-0.025594972
49	0xbc9daf02	-0.01924849
50	0xbc60e0ac	-0.013725441
51	0x3d274238	0.040834635
52	0x3cc20dc4	0.023688205
53	0x3da87237	0.0822491
54	0x3d951669	0.07279665
55	0xbbce50f5	-0.006296272
56	0x3b644c39	0.0034835471
57	0xbb868f2d	-0.0041064234
58	0x3c56efa1	0.013118655
59	0xbaa3b07d	-0.0012488511
60	0xbbb242e5	-0.0054401034
61	0xbc6c583d	-0.0144253345
62	0x3b85ed30	0.004087113
63	0xbce24df2	-0.027625058
