models/rl/ppo/ppo_20250315_232105/ppo_episode_2.pt (torch, 286334 bytes, 33 tensors)

network.0.weight f4 [128, 22]
000000 e3 85 21 3e 57 62 2f 3e 30 32 5f bd 5e f8 5a 3e
       0.1577373 0.17127357 -0.054491222 0.21383807
000010 be 30 16 bd 56 b2 2c 3d 1a 34 b8 bd 1d 04 9d 3d
       -0.036667578 0.042162262 -0.089943126 0.076668
000020 4a a7 51 3e 4c 30 61 be 7b 58 02 3e 83 95 2b 3d
       0.20473972 -0.2199108 0.12729065 0.041890632
000030 70 6b 1b 3e b8 02 9a 3c cb d7 ad 3d 56 d4 f2 bc
       0.15177703 0.018800125 0.08488425 -0.029642265
000040 97 4d 21 3e 6b d0 46 bd ce 5c ec bd 75 e6 5a 3d
       0.15752254 -0.048538607 -0.115411386 0.053442437
000050 dc d0 cb bd f5 78 8c bc f7 79 d5 bd 69 0e f9 3d
       -0.09951946 -0.01714752 -0.104236536 0.12160952
000060 83 d4 21 be 7a 23 02 be aa 8b 9e bd a5 d6 14 be
       -0.15803723 -0.12708846 -0.077414826 -0.14535005
000070 ea 02 81 3c 6a 58 78 be 74 4f 3a 3e ca d1 10 be
       0.01574846 -0.24252477 0.18194371 -0.14142528
000080 40 c2 12 3e 3f 19 93 3d 14 e7 b1 bd 4c 87 e1 3d
       0.14331913 0.0718255 -0.08686653 0.11012134
000090 52 27 34 bd a6 55 1e 3e 18 06 86 3b 9f 78 aa bd
       -0.04398281 0.1546236 0.004090082 -0.08323788
0000a0 28 49 35 3d d0 a2 42 bd 98 e7 99 3d 82 32 69 3e
       0.04425922 -0.04751855 0.07514876 0.22773173
0000b0 6e 86 ed 3d 40 26 da bd f4 87 09 3e 2b 9b 03 3d
       0.11597906 -0.10651827 0.13430768 0.0321304
0000c0 58 df cb 3d 8c 71 15 be 21 5c 69 be 9e ef ab bd
       0.09954709 -0.14594096 -0.2278905 -0.08395313
0000d0 9d 81 36 be 56 23 33 3e 60 0e 68 3d fb 90 b1 3d
       -0.17822881 0.17493948 0.056654334 0.08670231
0000e0 cf 08 73 3d 10 89 84 bc 73 af 26 3e 39 cc 1d be
       0.059334572 -0.016178638 0.16277866 -0.15409936
0000f0 8c d8 8b ba 60 9f 19 be 3d 55 90 3d c2 23 88 bd
       -0.0010669394 -0.15002203 0.07047508 -0.06647445
000100 01 84 59 3d 2b 35 54 bd 36 ea 31 3e fc 8a 0a be
       0.053104404 -0.051808517 0.173745 -0.13529581
000110 87 d8 08 be 77 63 00 be 7a cc 3a 3e 8d bb 87 3d
       -0.13363849 -0.12537943 0.18242064 0.06627569
000120 2c f2 51 3e fe 91 41 be ef 86 4d be 04 e3 67 be
       0.20502537 -0.18903348 -0.20071004 -0.22645193
000130 f7 5a 39 be cd a0 7c 3d 0b da 96 3d c9 2e 2d 3e
       -0.18101107 0.06167679 0.07365807 0.16912378
000140 20 f3 70 bd db b5 1c be 8b 79 d5 3d f0 19 02 be
       -0.058825612 -0.15303747 0.10423573 -0.12705207
000150 60 5a 0c 3e bb 3b 3c bd bd bb ef 3d 4c 38 4f be
       0.1370635 -0.0459554 0.1170573 -0.2023632
000160 da c7 b6 bd f3 b8 7f 3d e5 37 1e 3d 11 6f 7a bd
       -0.089248374 0.06243224 0.038627524 -0.061141077
000170 ea a3 fe 3d 5f 0d 17 3e 18 fa 0e be 01 83 0f be
       0.12433608 0.14751194 -0.1396259 -0.14014818
000180 56 b2 51 3e f2 d3 7c bd 93 70 bd bd dc 36 32 be
       0.20478186 -0.061725564 -0.092499875 -0.1740374
000190 51 e2 cc bd fb 49 3b 3d ed bc ad bd c8 cf 07 be
       -0.10004104 0.04572485 -0.084833 -0.13262856
0001a0 a1 0e 82 38 57 84 3e be 27 8f 4d be 41 1a f5 bd
       6.201608e-05 -0.18605171 -0.2007414 -0.11967898
0001b0 6e dc 3e be f4 94 be bd 30 6e 5c 3e e7 1f 9c 3c
       -0.18638775 -0.09305754 0.21526408 0.019058181
0001c0 1a 0e 95 3d a9 c1 52 be 8f ff 23 be 1a c3 ba bd
       0.0727808 -0.20581688 -0.16015457 -0.09119244
0001d0 77 96 71 3c 04 ae 46 be 5b a8 d9 bd 29 b3 02 be
       0.014745346 -0.19402319 -0.106278144 -0.12763657
0001e0 76 d0 5d bc a1 9e b5 bd 07 e2 4e bc a4 b8 2c be
       -0.0135384705 -0.08868147 -0.012627131 -0.1686731
0001f0 5b 04 1a be 4e a3 05 be 49 31 c8 bd 08 9f 36 be
       -0.15040724 -0.13050577 -0.097750254 -0.17834103
000200 e1 23 4b 3e 6b 85 11 bd 37 b2 2a 3e 6d 6a 3e 3d
       0.19837905 -0.035527628 0.16669546 0.046488214
000210 46 de 47 be 5f 2f 0f 3e 56 0c 3b bd 9d cb a6 bd
       -0.19518384 0.13982914 -0.04566606 -0.08144305
000220 09 bd 42 be ec a2 66 be ea c2 1b 3d 63 12 97 bc
       -0.19017424 -0.22523087 0.03802768 -0.018441385
000230 7a d8 75 3d 0f 79 e4 bd 39 da 41 3e ce 02 46 be
       0.0600209 -0.111559026 0.18930902 -0.19337007
000240 10 77 52 bd 45 f6 25 3d cb f9 2d 3e e9 57 21 3e
       -0.051383078 0.040518064 0.1698982 0.15756191
000250 84 f3 40 3e cf 2b c6 bd 11 9b a5 3d bc 0b ab bd
       0.18842894 -0.096763246 0.08086217 -0.083518475
000260 fa b1 05 bd 2f e1 5e be c6 42 3e 3e 5f 45 27 be
       -0.032640435 -0.21765588 0.1858016 -0.16335057
000270 ac d6 ec 3d 54 f7 82 3d 23 c3 64 3d f5 af f9 bd
       0.11564383 0.0639483 0.05585016 -0.12191764
000280 9c a4 3e 3e 73 a9 32 3d 11 4c a2 3c b4 64 40 be
       0.18617481 0.04361863 0.019811662 -0.18788415
000290 b4 ac b0 3d 49 63 e1 bc 0a 47 d3 bd d6 da 33 3e
       0.086266905 -0.027513163 -0.10316284 0.17563948
0002a0 47 de 3c 3d b9 e7 f7 bd a9 a9 ec bd 6e 29 04 bc
       0.046110418 -0.121047445 -0.115557976 -0.008066518
0002b0 f7 03 ea 3d 46 b2 4b bd 98 60 04 be a9 b2 a6 bd
       0.114265375 -0.04973056 -0.12927473 -0.081395455
0002c0 45 8a 2a be 67 a8 73 3d e0 e8 27 3e 29 f2 4b be
       -0.16654308 0.059486773 0.16397429 -0.19916596
0002d0 ba 86 1b 3d d6 58 c9 3d d3 c6 20 3d 8e f5 dc bd
       0.037970282 0.09831397 0.039252114 -0.10789023
0002e0 32 55 e1 3d 34 6b b5 3d e8 94 51 3d a9 c4 ed bc
       0.11002578 0.08858338 0.0511674 -0.029024439
0002f0 a8 84 82 bd af 32 8b 3b 84 86 c2 bd 07 f6 90 bd
       -0.063729584 0.0042479853 -0.09498313 -0.07078176
000300 d3 f0 f4 3d ff 87 08 3e 4d 1f 51 bd f5 f5 41 bd
       0.11959996 0.13333128 -0.05105524 -0.047353704
000310 d7 36 12 bc e8 65 22 3b 8f c1 79 3d db 98 62 3d
       -0.008924208 0.002477998 0.060975607 0.055321556
000320 ea fc 3a be 60 e9 cb bd f0 3e 2a 3e d4 be 97 3d
       -0.18260542 -0.09956622 0.16625571 0.074094445
000330 63 81 e5 bc 33 00 d4 bd 70 af 20 be 43 78 f9 bd
       -0.028015798 -0.103516005 -0.15691924 -0.12181141
000340 b2 6d c1 bc 0e 45 88 3d d9 5d 15 3e e7 48 c4 3d
       -0.023611877 0.06653796 0.14586581 0.095842175
000350 36 cb 51 be dc 5a 03 be 56 ba 19 bd e5 c9 96 3e
       -0.20487675 -0.12827629 -0.03753122 0.29450908
000360 92 fa 1c 3d 9c 06 4f bd df 89 a7 3d 93 2e a5 bd
       0.0383249 -0.050543413 0.08180594 -0.08065524
000370 ab cc 19 be 48 e6 15 3e 8a ab ac bd 4d f5 84 bd
       -0.15019481 0.14638627 -0.08431156 -0.064921
000380 4b b7 67 be 5f b4 03 3e 22 37 0c 3e 36 be e3 3d
       -0.22628514 0.12861775 0.13692906 0.11120264
000390 78 3c 38 be a1 c8 02 be 91 77 f9 bd 55 22 0d 3e
       -0.17991817 -0.12771846 -0.121810086 0.13782628
0003a0 b8 b5 b8 3d 73 38 31 3e ac 3e fe 3d 92 2b 2b 3d
       0.09019035 0.1730669 0.124142975 0.0417896
0003b0 4b 7f 20 bc c7 c4 85 bd ad de 29 be 15 90 44 be
       -0.009795974 -0.06531673 -0.1658885 -0.19195588
0003c0 f1 88 9d 3d 07 d1 00 be 74 bf 2f bd 29 49 fb bd
       0.07692135 -0.12579738 -0.042907193 -0.122698136
0003d0 60 21 1f bd d5 a8 19 be f0 a6 0e be 28 d6 90 3d
       -0.03885019 -0.1500581 -0.13930869 0.07072097
0003e0 30 c4 81 bd e0 c6 06 3e 8c 13 8c bd 8d 26 20 be
       -0.06336248 0.13161802 -0.06839666 -0.15639706
0003f0 30 14 1a bd 60 a8 d3 bd b8 95 85 bd 5c d6 4f be
       -0.03761691 -0.10334849 -0.06522697 -0.20296615

network.0.bias f4 [128]
000000 3e 47 18 3e 69 48 03 be 47 73 e3 bd 69 e0 22 3e
       0.14870927 -0.12820591 -0.11105972 0.15905918
000010 e1 0c b0 3d b3 cb 10 be e2 f8 51 3d d4 80 ce 3d
       0.085962065 -0.14140205 0.051262744 0.10083166
000020 92 e0 4d be f5 f5 fc 3c 66 17 0e 3d a0 0b 08 bc
       -0.20105198 0.030879 0.034690283 -0.008303553
000030 b2 f6 44 3e cc 0e 12 be 04 b5 ec 3d 35 78 d9 bd
       0.19234732 -0.14263457 0.115579635 -0.10618631
000040 f4 dc 3d be a3 35 1a 3e 18 52 e5 bd cc e8 bd bb
       -0.18541318 0.15059523 -0.11197299 -0.005795574
000050 51 5b df 3d 81 38 36 be c3 e0 3e be b5 bb 82 3d
       0.10906089 -0.17794992 -0.18640427 0.063834585
000060 0a 3a 2e 3e cf fd 9d bc c6 34 17 3e 67 bb b4 3d
       0.17014328 -0.019286064 0.14766225 0.08824807
000070 d8 14 7f 3d c7 7a 0e be 67 8c 42 3e e8 9f b7 3d
       0.062275738 -0.13914023 0.18998872 0.089660466
000080 be b0 75 3c a9 93 08 3e ea cb 44 be 0e d5 30 3d
       0.014995752 0.13337578 -0.19218412 0.043171935
000090 d2 bf c8 bd 5d 03 38 bd c9 2d 95 3d 09 ea a8 3d
       -0.09802212 -0.044925082 0.072841235 0.08247764
0000a0 99 58 68 3d d5 e4 34 be 69 1c 04 be b0 8d 04 3c
       0.05672512 -0.17665417 -0.12901463 0.008090422
0000b0 e5 37 84 bd 80 9d 39 be c5 cc 53 3e fb 23 f8 3b
       -0.064559735 -0.18126488 0.20683582 0.0075726486
0000c0 06 98 21 be 19 27 a6 3d e0 11 9b 3d 11 06 fb bd
       -0.15780649 0.08112926 0.07571769 -0.122570165
0000d0 57 77 d8 3d 94 4a 13 be bb c2 9a 3d 75 33 57 3e
       0.10569637 -0.14383918 0.07556673 0.21015723
0000e0 57 a7 12 3e c3 8a db 3d 41 e1 30 bd 87 57 3c 3d
       0.14321648 0.10719826 -0.04318357 0.04598191
0000f0 72 57 97 3d 79 1d 2c 3d 14 43 07 bd 98 b0 f3 3c
       0.07389726 0.042020295 -0.033022955 0.029747292
000100 da 55 b6 bd bb de e7 bd 41 75 54 be 6e 0b 31 be
       -0.08903094 -0.11321779 -0.20747854 -0.17289516
000110 33 a4 15 be 6b 74 50 3e 7d a9 09 3d fd 24 56 be
       -0.14613418 0.2035691 0.033608902 -0.20912547
000120 04 d5 f2 bd c1 9e 48 3d fe f7 8b bd 19 ac 97 bd
       -0.11857036 0.048979525 -0.0683441 -0.07405872
000130 e9 26 8e bd 11 2d 61 bd 0f 6c 7d b9 cb 26 2c 3c
       -0.06941015 -0.05497462 -0.00024168215 0.010507296
000140 78 43 13 3e 3e 36 0b 3e 9c 42 17 3e 4a c4 23 bd
       0.14381206 0.1359491 0.14771503 -0.039982118
000150 f8 1e 9c bd da 93 2e bc b9 12 14 be 20 70 88 3d
       -0.07623094 -0.010655368 -0.14460267 0.06662011
000160 05 55 05 bd 4b 1b b9 bd 90 2a 4d be 14 30 bf 3d
       -0.032551784 -0.09038409 -0.20035768 0.09335342
000170 2f 49 c5 3d 42 9f 4b 3e ec f1 9c bd 1e eb 1d 3d
       0.09633099 0.19884971 -0.076633304 0.038554303
000180 23 e3 68 bc 59 e6 c3 bd aa 82 04 be 06 55 e8 3d
       -0.01421431 -0.0956542 -0.1294047 0.11344342
000190 b9 b1 e8 bd 5d d7 19 3e b5 10 a3 3d 15 f6 8c 3d
       -0.11362023 0.15023561 0.07962171 0.06882874
0001a0 c2 75 0f 3e c0 8c d8 3d 85 07 c3 3d 37 9d c4 3d
       0.14009765 0.10573721 0.095229186 0.09600299
0001b0 1f 4b b9 bd 1b 8a e7 bd 5b 95 05 bd e1 39 c6 3d
       -0.09047531 -0.113056384 -0.03261314 0.09679008
0001c0 18 7d 11 3e 29 48 1a 3e 58 7b ac bd ee b8 09 3c
       0.14207876 0.1506659 -0.084219635 0.008405907
0001d0 3f c5 22 be 0a b0 fc 3d 00 da 19 be 63 7a d4 bd
       -0.15895556 0.12338264 -0.15024567 -0.10374906
0001e0 72 47 34 3e e2 43 68 3d 57 50 e2 bd c5 b0 23 be
       0.17605379 0.056705363 -0.1105048 -0.15985401
0001f0 21 e1 11 be af df 24 3e 0d 8b 47 be 99 9b 2f 3e
       -0.14246036 0.16100954 -0.19486637 0.171492

network.2.weight f4 [64, 128]
000000 58 9c 89 3d 6f 32 38 ba 03 aa 7c ba 51 9d 88 3d
       0.06719273 -0.0007026558 -0.0009638371 0.06670631
000010 b7 29 fc 3c eb 2f bb 3d 20 ab 85 3d b7 69 5e bd
       0.03078161 0.09139999 0.0652678 -0.054300036
000020 c2 43 47 3d 33 83 2b 3d 43 ea 8d bd 82 e0 2d 3d
       0.048648603 0.04187317 -0.069294475 0.042450435
000030 b4 24 57 bd 0f c2 65 bd 80 22 d8 3a 8b 7a 48 bc
       -0.052525237 -0.05609327 0.0016489774 -0.012236248
000040 7a 55 a4 bc ca 91 86 bd c0 80 2e 3d 2b 7d b4 3d
       -0.02006029 -0.06570776 0.042603254 0.088129364
000050 5c a8 f0 bc a8 ee 73 bd ff 61 51 bc 69 97 9d bd
       -0.029377155 -0.059553772 -0.012779712 -0.07694895
000060 f7 d8 9d bd 13 44 18 bd da 37 47 3d c9 46 3c bd
       -0.077073984 -0.037174296 0.04863725 -0.045965943
000070 f4 c1 b4 bc f2 fe 3b bd 56 39 b3 bd 39 9b f1 bc
       -0.02206514 -0.04589743 -0.0875117 -0.029492961
000080 c9 d7 2f 3b 73 e4 77 bc fa eb 88 3d 68 06 02 3d
       0.0026831499 -0.01513015 0.06685634 0.03174439
000090 7d 12 81 3d c3 c4 30 3d 05 7c b0 3b ff bc 32 3d
       0.063023545 0.043156397 0.005385878 0.043637272
0000a0 19 d7 80 bd e6 9d 58 3d b3 57 41 3d b1 7e fd bc
       -0.062910266 0.05288496 0.047202777 -0.0309442
0000b0 5e a3 ae 3a ca ad 97 bd 9e 09 98 bd 61 30 b0 bb
       0.0013323834 -0.074061945 -0.07423709 -0.005376861
0000c0 ae 00 5e 3c 80 9a cd bc 49 f5 a0 3c 75 59 77 bd
       0.013549967 -0.025098085 0.019648211 -0.060388047
0000d0 d9 57 41 bd 93 7e 8d 3d 01 fc c3 bd c1 af a8 3c
       -0.04720292 0.06908908 -0.0956955 0.020591618
0000e0 b6 fe 9b 3d f4 db 70 3d de 9f d9 3c cc 11 b0 bd
       0.07616942 0.058803514 0.026565488 -0.085971445
0000f0 18 c4 c8 3b 28 28 e1 bc 6c 0c 9d bc 15 b2 8a 3d
       0.006126892 -0.027484968 -0.019170962 0.06772248
000100 de 99 15 bd 16 ff 70 bd 03 0f 9d bd 10 80 43 3d
       -0.036523692 -0.05883702 -0.07668879 0.04772955
000110 af 7f 5b bb e0 df b2 3d eb a0 31 3c 0a a8 98 bd
       -0.0033492853 0.08734107 0.0108415885 -0.07453926
000120 06 a1 67 3c c1 40 9f 3d 10 f8 51 3d ed 9a 0c 3d
       0.014137512 0.07776023 0.05126196 0.034327436
000130 e7 f3 9c bd 7b d1 59 bd 93 99 8b 3d 28 1b 84 bd
       -0.07663708 -0.05317829 0.06816401 -0.06450492
000140 b0 2f a5 3c 48 87 81 bc 90 3d b3 3c 03 1d 41 3c
       0.02016434 -0.015811577 0.021879941 0.011786702
000150 8b 26 75 bd 03 ce 1b bd 0c 00 94 3d 1d 09 2f 3b
       -0.05985121 -0.038038265 0.072265714 0.0026708313
000160 6f de 51 3d 46 a0 16 bd 27 1f 9b 3d a4 d1 35 bc
       0.05123752 -0.036773942 0.07574301 -0.0110973455
000170 48 ec f4 bc c4 6c 5e 3c 80 87 1a bd 14 4d 2a bd
       -0.029897824 0.013575736 -0.03772688 -0.041577414
000180 ce 71 9d bc 00 5a a5 bb b1 b8 4d bd ce cf c9 3c
       -0.019219305 -0.005046129 -0.050224964 0.024635222
000190 3b cb a0 bd 8d 44 7a 3d 0b ed b4 3d ba cb 00 3c
       -0.07851263 0.06110053 0.08834275 0.007861072
0001a0 43 4b dd bc 66 bd a5 bd c3 a1 0c 3d 48 f3 86 3d
       -0.027013427 -0.080927655 0.034333955 0.06589371
0001b0 0f c2 9a 3d d0 21 01 3c 78 11 7e 3c 57 74 ad 3d
       0.07556545 0.007881597 0.015507095 0.08469456
0001c0 95 42 a9 3c f8 56 17 bd 89 f1 9e bd 5d 4d f0 3c
       0.020661632 -0.036948174 -0.07760913 0.029333765
0001d0 93 b7 1f 3d f6 fd b0 3d 85 d2 44 bd fd 6c 3b 3d
       0.03899343 0.08642189 -0.04805233 0.045758236
0001e0 68 90 ef bc 8b c5 c3 bc 9e b5 40 3d 10 49 ab bd
       -0.029243663 -0.023897907 0.047048204 -0.08363545
0001f0 d2 47 95 3d 96 76 f6 3c a5 2a 57 bd a2 b8 3d 3d
       0.07289089 0.030085843 -0.052530903 0.046318658
000200 ab 22 ce bc 9f b6 c9 3b 39 6a cc bc 64 1f b5 bd
       -0.025163015 0.0061558033 -0.024952995 -0.08843878
000210 c1 ef 36 bc 22 58 2b 3d 48 6c 4f bc 8b 85 37 bd
       -0.01116556 0.041832097 -0.012660094 -0.04480509
000220 90 99 3a 3a 83 09 7d 3c 3e 91 d7 bc ab 60 8c bd
       0.00071182195 0.015444162 -0.026314374 -0.068543755
000230 f1 6c 4a bd a6 b7 ae bb b8 62 02 3d bd c6 99 3d
       -0.0494203 -0.005331951 0.031832427 0.075086094
000240 2f a2 2e bb 06 a0 01 3d 06 ba 43 3d 1a de 1d bd
       -0.0026646962 0.03164675 0.047784828 -0.03854189
000250 7c cf fb bc 72 24 70 3d e5 0d 81 3d 6a c0 8d 3c
       -0.030738585 0.058628507 0.06301478 0.017303664
000260 f7 8d 8f bd fe 7c 4d 3d 3f 1c 9f bd 73 9e 68 3c
       -0.070094995 0.05016803 -0.077690594 0.0141979335
000270 75 a0 23 bc 3c e3 e9 3c c9 00 af bd 21 a4 11 bd
       -0.009986986 0.028550737 -0.08545072 -0.035556916
000280 ba 76 14 3d 0e 37 8c 3d ca 85 92 bc b6 de 99 3d
       0.03624604 0.06846438 -0.017886061 0.07513182
000290 0c f3 ac bc 4e 5b 6d bd eb 29 3b bd 31 36 56 3b
       -0.021111988 -0.057948403 -0.045694273 0.003268611
0002a0 8d 94 92 bc d2 fd 1d 3d 9a a8 4d bd 73 a4 d7 bc
       -0.0178931 0.03857214 -0.05020962 -0.026323533
0002b0 c4 52 bc bd 86 06 92 3d 99 ed b7 bc 18 6d 93 bd
       -0.09195474 0.071301505 -0.022452163 -0.07198542
0002c0 05 24 9b bb fb c8 81 ba 75 77 b7 3c b6 d4 64 bc
       -0.0047345185 -0.0009901816 0.022395829 -0.01396673
0002d0 8a 40 3f 3d 19 87 07 bd 4f ad f8 bc ab 11 5e bc
       0.04669241 -0.033087824 -0.030356077 -0.013554017
0002e0 d0 5b 61 3c 13 ab 89 3d 18 06 f5 bb cb 1e 85 3d
       0.0137548 0.06722083 -0.007477533 0.06500014
0002f0 5b 21 87 3d e6 2f 95 bd ae 70 61 ba 53 e7 2a bd
       0.06598159 -0.072845265 -0.00085998594 -0.041724514
000300 08 94 09 3d 69 7e 15 bd e2 14 ca 3c 49 dd e0 ba
       0.03358844 -0.036497507 0.02466816 -0.0017155792
000310 c4 27 72 bd ef c3 86 bd ee c3 b4 bd 92 0b 5c bd
       -0.059119955 -0.0658034 -0.08826433 -0.05372197
000320 bd ba dc 3c 89 eb 62 3b 27 ec 82 3d 87 b1 a6 bd
       0.026944513 0.0034625253 0.06392699 -0.081393294
000330 f8 a3 b0 bb fa 22 98 bd de 5b 7e bb b6 cd f5 3c
       -0.0053906403 -0.07428546 -0.0038812081 0.030005317
000340 e9 33 ce bd 0b e1 9c 3d 52 e4 e0 bc fc 8f 97 3d
       -0.10068495 0.07660111 -0.027452622 0.0740051
000350 c7 a2 9a bc 0e cd 46 3d 32 44 a2 3d 06 cf 03 bd
       -0.018876446 0.0485354 0.079231635 -0.032179855
000360 45 41 cd bc 9e ec 31 3d ab 2c a0 bd b1 0a 51 3d
       -0.025055537 0.043438546 -0.0782102 0.051035587
000370 9a 38 71 bd 96 6f a2 3d 30 0f 76 bd ab bc 26 bd
       -0.05889187 0.079314396 -0.060073078 -0.04070727
000380 48 90 82 3d 77 fc 58 bd 03 f9 96 3d 97 ad 6c 3d
       0.06375176 -0.052975144 0.07371714 0.057782736
000390 d0 da 95 3d dc 9d b8 bd 5f f7 92 b9 10 01 f9 bc
       0.07317126 -0.09014484 -0.00028031596 -0.030396014
0003a0 e0 b8 9b 3c 27 eb 8d bd fb 34 13 3d 9c 6c d6 bb
       0.019009054 -0.069296174 0.035939198 -0.006543709
0003b0 af 21 2b bd 7c d8 a2 bd 44 3e 42 3d a5 2a 3b bd
       -0.04178017 -0.07951447 0.047422662 -0.045694966
0003c0 cb e9 82 3d 20 ab 95 3c 3c 61 b8 3c a2 fa f1 bb
       0.06392249 0.018270075 0.022507302 -0.007384614
0003d0 e9 3e 91 bc 07 4a 00 bd 40 0f a0 bd bb d8 51 3d
       -0.017730193 -0.031320598 -0.07815409 0.05123208
0003e0 96 fd 63 bd 53 7c 5c 3d 89 fe 08 bd f2 fa 5f 3d
       -0.05566176 0.053829502 -0.03344587 0.05468268
0003f0 6f 2f 92 3d c9 7c 69 bd e7 78 95 3d 99 c9 02 bb
       0.071379535 -0.05700377 0.07298451 -0.0019956587

network.2.bias f4 [64]
000000 fd 1f 9a bd f8 fe 2e bc ac af a7 bc 7f c4 b4 bd
       -0.075256325 -0.0106809065 -0.020469509 -0.08826541
000010 ca a7 2d 3d 39 43 88 3a bc 52 cd 3c 2b b3 59 bb
       0.042396344 0.001039601 0.025063865 -0.0033218365
000020 79 3d 60 bc 46 af 0d bd 3e d4 e7 ba 27 42 8e bd
       -0.013686531 -0.034590982 -0.0017687154 -0.06946211
000030 ca 74 1e 3d 2f ff da 3c 95 34 89 3d 4f 64 9d bd
       0.038685597 0.02673301 0.06699482 -0.07685148
000040 37 74 68 bc 92 75 41 bd e9 cd ae ba d3 a0 eb 3b
       -0.014187864 -0.047231264 -0.0013336512 0.0071908026
000050 74 c7 b1 bc 42 3a 0d bc 20 a6 db bc 4d 18 07 3d
       -0.021701552 -0.008619847 -0.026812613 0.03298216
000060 79 e7 45 bd b0 d2 4e bc 1c 9b 20 3d c9 fc 79 3d
       -0.048316453 -0.012623474 0.039210424 0.06103209
000070 f0 54 11 3b 3a b3 ba bb 06 46 ad 3c 06 36 0e 3d
       0.002217587 -0.005697635 0.021151554 0.03471949
000080 9f 76 ad 3b 08 9a 2f bd df 6c 88 bd ea 55 1e 3d
       0.0052936818 -0.042871505 -0.066613905 0.038656153
000090 68 b6 20 bd 55 42 41 3d 10 5f a2 bd 5d 19 2c 3d
       -0.039236456 0.0471824 -0.07928288 0.042016376
0000a0 52 d4 3a 3d e4 fb 18 bc da 79 92 bd 83 db 64 bc
       0.04561264 -0.009337399 -0.071521476 -0.013968351
0000b0 bf 55 37 3d 07 7b 78 3d 99 81 7f 3b ee 38 9e bc
       0.04475951 0.060664203 0.0038987158 -0.019314256
0000c0 c3 59 8d 3d b7 be 62 3c 1e ad a3 3d e7 37 b3 3d
       0.06901886 0.013839415 0.07992004 0.08750897
0000d0 12 a9 77 bd cc fb 8d bd 80 68 15 bd 21 fc 94 bc
       -0.060463972 -0.06932792 -0.036476612 -0.01818663
0000e0 d6 47 a5 3d e4 07 93 bd d6 7f 1a 3d 38 3a 91 3d
       0.08070342 -0.071792394 0.03771957 0.070911825
0000f0 c5 f6 58 bb 19 e3 b0 bd 18 44 89 bd 2c 59 fa 3b
       -0.003310607 -0.086370654 -0.06702441 0.0076400246

output_layer.weight f4 [3, 64]
000000 cc 10 42 3d 58 3b 2f 3d 0b 90 9a 3d 38 f5 b0 3d
       0.0473793 0.042781204 0.07547005 0.08640522
000010 82 b5 e1 bd 03 54 42 3d 34 ba 7d 3d 2b e6 59 bd
       -0.11020948 0.0474434 0.061945155 -0.05319802
000020 cc 3d 8e bd ef 2a dd bd f6 9d e6 bd 04 c2 85 3d
       -0.069453806 -0.107992046 -0.112605974 0.06531146
000030 2d b2 0a 3d 7d 55 71 bd df 1a d2 bd 82 cc eb bd
       0.033861328 -0.05891942 -0.102590315 -0.11513616
000040 72 ac e4 3d df 49 65 3d 47 65 c8 3c ff 1c 28 bb
       0.11165704 0.055978652 0.024462355 -0.0025652049
000050 a2 13 47 3d 27 48 c4 3c 6c b7 4b 3d f0 14 07 3d
       0.048602708 0.023960186 0.04973547 0.032978952
000060 b6 e2 83 bd 9c 2e 4a bd a1 10 e3 3c 0a 17 1d 3d
       -0.06439726 -0.049360856 0.02771789 0.03835205
000070 11 bd a9 3d ed 7d a7 bd 1d 13 8c 3d 89 a8 d4 bd
       0.08288015 -0.08178315 0.06839583 -0.10383708
000080 d3 29 bb 3b 4a c2 d9 bd 8c f4 71 bd f6 cd 86 bd
       0.005711773 -0.10632761 -0.05907111 -0.06582253
000090 77 54 f4 3d 7b 65 e3 3d 12 cf 46 bd b6 50 8b 3b
       0.11930173 0.1110334 -0.04853732 0.004251565
0000a0 3f b1 ba bd c3 77 b6 bd f5 b9 76 bd 48 2e b2 3c
       -0.09115838 -0.089095615 -0.060235936 0.021750584
0000b0 32 75 dc bd db 9d a4 bc f8 3d b8 3c 5d 0a 1c bc
       -0.10764541 -0.020094803 0.022490487 -0.009523955
0000c0 ba b3 0d bc 49 37 c5 3c e8 2a d1 3d 60 b1 ae bd
       -0.008648807 0.024074214 0.10213262 -0.08529925
0000d0 74 5f a5 bd bf 72 7d 3d ed a8 0e 3d 72 5c c4 3d
       -0.08074847 0.06187701 0.03482907 0.09587945
0000e0 2a 30 c5 3d 1b 57 bb bd e1 d4 75 bc 00 a3 d6 bd
       0.09628327 -0.091474734 -0.015004368 -0.104803085
0000f0 66 d3 11 3d db 57 8d 3d b5 47 b7 bd 6b 3c 91 bd
       0.035601996 0.06901523 -0.08949224 -0.07091602
000100 1d dc 6f 3d 00 54 38 3d 8f 73 90 bd 8e c3 e0 bb
       0.058559526 0.045001984 -0.07053291 -0.0068592494
000110 a5 6e af bd fb 78 2a 3d 68 48 08 3d f3 3d cd 3c
       -0.08566026 0.041619282 0.033272177 0.025053954
000120 c1 4d 30 bc b8 57 98 3b 61 1f ad bd b8 f8 ee 3d
       -0.0107607255 0.0046491288 -0.08453251 0.11668533
000130 9e 12 04 3c ae e0 da bb a4 75 a0 3b 83 28 e1 bd
       0.008061079 -0.006679616 0.0048968364 -0.10994055
000140 fa a2 24 3d 87 d2 c8 3d 7c 66 7a 3d 2e cd 1d 3c
       0.04019449 0.0980578 0.061132893 0.009631438
000150 65 e4 f8 3c 6c e2 89 3c e1 37 70 3b 5c 1c 46 3d
       0.030382344 0.0168316 0.00366544 0.04836689
000160 f8 a7 28 3d ef db 04 3d 01 c5 88 bd 7b 66 96 3b
       0.041175812 0.032436308 -0.066782005 0.0045898533
000170 2d 3b 96 3d 8d d7 8e 3d 17 b0 a0 bd 20 5a 03 3d
       0.07335506 0.06974707 -0.078460865 0.03206837
000180 f4 19 a6 bd 58 3a 09 3d 8b 32 2e 3d 2e 01 8d bd
       -0.08110419 0.033502907 0.04252867 -0.06884991
000190 b9 15 ae 3d 10 5a db 3d 73 52 cc 3d 61 e2 e7 3c
       0.08500237 0.107105374 0.099766634 0.028306188
0001a0 85 81 5d 3d 78 33 b4 37 b0 c0 7b bd 16 60 02 3d
       0.054078598 2.148164e-05 -0.061463058 0.031829916
0001b0 d6 c3 5d bd 37 96 d1 3c da 8f 85 bd eb cb 51 bd
       -0.05414184 0.025584323 -0.06521578 -0.051219862
0001c0 bb af b5 bd 55 75 57 bc e0 58 7f 3d 48 1e 13 3d
       -0.088714086 -0.013150533 0.062340617 0.03591755
0001d0 25 1b 06 bc c7 c4 94 3d 98 96 c5 3d 3e b2 20 bd
       -0.008185183 0.07264095 0.09647864 -0.039232485
0001e0 a0 aa 89 bd 0c be bb 3d 31 9c d6 bd dd 22 c0 bd
       -0.06721997 0.09167108 -0.1047901 -0.0938165
0001f0 c2 62 b7 bd 5a cf 8e bd 9f e5 a4 bd 27 e9 b9 ba
       -0.089543834 -0.06973143 -0.08051609 -0.0014183865
000200 a7 86 60 bd 95 8a 94 3d b9 35 e1 bd 38 47 ae bd
       -0.054815914 0.07252995 -0.10996575 -0.08509678
000210 af 87 e0 bd 8b 72 bc bd 26 71 10 3d 0b e4 ae bd
       -0.109633796 -0.09201535 0.035264157 -0.085395895
000220 cb bc ed bc 21 3b 83 bd 3d 3b 4b bd b4 59 56 bd
       -0.029020688 -0.06407762 -0.04961704 -0.05233164
000230 0c fe 8d 3d 85 90 54 bd d3 a3 74 bd 24 50 83 3d
       0.06933221 -0.051895637 -0.059726547 0.0641177
000240 45 43 de 3d fe 2a d0 3d ea 10 20 bc d0 d7 b6 3c
       0.108526744 0.1016445 -0.009769658 0.022319704
000250 71 43 65 bd 5b 32 84 bc 7f 16 7e 3c da 05 7f bd
       -0.05597252 -0.016137293 0.015508293 -0.06226144
000260 18 91 95 bc 19 9e 50 3d 5c 69 ea 3c bd 7b bf 3d
       -0.018257663 0.050932024 0.028614692 0.09349773
000270 5f 82 06 bd d2 d7 45 bd 2e f2 e3 bd 58 cc 72 3d
       -0.032839175 -0.048301525 -0.111301765 0.05927691
000280 7e bf 6b bd 00 9d e7 bd 0f 9f 67 3c 7b 6a 6d bd
       -0.057555668 -0.11309242 0.014137044 -0.057962876
000290 6b 15 8d bd f7 c7 92 3d d4 da 9a bd 63 5d 78 3d
       -0.06888851 0.071670465 -0.075612694 0.060635936
0002a0 1b 4e bf 3d f9 b5 86 3d 3d 9a 68 bd b6 ab bd 3d
       0.09341069 0.06577677 -0.056787718 0.09261267
0002b0 ec cd b1 bd 52 82 cc 3d a1 38 06 bd 49 0a 42 bd
       -0.086818546 0.09985794 -0.03276885 -0.04737309
0002c0 5d e3 86 3b 1e ac ca 3d 8a ea 0f bb b4 da 9d 3d
       0.0041164593 0.0989611 -0.0021959865 0.0770773
0002d0 f0 06 bd 3c ec c2 a2 bd d9 36 aa bd 93 82 d3 3d
       0.023074597 -0.07947335 -0.083112426 0.103276394
0002e0 75 01 d5 3d 0f b7 9d 3d 47 fa d8 3d 5c 7e ba bd
       0.104006685 0.07700931 0.105946116 -0.091061324
0002f0 4f 55 75 bd f0 c5 33 bd 0f 6a a0 bd db 01 c3 bc
       -0.05989581 -0.04388994 -0.07832729 -0.023804596

output_layer.bias f4 [3]
000000 c8 86 12 3d 10 08 ac 3c bd 59 a7 3d
       0.03577307 0.020999938 0.08171413

network.0.weight f4 [128, 22]
000000 b8 07 db bd 57 54 1f 3e a7 ce 4d be ab d7 cd 3d
       -0.106948316 0.15559517 -0.20098363 0.10050901
000010 de 24 15 3e 23 3d a0 3d 73 79 8d 3e 4d 7b 0e 3e
       0.14564845 0.07824161 0.2763172 0.13914223
000020 36 7b 62 bd c4 e5 7b 3d 26 1c a2 bd e4 23 22 3c
       -0.055293284 0.06149842 -0.07915525 0.009896252
000030 3b b4 1c be f1 35 d9 bd 73 a1 c9 bd dc 12 6d be
       -0.15303127 -0.10605992 -0.09845247 -0.23151726
000040 d4 84 2f 3e bd 9e 42 bd 76 b4 b5 bd b8 03 cd 3c
       0.17140514 -0.047514666 -0.08872311 0.025026187
000050 42 b3 49 3c 59 0e d7 3b 40 f1 72 3d 46 1a 08 be
       0.012310805 0.0065629897 0.059312105 -0.13291273
000060 8d 63 2d be a7 0d 03 be 49 3e 2a be c6 07 2b 3e
       -0.16932507 -0.12798177 -0.16625322 0.16702184
000070 54 f3 a6 3d aa 4e 3f 3e 0d b0 2f be 8b 50 2d be
       0.0815188 0.18682352 -0.17157002 -0.16925256
000080 c0 36 ad 3d a0 67 cc bd c8 d1 85 bd 52 44 00 be
       0.08457708 -0.099807024 -0.06534153 -0.12526062
000090 b7 b1 37 be a6 9c 00 be 7c 49 09 be e4 b4 df 3d
       -0.17938887 -0.12559757 -0.13406938 0.10923174
0000a0 00 65 b8 bb 0a 6e 08 3e 88 cd 3d 3e 42 2d 10 3e
       -0.0056272745 0.13323227 0.18535435 0.14079764
0000b0 98 3a 77 be 67 ac c0 3d f9 0d d7 3e e6 a5 64 be
       -0.24143445 0.09407883 0.42002848 -0.2232891
0000c0 f1 b1 53 be 4c d0 ad bd 9f 13 f2 bd 29 15 6e be
       -0.20673348 -0.08486995 -0.11820149 -0.2325026
0000d0 bc dc f9 bd 03 e4 05 bd 7a f8 67 3c 5a 3d bf 3d
       -0.12200305 -0.032688152 0.0141583625 0.09337874
0000e0 a2 e6 85 3d 5c 9d 0e bd c0 70 2b be a1 a2 0f 3e
       0.0653813 -0.03481804 -0.1674223 0.14026882
0000f0 cc 31 c9 bc 4b 46 5a 3d a1 48 f9 bd 67 44 1a 39
       -0.024559878 0.053289693 -0.12172056 0.00014712066
000100 86 5b a2 3c 97 36 bf be e3 18 23 be 7c b6 e5 3c
       0.019819032 -0.37346336 -0.15927462 0.028041117
000110 fc 0f 32 3e 6f 82 90 3d 96 d5 d5 bc 19 e1 64 bc
       0.1738891 0.07056128 -0.026102822 -0.013969683
000120 91 16 a8 3d 39 d1 d6 bd 51 07 17 3e 20 62 e6 3d
       0.08207429 -0.10489125 0.14748885 0.112491846
000130 4f c3 7c be e7 b9 5b 3e db dc ec bc 09 79 42 be
       -0.2468388 0.21457635 -0.028913906 -0.18991484
000140 bb 4c 92 bd b3 2a 2c 3e bb ca 53 be bd 53 62 3d
       -0.071435414 0.16813163 -0.20682804 0.05525564
000150 43 fa 25 bd f1 2c 04 be ff d6 0b 3d ea 59 b6 3d
       -0.04052187 -0.12907769 0.034140583 0.089038685
000160 11 3e fd 3d 5f e6 83 be f7 ec 53 3e f1 f7 1c 3e
       0.12365354 -0.25761697 0.20695864 0.15328957
000170 ae 1d b0 bb e5 d9 fb 3c 76 a1 36 39 b4 cf e3 bd
       -0.005374632 0.030743549 0.00017417021 -0.111236006
000180 f9 50 c4 bd c8 1b 50 3d f4 2e d6 3d dc 91 3e 3d
       -0.09585757 0.050807744 0.10458174 0.04652582
000190 40 61 98 bd a7 6f 31 be c3 e1 47 3e 81 a1 c8 3c
       -0.07440424 -0.17327748 0.19519715 0.024491074
0001a0 f7 92 0b 3c 12 c4 81 bc c9 bb ab bd 3e 6d 4e 3d
       0.008518926 -0.015840564 -0.083854266 0.05039715
0001b0 54 16 9f bd ed 8d 44 bd 95 4d a3 bd c3 a1 fb 3d
       -0.077679306 -0.047986913 -0.07973782 0.12286713
0001c0 75 b4 c5 bd 4f 14 4c be c2 df 0a be 4d e8 57 be
       -0.0965356 -0.19929622 -0.1356192 -0.2108471
0001d0 37 56 05 3e 5f a1 b7 bd 92 41 ca bd b0 6e 27 be
       0.1302117 -0.08966326 -0.09875788 -0.16350818
0001e0 71 4d 59 3d ae 8f 4b be 8d 73 2a be ac 7c 80 bd
       0.05305237 -0.19879028 -0.16645642 -0.06273779
0001f0 32 00 0a 3e f1 68 0f be 6b 21 35 be c2 e1 29 3d
       0.13476637 -0.14004876 -0.17688529 0.041475065
000200 f2 ae 66 be 40 8c 3a 3e b1 4a 81 3d 20 32 bc 3d
       -0.22527674 0.18217564 0.063130744 0.09189248
000210 eb 50 21 3e 84 a5 42 3e 17 02 9c 3d bb d9 03 3e
       0.15753524 0.19008452 0.07617586 0.12876026
000220 e0 0a ef 3d df e8 4b 3d 19 52 88 bd 3f bf 2f be
       0.11671996 0.04978263 -0.06656284 -0.17162798
000230 44 9e 1a be 6d 16 19 bd 15 74 54 bd 9e f1 9e 3d
       -0.15099436 -0.037374903 -0.051868517 0.077609286
000240 92 97 2a 3e ee 79 25 be e6 ca c2 3d 6d f5 61 3c
       0.16659382 -0.16159794 0.09511356 0.013791424
000250 d6 d5 c9 bb 30 17 f7 3d cf bd e0 3d 0e a6 2d be
       -0.0061595244 0.120649695 0.10973703 -0.16957876
000260 4b ba 35 3d 2d 43 95 be ac 79 0b be af b3 47 be
       0.044367116 -0.29152814 -0.13620633 -0.19502138
000270 7b 02 bf 3d 95 72 07 bd f5 7a 1d be 40 5a 77 bd
       0.09326645 -0.03306826 -0.15378936 -0.060388803
000280 18 af a9 bc bb 26 5b 3d 1d f5 2f 3e 31 f5 10 be
       -0.020713374 0.053503733 0.17183347 -0.14156033
000290 8b 89 07 bd bb 92 5d 3e 26 67 fa 3d 17 94 a9 3d
       -0.033090156 0.21638004 0.12226705 0.08280199
0002a0 5f d9 63 bd 1c e9 80 3b 6a c4 35 ba 44 80 e8 3c
       -0.055627223 0.003934039 -0.000693387 0.028381474
0002b0 d0 6b 1d 3e 55 ea 3d bd ef 60 a4 bd da 10 07 3e
       0.15373158 -0.046366055 -0.08026301 0.13190022
0002c0 d2 2b 01 bd 62 0f 87 be 44 c4 97 bc 4b 16 50 3d
       -0.03153593 -0.26378924 -0.018526204 0.05080251
0002d0 23 24 03 3d 16 ca 92 3d d6 52 3c be 55 87 47 be
       0.032016885 0.07167451 -0.18390974 -0.19485219
0002e0 ae 9f 86 3c 76 8a 27 3e 62 ba 03 3e 97 54 04 3e
       0.016433563 0.16361412 0.12864068 0.12922893
0002f0 0c 81 46 3d b4 90 4a be 05 61 3a 3d 62 e1 8e bd
       0.048462912 -0.19781762 0.04550268 -0.06976582
000300 24 35 4e bd 9f 7c e0 3d 23 09 25 be 4a 97 9c 3d
       -0.050343648 0.109612696 -0.16116767 0.076460436
000310 38 c8 0b be 49 63 a8 3d 26 d3 63 be 53 ce 10 be
       -0.13650596 0.08222062 -0.22248515 -0.14141206
000320 39 ed df be 1e 50 0b 3e e3 3a ff 3d a3 73 91 3e
       -0.43735674 0.13604781 0.124624036 0.28408536
000330 d8 86 97 3e 08 5f cf 3d 7f 3b dd 3d 39 e6 91 3d
       0.29595065 0.10125548 0.108023636 0.071239896
000340 78 f2 95 3d 56 69 7a bc b6 4b 31 be 9a 6e 09 3e
       0.07321638 -0.015283903 -0.17314038 0.13421097
000350 4f 3f 2b be 87 37 0b 3e e1 68 9b 3d bf 9c b3 3d
       -0.16723369 0.13595401 0.075883634 0.08770131
000360 d7 e3 9c 3d 46 3c 8d 3d 2a 5c c9 bd ad 51 b7 3d
       0.076606445 0.06896262 -0.09832032 0.08951125
000370 71 ce f7 bd 19 4b 27 be 8c a5 a6 bd 97 ab c6 3b
       -0.120999224 -0.16337241 -0.08137044 0.0060629356
000380 d8 b8 13 bc 55 1c d0 3d eb d2 88 3e 6b f9 b3 bd
       -0.009016238 0.10161654 0.26723418 -0.08787807
000390 a1 99 ff bc 5c a6 98 bd c4 b2 cf 3d e7 2a 7f be
       -0.031201186 -0.074536055 0.10141519 -0.2491871
0003a0 8f 48 be 3d 73 a4 21 3e 95 63 a1 3d 4b f9 32 bc
       0.09291183 0.15785389 0.07880322 -0.010923694
0003b0 20 bb 9e bd bc f8 2d 3e 14 63 64 be bd 04 ba 3c
       -0.07750535 0.16989416 -0.2230342 0.022707338
0003c0 59 2a 0e bd a0 96 2a 3e 2e 28 ae bd 80 11 19 be
       -0.034708355 0.16659021 -0.085037574 -0.14948082
0003d0 04 23 e1 bd 0e f7 9e 3d cc 3b f6 3c 72 2b 08 be
       -0.10993007 0.07761966 0.03005781 -0.13297823
0003e0 d8 2d ac bd 2e 11 15 be aa 0e 0c 3d 04 87 75 bd
       -0.084071815 -0.14557335 0.034193672 -0.059943214
0003f0 45 15 2a 3d c0 24 b0 3c 64 0b 3f bd 4f 89 ea bc
       0.04152419 0.021501899 -0.046641722 -0.028629927

network.0.bias f4 [128]
000000 3e 60 82 3d 64 26 f7 bd 2c d4 bd be 58 75 09 3d
       0.06366013 -0.12067869 -0.37075937 0.033559173
000010 e5 6c 8b be 3f ff 8d 3d 74 5e 3f be 50 12 f2 bc
       -0.27231517 0.0693345 -0.18688375 -0.029549748
000020 5a 3e 0e be f6 a2 94 3d 14 81 2f bd 03 24 24 be
       -0.13890973 0.07257645 -0.042847708 -0.16029362
000030 65 a6 2c 3e ee e9 e8 bc 17 25 eb bd 2a 7f 41 3e
       0.1686035 -0.028431859 -0.11481684 0.18896165
000040 08 f2 de 3c 01 07 a5 bd fe 57 30 bc dc 89 e4 bc
       0.027215019 -0.080579765 -0.0107631665 -0.027897768
000050 68 fd 13 bd 3d 4c 03 3d 9f 59 fd bb 7a 93 09 3e
       -0.03613034 0.03205513 -0.007731631 0.13435164
000060 d2 1f cb 3d 5c d8 af bd 41 62 50 bd bb 71 e2 bc
       0.099181786 -0.08586189 -0.050874952 -0.027642122
000070 cd 55 98 3d 46 7a 9f bd b0 b6 a3 3d 20 0b 4c be
       0.0743824 -0.07786994 0.07993829 -0.19926119
000080 b3 e9 8c 3d ef da 70 3d b5 fa fc 3d 41 de 4a be
       0.06880512 0.05880254 0.12352506 -0.19811346
000090 1c 71 ca bc 6c bb 50 3e 3d 61 2d be c7 a8 d3 3b
       -0.024712138 0.20383996 -0.16931625 0.006459329
0000a0 0e 43 57 be 06 45 59 be 48 f9 20 3e ac dd 1e bd
       -0.21021673 -0.21217737 0.15720093 -0.03878562
0000b0 cc 30 de bd 07 12 b5 bd 97 4f 25 be 9f 27 17 3e
       -0.10849151 -0.08841329 -0.16143642 0.14761208
0000c0 78 d2 2a 3d d9 b4 05 be 59 91 ce bd 9c a1 52 3e
       0.041704625 -0.13057269 -0.100863166 0.20569462
0000d0 c2 43 02 3e 9c db 8a 3e af 72 9b 3e eb 8a 2a bd
       0.1272116 0.27120674 0.30360934 -0.04163639
0000e0 c2 47 c6 bc d4 25 cb ba 18 80 ae bd 63 13 65 be
       -0.024204139 -0.0015498945 -0.08520526 -0.22370677
0000f0 2c 38 9f 3e c3 a9 8f 3e 80 d7 33 bc a7 4e ac bd
       0.31097543 0.28059205 -0.010976672 -0.08413439
000100 bd ee 05 3e 3f 10 2c be c2 24 09 be d6 1b 6c bc
       0.13079353 -0.16803072 -0.13392928 -0.0144109335
000110 7a 7b 81 bd 6b 07 a9 be 16 5d b9 3d 19 f3 1e 3e
       -0.063223794 -0.33013472 0.09050958 0.15522422
000120 ff 97 bc 3d 3e c3 b0 bd 95 1c cc bd a0 ab 8a bb
       0.092086785 -0.086309895 -0.09966389 -0.004231885
000130 05 1e 21 3e a9 51 59 3e a8 06 cc 3d 69 6f 2f be
       0.15734108 0.21222557 0.09962207 -0.17132343
000140 8a 26 71 be 25 c7 98 3e 7f ba 41 be aa e0 3e be
       -0.23549858 0.29839435 -0.18918799 -0.1864039
000150 65 22 3c bd c5 5a c1 bd 27 44 f3 3d e4 a2 61 be
       -0.04593124 -0.09441141 0.118782334 -0.22034794
000160 e5 88 80 3d 29 a7 51 be 10 09 04 3e 6e 87 4c 3c
       0.062761106 -0.20473923 0.12894082 0.012483461
000170 f2 d7 c6 bd 66 5f 18 be c0 d5 49 3d 64 cd 4f 3e
       -0.09709157 -0.14880142 0.049276114 0.20293194
000180 57 03 48 be 49 fb 23 bd 1a 67 f9 3c 8d 08 2d 3c
       -0.19532524 -0.040034566 0.03044467 0.010561121
000190 db f4 1f be 7c ba a6 3d 22 70 cc 3c b2 de f8 bc
       -0.15620749 0.08141038 0.024955813 -0.030379627
0001a0 b2 93 38 be 3f 0b 71 3c 9e 90 ef 3d 9c 84 bb 3d
       -0.18025091 0.014712154 0.116975054 0.091561526
0001b0 1b e7 db 3d aa f3 d8 3c 62 e3 97 3e 64 67 fc bd
       0.10737439 0.026483376 0.29665667 -0.12324408
0001c0 7d 99 b8 bd af 49 7a be b1 69 54 3e b3 ce 68 be
       -0.090136506 -0.2444217 0.20743443 -0.227351
0001d0 b2 17 51 be 77 29 68 be 01 6f e6 bd b3 06 f0 bd
       -0.20419195 -0.22672068 -0.11251641 -0.11720028
0001e0 ba f8 c4 3d f5 2f 33 be bd ea 09 bd b2 5a 1d be
       0.09617753 -0.17498763 -0.03367113 -0.15366629
0001f0 2f 30 ef bc ac de 25 be f1 4e ca bc 2d 4c 08 3e
       -0.02919778 -0.16198224 -0.024695845 0.13310309

network.2.weight f4 [64, 128]
000000 b5 da b2 3c c4 8e db 3c ab 8f 5a bd 4e 95 d6 bd
       0.021832803 0.026801474 -0.05335967 -0.10477696
000010 09 54 f4 3b 85 60 a6 3d a7 f0 c3 3c 94 89 7d 3d
       0.007456307 0.081238784 0.023918463 0.061898783
000020 5b c4 81 bd c9 03 55 3d b9 17 b9 3d bc fe 3b 3d
       -0.0633628 0.052005563 0.09037728 0.04589723
000030 02 89 7b bd dc a9 44 3d 44 15 9d bd 09 d7 5b bd
       -0.061409958 0.048013553 -0.07670072 -0.05367187
000040 d2 54 3d 3d 26 8e 52 3d 48 78 1d 3d 83 cb 16 bd
       0.04622347 0.051405095 0.038444787 -0.036815178
000050 50 01 a2 bd aa 06 3b 3d 7e cd 88 bd 61 32 5b 3d
       -0.079104066 0.045660652 -0.066798195 0.053514842
000060 7f c9 0d bc de e8 11 3d b8 ff 91 ba 31 32 de bc
       -0.008653997 0.03562247 -0.0011138832 -0.027123543
000070 f7 f2 3e bd f4 5f 22 bd 18 88 dd bc b2 cb c8 bd
       -0.046618428 -0.03964229 -0.027042434 -0.09804477
000080 cf b5 e3 3c 7a 0e 72 3c df 45 de bd 61 b1 15 bd
       0.027796654 0.014773959 -0.108531706 -0.036546115
000090 13 eb a8 bd 4d ef 01 3c f3 60 4a bd 6e df 76 3d
       -0.08247962 0.007930589 -0.049408864 0.060271673
0000a0 19 0c 8a bd e8 d3 74 bd a7 dc 9f 3d 64 a1 c1 bb
       -0.06740589 -0.059772402 0.07805758 -0.005909132
0000b0 29 0a 6d 3d 71 de 5a bd 91 8a 9c 3d cd 83 90 bd
       0.057871018 -0.053434793 0.07643617 -0.07056389
0000c0 1b ee 0f bd 5b 73 ba bd 7e 49 90 3d 42 0a 0a 3d
       -0.035139184 -0.091040336 0.070452675 0.03370119
0000d0 a5 5b 00 bd 90 c5 3b 3d 2f 01 8a bc 28 63 ac bd
       -0.0313374 0.045842707 -0.016846268 -0.0841735
0000e0 e0 21 a1 bd f4 54 b6 3c 5f 5b 83 3d 31 4f b3 bb
       -0.07867789 0.022257306 0.06413912 -0.005472087
0000f0 4d 02 ad 3d 9b 06 e2 bc c9 75 0b 3d c8 da a4 3d
       0.084477045 -0.02759104 0.034047876 0.08049542
000100 23 bd 92 3d b6 c2 8b 3c 64 08 82 bd 72 43 64 3d
       0.07164981 0.017060619 -0.06349257 0.055728383
000110 51 23 7e bd 7e 78 a9 bd 72 3c 77 bd 30 4b a1 3d
       -0.0620454 -0.08274935 -0.06036038 0.07875669
000120 3a bd f1 b9 14 7e 00 3d a9 33 47 bd 0f d8 ae bd
       -0.00046108087 0.031370237 -0.04863325 -0.08537304
000130 f7 fa b6 3c 77 9d ae bd 90 87 98 3c e6 60 00 bd
       0.022336466 -0.08526128 0.018619329 -0.03134241
000140 e4 3c 80 3a 35 81 8a 3d 09 1f c9 bd 6f 86 d1 3c
       0.0009783772 0.067629255 -0.098203726 0.025576798
000150 28 51 18 bd 26 2d 14 bd 15 d4 06 be 8b 4e 22 bd
       -0.03718677 -0.03617587 -0.1316684 -0.039625686
000160 1f a9 fe 3c 86 d6 03 3d 50 ca b4 bd a6 65 0e 3c
       0.031086503 0.032187007 -0.088276505 0.008691227
000170 e5 61 0b 3a b2 1f 1e 3d 53 4c 54 bc 51 59 92 3d
       0.00053170166 0.038604446 -0.01295765 0.07145942
000180 3f 71 70 3d f2 22 bb bd ef 4f 4b 3d ac df 57 bc
       0.05870175 -0.09137525 0.049636777 -0.013175886
000190 7f 3e a6 bc a3 95 5c bd e2 73 52 bd 2b 59 3e 3c
       -0.020293472 -0.053853642 -0.051380046 0.011617939
0001a0 d0 f3 2e bd ca 34 52 3c 47 98 4d bc ce b1 df bc
       -0.042712986 0.012829969 -0.012548513 -0.027306464
0001b0 6c 59 a5 3d fb 89 97 bd dc 19 05 bd 84 38 70 3d
       0.080736965 -0.073993646 -0.032495365 0.058647648
0001c0 db 98 07 3d d0 71 3d 3d 86 0f 37 3d 8e 82 ad bd
       0.03310476 0.04625112 0.04469254 -0.08472167
0001d0 24 b3 3c 3d 82 b4 86 bc f8 fd 7d 3d b8 15 8f bc
       0.04606928 -0.016443495 0.06200978 -0.017466411
0001e0 61 3d 3f 3d 54 2d ba 3b 75 2d 28 3d 6d 11 d7 bc
       0.046689395 0.005681673 0.041058976 -0.026253426
0001f0 10 4e b2 bc 67 52 15 3d 9f d0 07 3d 5c 64 88 bd
       -0.021765739 0.036455538 0.03315794 -0.06659767
000200 66 24 45 bd 74 f1 f5 3c 05 47 ae bd ad b2 59 bd
       -0.048130415 0.03002236 -0.0850964 -0.053148914
000210 50 63 36 3c d1 bd aa 3d e9 08 b7 bd 28 be 7b bc
       0.011132076 0.08336986 -0.08937246 -0.015365161
000220 84 3a 85 bd b8 12 1a bc 1b 19 a0 3d a5 d6 8a bd
       -0.065053016 -0.009403877 0.078172885 -0.067792214
000230 be d1 73 3d 54 36 b1 3c 20 ce 3d 3c 12 3e 6e 3d
       0.059526198 0.021632351 0.011584789 0.058164664
000240 62 da 32 3d 18 9b e5 3c 08 f2 4c 3c 88 70 6b bd
       0.043665297 0.028028056 0.012508877 -0.057480365
000250 d7 ab e2 bd 4e 9c 72 3d 1e 44 04 bd 18 c3 a3 bd
       -0.11067932 0.059231095 -0.032291524 -0.079961956
000260 06 a4 ec bc 7a e8 7e bd 63 91 93 3d 43 b5 85 3d
       -0.028886806 -0.062233426 0.07205465 0.065287136
000270 89 d7 d7 bd d0 0b 13 3d 05 bd 13 bd 69 04 ad 3d
       -0.10539157 0.035899937 -0.036068935 0.08448107
000280 80 8f 08 3c 90 c8 b1 bb 7a 78 0e 3d 79 42 9b bd
       0.008334994 -0.0054255202 0.034782864 -0.07581038
000290 4f 99 0f bd f5 83 95 3d fd 12 9b 3d c9 3d 2d bd
       -0.035058316 0.073005594 0.07571981 -0.04229525
0002a0 07 37 88 3d a0 8e 94 bd a0 a7 8e bd 60 e5 36 bd
       0.06651121 -0.07253766 -0.06965566 -0.044652343
0002b0 f3 36 e0 bd 6b cb 49 3d 80 90 54 bc c7 ec 40 bd
       -0.10947981 0.04926626 -0.012973905 -0.04710081
0002c0 ac bd dd 3c 4c 82 2a bd 52 f3 54 3d fa b7 4f 3d
       0.027067982 -0.041628167 0.05198986 0.050712563
0002d0 99 7b 85 bd 70 86 a0 3c 83 3d 36 bd 62 04 32 3d
       -0.06517715 0.019595355 -0.044492256 0.04346121
0002e0 e5 e3 7b bd 80 8b bb 3a 94 b0 da 3c ae cd 8f bd
       -0.061496634 0.0014308542 0.026695527 -0.07021652
0002f0 bc e3 de 3c 09 ec 0a bd 2e 57 06 3d 9d 93 19 bd
       0.027208202 -0.033916507 0.032797985 -0.03749429
000300 08 43 9d bc eb 4a ad bd c3 93 1e bd 57 50 88 3d
       -0.019197002 -0.08461555 -0.038715135 0.066559486
000310 70 16 ff 3c 78 f1 be bd d8 c6 96 bd 27 1f 89 3d
       0.031138629 -0.093234 -0.07362145 0.06695395
000320 00 bf 1b bd 46 fa 8f bd ef 4b 14 bd bb 31 a1 3c
       -0.03802395 -0.07030158 -0.03620523 0.019677034
000330 00 c4 2f 3c 53 13 39 bd aa 79 33 3d cc b3 7b 3d
       0.010727882 -0.045184445 0.0438172 0.061450765
000340 68 e4 a2 3c d5 79 be bd a8 ed c5 bc 8f 36 b4 bd
       0.019884303 -0.09300581 -0.024161175 -0.08799469
000350 19 7a 9a 3d e2 ed 6c bd a0 f3 26 bb eb f9 a0 bd
       0.075428195 -0.05784405 -0.0025474802 -0.07860168
000360 2b 84 f0 bc 2c f6 7f bd fa ff 8e bd 11 80 82 bd
       -0.029359898 -0.062490627 -0.069824174 -0.06372083
000370 be 23 1a 3d bf 04 b5 bd 13 28 40 3d 8a 1c 1c 3d
       0.037631743 -0.08838796 0.046913218 0.038113154
000380 e2 1e 42 3d 0a 29 65 3d ca 39 a5 bc 38 6e b8 bc
       0.047392733 0.05594734 -0.020169158 -0.022513494
000390 e9 e9 a6 bd e9 1e 57 bd 86 68 77 bd c1 8d dc bd
       -0.081500836 -0.052519713 -0.060402416 -0.10769225
0003a0 14 0f 16 bd c0 67 ee ba 8d a3 f0 bc 60 72 61 3c
       -0.036635473 -0.0018188879 -0.029374862 0.013760179
0003b0 08 e2 78 bd 76 db d2 3c ac 33 a8 bd 3c 5c f7 3c
       -0.060762435 0.025739413 -0.08212981 0.030195348
0003c0 1d f9 0f bd c7 1b 48 3d 34 cf 95 bd ad dd a8 3d
       -0.035149682 0.048854616 -0.073149115 0.08245406
0003d0 80 c4 83 bd 7e 5b ad bd 88 97 14 bc 04 f6 7b bd
       -0.06433964 -0.084647164 -0.009069331 -0.061513916
0003e0 58 1f 13 3c d5 62 81 bd 90 a6 18 bc a8 7c 39 bc
       0.008979641 -0.06317679 -0.009317055 -0.011321224
0003f0 fa 2d 00 bd 10 1f 6b 3c 0b b2 4d bd 02 43 53 3d
       -0.031293847 0.014350668 -0.050218623 0.051577576

network.2.bias f4 [64]
000000 61 1f 4e 3d f6 e1 21 bc 60 f9 8b 3d 91 45 46 bd
       0.050322894 -0.009880533 0.06834674 -0.048406187
000010 cf eb 38 3e 7e d6 cf bd 18 fa fd 3c cb 64 4f bc
       0.18058704 -0.10148333 0.031003043 -0.012658308
000020 64 20 a5 bc 06 64 a5 3d 67 71 09 bc 4b cb 29 be
       -0.020157047 0.080757186 -0.008388854 -0.16581456
000030 a5 51 c8 3d bd 3a 8a bd 3e cd d1 bd c9 a9 9c bd
       0.097811975 -0.06749485 -0.10244225 -0.076495714
000040 d1 4e 9a 3b 88 9d 0b 3d 59 87 a7 bc 3a ab 53 3d
       0.0047091027 0.03408578 -0.020450281 0.051676966
000050 b7 01 19 3c 13 0f 23 3d e1 29 cc 3d 07 4d 73 bc
       0.009338788 0.039809298 0.09968925 -0.014849908
000060 49 43 bb bc 4f 4e a4 bd 7a 60 e3 3c 4d 7d 6c 3d
       -0.022859233 -0.08022749 0.027755965 0.057736684
000070 0e d3 8a 3c 3d 6f 90 3d bc 4d 86 bd 16 da 58 3d
       0.016946342 0.07052467 -0.065577954 0.052942358
000080 3d 5c a6 3c b7 39 5f bd 1e 65 5c 3a 71 fe 9c bd
       0.020307655 -0.0544984 0.00084074016 -0.07665718
000090 57 41 83 3d ae 8b a7 bd e1 f6 4c 3e a0 94 ba bd
       0.06408947 -0.08180939 0.20016052 -0.09110379
0000a0 e8 3a ab 3c 86 13 07 3d a3 0f fb bc 5a 8a 60 3c
       0.020902112 0.032977603 -0.030647105 0.013704861
0000b0 df db 0f bd eb fc 23 3e a0 23 a8 3d e7 bd b2 bd
       -0.035121795 0.1601445 0.0820992 -0.08727627
0000c0 62 dd c2 3d 87 12 41 3d 9f 6e 0e 3e b7 30 0c be
       0.09514882 0.04713681 0.13909386 -0.13690458
0000d0 d6 22 e9 bd 20 90 0f 3d 23 76 26 be ad ed 3d 3d
       -0.113835976 0.035049558 -0.16256003 0.046369243
0000e0 c3 74 0b be 47 27 23 3e 9d 46 42 be b0 13 21 3e
       -0.1361876 0.15932952 -0.1897225 0.15730166
0000f0 01 4e de 3d 18 e8 a0 3d b7 ea 9e 3b 77 2f 2f 3e
       0.10854722 0.07856768 0.0048497575 0.1710795

network.4.weight f4 [1, 64]
000000 16 f9 6d bd 47 58 a4 bd 4e d8 e1 bd 32 9b 84 3d
       -0.058098875 -0.0802465 -0.11027585 0.06474914
000010 bc ee 86 bd 21 82 c3 3c 9a d2 98 3d 44 0e 75 bc
       -0.06588504 0.023865761 0.07462044 -0.0149570145
000020 2d da dd 3d 4e 6a a6 ba 84 45 47 39 0a 85 01 bb
       0.10832629 -0.0012696476 0.00019004015 -0.0019763135
000030 7e ef 24 bd 3d 82 c4 3d af 6a b8 bb 57 25 95 bd
       -0.04026746 0.095951535 -0.005627952 -0.07282513
000040 4e c7 77 3b a9 06 05 bd ee 09 87 3b 5f d6 d3 b9
       0.0037808004 -0.032477055 0.0041210568 -0.00040404775
000050 8f 3c 7f 3d 69 79 a5 ba 0d ad 37 bd 7c 36 95 ba
       0.062313613 -0.0012624684 -0.04484277 -0.0011384035
000060 2d f5 b3 bb 95 bf 0e 3b b9 f7 5c 3c 8d 17 57 bd
       -0.0054918737 0.0021781672 0.013486796 -0.052512694
000070 7d 0c b9 bd 87 9f e4 bc 04 51 97 3c 48 23 d6 3c
       -0.09035585 -0.0279081 0.018471248 0.02613987
000080 92 66 83 b8 4b bb 9d 3d c3 23 ba 38 2d 50 59 3c
       -6.265672e-05 0.07701739 8.875832e-05 0.013263744
000090 fa 9b 4e 3a 15 c3 85 bd a2 a6 35 bd f4 b5 95 3c
       0.00078815187 -0.065313496 -0.044348367 0.018275239
0000a0 f8 ce 67 bb 69 dc f1 bc 2f 5d 8f 3d 10 24 e3 3b
       -0.0035371166 -0.029524045 0.07000195 0.006931789
0000b0 8c f4 a9 3b 13 b8 38 bc 74 18 8d bb 39 6c 69 bd
       0.005186623 -0.011274355 -0.0043058936 -0.056987975
0000c0 38 8f d2 ba 45 9b a0 bc e8 29 a4 bc 8b 6e 27 3d
       -0.0016064411 -0.019605288 -0.020039514 0.040876906
0000d0 e5 9f db 3c 71 ab dd 3d 01 b3 95 3d 6d 9e 66 bc
       0.026809642 0.108237155 0.07309533 -0.014075858
0000e0 c4 d3 94 bb ac 54 74 bb da a1 68 3c 75 85 81 3b
       -0.004541846 -0.0037281914 0.014198745 0.003952677
0000f0 61 b7 0b bc ac 94 77 bc 30 ed 85 3b 5c 3d 09 bd
       -0.008527608 -0.01511113 0.004087113 -0.033505782
