models/rl/ppo/ppo_20250315_232105/ppo_episode_21.pt (torch, 286386 bytes, 33 tensors)

network.0.weight f4 [128, 22]
0	0x3dc8498d	0.09779654
1	0x3e122b02	0.14274219
2	0xbed20df7	-0.4102628
3	0x3e8551b7	0.26038906
4	0x3d3caa76	0.046061
5	0x3df047cb	0.117324434
6	0xbc729a91	-0.014807359
7	0x3dd482f3	0.10376539
8	0x3e9ea7ff	0.30987546
9	0xbefbcf4a	-0.49181587
10	0x3e050156	0.12988791
11	0x3ea76014	0.3269049
12	0x3dbc0fb6	0.09182684
13	0xbc7e91e0	-0.015537709
14	0x3dd18ef3	0.102323435
15	0xbdbaf374	-0.09128466
16	0x3e02d9e7	0.12778436
17	0xbe57baa3	-0.2106729
18	0xbea9a58a	-0.3313411
19	0x3ddaf1b5	0.10690633
20	0xbdf902a2	-0.12158705
21	0x3e86d3c3	0.26333436
22	0xbe1231f1	-0.14276864
23	0x3d8eb2e8	0.069677174
24	0xbeb9ca2a	-0.3628705
25	0xbe302dd7	-0.17204987
26	0xbda789e9	-0.08180601
27	0xbe1cca16	-0.15311465
28	0xbdd9b0d9	-0.10629434
29	0xbdfabf3a	-0.12243505
30	0x3dfbd588	0.12296587
31	0xbe3a5ece	-0.18200228
32	0x3e53d596	0.20686945
33	0x3eb8c672	0.36088902
34	0xbe0066dc	-0.12539238
35	0x3d7bdc92	0.06148965
36	0x3d941a8e	0.072316274
37	0x3dedc7b8	0.11610359
38	0xbd4a6cb5	-0.049420077
39	0xbece11d7	-0.40247986
40	0xbeab8303	-0.33498392
41	0x3cff0cb4	0.031133987
42	0xbc0f46e6	-0.008744931
43	0x3ebe7dad	0.37205258
44	0x3de0bfd6	0.1097409
45	0xbdeb0339	-0.11475224
46	0x3e0d15db	0.13777868
47	0x3ce87011	0.02837375
48	0x3dc3e116	0.09564416
49	0xbe2014af	-0.1563289
50	0xbe74f68e	-0.23922178
51	0xbdaa701c	-0.083221644
52	0xbe422a75	-0.18961509
53	0x3e332356	0.17493948
54	0x3d6b6475	0.05746885
55	0x3dc24dbe	0.094874844
56	0x3d5a0c98	0.053234667
57	0xbcb950d5	-0.022621552
58	0x3e236568	0.15956652
59	0xbe243b00	-0.16038132
60	0xbbea3fbd	-0.0071487115
61	0xbe152583	-0.14565091
62	0x3d9ed6d9	0.07755823
63	0xbd69d9b7	-0.057092395
64	0x3d3e20ee	0.046418123
65	0xbd7ca86f	-0.06168407
66	0x3e2b6c30	0.16740489
67	0xbe246311	-0.16053416
68	0x3d75c3bb	0.060001116
69	0xbe4a5a3a	-0.19760981
70	0x3dfb1117	0.12259119
71	0x3c45265b	0.01203307
72	0x3e820cb6	0.25400323
73	0xbea4a3ff	-0.3215637
74	0xbe5dc0a2	-0.21655515
75	0xbe7d723e	-0.24750611
76	0xbe7eb2df	-0.24872921
77	0xbe801f99	-0.25024107
78	0x3d89dc00	0.06731415
79	0x3e1d5f66	0.15368423
80	0xbe1dbcd6	-0.15404066
81	0xbe22f612	-0.15914181
82	0x3da6c280	0.08142567
83	0x3da59076	0.08084194
84	0x3f30355a	0.6883141
85	0xbd5f48f4	-0.054512933
86	0x3db3ee48	0.08785683
87	0xbea9313b	-0.33045372
88	0x3bb79b7c	0.005603252
89	0x3d8f31ad	0.06991897
90	0xbe37b67a	-0.17940703
91	0x3c318abf	0.010836302
92	0x3e3986e2	0.1811786
93	0x3e4c417f	0.1994686
94	0xbe4adbd3	-0.19810419
95	0xb838a454	-4.402206e-05
96	0x3e56d5b9	0.20979966
97	0xbda092a9	-0.07840473
98	0xbc4c1eb4	-0.012458492
99	0x3dc4562e	0.0958675
100	0xbb9aca70	-0.0047238395
101	0x3d4b4993	0.049630713
102	0xbcb7405b	-0.022369554
103	0xbd26b090	-0.040695727
104	0x3c5ca323	0.013466629
105	0xbef42322	-0.47683054
106	0xbf325ff2	-0.6967765
107	0xbdde8128	-0.10864478
108	0xbe270ebc	-0.16314214
109	0x3dacbb04	0.08434108
110	0x3e610483	0.21974377
111	0x3d364ae0	0.044505
112	0x3d63f9cf	0.055658158
113	0xbe65cf84	-0.22442442
114	0xbe12101e	-0.1426396
115	0xbd96b38e	-0.07358466
116	0x3d223ef0	0.039610803
117	0xbe62f5a9	-0.22164024
118	0xbda873f6	-0.08225243
119	0xbe02b329	-0.12763657
120	0xbd20103e	-0.03907799
121	0xbca1a439	-0.019731628
122	0xbc055def	-0.008140071
123	0xbe131487	-0.143633
124	0xbe17fe8f	-0.148432
125	0xbe11c256	-0.1423429
126	0xbd90188f	-0.07035934
127	0xbe4b08a5	-0.19827516
128	0x3e8f77f5	0.28021207
129	0xbc75ce3b	-0.015002782
130	0x3e4d0fc0	0.2002554
131	0x3d70d443	0.05879618
132	0xbe282064	-0.16418606
133	0x3da70fe4	0.08157328
134	0x3e53d449	0.20686449
135	0xbe31cd18	-0.17363393
136	0xbe9ea324	-0.3098384
137	0xbeae50b0	-0.34045935
138	0x3c985ae8	0.018598035
139	0xbe27af00	-0.16375351
140	0xbc449d69	-0.01200042
141	0xbb9fd846	-0.0048780767
142	0x3dc41c9f	0.095757715
143	0xbee1a6bd	-0.44072524
144	0xbca6fccf	-0.02038422
145	0xbc8126ad	-0.015765512
146	0x3da68cbe	0.08132313
147	0x3e41174d	0.18856545
148	0x3e09b78d	0.13448925
149	0x3dd78d99	0.105250545
150	0x3ee5f346	0.44912165
151	0xbdcbfad2	-0.099599496
152	0xbd8deb32	-0.069296256
153	0xbee62b77	-0.44955036
154	0x3e2e7137	0.17035376
155	0xbe389c9c	-0.18028492
156	0x3df6e6b9	0.120557256
157	0x3d766883	0.060158264
158	0x3d529a8b	0.051416915
159	0xbe0f0d97	-0.13970028
160	0x3e2ca9f9	0.16861714
161	0x3d2e94b6	0.04262229
162	0x3b13bdef	0.002254363
163	0xbe4064b4	-0.18788415
164	0x3daea25b	0.085270606
165	0xbc95f73f	-0.018306373
166	0xbdf311eb	-0.11868652
167	0x3e2284c7	0.15870963
168	0x3d2c9465	0.042133708
169	0xbe03af89	-0.1285993
170	0xbe07ba28	-0.13254607
171	0xbb47afdb	-0.0030469808
172	0x3deb5fee	0.114929065
173	0xbd187efd	-0.03723048
174	0xbe158dc6	-0.14604864
175	0xbdc78e6c	-0.09743962
176	0xbd8908ef	-0.06691157
177	0x3c148c36	0.009066632
178	0xbd76165a	-0.06007991
179	0xbe1b30a1	-0.15155269
180	0x3d37f272	0.04490895
181	0x3dcc5529	0.099771805
182	0x3bd954b2	0.006632411
183	0xbd822eb5	-0.06356565
184	0x3e0cc3fa	0.13746634
185	0x3da9a572	0.08283509
186	0x3cf3000e	0.029663112
187	0x3ea6adf8	0.32554603
188	0x3d134c8f	0.035961684
189	0xbd5be2bb	-0.053683024
190	0x3d22bd73	0.039731454
191	0x3ced00f2	0.028931115
192	0x3d86789d	0.06565974
193	0xbd1ea002	-0.038726814
194	0xbf086504	-0.5327914
195	0xba0dd2f2	-0.00054101564
196	0xbcbc2ecd	-0.022971535
197	0x3d9d15d3	0.07670178
198	0x3d4a6142	0.04940916
199	0x3cb65b8f	0.022260455
200	0xbea0f6de	-0.31438345
201	0xbd46ed9a	-0.04856644
202	0x3e186a2b	0.1488425
203	0x3d54ed0d	0.05198388
204	0xbdce3ba1	-0.10069967
205	0xbd261fc6	-0.040557645
206	0xbe28b7ea	-0.16476408
207	0xbdcd8167	-0.10034447
208	0xbcfe874b	-0.031070372
209	0x3eac154d	0.3361
210	0x3e0988b4	0.13431054
211	0x3d678612	0.056524344
212	0xbdeccf85	-0.11563019
213	0xbe0f8bec	-0.1401822
214	0xbd94fbb8	-0.07274574
215	0x3e2e0816	0.16995272
216	0xbeeb1a01	-0.45918277
217	0xbc8bf71f	-0.01708561
218	0x3d81e7a4	0.0634301
219	0xbd988206	-0.07446675
220	0xbe13b326	-0.14423808
221	0x3ddde6fe	0.10835074
222	0xbe6c5e89	-0.23082937
223	0x3d019c9b	0.03164349
224	0xbe8001cb	-0.25001368
225	0x3dcc7214	0.09982696
226	0x3d6f0e8b	0.05836348
227	0x3e2b0fa6	0.16705188
228	0xbe46e989	-0.19425024
229	0xbdb05f4c	-0.086119264
230	0xbe0ce587	-0.13759433
231	0x3eb90cf4	0.36142695
232	0x3dc4ee1f	0.096157305
233	0x3e075042	0.1321421
234	0x3e641b4b	0.22276036
235	0x3d43932b	0.047747772
236	0xbd30124e	-0.042986207
237	0xbe21f6cf	-0.15816806
238	0xbf29ed4c	-0.6637771
239	0xbe24ea2b	-0.16104953
240	0x3d7989a3	0.060922276
241	0xbe2b3b19	-0.16721763
242	0xbd76ffcf	-0.06030255
243	0xbe1125bd	-0.14174552
244	0xbca4e2e3	-0.02012772
245	0xbe2c134d	-0.16804238
246	0xbe221f1b	-0.15832178
247	0x3d53d0d0	0.05171281
248	0xbda8b3e0	-0.082374334
249	0x3e06c6e0	0.13161802
250	0xbdb3033c	-0.08740851
251	0xbe20268d	-0.15639706
252	0xbd1a1430	-0.03761691
253	0xbdb2323a	-0.08700986
254	0xbda8ff39	-0.08251805
255	0xbe63578d	-0.22201367

network.0.bias f4 [128]
0	0x3e6bb8ed	0.23019762
1	0xbe073db1	-0.13207127
2	0xbdf8baa6	-0.12144975
3	0x3dce87f5	0.100845255
4	0x3e11691a	0.1420025
5	0xbdfd58bd	-0.12370441
6	0xbd8c04c4	-0.068368465
7	0x3daa0ff4	0.08303824
8	0xbe4753a9	-0.19465508
9	0x3c44a612	0.012002485
10	0x3c1bd1f2	0.009510504
11	0xbcdfc4ad	-0.027315462
12	0x3e89c9be	0.2691173
13	0xbe1ffd6c	-0.15624017
14	0x3decb504	0.115579635
15	0xbd39b8bb	-0.04534219
16	0xbe303d0b	-0.17210786
17	0x3e187bdf	0.14891003
18	0xbe1f6d85	-0.15569122
19	0xbd996c9c	-0.07491419
20	0x3dee3f55	0.116331734
21	0xbe363881	-0.17794992
22	0xbe47d6fe	-0.19515607
23	0x3d95ea3c	0.07320067
24	0x3e297a39	0.1655053
25	0xbcb04ae7	-0.021520091
26	0x3df90454	0.12159029
27	0x3e0f2e81	0.13982584
28	0x3d7b6000	0.06137085
29	0xbe0e7ac7	-0.13914023
30	0x3e25f00f	0.16204856
31	0x3db6b514	0.08921257
32	0x3b03ba2e	0.0020099985
33	0x3dabb866	0.083847806
34	0xbe423886	-0.18966874
35	0xbd429fb8	-0.0475156
36	0xbd919a18	-0.07109469
37	0x3d0aa453	0.033848118
38	0x3ce892d8	0.028390333
39	0x3ddd1039	0.1079411
40	0x3d7beed0	0.061507046
41	0xbddfe96e	-0.10933195
42	0xbe135bb3	-0.14390449
43	0x3afe6b20	0.0019410588
44	0xbdd24803	-0.102676414
45	0xbe47981e	-0.19491622
46	0x3e53ccc5	0.20683582
47	0xbdc773e7	-0.097389035
48	0xbe6de120	-0.2323041
49	0x3dbf40fe	0.09338568
50	0x3cf33a0a	0.029690761
51	0xbe5cb1b3	-0.21552162
52	0x3da52404	0.0806351
53	0xbd1dfaca	-0.03856925
54	0x3d688aae	0.05677288
55	0x3e85cd84	0.26133358
56	0x3deb0ed3	0.11477437
57	0x3d6d035b	0.05786453
58	0xbccad7e0	-0.02476114
59	0x3d2074e5	0.03917398
60	0x3d769dae	0.06020897
61	0x3cc4e2fa	0.024034012
62	0xbd2a38ae	-0.04155796
63	0x3cf3b098	0.029747292
64	0xbd0b2d57	-0.033978786
65	0xbd8bbb5e	-0.06822847
66	0xbe6bc5a0	-0.23024607
67	0xbe3958c6	-0.1810027
68	0xbe804616	-0.2505347
69	0x3e61ec31	0.22062756
70	0x3d260534	0.040532306
71	0xbe7778cd	-0.24167176
72	0xbdfd9def	-0.12383639
73	0x3d021b53	0.03176434
74	0xbd94210a	-0.07232864
75	0xbdd04ab6	-0.101705
76	0xbe0674e5	-0.13130529
77	0x3c0c54b8	0.00856512
78	0x3bb2b5a5	0.0054537826
79	0xbc1a72ff	-0.009426831
80	0x3e26d02d	0.1629035
81	0x3e262b34	0.16227418
82	0x3e0829d1	0.13297202
83	0xbd6fb5c7	-0.058522966
84	0xbdb6c91b	-0.089250766
85	0xbd441415	-0.047870714
86	0xbe2b6461	-0.1673751
87	0x3d73e556	0.059544884
88	0xbe1820b0	-0.1485622
89	0xbe358cd7	-0.17729507
90	0xbe7d50da	-0.24737874
91	0x3dcbce46	0.09951453
92	0x3d999f70	0.075011134
93	0x3e6f251e	0.23354003
94	0xbe006c6d	-0.12541361
95	0xbcdf9f93	-0.02729777
96	0xbc076741	-0.008264364
97	0xbd934bc9	-0.07192189
98	0xbe15e47e	-0.14637944
99	0x3df81da2	0.12115027
100	0xbe0b5268	-0.13605654
101	0x3db8de08	0.09026724
102	0x3d8a21da	0.06744738
103	0x3d8b902a	0.068146065
104	0x3e2c1eb6	0.1680859
105	0x3de415c1	0.11136962
106	0x3df02551	0.117258675
107	0x3da9631a	0.08270855
108	0xbd93a0b4	-0.07208386
109	0xbde78a1b	-0.113056384
110	0xbd94e4b0	-0.07270181
111	0x3db1185e	0.08647226
112	0x3e02ba9b	0.12766497
113	0x3e646dac	0.22307462
114	0xbe09a408	-0.13441479
115	0xbcb3e049	-0.021957533
116	0xbe821406	-0.25405902
117	0x3de8a11f	0.113588564
118	0xbe447508	-0.19185269
119	0xbe0c4ecb	-0.13701932
120	0x3e344772	0.17605379
121	0x3d37a8a4	0.044838563
122	0xbcb25603	-0.02176953
123	0xbe30144b	-0.17195241
124	0xbe5d72f1	-0.21625878
125	0x3db659bf	0.089038365
126	0xbe478b0d	-0.19486637
127	0x3e06f7ce	0.13180467

network.2.weight f4 [64, 128]
0	0x3d626707	0.055274036
1	0xbbd367e7	-0.006451595
2	0xbbe0392f	-0.0068427543
3	0x3d63ecf6	0.055645905
4	0x3cc1bdb4	0.023650028
5	0x3daec215	0.08533112
6	0x3d6f3868	0.058403403
7	0xbd7538e8	-0.059868723
8	0x3d32e473	0.043674897
9	0x3cf59075	0.029976109
10	0xbd9c5151	-0.076326974
11	0x3d2de082	0.042450435
12	0xbd8483c6	-0.06470446
13	0xbd6e0ce6	-0.05811777
14	0x3ad82280	0.0016489774
15	0xbcb8b85e	-0.02254885
16	0xbcd1c55b	-0.025606802
17	0xbd8691ca	-0.06570776
18	0x3d182372	0.03714318
19	0x3db47d2b	0.088129364
20	0xbd1841de	-0.03717219
21	0xbd73eea8	-0.059553772
22	0xbc4ca783	-0.01249111
23	0xbd9d9769	-0.07694895
24	0xbda3553f	-0.07975244
25	0xbd184413	-0.037174296
26	0x3d23f241	0.040025953
27	0xbd3a3988	-0.045465022
28	0xbcc62856	-0.024189156
29	0xbd3bfef2	-0.04589743
30	0xbdc83a08	-0.097766936
31	0xbcfa3fbb	-0.030547967
32	0xbb87fffc	-0.0041503888
33	0xbcb6261b	-0.022234967
34	0x3d88ebfa	0.06685634
35	0x3c931783	0.017955547
36	0x3d81127c	0.06302354
37	0x3d19f08c	0.03758292
38	0x3bd513ae	0.00650259
39	0x3d0a61fd	0.033784855
40	0xbd89c28d	-0.06726561
41	0x3d3e7d0b	0.04650597
42	0x3d27638f	0.04086643
43	0xbcfdb5df	-0.030970512
44	0xbbf52ae3	-0.007481919
45	0xbdb13769	-0.08653147
46	0xbd98099e	-0.07423709
47	0xbc8e7b43	-0.01739276
48	0x3ba27d60	0.0049587935
49	0xbcfd81cc	-0.030945681
50	0x3c4fb598	0.012677573
51	0xbd6a5ad2	-0.05721552
52	0xbd681711	-0.056662623
53	0x3d81ed90	0.063441396
54	0xbdc3fc01	-0.0956955
55	0x3c85a88e	0.016315725
56	0x3d8de698	0.06928748
57	0x3d51d998	0.051232904
58	0x3c6aa33e	0.0143211465
59	0xbdc47688	-0.095929205
60	0xbba1f301	-0.0049422984
61	0xbd1a8c49	-0.037731443
62	0xbcc65501	-0.024210455
63	0x3d8ab215	0.06772248
64	0xbd4a6082	-0.049408443
65	0xbd782fc0	-0.060592413
66	0xbdac1e7a	-0.084042504
67	0x3d2eb7ba	0.042655684
68	0xbc18fd58	-0.009337746
69	0x3da25f03	0.07928278
70	0x3b501145	0.0031748575
71	0xbda40a19	-0.080097385
72	0x3c67a106	0.014137512
73	0x3d932a32	0.071857825
74	0x3d2009e0	0.039071918
75	0x3d06cca0	0.03290999
76	0xbdb7d3ce	-0.089759454
77	0xbd5a3f9e	-0.053283326
78	0x3d8b9186	0.06814866
79	0xbd902ffb	-0.070404015
80	0x3ca52fb0	0.02016434
81	0xbc877270	-0.01653406
82	0x3cb33d90	0.021879941
83	0x3b9c3077	0.0047665196
84	0xbd89f25a	-0.06735678
85	0xbd4ee043	-0.05050684
86	0x3d94000c	0.072265714
87	0x3b2f091d	0.0026708313
88	0x3d3a8c54	0.045543984
89	0xbd30f5c2	-0.043203123
90	0x3d8ef877	0.06980985
91	0xbca2a790	-0.01985529
92	0xbd3090de	-0.043106906
93	0x3c055474	0.008137811
94	0xbd303e12	-0.043027945
95	0xbd2a4d14	-0.041577414
96	0xbd02e43b	-0.03195594
97	0xbb90a9dc	-0.00441478
98	0xbd776120	-0.06039536
99	0x3c93791b	0.018002084
100	0xbdb1f7a1	-0.086898096
101	0x3d7a448d	0.06110053
102	0x3db63689	0.088971205
103	0x3c00cbba	0.007861072
104	0xbd19f49d	-0.037586797
105	0xbdb6d41d	-0.08927176
106	0x3c93a2fd	0.018022055
107	0x3d739f05	0.059477825
108	0x3d9ac20f	0.07556545
109	0x3c0121d0	0.007881597
110	0x3c1ddb9f	0.009634881
111	0x3dad7457	0.08469456
112	0x3c7714b3	0.015080619
113	0xbd3e5a7b	-0.046473008
114	0xbdaa43ac	-0.08313689
115	0x3cf04d5d	0.029333765
116	0x3d2cb5d1	0.04216558
117	0x3da5cbe0	0.08095527
118	0xbd7a34c3	-0.061085474
119	0x3d283af7	0.04107186
120	0xbcef9068	-0.029243663
121	0xbcd874c2	-0.026422862
122	0x3d3039c1	0.04302383
123	0xbdbdce04	-0.0926781
124	0x3d88f75c	0.06687805
125	0x3cf4fab6	0.029904705
126	0xbd572aa5	-0.052530903
127	0x3d4db1dd	0.05021845
128	0xbd1bc125	-0.038025994
129	0xbb212201	-0.0024586918
130	0xbccc6a39	-0.024952995
131	0xbdc9658a	-0.0983382
132	0xbcdca573	-0.026934361
133	0x3d2b5822	0.041832097
134	0xbccec8e2	-0.025242273
135	0xbd37858b	-0.04480509
136	0xbbe8960a	-0.007097964
137	0x3c02c4ff	0.007981538
138	0xbd1a4e96	-0.0376726
139	0xbd8c60ab	-0.068543755
140	0xbd7459ef	-0.05965608
141	0xbba66365	-0.0050777667
142	0x3d0262b8	0.031832427
143	0x3d8342f8	0.06409258
144	0xbc44596e	-0.011984212
145	0x3d01a006	0.03164675
146	0x3d101abb	0.035181742
147	0xbd1dde1a	-0.03854189
148	0xbd2cfb80	-0.042232037
149	0x3d702472	0.058628507
150	0x3d64e968	0.055886656
151	0x3c8dc06a	0.017303664
152	0xbd9a1e05	-0.07525257
153	0x3d4d7cfe	0.05016803
154	0xbdbe55f8	-0.09293741
155	0xbbceec29	-0.0063147736
156	0xbcd498f9	-0.02595185
157	0x3ce9e33c	0.028550737
158	0xbdb86a4f	-0.09004652
159	0xbd17d02b	-0.03706376
160	0x3d1476ba	0.03624604
161	0x3d824c12	0.063621655
162	0xbc9285ca	-0.017886061
163	0x3d85622a	0.06512864
164	0xbcacf30c	-0.021111988
165	0xbd6d5b4e	-0.057948403
166	0xbd3dc7bd	-0.046333063
167	0xbb63a969	-0.0034738427
168	0xbcb8867b	-0.022525063
169	0x3d1dfdd2	0.03857214
170	0xbd4da89a	-0.05020962
171	0xbcd7a473	-0.026323533
172	0xbdbc52c4	-0.09195474
173	0x3d84db7f	0.06487178
174	0xbcb7ed99	-0.022452163
175	0xbda74438	-0.081673086
176	0xbc8fa1b2	-0.017533157
177	0xbc3f8443	-0.0116892485
178	0x3c4562a5	0.0120474445
179	0xbc64d4b6	-0.01396673
180	0x3cd8b84e	0.02645507
181	0xbd078719	-0.033087824
182	0xbcff52c5	-0.031167397
183	0xbd027d82	-0.031857975
184	0x3c69f4f0	0.014279589
185	0x3d5e3500	0.054249763
186	0xbcb77ddd	-0.022398883
187	0x3d4e7e8b	0.05041365
188	0x3d542c63	0.051800143
189	0xbdbd6a8f	-0.0924884
190	0xbc1273a4	-0.008938704
191	0xbd2ae753	-0.041724514
192	0x3cbb2978	0.022846922
193	0xbd2a2750	-0.041541398
194	0x3c6cff9d	0.01446524
195	0xbc06458d	-0.008195293
196	0xbd88e135	-0.0668358
197	0xbda5b1b8	-0.08090538
198	0xbdc2a921	-0.09504915
199	0xbd5c0b92	-0.05372197
200	0x3cdcbabd	0.026944513
201	0xbbcc7b5c	-0.0062402915
202	0x3d647425	0.055774827
203	0xbda6b187	-0.081393294
204	0xbbf6918c	-0.0075246748
205	0xbdaa9f66	-0.08331184
206	0xbb7e5bde	-0.0038812081
207	0x3c99b36a	0.01876231
208	0xbdcd6048	-0.1002813
209	0x3d921a72	0.0713395
210	0xbce0e452	-0.027452622
211	0x3d978ffc	0.0740051
212	0xbc9aa2c7	-0.018876446
213	0x3d2473fc	0.040149674
214	0x3da1d2c4	0.079015285
215	0xbd03cf06	-0.032179855
216	0xbccd4145	-0.025055537
217	0x3d31ec9e	0.043438546
218	0xbda02cab	-0.0782102
219	0x3d510ab1	0.051035587
220	0xbd71389a	-0.05889187
221	0x3d91c0e1	0.07116867
222	0xbd8a282a	-0.06745942
223	0xbd26bcab	-0.04070727
224	0x3d59b76f	0.05315345
225	0xbd5b9d4a	-0.0536168
226	0x3d8a5cc4	0.06755975
227	0x3d3e33ca	0.04643611
228	0x3d96fec7	0.07372814
229	0xbdb89ddc	-0.09014484
230	0xb992f75f	-0.00028031596
231	0xbcf90110	-0.030396014
232	0x3bd0aab7	0.006368007
233	0xbd9f4325	-0.07776479
234	0x3cf4a0a3	0.029861754
235	0xbc987445	-0.01861013
236	0xbd2b21af	-0.04178017
237	0xbda2d87c	-0.07951447
238	0x3d1825bc	0.03714536
239	0xbd3b2aa5	-0.045694966
240	0x3d82e9cb	0.06392249
241	0xbc55b474	-0.013043512
242	0x3cb8613c	0.022507302
243	0xbc0dc6f9	-0.008653396
244	0xbc95e34b	-0.018296858
245	0xbd004a07	-0.031320598
246	0xbdb617bf	-0.08891248
247	0x3d51d8bb	0.05123208
248	0xbd63fd96	-0.05566176
249	0x3d19959c	0.037496194
250	0xbd354de5	-0.04426374
251	0x3d44dbd2	0.0480612
252	0x3d922f6f	0.071379535
253	0xbd6faf13	-0.058516573
254	0x3d9578e7	0.07298451
255	0xbb02c999	-0.0019956587

network.2.bias f4 [64]
0	0xbda80a3b	-0.08205076
1	0xbca66e39	-0.02031623
2	0xbd167b89	-0.036738906
3	0xbdc8958f	-0.09794151
4	0x3d190241	0.037355665
5	0x3ba06fa9	0.0048961234
6	0x3ab84d3f	0.0014061107
7	0xbc41f3ba	-0.011837894
8	0xbd157e02	-0.036497124
9	0xbd3cafbd	-0.046066035
10	0x3d0248ad	0.03180759
11	0xbd8e4227	-0.06946211
12	0x3c526cb6	0.0128433015
13	0xbc888ba0	-0.01666814
14	0x3d8de305	0.06928066
15	0xbd78d98f	-0.060754355
16	0x3b9df415	0.0048203566
17	0xbd417592	-0.047231264
18	0x3d2dd943	0.042443525
19	0xbb18d836	-0.002332223
20	0x3c7f4a5d	0.015581694
21	0xbc847e72	-0.016173575
22	0xbd09b969	-0.033624087
23	0x3d0e6053	0.03475983
24	0xbd6c8422	-0.0577432
25	0xbc88bb4c	-0.016690873
26	0x3c6cfe33	0.014464903
27	0x3db5d1e2	0.088779226
28	0x3d233c83	0.03985263
29	0x3da70868	0.081559
30	0x3ca44602	0.020052914
31	0x3ca3aac8	0.019978896
32	0xbc030fe7	-0.007999397
33	0xbd3030d5	-0.04301532
34	0x3afacdf0	0.001913486
35	0x3cf87a09	0.030331628
36	0xbd459c5b	-0.048244815
37	0x3d307356	0.043078743
38	0xbda25f10	-0.07928288
39	0x3d2c195d	0.042016376
40	0x3dc96f35	0.09835664
41	0x3cfaa748	0.030597344
42	0xbda6fe8c	-0.0815402
43	0xbc64db83	-0.013968351
44	0x3d1214e3	0.03566445
45	0x3d774d98	0.060376734
46	0xbb9bd418	-0.004755508
47	0x3d418bf0	0.047252595
48	0x3d8a783d	0.06761215
49	0xbba42a36	-0.0050099147
50	0x3dc10eb6	0.09426634
51	0x3db41d06	0.08794598
52	0xbd9cbf6c	-0.07653698
53	0xbce83d16	-0.02834944
54	0xbd5e82a1	-0.054323796
55	0xbcf82a9f	-0.03029376
56	0x3d76ceee	0.060255937
57	0xbd9307e4	-0.071792394
58	0x3cffb7f9	0.031215655
59	0x3d77dbd7	0.06051239
60	0xbb88be93	-0.004173109
61	0xbdbb8ab4	-0.09157315
62	0xbd894418	-0.06702441
63	0x3b9a2a94	0.0047047827

output_layer.weight f4 [3, 64]
0	0x3d4326c1	0.04764438
1	0x3d369013	0.044570994
2	0x3d81cb5b	0.06337615
3	0x3d9efdb2	0.07763232
4	0xbdcebcd2	-0.10094608
5	0x3d120a70	0.035654485
6	0x3d5cff36	0.053954326
7	0xbd5cd1a0	-0.05391085
8	0xbd46e512	-0.048558302
9	0xbdcefd00	-0.1010685
10	0xbe2fba74	-0.1716097
11	0x3d85c204	0.06531146
12	0xbcf173c3	-0.029474145
13	0xbd90b942	-0.07066585
14	0xbdde7faf	-0.108641975
15	0xbdc1d237	-0.094639234
16	0x3d8a1aa5	0.06743363
17	0x3d6549df	0.055978652
18	0x3c927e29	0.017882423
19	0x3bbc69ad	0.005749902
20	0xbba2e8f3	-0.0049716174
21	0x3cb0e40c	0.021593116
22	0x3ca76d96	0.020437997
23	0xbd9344ec	-0.0719088
24	0xbd964809	-0.07337958
25	0xbd4263ae	-0.047458343
26	0x3c62e4f6	0.013848534
27	0x3d58b03b	0.05290244
28	0x3d1cf441	0.038318876
29	0xbd88ff3e	-0.066893086
30	0x3d605941	0.05477262
31	0xbdd3dda4	-0.10345009
32	0xbc675662	-0.014119716
33	0xbe03790c	-0.12839144
34	0xbd58a3eb	-0.0528907
35	0xbd81d2e2	-0.06339051
36	0x3df6fc15	0.120597996
37	0x3debf822	0.11521937
38	0xbd46cf12	-0.04853732
39	0x3b8b50b6	0.004251565
40	0xbd633112	-0.05546672
41	0xbd4860f4	-0.048920587
42	0xbd7106bf	-0.058844324
43	0x3cb22e48	0.021750584
44	0xbdc9fbf5	-0.0986251
45	0xbc9def89	-0.019279258
46	0x3a635711	0.00086723367
47	0xbd343ce4	-0.044003382
48	0xbd36d6b8	-0.044638366
49	0x3d0d7bf9	0.034542058
50	0x3d461d6d	0.048367906
51	0xbd739324	-0.059466496
52	0xbda2e281	-0.079533584
53	0xbbc27e10	-0.005935438
54	0x3d0e2581	0.034703735
55	0x3dc2ecfd	0.09517858
56	0x3dcc62b2	0.09979762
57	0xbdbb571b	-0.091474734
58	0xbccbc5c2	-0.024874572
59	0xbdb985db	-0.09058734
60	0x3d0de0ca	0.034638204
61	0x3d2df5a8	0.042470604
62	0xbdb747b5	-0.08949224
63	0xbd6bff9a	-0.057616808
64	0x3d6c8cc9	0.05775145
65	0x3d3f74f0	0.04674238
66	0xbda1ff53	-0.07910027
67	0x3b084c68	0.0020797495
68	0xbdc4fea2	-0.0961888
69	0x3d14c792	0.036323138
70	0x3d0cc34b	0.034365933
71	0x3cd30b5c	0.025762253
72	0xbcdeaf95	-0.027183333
73	0xbc5a1618	-0.013310932
74	0xbd6abf23	-0.05731119
75	0x3deef8b8	0.11668533
76	0xbc4dd4fb	-0.0125629855
77	0xbd1d5da3	-0.038419377
78	0x3b94c8f7	0.0045405584
79	0xbe2754e0	-0.16340971
80	0x3d712187	0.058869865
81	0x3dc8d287	0.0980578
82	0x3d4e0ded	0.05030625
83	0x3ba6629d	0.0050776736
84	0x3ddd1650	0.107952714
85	0x3c9597f7	0.018260939
86	0xbd1aa8df	-0.037758704
87	0x3db3bf70	0.08776748
88	0x3d03cbe7	0.03217688
89	0x3d014968	0.031564146
90	0xbd4863c3	-0.048923265
91	0xbc626d1e	-0.013819961
92	0x3e15df13	0.14635877
93	0x3ddf98c7	0.10917812
94	0xbd930199	-0.07178039
95	0x3d037e23	0.032102715
96	0xbd8c28ad	-0.06843696
97	0x3d1cab02	0.038249023
98	0x3d93ff57	0.072264366
99	0xbd8bb925	-0.06822423
100	0x3d93f537	0.072245054
101	0x3dca7a9e	0.098866686
102	0x3dcc5273	0.099766634
103	0x3ce7e261	0.028306188
104	0x3d7ca43e	0.06168007
105	0xbd7807ef	-0.06055444
106	0xbd676c18	-0.05649957
107	0x3d026016	0.031829916
108	0xbd75c062	-0.059997924
109	0x3cba8f00	0.022773266
110	0xbd3cbb45	-0.04607703
111	0xbdad7d2f	-0.084711425
112	0xbd9a4329	-0.07532341
113	0xbbc5a02f	-0.0060310583
114	0x3d92c440	0.07166338
115	0x3d343143	0.043992292
116	0x3c48ea6f	0.012262925
117	0x3d2beafe	0.041972153
118	0x3dc82485	0.097725905
119	0xbd126062	-0.03573645
120	0xbd484fa2	-0.04890407
121	0x3dbbbe0c	0.09167108
122	0xbdbd2d5a	-0.09237166
123	0xbddeabf5	-0.10872642
124	0xbdb762b8	-0.08954376
125	0xbd7bfc5a	-0.061519958
126	0xbda4e59f	-0.08051609
127	0xbc38cddc	-0.011279549
128	0xbd5831f7	-0.052782025
129	0x3d8ea07c	0.06964204
130	0xbd5f7fbd	-0.05456518
131	0xbdbe8e92	-0.09304537
132	0xbdcb2a99	-0.09920234
133	0xbda6aec1	-0.081388004
134	0x3d28914c	0.04115419
135	0xbdae5c02	-0.08513643
136	0xbcdbe2ad	-0.026841486
137	0xbd616f86	-0.055037998
138	0xbcef1386	-0.029184114
139	0xbd5659b4	-0.05233164
140	0x3dda9efa	0.106748536
141	0xbc9753ea	-0.01847263
142	0xbd581716	-0.05275639
143	0x3dc6420a	0.09680565
144	0x3e07573f	0.13216875
145	0x3dd02afe	0.1016445
146	0x3bd23fb9	0.0064162877
147	0x3c51eb8a	0.012812505
148	0xbdd3ab2e	-0.10335384
149	0xbbb56583	-0.005535783
150	0x3da0d857	0.078537636
151	0xbd0a61eb	-0.033784788
152	0xbc138b98	-0.00900545
153	0x3d34500a	0.044021644
154	0x3ccc619b	0.024948886
155	0x3dd83392	0.10556711
156	0xbd9162e9	-0.07098944
157	0xbdd74ce9	-0.10512716
158	0xbde3651e	-0.11103271
159	0x3d6ef10c	0.05833535
160	0xbd51207d	-0.051056374
161	0xbda5a8db	-0.08088847
162	0xbcaaa57f	-0.020830868
163	0xbd754707	-0.05988219
164	0xbd720b2e	-0.059092693
165	0x3da78c5d	0.08181069
166	0xbd9adad4	-0.075612694
167	0x3d785d63	0.060635936
168	0x3d6bc539	0.057561133
169	0x3db7d632	0.089764014
170	0xbd812a03	-0.06306841
171	0x3dbdabb6	0.09261267
172	0xbdbd464f	-0.09241926
173	0x3dcc829b	0.099858485
174	0xbd228486	-0.039677165
175	0x3c60ee32	0.013728665
176	0x3cdfda51	0.027325781
177	0x3db174df	0.086648695
178	0x3d26b2c1	0.040697817
179	0x3d3b571f	0.045737382
180	0x3b7075f9	0.003669141
181	0xba134c52	-0.00056189776
182	0xbd99aed8	-0.07504052
183	0x3dcdf4e1	0.100564726
184	0x3dc1f593	0.09470668
185	0x3d9db70f	0.07700931
186	0x3dbe1a72	0.09282388
187	0xbdb4ea94	-0.08833805
188	0xbd71932e	-0.058978252
189	0xbcb06fc0	-0.021537662
190	0xbda06a0f	-0.07832729
191	0xbcd3fbed	-0.025876964

output_layer.bias f4 [3]
0	0xbc1bab90	-0.009501353
1	0x3da96983	0.08272078
2	0x3d819d54	0.06328836

network.0.weight f4 [128, 22]
0	0xbe149746	-0.14510831
1	0x3d911acf	0.070851915
2	0xbefd88de	-0.49518484
3	0x3dc41934	0.095751196
4	0x3e06ad7e	0.1315212
5	0x3c0bda1d	0.008535889
6	0x3f00674a	0.50157607
7	0xbe75172b	-0.23934619
8	0x3e3d46ba	0.18484011
9	0xbcf54170	-0.02993843
10	0xbf05d4ba	-0.5227772
11	0xbe731054	-0.23736697
12	0x3da9fc6b	0.08300098
13	0xbe3c3be4	-0.18382221
14	0xbd377c18	-0.04479608
15	0x3b9451c9	0.004526351
16	0x3dc1c31d	0.09461043
17	0xbe1273ef	-0.14302038
18	0xbd984d1e	-0.07436584
19	0x3dd8bfc2	0.1058345
20	0x3c08edbf	0.008357464
21	0x3d5fb422	0.054615147
22	0x3d72f140	0.059312105
23	0xbe081a46	-0.13291273
24	0xbe2d638d	-0.16932507
25	0xbe030da7	-0.12798177
26	0xbe2a3e49	-0.16625322
27	0x3e2b07c6	0.16702184
28	0x3da6f354	0.0815188
29	0x3e3f4eaa	0.18682352
30	0xbe2fb00d	-0.17157002
31	0xbe2d508b	-0.16925256
32	0x3dad36c0	0.08457708
33	0xbdcc67a0	-0.099807024
34	0xbd85d1c8	-0.06534153
35	0xbe004452	-0.12526062
36	0xbe37b1b7	-0.17938887
37	0xbe009ca6	-0.12559757
38	0xbe09497c	-0.13406938
39	0x3ddfb4e4	0.10923174
40	0xbbb86500	-0.0056272745
41	0x3e086e0a	0.13323227
42	0x3e3dcd88	0.18535435
43	0x3e102d42	0.14079764
44	0xbe79f813	-0.24411039
45	0x3d9c6d1b	0.07637998
46	0x3ee2612c	0.4421476
47	0xbe8116a9	-0.252126
48	0xbe6a49ff	-0.2287979
49	0xbdd9e050	-0.10638487
50	0xbe19415e	-0.14966342
51	0xbe687652	-0.22701386
52	0xbe1c9764	-0.15292126
53	0xbda6a0da	-0.08136149
54	0x3cb0200e	0.02149966
55	0x3e191d4d	0.14952584
56	0x3d806f87	0.06271272
57	0xbd5363d7	-0.051608887
58	0xbe337b3c	-0.17527479
59	0x3e0ce757	0.13760124
60	0xbd2ddf25	-0.042449135
61	0x3d94b4a7	0.07261019
62	0xbdf21eec	-0.11822304
63	0x3b3f1abf	0.002916023
64	0x3b6fd7f8	0.0036597233
65	0xbeb34d5e	-0.35019964
66	0xbdcdfcbc	-0.10057971
67	0x3ceb5bd3	0.028730309
68	0x3e225f8e	0.15856764
69	0x3e1c8fd1	0.15289237
70	0x3d66494c	0.056222245
71	0xbc53f7a1	-0.012937457
72	0x3d2c1305	0.042010326
73	0xbd7974b8	-0.060902327
74	0x3ddb3ad3	0.10704579
75	0x3de66220	0.112491846
76	0xbe4f686d	-0.20254679
77	0x3e66bca2	0.22532895
78	0xbd9341b6	-0.07190268
79	0xbe4069e8	-0.187904
80	0xbd9e161a	-0.07719059
81	0x3e0024a0	0.12513971
82	0xbe51d504	-0.20491415
83	0x3d6c4c9c	0.057690248
84	0xbd76cc41	-0.060253385
85	0xbe0df0df	-0.13861416
86	0x3d875431	0.06607855
87	0x3db2bd07	0.0872746
88	0x3e1ce38f	0.15321182
89	0xbed87210	-0.42274523
90	0x3e807bbe	0.25094408
91	0x3dd3c1f9	0.10339732
92	0xbd6d3a57	-0.057916965
93	0xbdd6ebb3	-0.10494175
94	0x3e4b4296	0.1984962
95	0xbf05e013	-0.52295035
96	0xbd0bcf26	-0.0341331
97	0x3d501bc8	0.050807744
98	0xbe61ae66	-0.22039184
99	0x3d1cd42c	0.03828828
100	0xbcd9aae9	-0.026570754
101	0xbeada8af	-0.33917758
102	0x3e158eb1	0.14605214
103	0x3c350c1b	0.011050249
104	0xbe21685a	-0.15762463
105	0xbda36eb3	-0.079800986
106	0xbe49d3cd	-0.19709702
107	0x3e809734	0.2511536
108	0xbecf667e	-0.40507883
109	0xbeeda913	-0.46418056
110	0xbd967bb1	-0.07347811
111	0x3ddd39bd	0.10802028
112	0xbdce4f0c	-0.10073671
113	0xbe5485e2	-0.20754197
114	0xbe13bd9c	-0.14427799
115	0xbe60f7bd	-0.21969505
116	0x3df8ee45	0.12154821
117	0xbdb8d055	-0.09024111
118	0xbddbb84e	-0.10728513
119	0xbe276eb0	-0.16350818
120	0x3d561557	0.052266445
121	0xbe3ebd17	-0.1862682
122	0xbe2390e7	-0.15973245
123	0xbda35868	-0.079758465
124	0x3e0bc729	0.13650192
125	0xbe0839e8	-0.1330334
126	0xbe462139	-0.19348611
127	0x3d09d6d5	0.033652145
128	0xbe2ca42f	-0.16859506
129	0x3e4a41c4	0.1975165
130	0x3d00ab4c	0.03141336
131	0x3d73a108	0.059479743
132	0x3dd4fad0	0.10399401
133	0x3e011940	0.12607288
134	0x3e3c50d5	0.1839021
135	0x3db3570b	0.087568365
136	0x3d995a86	0.07487969
137	0xbbfda43e	-0.0077405265
138	0xbd77383e	-0.06035637
139	0xbe743a2d	-0.23850317
140	0xbe32f3f3	-0.17475872
141	0xbd17b9c8	-0.03704241
142	0xbdab3b61	-0.08360935
143	0x3dee48a4	0.11634949
144	0x3dea0b74	0.11427966
145	0xbe686933	-0.2269638
146	0x3df4e1ab	0.11957105
147	0xbc90d587	-0.017679943
148	0xbdaffd50	-0.085932374
149	0x3d9420fd	0.072328545
150	0x3e86037b	0.2617453
151	0x3d115ec7	0.035490777
152	0xbe076fcc	-0.13226241
153	0xbf5b0b23	-0.8556387
154	0xbe0b79ac	-0.13620633
155	0xbe47b3af	-0.19502138
156	0x3dbf027b	0.09326645
157	0xbd077295	-0.03306826
158	0xbe1d7af5	-0.15378936
159	0xbd775a40	-0.060388803
160	0xbca9af18	-0.020713374
161	0x3d5b26bb	0.053503733
162	0x3e2ff51d	0.17183347
163	0xbe10f531	-0.14156033
164	0xbd07898b	-0.033090156
165	0x3e5d92bb	0.21638004
166	0x3dfa6726	0.12226705
167	0x3da99417	0.08280199
168	0xbd63d95f	-0.055627223
169	0x3b80e91c	0.003934039
170	0xba35c46a	-0.000693387
171	0x3ce88044	0.028381474
172	0x3e1d6bd0	0.15373158
173	0xbd3dea55	-0.046366055
174	0xbda460ef	-0.08026301
175	0x3e0710da	0.13190022
176	0xbd2da1e3	-0.042390715
177	0xbe8ab646	-0.2709219
178	0xbcbc99d4	-0.02302257
179	0x3d657a42	0.056024797
180	0x3d188018	0.037231535
181	0x3d87e630	0.06635702
182	0xbe271a8d	-0.16318722
183	0xbe65157a	-0.22371474
184	0x3d1805bd	0.037114847
185	0x3e278a76	0.16361412
186	0x3dcbd605	0.0995293
187	0x3e053604	0.13008887
188	0x3d2008a6	0.039070748
189	0xbe52da53	-0.20591097
190	0x3d338027	0.043823387
191	0xbd8ee568	-0.069773495
192	0xbd6d5adc	-0.05794798
193	0x3de1214d	0.1099268
194	0xbe106149	-0.14099611
195	0x3da6c064	0.08142164
196	0xbe143cb6	-0.14476284
197	0x3da30bfa	0.07961269
198	0xbe59d330	-0.21271968
199	0xbe26bc1d	-0.16282697
200	0xbe2c7378	-0.16840923
201	0x3dc76cbb	0.097375356
202	0x3d94ae1e	0.07259773
203	0x3e33ef21	0.17571689
204	0x3e527138	0.20551002
205	0x3d276e46	0.04087665
206	0xbb2724c0	-0.0025504082
207	0x3dfaf73e	0.12254189
208	0x3d29f555	0.041493732
209	0x3e3bd66f	0.18343519
210	0xbde8f96a	-0.11375697
211	0x3db3ac08	0.08773047
212	0xbea5954c	-0.32340467
213	0x3e48313c	0.19550031
214	0x3cd11c1e	0.025526103
215	0x3e105837	0.14096151
216	0xbb940bca	-0.004518007
217	0x3ce461a3	0.027878588
218	0xbda42a12	-0.08015837
219	0x3c5d2926	0.01349858
220	0xbdf7ce71	-0.120999224
221	0xbe274b19	-0.16337241
222	0xbda6a58c	-0.08137044
223	0x3bc6ab97	0.0060629356
224	0xbc13b8d8	-0.009016238
225	0x3dd01c55	0.10161654
226	0x3e88d2eb	0.26723418
227	0xbdb3f96b	-0.08787807
228	0xbcff99a1	-0.031201186
229	0xbd98a65c	-0.074536055
230	0x3dcfb2c4	0.10141519
231	0xbe7f2ae7	-0.2491871
232	0x3dbe488f	0.09291183
233	0x3e21a473	0.15785389
234	0x3da16395	0.07880322
235	0xbc32f94b	-0.010923694
236	0xbd9ebb20	-0.07750535
237	0x3e2df8bc	0.16989416
238	0xbe646314	-0.2230342
239	0x3cba04bd	0.022707338
240	0xbd0e2a59	-0.034708355
241	0x3e2a96a0	0.16659021
242	0xbe0b1a5b	-0.13584273
243	0xbe572d8f	-0.21013473
244	0xbdb85d0b	-0.090021215
245	0x3cfc7773	0.030818677
246	0xbc89353e	-0.01674902
247	0xbe3b7d84	-0.18309599
248	0xbe0b0ab5	-0.13578303
249	0xbde9481a	-0.113907054
250	0xbc8f811d	-0.01751762
251	0xbd758704	-0.059943214
252	0x3d95e4da	0.073190406
253	0x3c8bee6d	0.017081464
254	0xbd648dc1	-0.05579925
255	0xbdb063ed	-0.08612809

network.0.bias f4 [128]
0	0x3aa10464	0.0012284634
1	0xbdf72664	-0.12067869
2	0xbec90778	-0.3926351
3	0x3d0d810b	0.034546893
4	0xbed19610	-0.409348
5	0x3d78c946	0.060738824
6	0xbe7d14e2	-0.24714997
7	0xbcf21250	-0.029549748
8	0xbe135218	-0.14386785
9	0xbd266e85	-0.040632743
10	0xbd2f8114	-0.042847708
11	0xbe57ef2d	-0.21087332
12	0x3e2ca665	0.1686035
13	0x3ebf8891	0.3740888
14	0xbdeb2517	-0.11481684
15	0x3e417f2a	0.18896165
16	0xbc5d0d2f	-0.013491913
17	0xbe0748d7	-0.1321138
18	0xbc40c2a7	-0.011765159
19	0xbe2cfd95	-0.16893609
20	0xbd587d47	-0.05285385
21	0xbe82372a	-0.25432712
22	0xbe840853	-0.257876
23	0x3e062aaa	0.13102213
24	0x3dcb1fd2	0.099181786
25	0xbdafd85c	-0.08586189
26	0xbd88922c	-0.06668505
27	0xbd3ae5d7	-0.04562935
28	0x3e65d5f9	0.22444905
29	0xbdb202a1	-0.08691908
30	0x3d400bec	0.04688637
31	0xbe30e18a	-0.17273536
32	0xbea86990	-0.32893038
33	0x3c9bf143	0.019035941
34	0x3e00479d	0.12527318
35	0xbe4ade41	-0.19811346
36	0xbc126731	-0.008935736
37	0x3f3d19e6	0.7386764
38	0xbe2d613d	-0.16931625
39	0x3e9723bc	0.2951945
40	0xbe57430e	-0.21021673
41	0xbe5bba35	-0.21457751
42	0x3e20f948	0.15720093
43	0xbe2adbc3	-0.16685395
44	0xbf017ce5	-0.505812
45	0xbed0a2a2	-0.4074908
46	0xbe254f97	-0.16143642
47	0x3f005a47	0.5013775
48	0x3c88f8e3	0.016720241
49	0xbd57efd9	-0.05271897
50	0xbdce9159	-0.100863166
51	0x3e52a19c	0.20569462
52	0x3e0243c2	0.1272116
53	0x3e899fbe	0.26879686
54	0x3d456f88	0.048202068
55	0xbda5a5a9	-0.08088238
56	0xbd40f3ae	-0.04710739
57	0xbacb25d4	-0.0015498945
58	0xbdae8018	-0.08520526
59	0xbe0955b9	-0.13411607
60	0x3e9a3a7e	0.3012275
61	0x3e30c956	0.17264304
62	0xbb3aa2a6	-0.0028478294
63	0xbda9e898	-0.08296317
64	0xbedc75af	-0.43058535
65	0xbe3a5aa5	-0.1819864
66	0xbf120f02	-0.5705415
67	0x3d11b06d	0.035568643
68	0xbc9ae776	-0.018909197
69	0xbeca96bd	-0.3956813
70	0x3e3e222b	0.18567722
71	0x3e27d3f3	0.16389446
72	0x3d95652f	0.0729469
73	0xbba4e5b7	-0.005032267
74	0xbdcc1c95	-0.09966389
75	0xbd081d03	-0.033230793
76	0x3e211e05	0.15734108
77	0x3c85521c	0.016274504
78	0x3dcc06a8	0.09962207
79	0xbf09e9fc	-0.53872657
80	0xbe58fdda	-0.21190587
81	0x3f21efc2	0.63256466
82	0xbe4cc6ff	-0.19997786
83	0xbe3ee0aa	-0.1864039
84	0xbc166900	-0.009180307
85	0xbdf9ed60	-0.12203479
86	0x3e417de4	0.1889568
87	0xbf436a80	-0.7633438
88	0xbe0de6cf	-0.13857578
89	0xbe51a729	-0.20473923
90	0x3f3663fd	0.7124632
91	0x3e2c040c	0.16798419
92	0xbd5e5352	-0.05427868
93	0xbea1d65c	-0.31608856
94	0x3e59dc43	0.2127543
95	0x3ee12e8e	0.4398083
96	0xbe7d536d	-0.24738856
97	0xbe1561c2	-0.14588073
98	0x3e061123	0.13092475
99	0xbe4a27d6	-0.19741759
100	0xbe1ff4db	-0.15620749
101	0x3da6ba7c	0.08141038
102	0x3c5f9bc7	0.01364798
103	0xbeb032aa	-0.34413654
104	0xbe83dd60	-0.25754833
105	0x3d27ef9c	0.040999994
106	0x3e187894	0.14889747
107	0x3cc5ad44	0.024130471
108	0x3dbf4472	0.09339227
109	0x3f14479e	0.5792178
110	0x3e86f31b	0.2635735
111	0xbd76978f	-0.06020313
112	0x3f39ab0a	0.7252661
113	0xbe81e9bd	-0.2537364
114	0x3f1229c3	0.57094973
115	0xbed859fb	-0.4225615
116	0xbe0ea069	-0.13928379
117	0xbe8aa81a	-0.27081376
118	0xbde66f01	-0.11251641
119	0xbdf006b3	-0.11720028
120	0x3d8af681	0.06785298
121	0xbe3a03fd	-0.18165584
122	0xbd1ebe71	-0.038755838
123	0xbe0b5fdc	-0.13610786
124	0xbe40bd4b	-0.1882221
125	0xbe45660b	-0.19277208
126	0x3e077a5b	0.13230269
127	0x3ddf73b0	0.109107375

network.2.weight f4 [64, 128]
0	0xbb08b16b	-0.0020857702
1	0x3cdb8ec4	0.026801474
2	0xbd5c40bc	-0.053772673
3	0xbdf8e491	-0.121529706
4	0xbcf7c881	-0.030246975
5	0x3dbe4781	0.09290982
6	0xbc9de356	-0.019273441
7	0x3d7d8994	0.061898783
8	0xbdb26287	-0.08710199
9	0x3d2ac479	0.041691277
10	0x3db917b9	0.09037728
11	0x3c8902ed	0.016725028
12	0xbd7b8902	-0.061409958
13	0x3d353c5b	0.044247013
14	0xbd9d1544	-0.07670072
15	0xbd5bd709	-0.05367187
16	0x3d3d54d2	0.04622347
17	0x3d528e26	0.051405095
18	0x3d1d7848	0.038444787
19	0xbd928eec	-0.071561664
20	0xbde0c122	-0.10974337
21	0x3cd0c1c5	0.025483022
22	0xbdbd9146	-0.09256224
23	0x3d57a02e	0.052642994
24	0xbc0dc97f	-0.008653997
25	0x3d11e8de	0.03562247
26	0xbce49fdd	-0.02790826
27	0xbd8541e4	-0.06506708
28	0xbda3674d	-0.079786874
29	0xbd84d48c	-0.064858526
30	0xbd56c4c3	-0.05243374
31	0xbdbc5559	-0.09195966
32	0xbba104ac	-0.004913887
33	0xbc53a13e	-0.012916861
34	0xbe00b806	-0.125702
35	0xbd15b161	-0.036546115
36	0xbdffc7da	-0.124892905
37	0x3bd234ac	0.0064149704
38	0xbd4a60f3	-0.049408864
39	0x3cc031e7	0.023461295
40	0xbd8a0c19	-0.06740589
41	0xbd74d3e8	-0.059772402
42	0x3d9fdca7	0.07805758
43	0xbd38bf29	-0.04510418
44	0x3a78d063	0.0009491501
45	0xbda99308	-0.08279997
46	0x3d9c8a91	0.07643617
47	0xbe0097dd	-0.12557931
48	0xbd0fee1b	-0.035139184
49	0xbe0405d8	-0.12892854
50	0x3d90497e	0.070452675
51	0x3d0a0a42	0.03370119
52	0xbd005ba5	-0.0313374
53	0x3d1f47ca	0.038886823
54	0xbd4966ff	-0.04917049
55	0xbde0278b	-0.10945042
56	0xbdcfd12c	-0.10147318
57	0x3cb654f4	0.022257306
58	0x3d835b5f	0.06413912
59	0x3a985bbd	0.001162402
60	0x3d8b2d0f	0.067957036
61	0xbd28645c	-0.041111335
62	0x3b4450e0	0.0029955432
63	0x3dd4284d	0.10359249
64	0x3cca9a7e	0.02473187
65	0xbc24085e	-0.0100117605
66	0xbd8bd06a	-0.06826861
67	0x3d299ce0	0.041409373
68	0xbdb14c94	-0.08657184
69	0xbdcd600a	-0.100280836
70	0xbdbc1784	-0.09184173
71	0x3d455a40	0.048181772
72	0xbcd0c082	-0.02548242
73	0x3d007e14	0.031370237
74	0xbd4733a9	-0.04863325
75	0xbdb1d1e6	-0.08682613
76	0x3cb6faf7	0.022336466
77	0xbdae9d77	-0.08526128
78	0x3c988790	0.018619329
79	0xbdc5cb0c	-0.09657869
80	0xbcf7510e	-0.030190017
81	0x3ca6238d	0.020280624
82	0xbdc91f09	-0.098203726
83	0x3cd1866f	0.025576798
84	0xbd8c5148	-0.06851441
85	0xbd79c37a	-0.060977437
86	0x3c0f18c1	0.008733929
87	0xbd8f8fcd	-0.0700985
88	0x3c9edd70	0.019392699
89	0x3d03d686	0.032187007
90	0xbe004e95	-0.12529977
91	0xbcb9a2f5	-0.022660712
92	0x3acaf39a	0.0015483976
93	0x3c2ff0a9	0.01073853
94	0xbcfcf0cd	-0.030876542
95	0x3ccceb01	0.025014402
96	0x3d707bca	0.058711804
97	0xbdd793bd	-0.10526226
98	0x3d29a44d	0.041416455
99	0xbd4867e2	-0.048927195
100	0xbca63e7f	-0.020293472
101	0xbd5c95a3	-0.053853642
102	0xbd526934	-0.05136986
103	0xbc99724a	-0.018731255
104	0xbd87b764	-0.06626776
105	0xbc6069fb	-0.013697143
106	0xbd53f5d6	-0.05174812
107	0xbd6f9d78	-0.058499783
108	0x3d84ebf7	0.06490319
109	0xbdf87a34	-0.121326834
110	0xbd3f14de	-0.04665076
111	0x3cdb4b3e	0.026769277
112	0x3ca9648e	0.020677831
113	0x3cb9eb6d	0.022695268
114	0x3a6c548d	0.00090152846
115	0xbddc7c6f	-0.10765921
116	0x3c646fcf	0.013942673
117	0xbc8d078e	-0.017215516
118	0x3d7dfdf8	0.06200978
119	0xbc8f15b8	-0.017466411
120	0x3d3f3d61	0.046689395
121	0x3d8f6753	0.070021294
122	0x3d282d75	0.041058976
123	0xbcab255c	-0.020891838
124	0xbd807a8f	-0.06273376
125	0x3c121f24	0.008918557
126	0x3d192f0d	0.037398387
127	0xbda5501b	-0.080719195
128	0xbd452466	-0.048130415
129	0x3cf5f174	0.03002236
130	0xbdae4705	-0.0850964
131	0xbd59b2ad	-0.053148914
132	0x3c366350	0.011132076
133	0x3daabdd1	0.08336986
134	0xbdc264f6	-0.09491913
135	0xbc7bbe28	-0.015365161
136	0xbd853a84	-0.065053016
137	0xbc1a12b8	-0.009403877
138	0x3da0191b	0.078172885
139	0xbd8ad6a5	-0.067792214
140	0x3d73d1be	0.059526198
141	0xbc140eae	-0.009036703
142	0x3c3dce20	0.011584789
143	0x3d6e3e12	0.058164664
144	0x3d32da62	0.043665297
145	0x3ce59b18	0.028028056
146	0x3c4cf208	0.012508877
147	0xbd6b7088	-0.057480365
148	0xbde2abd7	-0.11067932
149	0x3d729c4e	0.059231095
150	0xbd04441e	-0.032291524
151	0xbda3c318	-0.079961956
152	0xbceca406	-0.028886806
153	0xbd7ee87a	-0.062233426
154	0x3d939163	0.07205465
155	0x3d85b543	0.065287136
156	0xbe018502	-0.12648395
157	0x3d130bd0	0.035899937
158	0xbd13bd05	-0.036068935
159	0x3dad0469	0.08448107
160	0xbcb6ea73	-0.022328591
161	0xbbb1c890	-0.0054255202
162	0x3d0e787a	0.034782864
163	0xbd9b4279	-0.07581038
164	0xbd0f994f	-0.035058316
165	0x3d9583f5	0.073005594
166	0x3d9b12fd	0.07571981
167	0xbd92cd24	-0.07168034
168	0x3d883707	0.06651121
169	0xbd948ea0	-0.07253766
170	0xbd8ea7a0	-0.06965566
171	0xbd36e560	-0.044652343
172	0xbe0e8ad4	-0.13920146
173	0x3c9dd9a9	0.019268828
174	0xbc549080	-0.012973905
175	0xbd40ecc7	-0.04710081
176	0x3cddbdac	0.027067982
177	0xbd2a824c	-0.041628167
178	0x3d54f352	0.05198986
179	0x3d4fb7fa	0.050712563
180	0xbd857b99	-0.06517715
181	0x3ca08670	0.019595355
182	0xbd93f74a	-0.07224901
183	0x3d320462	0.04346121
184	0xbd7be3e5	-0.061496634
185	0x3abb8b80	0.0014308542
186	0x3cdab094	0.026695527
187	0xbd8fcdae	-0.07021652
188	0x3cdee3bc	0.027208202
189	0xbd0aec09	-0.033916507
190	0x3d06572e	0.032797985
191	0xbd19939d	-0.03749429
192	0xbc9d4308	-0.019197002
193	0xbdad4aeb	-0.08461555
194	0xbd1e93c3	-0.038715135
195	0x3d885057	0.066559486
196	0x3cff1670	0.031138629
197	0xbdf8b1fd	-0.121433236
198	0xbd96c6d8	-0.07362145
199	0x3d891f27	0.06695395
200	0xbd1bbf00	-0.03802395
201	0xbd8ffa46	-0.07030158
202	0xbd144bef	-0.03620523
203	0xbc3060de	-0.010765282
204	0x3c2fc400	0.010727882
205	0xbd391353	-0.045184445
206	0x3d3379aa	0.0438172
207	0x3d0247cc	0.031806752
208	0x3ca2e468	0.019884303
209	0xbdbe79d5	-0.09300581
210	0xbcc5eda8	-0.024161175
211	0xbdb4368f	-0.08799469
212	0x3d9a7a19	0.075428195
213	0xbd6cede2	-0.05784405
214	0xbb26f3a0	-0.0025474802
215	0xbda0f9eb	-0.07860168
216	0xbcf0842b	-0.029359898
217	0xbd7ff62c	-0.062490627
218	0xbd8efffa	-0.069824174
219	0xbd828011	-0.06372083
220	0x3d1a23be	0.037631743
221	0xbdb504bf	-0.08838796
222	0x3c8587a6	0.016300034
223	0x3d1c1c8a	0.038113154
224	0x3d421ee2	0.047392733
225	0x3cd66830	0.026172727
226	0xbd51524c	-0.051103875
227	0xbcb86e38	-0.022513494
228	0xbda6e9e9	-0.081500836
229	0xbd571ee9	-0.052519713
230	0xbd776886	-0.060402416
231	0xbddc8dc1	-0.10769225
232	0xbd160f14	-0.036635473
233	0xbaee67c0	-0.0018188879
234	0xbcf0a38d	-0.029374862
235	0x3c617260	0.013760179
236	0xbd78e208	-0.060762435
237	0xbb6db391	-0.003627036
238	0xbda833ac	-0.08212981
239	0x3cf75c3c	0.030195348
240	0xbd0ff91d	-0.035149682
241	0x3cc1531b	0.023599198
242	0xbd95cf34	-0.073149115
243	0x3da8ddad	0.08245406
244	0xbd83c480	-0.06433964
245	0xbdad5b7e	-0.084647164
246	0xbc149788	-0.009069331
247	0xbd7bf604	-0.061513916
248	0x3c131f58	0.008979641
249	0xbd8162d5	-0.06317679
250	0xbc18a690	-0.009317055
251	0xbc397ca8	-0.011321224
252	0xbd002dfa	-0.031293847
253	0x3c6b1f10	0.014350668
254	0xbd8efe2f	-0.069820754
255	0x3d534302	0.051577576

network.2.bias f4 [64]
0	0x3df2dfe4	0.1185911
1	0xbd1c6e5f	-0.038191196
2	0x3d39c347	0.045352247
3	0xbd9babc8	-0.07601124
4	0x3e5187c8	0.20461953
5	0xbd9b5755	-0.07585017
6	0xbcd3ad86	-0.025839578
7	0xbe12211f	-0.14270447
8	0xbd54930e	-0.051898055
9	0x3e75bdb4	0.23998147
10	0xbda1b1d3	-0.078952454
11	0xbe803643	-0.25041398
12	0xbe1bb466	-0.15205535
13	0xbde2318f	-0.11044609
14	0xbe5d1042	-0.21588233
15	0xbe0c0752	-0.13674667
16	0x3eb680e3	0.35645208
17	0xbdf15649	-0.11784036
18	0xbd0b5d22	-0.034024365
19	0x3c9902b1	0.018678041
20	0xbd3058b5	-0.043053348
21	0x3cb5fabd	0.022214288
22	0x3dc99489	0.09842784
23	0xbda00957	-0.078142814
24	0xbd53c0f0	-0.05169767
25	0xbddbef58	-0.107390106
26	0xb9e3c678	-0.00043444685
27	0x3cdbc9c8	0.026829615
28	0xbd17e885	-0.037086982
29	0x3c94d58f	0.018168239
30	0xbd978efc	-0.07400319
31	0x3cc575f3	0.024104094
32	0xbc4db3ab	-0.012555043
33	0xbdc21a6e	-0.09477697
34	0xbd31104b	-0.04322843
35	0xbde7e3f2	-0.11322774
36	0x3db4c72c	0.088270515
37	0xbda78bae	-0.08180939
38	0x3e35cf40	0.17754841
39	0xbded1c56	-0.1157767
40	0x3db2997b	0.0872068
41	0x3e051334	0.12995607
42	0xbd79d6a5	-0.060995717
43	0x3c608a5a	0.013704861
44	0xbd90ee7f	-0.070767395
45	0x3e8f67bd	0.28008834
46	0x3d0482ca	0.032351293
47	0xbe19e95d	-0.15030427
48	0x3dec5a25	0.11540631
49	0x3d98bb80	0.07457638
50	0x3df50f29	0.11965782
51	0xbe1607fc	-0.14651483
52	0xbdd25714	-0.10270515
53	0x3b64bf98	0.0034904238
54	0x3e58e25c	0.21180099
55	0x3c7ea71e	0.0155427735
56	0xbe17f1f5	-0.14838393
57	0x3e79db58	0.24400079
58	0xbe5159e7	-0.20444451
59	0x3e2c5aa1	0.16831447
60	0x3e2ccfff	0.16876219
61	0xbcd913a5	-0.026498625
62	0xbc900e0b	-0.017584821
63	0xbe194425	-0.14967401

network.4.weight f4 [1, 64]
0	0xbc5f7cdf	-0.013640611
1	0xbd6ee021	-0.058319215
2	0xbdb157b0	-0.08659303
3	0x3d542fba	0.051803328
4	0xbddee78e	-0.10884009
5	0x3cca7e2e	0.02471837
6	0x3cbccb3f	0.023046134
7	0xbc4951cf	-0.012287571
8	0x3d9cccfe	0.07656287
9	0xbcd3bed0	-0.025847822
10	0x3b0330ee	0.0020018178
11	0x3c03a1da	0.008034194
12	0x3d284111	0.041077677
13	0x3d9a70df	0.0754106
14	0xbc003b20	-0.0078265965
15	0xbc0a5e19	-0.008445286
16	0x3d3878cc	0.045037076
17	0x3bc3ecdb	0.005979163
18	0xbcc45f93	-0.023971355
19	0xba803190	-0.0009780396
20	0x3bf4e422	0.0074734846
21	0x3cc5170f	0.024058847
22	0xbb18065b	-0.0023197148
23	0x3cf417b3	0.029796457
24	0x3cd31294	0.025765695
25	0xbc8ab24a	-0.016930718
26	0xbbb218f0	-0.0054351017
27	0xbd14308b	-0.036179107
28	0xbd7367c8	-0.059425145
29	0xbd6bb603	-0.057546627
30	0xbb91b28c	-0.0044463333
31	0xbb3a8ff5	-0.0028467153
32	0x3b887b0a	0.004165058
33	0x3d81ccb6	0.06337874
34	0x3bae1857	0.00531296
35	0x3c80d6ca	0.01572742
36	0x3aa103fe	0.0012284515
37	0xbd85c315	-0.065313496
38	0xbbc14808	-0.0058984794
39	0x3a626ff4	0.0008637898
40	0x3ba56959	0.005047959
41	0xbbaf493c	-0.0053493064
42	0x3d190526	0.037358426
43	0x3be32410	0.006931789
44	0x3c6a4f0b	0.014301072
45	0xbd24af9d	-0.04020654
46	0x3cdf03cc	0.02722349
47	0xbc219a4e	-0.009863449
48	0xbce1ab1a	-0.027547408
49	0x3b44ad35	0.0030010466
50	0xbc8f4baa	-0.017492134
51	0xbc9ce9b3	-0.019154405
52	0xbc758956	-0.014986357
53	0x3da324e2	0.07966019
54	0x3c946773	0.018115735
55	0xbc8fdfad	-0.017562712
56	0x3aae8968	0.0013316097
57	0xbd380c24	-0.044933453
58	0xbb9b9bac	-0.004748782
59	0xbc83463a	-0.016024698
60	0x3d062309	0.032748256
61	0x3b559c2b	0.0032594304
62	0x3b80d954	0.0039321575
63	0xbc2084e9	-0.009797313
