models/rl/dqn/dqn_best.pt (torch, 189470 bytes, 24 tensors)

model.0.weight f4 [128, 21]
0.12478698 0.16347384 -2.2299216 0.22969827 0.0690789 0.406565 0.091930315 0.59497654
0.4466965 0.012440909 0.62709 -0.41560432 0.15779859 0.0011260947 -0.03286738 -0.008716005
0.12943782 0.44302174 -0.049236227 0.44787264 0.10491375 0.0082751345 -0.040125344 3.5284793
-0.5167617 -0.59058756 -0.52368605 -0.8025887 -0.27857953 -0.7742936 0.009314156 -0.59724486
-0.21368821 0.067809746 -0.05592424 0.20089698 -0.020165665 0.15691984 -0.35355675 -0.052046765
-0.35659042 -0.28725857 0.09941388 0.11540151 -1.3132792 -0.0075189644 0.19191082 0.29999733
0.206765 0.23965253 -0.2118283 -0.33361644 0.342525 0.44343716 0.08592894 0.04452563
0.028425226 -0.0036347539 0.11180666 -0.5853462 0.0908695 0.38525116 0.32957965 -0.22188564
0.037454978 -1.6753553 0.16347165 -0.14097594 0.18141967 0.19920039 0.4732277 0.35442165
0.06765881 0.21673477 0.13563575 -0.16699056 -0.13710424 0.32342565 0.08150397 0.1864033
-0.46968246 -0.12856086 0.35001874 0.13708875 -0.02736975 -0.20564362 0.10945841 -0.2667501
-0.25877824 -0.08336351 -0.0482013 -0.15985222 0.035738613 0.14834653 -0.26246166 -0.14049385
0.041947372 -0.25592822 0.02511369 -0.31294146 -0.31103757 0.12318477 -0.05540283 -0.06597117
-0.150281 -0.1490606 -0.18513533 -0.12016444 -0.19098693 -0.13894764 0.21813254 0.04121588
0.067245975 -0.2035284 -0.1433198 -0.0726351 0.03412299 -0.19201458 -0.0940242 -0.1306402
0.0006047338 -0.08119959 -0.015121579 -0.14787093 -0.1497837 -0.12730871 -0.052465633 -0.1581286
-2.7773132 0.047067232 0.38408718 0.621972 0.18571153 0.83050513 0.35747162 0.63379955
0.34230512 -0.75595266 0.08932897 0.004993389 -0.37730426 -0.105142295 0.19122732 -0.46016648
-0.0018465888 0.31364313 0.26066232 0.14909376 0.12787946 -2.5202494 0.036930777 -0.06715524
0.38495752 0.111002296 0.70558745 0.05243717 0.20954533 0.7086331 0.21522652 -0.1385093
0.15553348 0.16756728 -0.013926253 -0.23416874 0.016954942 0.120868824 0.3831043 0.43408102
-0.09361775 -0.17422895 -1.2913113 -0.08627246 0.039523397 0.09077102 0.52810293 -0.3101709
0.43417352 0.45368487 -0.096063614 0.75783634 -0.013820722 0.08892928 0.03691152 -0.10474911
0.08429478 -0.90997016 -0.091511525 0.08569418 0.075222425 -0.14338438 0.004166452 -2.0906692
0.019757256 -0.0092307385 0.40346548 0.5849328 0.23790632 0.6066972 0.8414383 0.2517012
0.08556259 -0.0286828 0.23873004 -0.6368287 0.05148438 -0.08020985 -0.63486266 -0.32727516
0.23968674 0.4747532 0.08902487 -0.016951216 -1.458162 -0.06413956 0.03523601 0.35312885
0.0075743254 0.19747382 0.1990183 0.75122494 -0.034301084 0.06335978 -0.121212535 -0.1701674
-0.259363 0.09465079 0.020464309 0.93564004 -0.124358915 0.22714636 -0.10723888 0.14258997
0.033187307 -0.15992731 0.05392095 -0.08063059 0.029120276 -0.34278262 -0.007021282 -0.36094028
0.08664133 0.08749373 0.36467922 -0.08200848 -0.11666222 0.07712152 -0.06401832 -0.0008159423
0.32775646 0.22865278 0.26763788 -0.002201684 -0.07232942 -0.09012364 -3.2306962 -0.1883033
00000000: 5190 ff3d b065 273e 09b7 0ec0 0636 6b3e
00000010: 3d79 8d3d 4a29 d03e f645 bc3d 6250 183f
00000020: 67b5 e43e f4d4 4b3c f888 203f 17ca d4be
00000030: f495 213e 7899 933a f29f 06bd 93cd 0ebc
00000040: 598b 043e bfd3 e23e edab 49bd 904f e53e
00000050: 05dd d63d 6e94 073c 795a 24bd 9bd2 6140
00000060: 7f4a 04bf bf30 17bf 4a10 06bf 7476 4dbf
00000070: faa1 8ebe 1b38 46bf 679a 183c 0ae5 18bf
00000080: 15d1 5abe d6df 8a3d d110 65bd f0b7 4d3e
00000090: 7732 a5bc 98af 203e 6405 b5be fd2e 55bd
000000a0: 0593 b6be 8e13 93be 8199 cb3d a057 ec3d
000000b0: 8819 a8bf a561 f6bb 4584 443e 4099 993e
000000c0: 34ba 533e 7967 753e 85e9 58be c6cf aabe
000000d0: 705f af3e 320a e33e 83fb af3d 8260 363d
000000e0: 05dc e83c 0d35 6ebb e4fa e43d 40d9 15bf
000000f0: ca19 ba3d a43f c53e aabe a83e fd35 63be
00000100: 646a 193d 0b72 d6bf 1d65 273e ff5b 10be
00000110: 14c6 393e 30fb 4b3e e74a f23e c176 b53e
00000120: b490 8a3d b8ef 5d3e 19e4 0a3e 93ff 2abe
00000130: 0e65 0cbe 0c98 a53e 8eeb a63d 82e0 3e3e
00000140: 387a f0be 75a5 03be a835 b33e fe60 0c3e
00000150: 8736 e0bc 3e94 52be bb2b e03d 7893 88be
00000160: 957e 84be 7dba aabd ba6e 45bd 4db0 23be
00000170: a762 123d 27e8 173e 6061 86be 9fdd 0fbe
00000180: 02d1 2b3d 0609 83be 3abb cd3c dd39 a0be
00000190: 5140 9fbe 4c48 fc3d 14ee 62bd e51b 87bd
000001a0: 43e3 19be 58a3 18be 1e94 3dbe c618 f6bd
000001b0: 1492 43be 4a48 0ebe 235e 5f3e fcd1 283d
000001c0: 42b8 893d c069 50be 6dc2 12be b6c1 94bd
000001d0: 8cc4 0b3d 789f 44be c38f c0bd 8bc6 05be
000001e0: 0087 1e3a f84b a6bd 80c0 77bc 7a6b 17be
000001f0: e660 19be 375d 02be 34e6 56bd 77ec 21be
00000200: 80bf 31c0 92c9 403d 13a7 c43e 8f39 1f3f
00000210: 2a2b 3e3e fc9b 543f 8506 b73e b040 223f
00000220: 9e42 af3e 1d86 41bf 1bf2 b63d 959f a33b
00000230: 062e c1be d854 d7bd 18d1 433e f19a ebbe
00000240: 3d09 f2ba d595 a03e 8875 853e 09ac 183e
00000250: d5f2 023e c44b 21c0 ba44 173d b088 89bd
00000260: 2719 c53e 2c55 e33d 61a1 343f 5cc8 563d
00000270: 0d93 563e fb68 353f 5764 5c3e 62d5 0dbe
00000280: 2b44 1f3e c296 2b3e f02a 64bc eec9 6fbe
00000290: 17e5 8a3c 138a f73d 3f26 c43e de3f de3e
000002a0: aaba bfbd 1369 32be b049 a5bf 9eaf b0bd
000002b0: 49e3 213d 28e6 b93d c131 073f b8ce 9ebe
000002c0: fe4b de3e 6249 e83e 00bd c4bd 9001 423f
000002d0: 4f70 62bc 8e20 b63d 8930 173d b486 d6bd
000002e0: bea2 ac3d cef3 68bf 656a bbbd 6e80 af3d
000002f0: 370e 9a3d 5bd3 12be bc86 883b 86cd 05c0
00000300: f8d9 a13c 863c 17bc 0793 ce3e 28be 153f
00000310: b79d 733e 8250 1b3f 8068 573f fbde 803e
00000320: 703b af3d 31f8 eabc a675 743e 3507 23bf
00000330: 49e1 523d 1045 a4bd 5c86 22bf 9c90 a7be
00000340: 7170 753e da12 f33e ac52 b63d 47dd 8abc
00000350: 0da5 babf 9a5b 83bd a253 103d 4ecd b43e
00000360: 0c32 f83b 9436 4a3e 74cb 4b3e 4750 403f
00000370: 4b7f 0cbd c6c2 813d 473e f8bd 5d40 2ebe
00000380: 3acb 84be 46d8 c13d c4a4 a73c 1b86 6f3f
00000390: e3af febd 0e99 683e 0fa0 dbbd 1b03 123e
000003a0: 6aef 073d fcc3 23be 37dc 5c3d a721 a5bd
000003b0: a58d ee3c 3481 afbe c812 e6bb 2acd b8be
000003c0: 0271 b13d ea2f b33d 3cb7 ba3e 10f4 a7bd
000003d0: 9aec eebd e3f1 9d3d 091c 83bd f6e4 55ba
000003e0: b2cf a73e f423 6a3e d507 893e 214a 10bb
000003f0: 7221 94bd be92 b8bd bac3 4ec0 95d2 40be

model.0.bias f4 [128]
0.22484474 -0.43040207 0.4626104 0.53063786 -0.123498574 -0.109249756 0.7899745 0.44924363
0.30381808 0.332225 0.055720296 -0.14405923 0.78111583 -0.012710915 0.18243036 0.5905132
0.19732748 -0.49902418 -0.022216983 -0.19817537 -0.2741443 -0.13370962 0.04204966 -0.4180114
-0.07965412 0.061953645 0.71808714 0.32018214 0.53734773 0.005622154 -0.061258532 0.33310783
-0.08768752 0.49989587 0.5751878 -0.24305567 -0.08021625 -0.23512043 0.5810933 0.11076149
-0.5188453 0.24698776 0.406666 0.054711085 -0.16585788 0.53946084 0.39082104 0.16437683
0.19758049 0.7637317 -0.10515808 0.23235343 0.47810316 -0.25742516 -0.21896675 0.7978939
0.62758625 0.3175192 -0.685936 0.29356804 0.47917527 0.17126915 0.050095018 -0.08819966
0.21740828 -0.024229074 0.12798168 -0.12656835 0.06322204 -0.038871184 0.290548 0.270018
-0.16868342 0.16575655 0.047356404 0.6430251 -0.18005927 0.39975694 0.11254527 -0.54693174
-0.693866 0.25692147 -0.3003741 0.14148729 -0.55813175 -0.24897859 0.45738864 0.027001683
-0.23084973 0.40574396 0.4816384 -0.27620602 -0.2306395 -0.11797914 0.8315523 -0.14915603
-0.15345521 0.09063761 -0.38600838 0.12790522 -0.46411532 -0.25693464 0.119743966 0.2893363
-0.68540287 0.406472 0.15119988 -0.0006990582 0.5755913 0.07347544 -0.3411036 -0.061110858
0.18055472 0.79260176 0.15118223 -0.19570218 0.4715194 0.106202036 -0.51629764 -0.3500447
0.12256065 -0.5066154 -0.16324067 0.049404867 0.3626618 -0.07004656 -0.10842856 0.024204731
00000000: b33d 663e a95d dcbe 45db ec3e e2d7 073f
00000010: d2ec fcbd 56be dfbd c53b 4a3f 4303 e63e
00000020: 0b8e 9b3e 6519 aa3e f73a 643d 4384 13be
00000030: 35f7 473f 7141 50bc 06cf 3a3e e02b 173f
00000040: 3710 4a3e 1980 ffbe 6400 b6bc 7cee 4abe
00000050: a45c 8cbe 2deb 08be 443c 2c3d 9705 d6be
00000060: b321 a3bd 1bc3 7d3d 8fd4 373f eaee a33e
00000070: 9f8f 093f 0c3a b83b 3aea 7abd 1c8d aa3e
00000080: 8495 b3bd 5af2 ff3e 823f 133f 96e3 78be
00000090: 6b48 a4bd 69c3 70be 88c2 143f ecd6 e23d
000000a0: 0cd3 04bf 5cea 7c3e 8736 d03e bb18 603d
000000b0: a6d6 29be 1b1a 0a3f b219 c83e 6652 283e
000000c0: 8a52 4a3e ec83 433f 1f5d d7bd 0fee 6d3e
000000d0: f0c9 f43e 3bcd 83be d238 60be c642 4c3f
000000e0: 7ea9 203f e091 a23e 8099 2fbf 8d4e 963e
000000f0: 7656 f53e 2e61 2f3e 6f30 4d3d 06a2 b4bd
00000100: 47a0 5e3e 0d7c c6bc a10d 033e 229b 01be
00000110: 8f7a 813d 6437 1fbd b5c2 943e cd3f 8a3e
00000120: 59bb 2cbe 16bc 293e caf8 413d 4b9d 243f
00000130: 7561 38be f1ac cc3e 227e e63d b803 0cbf
00000140: 34a1 31bf 368b 833e a2ca 99be 0be2 103e
00000150: b9e1 0ebf 3ef4 7ebe d82e ea3e a232 dd3c
00000160: df63 6cbe acbd cf3e 4f99 f63e e06a 8dbe
00000170: c32c 6cbe 0c9f f1bd 9de0 543f 5cbc 18be
00000180: 5d23 1dbe 36a0 b93d e4a2 c5be 96f9 023e
00000190: 86a0 edbe f08c 83be 533c f53d e323 943e
000001a0: 9076 2fbf 191d d03e 24d4 1a3e 0041 37ba
000001b0: f459 133f 4b7a 963d 22a5 aebe 614f 7abd
000001c0: 56e3 383e f3e7 4a3f 84cf 1a3e 2766 48be
000001d0: fe6a f13e 7480 d93d 152c 04bf 0f39 b3be
000001e0: 1401 fb3d 8cb1 01bf 9028 27be c25c 4a3d
000001f0: cfae b93e 9274 8fbd cb0f debd 0049 c63c

model.2.weight f4 [64, 128]
0.013311483 -0.07487777 -0.085287884 0.058152758 0.007001969 -0.050222922 0.032621723 0.0011043018
-0.05113314 0.005924945 0.009656453 -0.010316438 0.050365966 -0.12816492 0.003189914 -0.08585197
-0.08743074 0.036999926 -0.09994236 -0.024453811 0.06053621 -0.09782621 -0.075659454 0.055654284
-0.0067762877 -0.017003857 0.0061814315 0.008727673 0.04775096 -0.052032974 0.055960488 0.018184155
0.020842528 0.05258336 -0.15621667 0.035834987 -0.056556005 -0.06895665 -0.0018932679 0.0129861655
-0.03561348 -0.079946496 -0.075423285 0.0015433133 0.0061318814 -0.0803743 0.06594836 0.021010447
-0.08125868 0.0037110883 0.020242121 -0.08344828 0.009199241 -0.064208545 0.04473045 0.027207207
0.002299266 0.0057583246 -0.0388401 0.010268582 -0.02460438 0.02235263 -0.0015553174 0.0064907894
-0.03580003 -0.036827248 -0.08156797 -0.05065171 -0.03563653 0.09997583 0.05049636 -0.046258
-0.053299926 0.020645693 -0.10906876 -0.046684958 -0.07017198 -0.04983156 -0.00891863 -0.060008943
0.038490873 0.02125116 0.09846416 -0.030634573 -0.015396994 -0.019239409 -0.0818371 0.027172113
-0.06796629 -0.057459872 -0.1390215 0.011778569 0.014879082 0.080630235 -0.079511166 0.026632339
-0.0016970717 -0.05630074 -0.06289879 0.047635056 -0.07612073 0.05784069 -0.024824275 -0.014983532
0.039819647 0.0034662178 0.023883082 0.045859568 -0.04146159 -0.13032374 -0.036997266 0.061688967
0.015643135 0.015376026 0.0002582584 -0.011215128 -0.09736261 0.035912592 -0.12322173 -0.12384319
0.08304672 -0.009135169 -0.05252089 -0.12641309 -0.09419637 0.012254005 -0.08078733 0.081607416
0.020505505 -0.051673897 -0.05615796 0.054130863 0.007226208 0.08357217 0.057231292 -0.09440222
0.050050132 0.031239545 -0.14100099 0.03905827 -0.09248839 -0.12883773 -0.028954264 -0.042773128
-0.060213733 -0.114847 0.04495338 0.048102472 -0.0091219675 -0.07651515 -0.0045576766 -0.03682452
-0.123948954 0.01611165 -0.0017028535 -0.09102895 -0.041553136 -0.047027986 -0.12348296 -0.06699533
-0.060619693 0.0015003316 -0.03224452 0.057827946 0.009748037 0.024682628 -0.017108459 -0.0153394025
-0.12012832 0.0048545185 0.03179741 -0.03751261 0.02519321 -0.08938626 -0.0972525 0.018899694
-0.00034432384 -0.069652036 0.011742778 -0.09800682 -0.092464894 0.037335884 -0.041118532 -0.049914338
0.013463393 0.04347846 -0.027545704 -0.0936586 -0.046398647 -0.037086193 0.0044048876 0.04944766
-0.03003811 -0.04595148 -0.07095269 0.04095269 0.044528436 0.11166907 0.03188054 -0.1306568
0.0020666497 0.080879234 -0.008360871 -0.014941533 -0.06666409 -0.10695203 -0.005262572 -0.1146081
-0.006032359 -0.051963326 0.07082452 -0.010929748 -0.04517047 -0.051080905 0.056058824 0.050094828
0.030162688 -0.08768126 0.0058127837 -0.066219404 -0.052347012 0.017929979 -0.08394306 -0.035518814
-0.008006138 -0.005046129 -0.009625047 0.030212335 -0.099438205 0.025795843 0.031061651 -0.05709254
-0.06716887 -0.12623163 0.016604148 0.072423674 0.06644027 -0.029066062 -0.010212928 0.1274093
-0.024789581 -0.10097764 -0.0839184 0.03864435 -0.0095340945 0.05664814 -0.10475524 -0.043899436
-0.0033951732 -0.07602265 0.10021909 -0.11032109 0.028761843 0.009358576 -0.052530903 0.03758366
00000000: 6818 5a3c 8459 99bd 6aab aebd 9631 6e3d
00000010: c670 e53b 8db6 4dbd 5b9e 053d 38be 903a
00000020: fc70 51bd 0b26 c23b 1936 1e3c 4706 29bc
00000030: 8b4c 4e3d aa3d 03be e00d 513b 28d3 afbd
00000040: e30e b3bd 3c8d 173d 94ae ccbd 5c53 c8bc
00000050: d1f4 773d 1c59 c8bd 58f3 9abd bff5 633d
00000060: 9f0b debb ac4b 8bbc 9b8d ca3b 84fe 0e3c
00000070: 8396 433d 8720 55bd d336 653d f0f6 943c
00000080: f3bd aa3c a661 573d 43f7 1fbe b5c7 123d
00000090: 45a7 67bd 2539 8dbd 8727 f8ba edc3 543c
000000a0: 71df 11bd fdba a3bd 8677 9abd 0049 ca3a
000000b0: f3ed c83b 489b a4bd ef0f 873d 1a1e ac3c
000000c0: f36a a6bd bb35 733b ced2 a53c efe6 aabd
000000d0: 6ab8 163c c57f 83bd 4737 373d a6e1 de3c
000000e0: 48af 163b 54b0 bc3b cc16 1fbd 8e3d 283c
000000f0: 208f c9bc dd1c b73c cbdb cbba b0b0 d43b
00000100: 0da3 12bd 2bd8 16bd 1c0d a7bd 2b78 4fbd
00000110: 9cf7 11bd 21c0 cc3d 45d5 4e3d 0779 3dbd
00000120: 0651 5abd 2821 a93c 715f dfbd ba38 3fbd
00000130: 54b6 8fbd 2e1c 4cbd 721f 12bc f0cb 75bd
00000140: 9ba8 1d3d ea16 ae3c 94a7 c93d 5bf5 fabc
00000150: ac43 7cbc f79b 9dbc 369a a7bd 0d98 de3c
00000160: e931 8bbd 0b5b 6bbd a75b 0ebe e6fa 403c
00000170: 65c7 733c 7721 a53d c0d6 a2bd 102c da3c
00000180: 4770 deba 9b9b 66bd 15d1 80bd fa1c 433d
00000190: 2fe5 9bbd 5cea 6c3d 475c cbbc 7d7d 75bc
000001a0: ed19 233d 7c29 633b 74a6 c33c 3ed7 3b3d
000001b0: a1d3 29bd 9673 05be 728a 17bd 92ad 7c3d
000001c0: 0826 803c baeb 7b3c db66 8739 a8bf 37bc
000001d0: 0c66 c7bd 1519 133d ad5b fcbd 80a1 fdbd
000001e0: 6614 aa3d adab 15bc 2520 57bd 6f72 01be
000001f0: 07ea c0bd 06c5 483c d473 a5bd ca21 a73d
00000200: 29fb a73c 02a8 53bd e405 66bd 53b8 5d3d
00000210: d4c9 ec3b e327 ab3d 5c6b 6a3d f355 c1bd
00000220: 5e01 4d3d 13ea ff3c 9062 10be 91fb 1f3d
00000230: 8e6a bdbd 0aee 03be 7e31 edbc e032 2fbd
00000240: ada2 76bd e734 ebbd 0921 383d 1907 453d
00000250: 4e74 15bc fab3 9cbd 9058 95bb 4fd5 16bd
00000260: f3d8 fdbd 94fc 833c 4832 dfba 636d babd
00000270: 9f33 2abd 6ba0 40bd a2e4 fcbd d934 89bd
00000280: 5b4c 78bd c6a6 c43a d412 04bd ffdc 6c3d
00000290: 3bb6 1f3c 3933 ca3c 0a27 8cbc 1e52 7bbc
000002a0: d605 f6bd a712 9f3b 003e 023d d3a6 19bd
000002b0: fe61 ce3c 2510 b7bd 522c c7bd 88d3 9a3c
000002c0: 5d86 b4b9 baa5 8ebd c864 403c cdb7 c8bd
000002d0: 3c5e bdbd 83ed 183d e86b 28bd fa72 4cbd
000002e0: 9095 5c3c 7816 323d 87a7 e1bc 14d0 bfbd
000002f0: 820c 3ebd b1e7 17bd e056 903b a189 4a3d
00000300: 7c12 f6bc 9e37 3cbd a54f 91bd 02be 273d
00000310: 7363 363d c1b2 e43d 2b95 023d e5ca 05be
00000320: a170 073b 03a4 a53d 09fc 08bc 55cd 74bc
00000330: 2f87 88bd aa09 dbbd a771 acbb a7b7 eabd
00000340: 18ab c5bb 7fd7 54bd 720c 913d b012 33bc
00000350: ac04 39bd 363a 51bd f09d 653d 3c30 4d3d
00000360: be17 f73c 3c92 b3bd 2a79 be3b 0a9e 87bd
00000370: d269 56bd e4e1 923c 57ea abbd 2d7c 11bd
00000380: 2d2c 03bc 005a a5bb 60b2 1dbc dc7f f73c
00000390: 42a6 cbbd ce51 d33c 0175 fe3c ded9 69bd
000003a0: d58f 89bd dd42 01be 6c05 883c dd52 943d
000003b0: d611 883d f31b eebc 2054 27bc 9577 023e
000003c0: 8513 cbbc 5dcd cebd 69dd abbd 8a49 1e3d
000003d0: e434 1cbc e107 683d ea89 d6bd e5cf 33bd
000003e0: 8e81 5ebb c3b1 9bbd ab3f cd3d 06f0 e1bd
000003f0: f59d eb3c b654 193c a52a 57bd 53f1 193d

model.2.bias f4 [64]
-0.05984547 0.023536254 0.15390731 0.0634884 -0.09340566 -0.11047373 0.05722135 -0.0077834385
-0.07503166 -0.062441226 -0.32532018 0.0088108545 -0.06703905 -0.07058711 -0.012809293 -0.041233104
-0.09354439 0.3055927 -0.074405685 0.58014005 -0.0801983 -0.1034913 0.43234602 -0.012737645
0.02802811 -0.057376206 -0.019691447 0.037659787 0.54236376 -0.055551406 0.60327125 0.046487052
0.08363686 0.043749653 -0.11797206 0.027026597 0.39233625 0.08533793 -0.056169804 -0.022053698
0.38942304 -0.060985833 -0.006060428 0.47450554 -0.021573521 0.6458322 0.6438433 0.042961843
0.15636502 0.023500917 0.5744999 0.016482389 0.0150363585 0.058380507 -0.07399454 0.013821171
0.41968092 0.02558209 -0.010409282 0.35985616 -0.016223589 -0.036582604 0.036089048 0.031599827
00000000: 8620 75bd 1acf c03c e199 1d3e 3506 823d
00000010: 774b bfbd 0d40 e2bd ef60 6a3d 370c ffbb
00000020: 33aa 99bd 5fc2 7fbd 5e90 a6be 675b 103c
00000030: c54b 89bd fa8f 90bd 12de 51bc 0be4 28bd
00000040: 3394 bfbd a576 9c3e 0262 98bd 0f84 143f
00000050: 023f a4bd 3ff3 d3bd 755c dd3e 8eb1 50bc
00000060: 359b e53c 5003 6bbd f54f a1bc 2641 1a3d
00000070: 5ad8 0a3f df89 63bd fc6f 1a3f 3569 3e3d
00000080: cd49 ab3d d632 333d 569b f1bd e266 dd3c
00000090: 4ce0 c83e a7c5 ae3d 4f12 66bd f5a9 b4bc
000000a0: 7562 c73e 48cc 79bd 8e96 c6bb 64f2 f23e
000000b0: f4ba b0bc 4255 253f ead2 243f c2f8 2f3d
000000c0: 271e 203e ff84 c03c 6d12 133f 1306 873c
000000d0: 0f5b 763c 6620 6f3d 738a 97bd 3172 623c
000000e0: 6be0 d63e 8891 d13c b18b 2abc 113f b83e
000000f0: 55e7 84bc a4d7 15bd 1cd2 133d d26e 013d

model.4.weight f4 [3, 64]
0.013311047 -0.009001503 0.023934342 -0.070227385 -0.05449496 0.030789686 0.045098342 -0.019621706
-0.045443624 -0.07760037 -0.11586602 0.017670145 -0.07302588 -0.109957665 -0.11178074 -0.104961835
-0.022709396 0.041610327 -0.047319297 0.012595719 0.068409815 -0.083804876 0.0103597 -0.0055701607
0.103670105 0.066642046 0.057333604 -0.0625985 0.056650925 -0.06834046 0.017966865 0.095495425
0.00898613 -0.06157401 -0.032334596 -0.05408438 0.03431684 -0.073727146 0.05941937 0.044898886
0.026260173 -0.00514267 0.045090016 0.042278174 0.010505489 0.05070402 0.017110808 0.043472186
-0.0071822894 0.049422998 0.05911182 0.045774754 -0.00024547637 -0.116637655 -0.00076804066 -0.013760377
0.026680326 -0.034043167 -0.03361916 0.044455037 0.015614649 -0.049584378 0.04588929 -0.087997764
-0.0980024 -0.0015737558 0.033055447 -0.11084439 0.0637805 0.01031591 0.05357194 -0.0007158933
-0.02728352 -0.044848822 -0.1054106 -0.09222879 0.054896355 0.023950536 0.082389355 -0.11430514
-0.0043603815 -0.00032559023 0.0009711777 0.0061930274 0.0070436085 -0.008387332 0.044603776 0.00843147
-0.06832978 -0.014485389 0.03364424 0.056026246 0.058689203 -0.006698395 0.0416359 0.057548463
0.0070609534 -0.043220215 -0.052916836 0.084249415 0.010537829 0.04681255 -0.10740383 0.06836279
0.0535855 0.009520896 -0.030593833 0.0032119476 0.10126592 0.055954054 0.017332 -0.010344207
0.06516985 0.021781653 0.05750111 0.053336963 -0.07441373 -0.082069136 -0.029187279 -0.0047735623
0.033324208 -0.06904546 0.047908355 0.054653026 -0.0059818304 -0.07683467 -0.0943722 0.018092267
-0.013293476 -0.003506799 0.056775615 0.08672497 -0.11594761 0.05890295 0.044776935 -0.060480047
-0.077983856 -0.118553355 -0.13124609 0.071313225 0.035536572 -0.031109447 -0.11656097 -0.0885794
0.07514032 0.043667346 0.02178881 0.0058489763 0.051027596 0.007797523 0.062284835 0.025417442
-0.032828644 -0.058424577 0.032923594 0.03167434 0.06277348 -0.090621665 0.03379982 -0.11466658
0.019285731 -0.07341049 -0.024602985 -0.045345776 0.043461025 0.11125478 -0.055438057 -0.0052417964
0.011757364 -0.07436702 -0.023735536 0.034580275 -0.078382805 0.04766353 0.009273918 0.0014074892
0.015953979 0.022495374 0.073332146 -0.07879683 -0.082729355 0.07139985 0.038287997 0.075415485
0.041605126 -0.058879822 -0.029088154 0.05099893 0.0016987057 0.049764194 -0.09915501 -0.0755042
00000000: 9416 5a3c 0a7b 13bc f411 c43c 60d3 8fbd
00000010: 1b36 5fbd a73a fc3c 0ab9 383d b3bd a0bc
00000020: 1823 3abd f1ec 9ebd 2a4b edbd fbc0 903c
00000030: 988e 95bd 7c31 e1bd 4ded e4bd 3bf6 d6bd
00000040: 0e09 babc 976f 2a3d e1d1 41bd 465e 4e3c
00000050: 721a 8c3d e4a1 abbd bbbb 293c e585 b6bb
00000060: fe50 d43d a07b 883d a4d6 6a3d a433 80bd
00000070: cd0a 683d 15f6 8bbd 3f2f 933c 1b93 c33d
00000080: 903a 133c 0735 7cbd 4871 04bd 9587 5dbd
00000090: d18f 0c3d 42fe 96bd ba61 733d e5e7 373d
000000a0: 931f d73c d883 a8bb 4fb0 383d e12b 2d3d
000000b0: 371f 2c3c 05af 4f3d f72b 8c3c e40f 323d
000000c0: 6959 ebbb c56f 4a3d 3c1f 723d 4f7e 3b3d
000000d0: 48b3 80b9 b9df eebd 5656 49ba 3473 61bc
000000e0: b390 da3c d970 0bbd 3fb4 09bd 7c16 363d
000000f0: 96d4 7f3c fd18 4bbd 68f6 3b3d 2c38 b4bd
00000100: 7bb5 c8bd 7b46 ceba 2665 073d 6202 e3bd
00000110: 5a9f 823d 1004 293c 406e 5b3d c9aa 3bba
00000120: b081 dfbc 66b3 37bd 83e1 d7bd 73e2 bcbd
00000130: 00db 603d ea33 c43c c0bb a83d d018 eabd
00000140: 88e1 8ebb fbb3 aab9 a296 7e3a e1ee ca3b
00000150: 12ce e63b 056b 09bc 73b2 363d 2624 0a3c
00000160: 7cf0 8bbd 2054 6dbc 8bce 093d c77b 653d
00000170: 1764 703d 367e dbbb 688a 2a3d f0b7 6b3d
00000180: 925f e73b ae07 31bd 53bf 58bd f58a ac3d
00000190: dca6 2c3c 84be 3f3d 8af6 dbbd ca01 8c3d
000001a0: 787c 5b3d 88fd 1b3c eb9f fabc 8a7f 523b
000001b0: 8264 cf3d 1430 653d d7fb 8d3c c07a 29bc
000001c0: c577 853d 706f b23c 4986 6b3d dc77 5a3d
000001d0: 3a66 98bd dd13 a8bd 291a efbc 8b6b 9cbb
000001e0: f77e 083d b567 8dbd 8d3b 443d dadb 5f3d
000001f0: 3b03 c4bb 7f5b 9dbd 3646 c1bd 3c36 943c
00000200: e1cc 59bc 53d2 65bb 8c8d 683d dc9c b13d
00000210: f175 edbd 3844 713d 0568 373d edb9 77bd
00000220: 00b6 9fbd 1acc f2bd 6065 06be ab0c 923d
00000230: cc8e 113d 3dd9 febc 85b7 eebd 1e69 b5bd
00000240: 2be3 993d 88dc 323d 727e b23c c5a8 bf3b
00000250: 5002 513d 5d82 ff3b 621e 7f3d 3d38 d03c
00000260: 5477 06bd 9c4e 6fbd e4da 063d f4bc 013d
00000270: 628f 803d da97 b9bd ae71 0a3d 50d6 eabd
00000280: 1cfd 9d3c 3d58 96bd 338c c9bc 7ebc 39bd
00000290: 3004 323d 8cd9 e33d 0413 63bd 60c3 abbb
000002a0: f5a1 403c bc4d 98bd 0771 c2bc 0ca4 0d3d
000002b0: 2a87 a0bd d53a 433d a2f1 173c 807b b83a
000002c0: ebb1 823c 3848 b83c 2a2f 963d 3b60 a1bd
000002d0: 026e a9bd 163a 923d e0d3 1c3d 6f73 9a3d
000002e0: 236a 2a3d f82b 71bd 484a eebc 41e4 503d
000002f0: 1ba7 de3a 8ad5 4b3d c811 cbbd f2a1 9abd

model.4.bias f4 [3]
0.5491208 0.50526583 0.40113807
00000000: 2e93 0c3f 1a59 013f f861 cd3e

model.0.weight f4 [128, 21]
0.12473807 0.16341306 -2.2293558 0.22968014 0.069060594 0.4063657 0.09152567 0.5949623
0.44627106 0.012439969 0.627106 -0.415602 0.15775278 0.001061797 -0.032368727 -0.008741742
0.12938783 0.44247884 -0.049577504 0.4479109 0.10458489 0.008332819 -0.04014992 3.5284328
-0.5167706 -0.59056914 -0.52366805 -0.80259603 -0.27855158 -0.77436197 0.0093430225 -0.59719
-0.21305917 0.06786743 -0.055918615 0.20080581 -0.020166595 0.1569394 -0.35380277 -0.051514886
-0.35709348 -0.28741208 0.09943245 0.1156113 -1.3133138 -0.007485754 0.19194432 0.30019742
0.20684545 0.23988971 -0.21173346 -0.333646 0.34275785 0.44342867 0.08593878 0.044688195
0.028252648 -0.0036017774 0.111953594 -0.5850319 0.090877496 0.38547468 0.33002424 -0.22188732
0.037751082 -1.6749573 0.16347165 -0.14097457 0.1816907 0.19943644 0.47350168 0.35471356
0.067629345 0.21697752 0.1354267 -0.16703457 -0.13685133 0.32371488 0.081459865 0.18663895
-0.46883997 -0.12859479 0.3504884 0.1377519 -0.02736975 -0.20564362 0.10945841 -0.2667501
-0.25877824 -0.08336351 -0.0482013 -0.15985222 0.035738613 0.14834653 -0.26246166 -0.14049385
0.041947372 -0.25592822 0.02511369 -0.31294146 -0.31103757 0.12318477 -0.05540283 -0.06597117
-0.150281 -0.1490606 -0.18513533 -0.12016444 -0.19098693 -0.13894764 0.21813254 0.04121588
0.067245975 -0.2035284 -0.1433198 -0.0726351 0.03412299 -0.19201458 -0.0940242 -0.1306402
0.0006047338 -0.08119959 -0.015121579 -0.14787093 -0.1497837 -0.12730871 -0.052518833 -0.15789318
-2.7770107 0.047018636 0.38404 0.62218165 0.1858605 0.83073586 0.35767412 0.63377464
0.34250495 -0.75590146 0.08925758 0.0052022324 -0.3768818 -0.10513191 0.19142093 -0.45933828
-0.0018480034 0.31410873 0.26122093 0.14894173 0.12802641 -2.5201933 0.03693079 -0.06715361
0.38511175 0.1111652 0.70572793 0.05265576 0.20952612 0.7087386 0.21519335 -0.13866962
0.15566535 0.16775648 -0.01408746 -0.23405613 0.017809892 0.12093669 0.38351962 0.43451753
-0.09360334 -0.17425476 -1.2914152 -0.08627255 0.039517954 0.09076342 0.52815795 -0.31022358
0.43423432 0.45368728 -0.096123956 0.75783867 -0.013805923 0.088902764 0.03697311 -0.10472964
0.084265046 -0.90975964 -0.0914908 0.085772 0.075226404 -0.14338483 0.0042857216 -2.0908244
0.019757256 -0.00923051 0.40361708 0.58516747 0.23799627 0.6069546 0.8414233 0.2517742
0.08573081 -0.028684577 0.23882698 -0.63711756 0.05148259 -0.08012406 -0.63433486 -0.32713643
0.23987901 0.4751123 0.088968456 -0.016897822 -1.4579062 -0.06413957 0.0352371 0.3531443
0.007715829 0.19740161 0.19914673 0.75122494 -0.034378007 0.06365905 -0.12126895 -0.17011322
-0.25928155 0.094593115 0.020533884 0.93557644 -0.12439019 0.22721641 -0.10721165 0.14264964
0.033249415 -0.15995751 0.05392095 -0.08063029 0.02919477 -0.34264916 -0.007024446 -0.36081085
0.08664133 0.08749047 0.36440936 -0.08194867 -0.116628475 0.07718499 -0.06401832 -0.0007878211
0.32767835 0.22874951 0.2674858 -0.0021664456 -0.072368816 -0.089930646 -3.2305126 -0.18829148
00000000: ac76 ff3d c155 273e c4ad 0ec0 4531 6b3e
00000010: a46f 8d3d 2a0f d03e cf71 bb3d 734f 183f
00000020: a47d e43e 03d1 4b3c 058a 203f c9c9 d4be
00000030: f289 213e ff2b 8b3a 1295 04bd 8639 0fbc
00000040: 3e7e 043e 968c e23e c811 4bbd 9454 e53e
00000050: 9a30 d63d 6086 083c 3e74 24bd d8d1 6140
00000060: 144b 04bf 8a2f 17bf 1c0f 06bf ef76 4dbf
00000070: 509e 8ebe 963c 46bf 7a13 193c 72e1 18bf
00000080: 2f2c 5abe 14fe 8a3d eb0a 65bd 0aa0 4d3e
00000090: 6a34 a5bc b9b4 203e a325 b5be 4601 53bd
000000a0: f5d4 b6be ad27 93be 3ea3 cb3d 9ec5 ec3d
000000b0: ab1a a8bf 0e4b f5bb 0d8d 443e 7ab3 993e
000000c0: 4bcf 533e a6a5 753e a8d0 58be a6d3 aabe
000000d0: f57d af3e 1509 e33e ac00 b03d f80a 373d
000000e0: 1972 e73c cc0b 6cbb ed47 e53d a7c4 15bf
000000f0: fb1d ba3d f05c c53e f0f8 a83e 6e36 63be
00000100: e1a0 1a3d 0065 d6bf 1d65 273e a35b 10be
00000110: 200d 3a3e 1139 4c3e d06e f23e 049d b53e
00000120: 4181 8a3d 5b2f 5e3e 4cad 0a3e 1c0b 2bbe
00000130: c122 0cbe f5bd a53e 6ed4 a63d 481e 3f3e
00000140: cb0b f0be 5aae 03be 3773 b33e d60e 0d3e
00000150: 8736 e0bc 3e94 52be bb2b e03d 7893 88be
00000160: 957e 84be 7dba aabd ba6e 45bd 4db0 23be
00000170: a762 123d 27e8 173e 6061 86be 9fdd 0fbe
00000180: 02d1 2b3d 0609 83be 3abb cd3c dd39 a0be
00000190: 5140 9fbe 4c48 fc3d 14ee 62bd e51b 87bd
000001a0: 43e3 19be 58a3 18be 1e94 3dbe c618 f6bd
000001b0: 1492 43be 4a48 0ebe 235e 5f3e fcd1 283d
000001c0: 42b8 893d c069 50be 6dc2 12be b6c1 94bd
000001d0: 8cc4 0b3d 789f 44be c38f c0bd 8bc6 05be
000001e0: 0087 1e3a f84b a6bd 80c0 77bc 7a6b 17be
000001f0: e660 19be 375d 02be fd1d 57bd c0ae 21be
00000200: 8bba 31c0 9d96 403d e4a0 c43e 4c47 1f3f
00000210: 3752 3e3e 1bab 543f 1021 b73e 0e3f 223f
00000220: cf5c af3e c282 41bf aecc b63d 7d77 aa3b
00000230: a7f6 c0be 664f d7bd d903 443e 632e ebbe
00000240: b438 f2ba dcd2 a03e c0be 853e 2e84 183e
00000250: 5b19 033e d94a 21c0 bd44 173d d587 89bd
00000260: 5e2d c53e 95aa e33d 96aa 343f 91ad 573d
00000270: 048e 563e e56f 353f a55b 5c3e 69ff 0dbe
00000280: bd66 1f3e 5bc8 2b3e 17cf 66bc 69ac 6fbe
00000290: 0de6 913c a8ad f73d af5c c43e 1579 de3e
000002a0: 1cb3 bfbd d76f 32be 184d a5bf aaaf b0bd
000002b0: 94dd 213d 2ce2 b93d 5c35 073f a0d5 9ebe
000002c0: f653 de3e b349 e83e a3dc c4bd b701 423f
000002d0: 3d32 62bc a712 b63d 1e71 173d 7e7c d6bd
000002e0: 2793 ac3d 02e6 68bf 875f bbbd 3ba9 af3d
000002f0: 4d10 9a3d 79d3 12be 3d6f 8c3b 11d0 05c0
00000300: f8d9 a13c 913b 17bc e6a6 ce3e 89cd 153f
00000310: 4bb5 733e 6061 1b3f 8467 573f 8ce8 803e
00000320: a393 af3d ebfb eabc 0f8f 743e 231a 23bf
00000330: 69df 523d 1518 a4bd c563 22bf 6d7e a7be
00000340: d8a2 753e eb41 f33e 1835 b63d 4d6d 8abc
00000350: ac9c babf 9b5b 83bd c754 103d 54cf b43e
00000360: 11d5 fc3b a623 4a3e 1fed 4b3e 4750 403f
00000370: f4cf 0cbd ad5f 823d db5b f8bd 2932 2ebe
00000380: 8dc0 84be 09ba c13d ad36 a83c f081 6f3f
00000390: 49c0 febd 6bab 683e c891 dbbd bf12 123e
000003a0: 8a30 083d e7cb 23be 37dc 5c3d 7e21 a5bd
000003b0: df29 ef3c b66f afbe 532d e6bb 33bc b8be
000003c0: 0271 b13d 342e b33d dd93 ba3e b4d4 a7bd
000003d0: e9da eebd 2a13 9e3d 091c 83bd c785 4eba
000003e0: 75c5 a73e 503d 6a3e e6f3 883e edfa 0dbb
000003f0: 1a36 94bd 8f2d b8bd b8c0 4ec0 7bcf 40be

model.0.bias f4 [128]
0.22463936 -0.4303834 0.46281087 0.53090733 -0.123498574 -0.109249756 0.79018277 0.44939816
0.3038113 0.33237794 0.055732638 -0.14398424 0.78129655 -0.012710915 0.18247613 0.59070367
0.19723251 -0.4991591 -0.022216983 -0.19817537 -0.2743393 -0.13370939 0.04204966 -0.4180114
-0.07965412 0.061953645 0.71823364 0.32019067 0.5374475 0.005760151 -0.06122414 0.33327937
-0.08768752 0.49988362 0.5750911 -0.2430691 -0.08021625 -0.23512043 0.5809721 0.110716246
-0.5189521 0.24688005 0.40683314 0.054711085 -0.16585788 0.53960127 0.39102688 0.16445176
0.19758049 0.7638355 -0.10515808 0.23250893 0.4782439 -0.25742516 -0.21896675 0.7980798
0.62765735 0.31748584 -0.68612766 0.29410386 0.47934863 0.17126915 0.050095018 -0.08811303
0.21740828 -0.024214705 0.12798168 -0.12656835 0.06326675 -0.03882947 0.2905299 0.27017805
-0.168602 0.16575655 0.047561392 0.6431715 -0.18005927 0.3998402 0.11274677 -0.5470762
-0.6938485 0.25717318 -0.3003741 0.14166869 -0.55827075 -0.24897859 0.45756778 0.026960686
-0.23084973 0.4059188 0.48183975 -0.2763756 -0.23062754 -0.11797914 0.831736 -0.14915603
-0.15345521 0.09063761 -0.38592654 0.12790522 -0.46411532 -0.25689912 0.119776405 0.28941655
-0.6855201 0.4067034 0.1512083 -0.0006990582 0.5757913 0.07347544 -0.3411525 -0.06106658
0.18033522 0.7928063 0.15118223 -0.19570218 0.471674 0.10643412 -0.51652384 -0.34989372
0.12256065 -0.50678426 -0.16324067 0.049656644 0.36269605 -0.07004656 -0.10842856 0.024339695
00000000: dc07 663e 375b dcbe 8cf5 ec3e 8be9 073f
00000010: d2ec fcbd 56be dfbd 6b49 4a3f 8417 e63e
00000020: 288d 9b3e 712d aa3e e847 643d 9b70 13be
00000030: 0d03 483f 7141 50bc 06db 3a3e 5b38 173f
00000040: 52f7 493e c891 ffbe 6400 b6bc 7cee 4abe
00000050: 3376 8cbe 1deb 08be 443c 2c3d 9705 d6be
00000060: b321 a3bd 1bc3 7d3d 29de 373f 08f0 a33e
00000070: 2996 093f a6bf bc3b 2ac6 7abd 98a3 aa3e
00000080: 8495 b3bd bff0 ff3e 2c39 133f 1be7 78be
00000090: 6b48 a4bd 69c3 70be 96ba 143f 33bf e23d
000000a0: 0bda 04bf 20ce 7c3e 6f4c d03e bb18 603d
000000b0: a6d6 29be 4f23 0a3f ad34 c83e 0b66 283e
000000c0: 8a52 4a3e b98a 433f 1f5d d7bd d216 6e3e
000000d0: 62dc f43e 3bcd 83be d238 60be f54e 4c3f
000000e0: 27ae 203f 818d a23e 10a6 2fbf c894 963e
000000f0: 2f6d f53e 2e61 2f3e 6f30 4d3d 9b74 b4bd
00000100: 47a0 5e3e eb5d c6bc a10d 033e 229b 01be
00000110: ff91 813d a60b 1fbd 56c0 943e c754 8a3e
00000120: 01a6 2cbe 16bc 293e bccf 423d e3a6 243f
00000130: 7561 38be dbb7 cc3e c7e7 e63d 300d 0cbf
00000140: 0ea0 31bf 34ac 833e a2ca 99be 9911 113e
00000150: d5ea 0ebf 3ef4 7ebe 5346 ea3e a8dc dc3c
00000160: df63 6cbe 97d4 cf3e b3b3 f63e 1a81 8dbe
00000170: a029 6cbe 0c9f f1bd a7ec 543f 5cbc 18be
00000180: 5d23 1dbe 36a0 b93d 2a98 c5be 96f9 023e
00000190: 86a0 edbe 4888 83be 554d f53d 682e 943e
000001a0: 3f7e 2fbf 6e3b d03e 59d6 1a3e 0041 37ba
000001b0: 0f67 133f 4b7a 963d 8aab aebe f320 7abd
000001c0: cca9 383e 5bf5 4a3f 84cf 1a3e 2766 48be
000001d0: 417f f13e 22fa d93d e83a 04bf 4525 b3be
000001e0: 1401 fb3d 9dbc 01bf 9028 27be c464 4b3d
000001f0: 4cb3 b93e 9274 8fbd cb0f debd 0a64 c73c

model.2.weight f4 [64, 128]
0.013311483 -0.07487777 -0.085287884 0.058152758 0.007001969 -0.050222922 0.032621723 0.0011043018
-0.05113314 0.005924945 0.009656453 -0.010316438 0.050365966 -0.12816492 0.003189914 -0.08585197
-0.08743074 0.036999926 -0.09994236 -0.024453811 0.06053621 -0.09782621 -0.075659454 0.055654284
-0.0067762877 -0.017003857 0.0061814315 0.008727673 0.04775096 -0.052032974 0.055960488 0.018184155
0.020842528 0.05258336 -0.15621667 0.035834987 -0.056556005 -0.06895665 -0.0018932679 0.0129861655
-0.03561348 -0.079946496 -0.075423285 0.0015433133 0.0061318814 -0.0803743 0.06594836 0.021010447
-0.08125868 0.0037110883 0.020242121 -0.08344828 0.009199241 -0.064208545 0.04473045 0.027207207
0.002299266 0.0057583246 -0.0388401 0.010268582 -0.02460438 0.02235263 -0.0015553174 0.0064907894
-0.03580003 -0.036827248 -0.08156797 -0.05065171 -0.03563653 0.09997583 0.05049636 -0.046258
-0.053299926 0.020645693 -0.10906876 -0.046684958 -0.07017198 -0.04983156 -0.00891863 -0.060008943
0.038490873 0.02125116 0.09846416 -0.030634573 -0.015396994 -0.019239409 -0.0818371 0.027172113
-0.06796629 -0.057459872 -0.1390215 0.011778569 0.014879082 0.080630235 -0.079511166 0.026632339
-0.0016970717 -0.05630074 -0.06289879 0.047635056 -0.07612073 0.05784069 -0.024824275 -0.014983532
0.039819647 0.0034662178 0.023883082 0.045859568 -0.04146159 -0.13032374 -0.036997266 0.061688967
0.015643135 0.015376026 0.0002582584 -0.011215128 -0.09736261 0.035912592 -0.12322173 -0.12384319
0.08304672 -0.009135169 -0.05252089 -0.12641309 -0.09419637 0.012254005 -0.08078733 0.081607416
0.020505505 -0.051673897 -0.05615796 0.054130863 0.007226208 0.08357217 0.057231292 -0.09440222
0.050050132 0.031239545 -0.14100099 0.03905827 -0.09248839 -0.12883773 -0.028954264 -0.042773128
-0.060213733 -0.114847 0.04495338 0.048102472 -0.0091219675 -0.07651515 -0.0045576766 -0.03682452
-0.123948954 0.01611165 -0.0017028535 -0.09102895 -0.041553136 -0.047027986 -0.12348296 -0.06699533
-0.060619693 0.0015003316 -0.03224452 0.057827946 0.009748037 0.024682628 -0.017108459 -0.0153394025
-0.12012832 0.0048545185 0.03179741 -0.03751261 0.02519321 -0.08938626 -0.0972525 0.018899694
-0.00034432384 -0.069652036 0.011742778 -0.09800682 -0.092464894 0.037335884 -0.041118532 -0.049914338
0.013463393 0.04347846 -0.027545704 -0.0936586 -0.046398647 -0.037086193 0.0044048876 0.04944766
-0.03003811 -0.04595148 -0.07095269 0.04095269 0.044528436 0.11166907 0.03188054 -0.1306568
0.0020666497 0.080879234 -0.008360871 -0.014941533 -0.06666409 -0.10695203 -0.005262572 -0.1146081
-0.006032359 -0.051963326 0.07082452 -0.010929748 -0.04517047 -0.051080905 0.056058824 0.050094828
0.030162688 -0.08768126 0.0058127837 -0.066219404 -0.052347012 0.017929979 -0.08394306 -0.035518814
-0.008006138 -0.005046129 -0.009625047 0.030212335 -0.099438205 0.025795843 0.031061651 -0.05709254
-0.06716887 -0.12623163 0.016604148 0.072423674 0.06644027 -0.029066062 -0.010212928 0.1274093
-0.024789581 -0.10097764 -0.0839184 0.03864435 -0.0095340945 0.05664814 -0.10475524 -0.043899436
-0.0033951732 -0.07602265 0.10021909 -0.11032109 0.028761843 0.009358576 -0.052530903 0.03758366
00000000: 6818 5a3c 8459 99bd 6aab aebd 9631 6e3d
00000010: c670 e53b 8db6 4dbd 5b9e 053d 38be 903a
00000020: fc70 51bd 0b26 c23b 1936 1e3c 4706 29bc
00000030: 8b4c 4e3d aa3d 03be e00d 513b 28d3 afbd
00000040: e30e b3bd 3c8d 173d 94ae ccbd 5c53 c8bc
00000050: d1f4 773d 1c59 c8bd 58f3 9abd bff5 633d
00000060: 9f0b debb ac4b 8bbc 9b8d ca3b 84fe 0e3c
00000070: 8396 433d 8720 55bd d336 653d f0f6 943c
00000080: f3bd aa3c a661 573d 43f7 1fbe b5c7 123d
00000090: 45a7 67bd 2539 8dbd 8727 f8ba edc3 543c
000000a0: 71df 11bd fdba a3bd 8677 9abd 0049 ca3a
000000b0: f3ed c83b 489b a4bd ef0f 873d 1a1e ac3c
000000c0: f36a a6bd bb35 733b ced2 a53c efe6 aabd
000000d0: 6ab8 163c c57f 83bd 4737 373d a6e1 de3c
000000e0: 48af 163b 54b0 bc3b cc16 1fbd 8e3d 283c
000000f0: 208f c9bc dd1c b73c cbdb cbba b0b0 d43b
00000100: 0da3 12bd 2bd8 16bd 1c0d a7bd 2b78 4fbd
00000110: 9cf7 11bd 21c0 cc3d 45d5 4e3d 0779 3dbd
00000120: 0651 5abd 2821 a93c 715f dfbd ba38 3fbd
00000130: 54b6 8fbd 2e1c 4cbd 721f 12bc f0cb 75bd
00000140: 9ba8 1d3d ea16 ae3c 94a7 c93d 5bf5 fabc
00000150: ac43 7cbc f79b 9dbc 369a a7bd 0d98 de3c
00000160: e931 8bbd 0b5b 6bbd a75b 0ebe e6fa 403c
00000170: 65c7 733c 7721 a53d c0d6 a2bd 102c da3c
00000180: 4770 deba 9b9b 66bd 15d1 80bd fa1c 433d
00000190: 2fe5 9bbd 5cea 6c3d 475c cbbc 7d7d 75bc
000001a0: ed19 233d 7c29 633b 74a6 c33c 3ed7 3b3d
000001b0: a1d3 29bd 9673 05be 728a 17bd 92ad 7c3d
000001c0: 0826 803c baeb 7b3c db66 8739 a8bf 37bc
000001d0: 0c66 c7bd 1519 133d ad5b fcbd 80a1 fdbd
000001e0: 6614 aa3d adab 15bc 2520 57bd 6f72 01be
000001f0: 07ea c0bd 06c5 483c d473 a5bd ca21 a73d
00000200: 29fb a73c 02a8 53bd e405 66bd 53b8 5d3d
00000210: d4c9 ec3b e327 ab3d 5c6b 6a3d f355 c1bd
00000220: 5e01 4d3d 13ea ff3c 9062 10be 91fb 1f3d
00000230: 8e6a bdbd 0aee 03be 7e31 edbc e032 2fbd
00000240: ada2 76bd e734 ebbd 0921 383d 1907 453d
00000250: 4e74 15bc fab3 9cbd 9058 95bb 4fd5 16bd
00000260: f3d8 fdbd 94fc 833c 4832 dfba 636d babd
00000270: 9f33 2abd 6ba0 40bd a2e4 fcbd d934 89bd
00000280: 5b4c 78bd c6a6 c43a d412 04bd ffdc 6c3d
00000290: 3bb6 1f3c 3933 ca3c 0a27 8cbc 1e52 7bbc
000002a0: d605 f6bd a712 9f3b 003e 023d d3a6 19bd
000002b0: fe61 ce3c 2510 b7bd 522c c7bd 88d3 9a3c
000002c0: 5d86 b4b9 baa5 8ebd c864 403c cdb7 c8bd
000002d0: 3c5e bdbd 83ed 183d e86b 28bd fa72 4cbd
000002e0: 9095 5c3c 7816 323d 87a7 e1bc 14d0 bfbd
000002f0: 820c 3ebd b1e7 17bd e056 903b a189 4a3d
00000300: 7c12 f6bc 9e37 3cbd a54f 91bd 02be 273d
00000310: 7363 363d c1b2 e43d 2b95 023d e5ca 05be
00000320: a170 073b 03a4 a53d 09fc 08bc 55cd 74bc
00000330: 2f87 88bd aa09 dbbd a771 acbb a7b7 eabd
00000340: 18ab c5bb 7fd7 54bd 720c 913d b012 33bc
00000350: ac04 39bd 363a 51bd f09d 653d 3c30 4d3d
00000360: be17 f73c 3c92 b3bd 2a79 be3b 0a9e 87bd
00000370: d269 56bd e4e1 923c 57ea abbd 2d7c 11bd
00000380: 2d2c 03bc 005a a5bb 60b2 1dbc dc7f f73c
00000390: 42a6 cbbd ce51 d33c 0175 fe3c ded9 69bd
000003a0: d58f 89bd dd42 01be 6c05 883c dd52 943d
000003b0: d611 883d f31b eebc 2054 27bc 9577 023e
000003c0: 8513 cbbc 5dcd cebd 69dd abbd 8a49 1e3d
000003d0: e434 1cbc e107 683d ea89 d6bd e5cf 33bd
000003e0: 8e81 5ebb c3b1 9bbd ab3f cd3d 06f0 e1bd
000003f0: f59d eb3c b654 193c a52a 57bd 53f1 193d

model.2.bias f4 [64]
-0.05984547 0.023536254 0.15390731 0.0634884 -0.09340566 -0.11047373 0.05722135 -0.0077834385
-0.07503166 -0.062441226 -0.3253052 0.0088108545 -0.06703905 -0.07058711 -0.012809293 -0.041233104
-0.09354439 0.3055927 -0.074405685 0.58020055 -0.0801983 -0.1034913 0.43234602 -0.012737645
0.02802811 -0.057376206 -0.019691447 0.037659787 0.5425744 -0.055551406 0.6032876 0.046487052
0.08363686 0.043749653 -0.11797206 0.027026597 0.39233834 0.08533793 -0.056169804 -0.022053698
0.38942394 -0.060985833 -0.006060428 0.4745058 -0.021573521 0.64600664 0.6439106 0.042961843
0.15636502 0.023500917 0.57471156 0.016482389 0.0150363585 0.058380507 -0.07399454 0.013821171
0.41982073 0.02558209 -0.010409282 0.36027625 -0.016223589 -0.036582604 0.036089048 0.031599827
00000000: 8620 75bd 1acf c03c e199 1d3e 3506 823d
00000010: 774b bfbd 0d40 e2bd ef60 6a3d 370c ffbb
00000020: 33aa 99bd 5fc2 7fbd 678e a6be 675b 103c
00000030: c54b 89bd fa8f 90bd 12de 51bc 0be4 28bd
00000040: 3394 bfbd a576 9c3e 0262 98bd 0688 143f
00000050: 023f a4bd 3ff3 d3bd 755c dd3e 8eb1 50bc
00000060: 359b e53c 5003 6bbd f54f a1bc 2641 1a3d
00000070: 28e6 0a3f df89 63bd 0e71 1a3f 3569 3e3d
00000080: cd49 ab3d d632 333d 569b f1bd e266 dd3c
00000090: 92e0 c83e a7c5 ae3d 4f12 66bd f5a9 b4bc
000000a0: 9362 c73e 48cc 79bd 8e96 c6bb 6df2 f23e
000000b0: f4ba b0bc b160 253f 53d7 243f c2f8 2f3d
000000c0: 271e 203e ff84 c03c 4c20 133f 1306 873c
000000d0: 0f5b 763c 6620 6f3d 738a 97bd 3172 623c
000000e0: bef2 d63e 8891 d13c b18b 2abc 2176 b83e
000000f0: 55e7 84bc a4d7 15bd 1cd2 133d d26e 013d

model.4.weight f4 [3, 64]
0.013311047 -0.009001503 0.023934342 -0.070227385 -0.05449496 0.030789686 0.045098342 -0.019621706
-0.045443624 -0.07760037 -0.11593643 0.017670145 -0.07302588 -0.109957665 -0.11178074 -0.104961835
-0.022709396 0.041610327 -0.047319297 0.012592845 0.068409815 -0.083804876 0.0103597 -0.0055701607
0.103670105 0.066642046 0.057333604 -0.0625985 0.05667139 -0.06834046 0.01796719 0.095495425
0.00898613 -0.06157401 -0.032334596 -0.05408438 0.034316957 -0.073727146 0.05941937 0.044898886
0.026260173 -0.00514267 0.045090016 0.042278174 0.010505489 0.050758593 0.01711142 0.043472186
-0.0071822894 0.049422998 0.059323683 0.045774754 -0.00024547637 -0.116637655 -0.00076804066 -0.013760377
0.026680663 -0.034043167 -0.03361916 0.044520535 0.015614649 -0.049584378 0.04588929 -0.087997764
-0.0980024 -0.0015737558 0.033055447 -0.11084439 0.0637805 0.01031591 0.05357194 -0.0007158933
-0.02728352 -0.044848822 -0.10541051 -0.09222879 0.054896355 0.023950536 0.082389355 -0.11430514
-0.0043603815 -0.00032559023 0.0009711777 0.006210529 0.0070436085 -0.008387332 0.044603776 0.00843147
-0.06832978 -0.014485389 0.03364424 0.056026246 0.058616884 -0.006698395 0.04163946 0.057548463
0.0070609534 -0.043220215 -0.052916836 0.084249415 0.0105381515 0.04681255 -0.10740383 0.06836279
0.05358554 0.009520896 -0.030593833 0.003212002 0.10126592 0.05583255 0.017337848 -0.010344207
0.06516985 0.021781653 0.05715951 0.053336963 -0.07441373 -0.082069136 -0.029187279 -0.0047735623
0.033374704 -0.06904546 0.047908355 0.054999646 -0.0059818304 -0.07683467 -0.0943722 0.018092267
-0.013293476 -0.003506799 0.056775615 0.08672497 -0.11594761 0.05890295 0.044776935 -0.060480047
-0.077983856 -0.118553355 -0.13124609 0.071313225 0.035536572 -0.031109447 -0.11656097 -0.0885794
0.07514032 0.043667346 0.02178881 0.005886188 0.051027596 0.007797523 0.062284835 0.025417442
-0.032828644 -0.058424577 0.032923594 0.03167434 0.06299331 -0.090621665 0.03379982 -0.11466658
0.019285731 -0.07341049 -0.024602985 -0.045345776 0.043461025 0.11125478 -0.055438057 -0.0052417964
0.011757364 -0.07436702 -0.023735536 0.034580275 -0.078382805 0.047836326 0.009273921 0.0014074892
0.015953979 0.022495374 0.07360011 -0.07879683 -0.082729355 0.07139985 0.038287997 0.075415485
0.041647658 -0.058879822 -0.029088154 0.051055714 0.0016987057 0.049764194 -0.09915501 -0.0755042
00000000: 9416 5a3c 0a7b 13bc f411 c43c 60d3 8fbd
00000010: 1b36 5fbd a73a fc3c 0ab9 383d b3bd a0bc
00000020: 1823 3abd f1ec 9ebd 1470 edbd fbc0 903c
00000030: 988e 95bd 7c31 e1bd 4ded e4bd 3bf6 d6bd
00000040: 0e09 babc 976f 2a3d e1d1 41bd 3852 4e3c
00000050: 721a 8c3d e4a1 abbd bbbb 293c e585 b6bb
00000060: fe50 d43d a07b 883d a4d6 6a3d a433 80bd
00000070: 4220 683d 15f6 8bbd ee2f 933c 1b93 c33d
00000080: 903a 133c 0735 7cbd 4871 04bd 9587 5dbd
00000090: f08f 0c3d 42fe 96bd ba61 733d e5e7 373d
000000a0: 931f d73c d883 a8bb 4fb0 383d e12b 2d3d
000000b0: 371f 2c3c 3ee8 4f3d 402d 8c3c e40f 323d
000000c0: 6959 ebbb c56f 4a3d 64fd 723d 4f7e 3b3d
000000d0: 48b3 80b9 b9df eebd 5656 49ba 3473 61bc
000000e0: 6891 da3c d970 0bbd 3fb4 09bd 2a5b 363d
000000f0: 96d4 7f3c fd18 4bbd 68f6 3b3d 2c38 b4bd
00000100: 7bb5 c8bd 7b46 ceba 2665 073d 6202 e3bd
00000110: 5a9f 823d 1004 293c 406e 5b3d c9aa 3bba
00000120: b081 dfbc 66b3 37bd 77e1 d7bd 73e2 bcbd
00000130: 00db 603d ea33 c43c c0bb a83d d018 eabd
00000140: 88e1 8ebb fbb3 aab9 a296 7e3a b181 cb3b
00000150: 12ce e63b 056b 09bc 73b2 363d 2624 0a3c
00000160: 7cf0 8bbd 2054 6dbc 8bce 093d c77b 653d
00000170: 4218 703d 367e dbbb 238e 2a3d f0b7 6b3d
00000180: 925f e73b ae07 31bd 53bf 58bd f58a ac3d
00000190: 36a8 2c3c 84be 3f3d 8af6 dbbd ca01 8c3d
000001a0: 837c 5b3d 88fd 1b3c eb9f fabc 7480 523b
000001b0: 8264 cf3d acb0 643d 1a08 8e3c c07a 29bc
000001c0: c577 853d 706f b23c 1720 6a3d dc77 5a3d
000001d0: 3a66 98bd dd13 a8bd 291a efbc 8b6b 9cbb
000001e0: eab3 083d b567 8dbd 8d3b 443d 4f47 613d
000001f0: 3b03 c4bb 7f5b 9dbd 3646 c1bd 3c36 943c
00000200: e1cc 59bc 53d2 65bb 8c8d 683d dc9c b13d
00000210: f175 edbd 3844 713d 0568 373d edb9 77bd
00000220: 00b6 9fbd 1acc f2bd 6065 06be ab0c 923d
00000230: cc8e 113d 3dd9 febc 85b7 eebd 1e69 b5bd
00000240: 2be3 993d 88dc 323d 727e b23c ece0 c03b
00000250: 5002 513d 5d82 ff3b 621e 7f3d 3d38 d03c
00000260: 5477 06bd 9c4e 6fbd e4da 063d f4bc 013d
00000270: a302 813d da97 b9bd ae71 0a3d 50d6 eabd
00000280: 1cfd 9d3c 3d58 96bd 338c c9bc 7ebc 39bd
00000290: 3004 323d 8cd9 e33d 0413 63bd 60c3 abbb
000002a0: f5a1 403c bc4d 98bd 0771 c2bc 0ca4 0d3d
000002b0: 2a87 a0bd 06f0 433d a5f1 173c 807b b83a
000002c0: ebb1 823c 3848 b83c a8bb 963d 3b60 a1bd
000002d0: 026e a9bd 163a 923d e0d3 1c3d 6f73 9a3d
000002e0: bc96 2a3d f82b 71bd 484a eebc cc1f 513d
000002f0: 1ba7 de3a 8ad5 4b3d c811 cbbd f2a1 9abd

model.4.bias f4 [3]
0.54953235 0.5048175 0.40157944
00000000: 27ae 0c3f b83b 013f d29b cd3e
