models/rl/dqn/dqn_episode_9.pt (torch, 189640 bytes, 24 tensors)

model.0.weight f4 [128, 21]
00000000: 2db4 12bd 15a6 ca3d 7b4e e8bf 515a 803d
00000010: 8b2d c6bd 22c7 b83e 1875 4c3d 5895 113f
00000020: 3617 b63e 9c28 d53d 35a8 223f aeb6 0ebe
00000030: ceaa d53a 7a7b 3fbd 6251 263f c6b2 b8bd
00000040: 1c86 af3d 2348 6e3e cd4c ce3d d288 833e
00000050: 9f4a 7cbe f226 26bd d7c6 d7bd a582 a93f
00000060: a12b efbe efff acbe 3a92 91be 77da 89bc
00000070: e005 13bf 89d7 dbbd 81a9 273e 594f 55bf
00000080: a4c2 e93e 3152 f03c 5d0a afbd c90c d33d
00000090: 7a0d c43b 9ae5 2d3e 4f78 45bf 812d c4bd
000000a0: 5164 1b3e 3941 0dbe cbe7 413e 4ad9 873e
000000b0: b462 07c0 517f fc3d d503 893e 8c99 eb3e
000000c0: f505 7a3e a17e d13e 078e 4bbc 6191 40be
000000d0: 8ea1 ab3e 3d8a 7e3e 93b7 193e 9d8c 1a3e
000000e0: b956 91bd c749 ef3d 1c65 6d3e dd92 653f
000000f0: 5b4f 45bd d0a4 e9be 653e 103f 38be 0ebe
00000100: 5f1e 47bc 6716 d9bf 8595 473e 7055 50be
00000110: 900f 383e ef75 fa3d 2f6a 063f ad89 d03e
00000120: 52ce e53e 1375 053e af6f 20bf a94a fabd
00000130: 45ce 74be fb59 10bf 6412 023e 60a5 de3d
00000140: bdcf 0f3f 22f0 27be 2d82 06be a03e 813c
00000150: 37ce dbbc 4ab4 3bbe 4519 233e 50d9 8cbe
00000160: d6a2 76be 124e 84bd 8b16 5cbd b08d cebd
00000170: ed75 f73c 27e8 173e 4359 50be 2702 a9bd
00000180: 820d 263d 837d 61be 532c 9bbd 0351 8abe
00000190: ded6 8ebe 7e94 d53d 9fbb cbbd 6a67 47bc
000001a0: a41a 10be 58a3 18be 1e94 3dbe c618 f6bd
000001b0: 1492 43be 4a48 0ebe 235e 5f3e fcd1 283d
000001c0: 42b8 893d c069 50be 6dc2 12be b6c1 94bd
000001d0: 8cc4 0b3d 789f 44be c38f c0bd 8bc6 05be
000001e0: 0087 1e3a f84b a6bd 80c0 77bc 7a6b 17be
000001f0: e660 19be 375d 02be 99b8 e8bd 1a15 69be
00000200: 4ad7 9dbf a1fe 37be 3350 203e d398 bb3e
00000210: 8c76 233e 7142 ea3e fe9b c03e e4fe 153f
00000220: 2c59 78be 749e 3cbf 40b5 bd3d 02d3 0bbd
00000230: 2842 e03f ea13 0dbf ea3a 383e f6ba c3bf
00000240: 24c4 0fbe 3c53 9b3d c8a4 b0be 823b 293e
00000250: a66f 763e 053e a6be b65d 9c3d 00ec cfbd
00000260: a3a2 853d e812 fbbe d90f 213f d012 b2be
00000270: 3820 cbbe 7435 f53e d6fc 31bf 451d 84bd
00000280: ac6c 373e 1e0a 44bf cdae 233d 40e4 4dbe
00000290: 3876 a03f 6b02 79bd fca9 d0bd b16f 313f
000002a0: 31b2 13bd 50db d8bd 440f 963f a9ab 28bd
000002b0: 64f8 5c3d 7982 77be fa54 b3be 9b67 73be
000002c0: 4618 abbe 9dee 2f3e 27cd 6ebd 86ae f6be
000002d0: 07d4 683c 3ec1 df3d a556 0cbd e22b 94bd
000002e0: 15a5 043e 2621 4e3e 3212 1e3e c104 863d
000002f0: 44eb 02be bc0a 99be 4195 5bbd 00a6 e9bf
00000300: 0170 093d 5ab7 68ba f6df 8a3e 0fd7 db3e
00000310: 1ccb e53d 4674 063f 1271 643e cf78 cb3d
00000320: 079c 14bf 81b6 10bd da12 063e 3e1a 913e
00000330: 3703 843c c849 18be 2c40 73bf 31de a9bf
00000340: b631 01bd d8f1 acbd 9c3b da3d 99a6 4f3d
00000350: fde0 7d3f 2a99 34bd 32f5 8d3c cc1f 893d
00000360: 1299 babe f0cd 85bd 024b 8fbe 2cde a8be
00000370: b38b 02be baf6 16ba a399 0ebe de20 c4bd
00000380: cee7 11be fc18 163d d3cd d13d 3b85 813f
00000390: da96 bd3c 143b dfba 0763 7dbe 65ec 1dbd
000003a0: bcdf a4bd d1f1 e7bc 47ac b23d 69ef b7bd
000003b0: 0ac0 d0bd 9b3a f7be 361f 4fbd 915e f4be
000003c0: c257 ec3d 4e93 953c a73e 18bf a636 f2bd
000003d0: bc0b 67be eecd 32bf 8182 c6bd a251 dfbd
000003e0: 40c3 913f a2a8 ad3d d031 93be fa93 8dbe
000003f0: 7b42 25be 3866 31be 0134 e2bf 5482 44be
-0.03581636 0.09894959 -1.814895 0.062672265 -0.096766554 0.36089426 0.049916357 0.56868505
0.35564584 0.10408136 0.63537914 -0.13936874 0.0016301514 -0.046748616 0.6496793 -0.09018473
0.08570501 0.23269705 0.10073242 0.25690323 -0.2463784 -0.040564485 -0.105359726 1.3242995
-0.46712974 -0.33789012 -0.28431875 -0.016827805 -0.5743084 -0.107344694 0.16373254 -0.833242
0.45656312 0.029336067 -0.085468985 0.10305173 0.005983052 0.16982117 -0.771367 -0.09578992
0.15174986 -0.13794412 0.18936078 0.26532966 -2.1153994 0.12328971 0.26760736 0.46015584
0.24416335 0.40916923 -0.012423999 -0.18805458 0.33521694 0.24857421 0.15011434 0.15092702
-0.07096619 0.11683994 0.23183101 0.8967722 -0.048171382 -0.45633554 0.56345206 -0.1393975
-0.012153237 -1.6959962 0.19490631 -0.20345092 0.17974687 0.12229525 0.52505773 0.40730038
0.44883972 0.13032942 -0.62670416 -0.122212715 -0.2390681 -0.563873 0.12702328 0.108713865
0.5617636 -0.16400197 -0.13135596 0.015776932 -0.02683173 -0.18330494 0.15927608 -0.27509546
-0.24085554 -0.06460203 -0.053732436 -0.100856185 0.030207599 0.14834653 -0.2034655 -0.08252364
0.040540226 -0.22020535 -0.075768135 -0.27014932 -0.27898306 0.10428713 -0.09947895 -0.012170652
-0.14072663 -0.1490606 -0.18513533 -0.12016444 -0.19098693 -0.13894764 0.21813254 0.04121588
0.067245975 -0.2035284 -0.1433198 -0.0726351 0.03412299 -0.19201458 -0.0940242 -0.1306402
0.0006047338 -0.08119959 -0.015121579 -0.14787093 -0.1497837 -0.12730871 -0.11363334 -0.22761956
-1.2331326 -0.17968227 0.15655594 0.36640033 0.15963191 0.45753816 0.37619013 0.5859206
-0.24252766 -0.7367928 0.09263086 -0.03413678 1.7520189 -0.5510851 0.17991224 -1.5291431
-0.14039665 0.07584235 -0.34500718 0.16526607 0.24066028 -0.32469192 0.076350614 -0.10152435
0.06525161 -0.49037862 0.62914807 -0.34779978 -0.39673018 0.47892344 -0.6952642 -0.06450895
0.17912549 -0.7657794 0.039961625 -0.20106602 1.2536077 -0.06079332 -0.10188672 0.6931105
-0.03605861 -0.105887055 1.1723409 -0.041179333 0.05394782 -0.24170865 -0.3502577 -0.23769991
-0.33416957 0.17180867 -0.058301117 -0.48180026 0.0142107075 0.1092553 -0.03426232 -0.072349325
0.12953599 0.20129833 0.15436628 0.065438755 -0.12785059 -0.29891002 -0.053609136 -1.8253784
0.03355408 -0.0008877419 0.27123994 0.42937514 0.11220381 0.5252117 0.22308758 0.09935152
-0.5805058 -0.0353303 0.13093129 0.28340334 0.016114814 -0.14871895 -0.95019794 -1.3270932
-0.03154155 -0.084445655 0.10655901 0.05069599 0.9917143 -0.04409138 0.017328832 0.06695518
-0.36444908 -0.0653342 -0.27986914 -0.32982004 -0.12748604 -0.0005758811 -0.13925795 -0.095765814
-0.14248583 0.03664492 0.10244336 1.0118784 0.02314322 -0.0017031156 -0.24744807 -0.03855552
-0.080504864 -0.02831355 0.087242655 -0.08981211 -0.101928785 -0.482869 -0.050566874 -0.47728398
0.11540176 0.018258717 -0.594706 -0.118268296 -0.2256307 -0.69845474 -0.096928604 -0.10904242
1.138771 0.0847943 -0.2874894 -0.2765196 -0.16138642 -0.1732415 -1.767212 -0.19190341

model.0.bias f4 [128]
00000000: ebb6 323e 084e 34be abec 213f cd72 083f
00000010: 9f4d d7bd 56be dfbd d5f4 043f 593f e83d
00000020: 7f94 4fbd 009f 4b3e 6cc8 82be 24bf 8dbe
00000030: 6e5b 0b3f b67b 86bc cdd7 54bd 5f2e 873e
00000040: c7f6 23bd 6c0b a8be a021 86bc a0aa 38be
00000050: bb56 47be b233 18bf 443c 2c3d 8505 85be
00000060: 2ff2 38be 1cb5 a73d fd99 db3e 53b9 2e3e
00000070: f518 e53e 2276 10be 66fd a1bd 9202 ba3e
00000080: 0d1e 103e 561a ff3e d968 193f 1e54 a5be
00000090: ce95 5bbe 95a1 4ebe c63c aa3e fc43 f6ba
000000a0: 998d eabe 826e dc3c 15ed bf3d 339b 453d
000000b0: 5718 29be adc0 ee3e 7a2f 993e ac33 2b3e
000000c0: f532 333f 10f3 2d3f 6d8a 8e3e abde 853d
000000d0: 9f91 993e 24e2 64be e8e5 ecbd 195c 253f
000000e0: 0f49 823e 9f2c 60be a887 1bbf eca6 043e
000000f0: 05ea 953e 2b41 1d3e c7f6 a63d 8c48 87be
00000100: 47a0 5e3e ec2b 3cbe a10d 033e b190 e4bd
00000110: a8ba 633c 255a 8cbe ffa0 ec3d 888f 6ebe
00000120: 2a55 4bbd 4896 293e 91bf 25be 1634 863d
00000130: 3d0d f3be 3c44 8e3e 568d 473e 8059 b7be
00000140: 8a56 3bbf 6a5f 553e 6416 87be f22c 45be
00000150: 1804 c7be 9e85 d8be 4efe a43e 94da 0ebc
00000160: d66f 68be fa55 a2be 2c56 9e3e 419f 7dbe
00000170: 2233 bbbe 0c9f f1bd 0e28 2a3f 5cbc 18be
00000180: 421e 08be 36a0 b93d cfe9 b0be 64cc ab3d
00000190: 49a7 69be 58c4 1abe 975c 22be 89a0 a33e
000001a0: 3f80 30bf 3894 473e 321d f43e 0041 37ba
000001b0: 6d06 aa3e 020d 073d b70c 8ebe 8f16 883c
000001c0: a3bd 8fbe 9db1 89be acbc 0f3e 0f6c 48be
000001d0: e97d e03d 8a70 b6bd ba4a 113f 2a3f ddbe
000001e0: 4fc8 fe3d 21a0 cabe 4af6 d7bd c019 84bd
000001f0: c86c 703e a7a1 14bd cb0f debd 6431 92be
0.1745259 -0.17607892 0.6325175 0.5330017 -0.10512852 -0.109249756 0.51936084 0.113402076
-0.050678726 0.19884872 -0.25543535 -0.2768489 0.54436386 -0.016416412 -0.051963616 0.26402566
-0.040030267 -0.32821214 -0.016373456 -0.18033838 -0.19466679 -0.5945388 0.04204966 -0.25980774
-0.18061136 0.08188841 0.4289092 0.17062883 0.44745603 -0.14107564 -0.0790966 0.36330086
0.14073963 0.4982478 0.5992561 -0.3229074 -0.21443865 -0.20178826 0.3324949 -0.0018788571
-0.45811155 0.026908163 0.09371392 0.048243713 -0.16513191 0.46631375 0.29919034 0.1671893
0.6999963 0.6794901 0.27839985 0.06536611 0.29993913 -0.22351891 -0.11567289 0.64593655
0.25446364 -0.21892022 -0.6075387 0.129543 0.29280105 0.15356891 0.08152538 -0.26422536
0.21740828 -0.1837613 0.12798168 -0.1116041 0.013899483 -0.27412525 0.11554145 -0.2329694
-0.049641766 0.16561234 -0.16186358 0.06552903 -0.47471038 0.27786434 0.19487509 -0.3581047
-0.73178923 0.20837179 -0.2638427 -0.19255427 -0.3887031 -0.42289442 0.3222527 -0.008719105
-0.22698912 -0.3170622 0.3092512 -0.24767782 -0.3656245 -0.11797914 0.6646737 -0.14915603
-0.13292792 0.09063761 -0.34553382 0.08388594 -0.2281772 -0.15113962 -0.15855633 0.31958416
-0.6894569 0.19490135 0.47678524 -0.0006990582 0.33208027 0.03297139 -0.27744076 0.01661232
-0.2807437 -0.2689332 0.14036816 -0.19572471 0.109615155 -0.08908184 0.5675465 -0.43212253
0.124405496 -0.39575294 -0.10545023 -0.06450224 0.23478997 -0.036286976 -0.10842856 -0.28553307

model.2.weight f4 [64, 128]
00000000: b0b7 4c3d d358 72bd b334 aabd 640c 643d
00000010: b472 0d3d 8db6 4dbd f52c e23c 33f7 673a
00000020: 07c4 b7bd 3005 c13b 4a43 bdbc b815 77bc
00000030: da66 953d 4a21 95bd 81db 163d 1f20 78bd
00000040: 57ad b3bd 9be3 853c 92ad 2dbd db8d 23bd
00000050: a265 3e3d db7d afbd 58f3 9abd 2485 f63c
00000060: dfd5 9d3d e03c 19bc fb08 4d3d 7fc0 9d3c
00000070: 38ad 5c3c 60d3 66bd a192 263d 0498 e83c
00000080: b2ae eabc e82e 503d 8a44 b4bd ec06 9c3c
00000090: 6c6d 5abd 800e 13bc b00d 8a3c 54a7 da3c
000000a0: 5d4d b6bc eaca a3bd c056 89bd 0049 ca3a
000000b0: d0ce 7abc e0d6 b1bd 852f 9a3d c4f4 3aba
000000c0: 64f0 a0bd 4b58 d03c 75a8 9dbb 8c41 63bd
000000d0: 1c62 043d c23f 89bd 14e1 fa3c b099 263d
000000e0: b3c2 6c3c ad67 013d 8d6c 79bd 3246 9c3b
000000f0: ec1f 54bc 84da b03c 40b1 92bc 3830 9fbc
00000100: 0da3 12bd 07a6 4cbd 1c0d a7bd 2f96 93bd
00000110: d741 63bd db08 ad3d 5e53 bc3b 4e0c bebd
00000120: 5ff3 68bd 2821 a93c d9df 8fbd ebbc 16bd
00000130: 6ef3 07bd c608 86bd ae4c d4ba efe4 0fbd
00000140: 4057 393d 8657 4f3c 35fa 943d 30b6 3dbd
00000150: 69db 21bd 7770 33bd 320f 90bd 2c1e 143d
00000160: 70b8 2ebc de14 93bd ff2b bebd dd3e fc3c
00000170: 6a99 183d 7721 a53d 8c13 9ebd 102c da3c
00000180: a059 5a3b 9b9b 66bd fa53 62bd 0265 393d
00000190: 1939 80bd b7d0 833d 3a01 50bc cde0 4bbc
000001a0: a44d 3f3d 440c 0bba 0d4d d43c 3ed7 3b3d
000001b0: c04d 48bd 7dfb 3fbd 8866 77bd 0efe 483d
000001c0: 8193 933c 7932 553d 8c66 e4bc a8bf 37bc
000001d0: 9918 d5bd ac5e 2f3d f321 d1bd 8af9 14bd
000001e0: c17a 953d d89d 073c 918f 17bd 7ee6 92bd
000001f0: 1901 95bd 5516 923d d473 a5bd 4faa 843d
00000200: 5154 333d f644 2ebc 9725 05bd b238 353d
00000210: 00f9 2e3c e327 ab3d 367e 093d c9f0 afbd
00000220: 3f7c e83c 3183 2c3c 81ce b8bd 71bf 263c
00000230: 84ae b1bd 4c3a c6bd 5b13 5cbc c187 d8bc
00000240: 5f8a 29bd c4f1 94bd 860c 463d 780c 543d
00000250: 4071 a0bc ed86 99bd 9058 95bb 6839 d7bd
00000260: 99f3 ccbd ce34 f1bc 31c5 e63c c6d7 a9bd
00000270: f658 f0bc a1f3 97bd 053e c6bd e651 37bd
00000280: 8805 18bd 90e8 1bbd af6a eb3c e004 113d
00000290: cb49 1c3d 8531 cf3b 1406 cdbb bd21 aa3b
000002a0: c1aa 8fbd 71b4 ba3c 90ae 303c d3a6 19bd
000002b0: 9d54 00bd a97e dfbd efea d2bd aa41 7fbc
000002c0: 4ce4 ebbc 519a 82bd e735 4f3c b7e9 b8bd
000002d0: 3a0c 83bd 1e0a 3a3d b829 b0bd e504 ecbc
000002e0: 931d 2d3d 7db0 3f3d 1fcd 763c defc efbd
000002f0: bfd4 4cbc baa0 febc fdad 59bd e57b 213d
00000300: 7c12 f6bc 09a4 81bd a54f 91bd da95 643d
00000310: 20c1 8b3b edaa 713d ed71 6c3b 026e c9bd
00000320: e796 e8bb 03a4 a53d 0686 943c 4983 11bc
00000330: 2400 88bd 94cd 9ebd 49a9 ae3c 987b 96bd
00000340: beae a13b 3186 06bd d09f f23c e1c7 42bc
00000350: bc00 aabd fa6c 4fbd 908c 753d 7878 2a3c
00000360: 4555 873c 56b1 8dbd 1a30 c83c e7c3 1abd
00000370: 6ae7 3abd e4e1 923c b20e 9abd 2d7c 11bd
00000380: 91b6 27bd 005a a5bb 2de9 4dbd 63f6 fa3a
00000390: 50ef cebd a5ab d43c c6b1 353d a5ff bdba
000003a0: 1d18 13bd 3bdc ffbd 1b4a 7839 dd52 943d
000003b0: 8384 543d a93f a7bc 91f0 603c 5774 ad3d
000003c0: 0de2 46bc c9a9 acbd 69dd abbd 8a49 1e3d
000003d0: a4bd ad3b 82eb 533d 10a3 b0bd f662 1e3c
000003e0: 41b0 6bbd b013 19bd b6ac be3c f926 c5bd
000003f0: 3203 1c3d e1e7 513c a52a 57bd 1b06 e43c
0.049979866 -0.05916674 -0.08310833 0.05567588 0.034533218 -0.050222922 0.027609328 0.0008848786
-0.08972936 0.005890511 -0.023103375 -0.015080862 0.07295008 -0.0728174 0.03683043 -0.060577508
-0.08773296 0.016343882 -0.042401858 -0.039930206 0.046483643 -0.08568927 -0.075659454 0.030092783
0.07706808 -0.009352893 0.050057393 0.019256828 0.013469033 -0.056353927 0.04066718 0.0283928
-0.028647754 0.050825983 -0.08802135 0.01904627 -0.05332701 -0.008975625 0.01685223 0.026691116
-0.022253687 -0.07997687 -0.067059994 0.0015433133 -0.015308097 -0.08683562 0.07528595 -0.000713181
-0.07858351 0.025432726 -0.0048113414 -0.055482432 0.032320127 -0.06701614 0.030624904 0.04067391
0.014450717 0.031593014 -0.060894538 0.00476911 -0.012947064 0.021588571 -0.017906785 -0.019432172
-0.03580003 -0.049963024 -0.08156797 -0.072063796 -0.05548271 0.08448955 0.005747243 -0.09279691
-0.05687272 0.020645693 -0.070251174 -0.03680126 -0.033191137 -0.06544642 -0.0016197169 -0.035130437
0.045249224 0.012655145 0.07274286 -0.046316326 -0.039515886 -0.043808427 -0.07034148 0.036161587
-0.0106640905 -0.071817145 -0.09285735 0.030791694 0.037255682 0.080630235 -0.07718572 0.026632339
0.003331758 -0.05630074 -0.055255868 0.045262344 -0.062608905 0.064362936 -0.012695605 -0.012443733
0.046704903 -0.0005304257 0.025915647 0.045859568 -0.048902273 -0.046870697 -0.060400516 0.04907041
0.018014671 0.052050088 -0.02788093 -0.011215128 -0.10405082 0.042814896 -0.102115534 -0.03637079
0.07298804 0.008277379 -0.03700215 -0.07172869 -0.072756 0.07133166 -0.08078733 0.06477796
0.043781582 -0.010636559 -0.03250655 0.044243522 0.010679483 0.08357217 0.03356763 -0.08590848
0.028379558 0.010529325 -0.090237625 0.010177479 -0.08675864 -0.09679088 -0.013432349 -0.02643192
-0.041391727 -0.07272676 0.048351787 0.051769704 -0.019585252 -0.07496438 -0.0045576766 -0.10508996
-0.100074 -0.029444125 0.0281702 -0.08293109 -0.029339295 -0.074195154 -0.09679798 -0.04475584
-0.03711465 -0.038063586 0.028737394 0.03540504 0.038156312 0.006323042 -0.006256828 0.00519201
-0.070149906 0.02279112 0.010783806 -0.03751261 -0.031330694 -0.109128304 -0.10298716 -0.01557962
-0.028795384 -0.0637709 0.012647129 -0.090289526 -0.063988164 0.045419805 -0.08601707 -0.028810928
0.042264532 0.04679917 0.015063553 -0.117181525 -0.0125018945 -0.0310825 -0.053144444 0.039424796
-0.03003811 -0.06330115 -0.07095269 0.055806972 0.0042649657 0.0590009 0.0036078647 -0.098354355
-0.007098067 0.080879234 0.018130314 -0.0088813985 -0.06640652 -0.07754055 0.021320956 -0.073477924
0.004934161 -0.03284282 0.02961722 -0.011888475 -0.08300921 -0.050641038 0.059948504 0.010404699
0.016520152 -0.0691859 0.024437 -0.037784483 -0.04563085 0.017929979 -0.07522334 -0.035518814
-0.040945593 -0.005046129 -0.050271202 0.0019146915 -0.10104239 0.025960753 0.04435899 -0.0014495744
-0.035911668 -0.124931775 0.0002367873 0.072423674 0.051884186 -0.020416098 0.0137292305 0.08469456
-0.012138856 -0.084308214 -0.0839184 0.03864435 0.005302148 0.05173827 -0.08624852 0.009667149
-0.057541136 -0.03737229 0.023275714 -0.09626574 0.038088985 0.012811632 -0.052530903 0.027834943

model.2.bias f4 [64]
00000000: f914 6ebd a99d 8f3d 9b02 af3e 224a c03c
00000010: 90a2 f7bd 0dd3 e3bd 5bfd dabb 6908 c7bc
00000020: 1ec2 d4bd 355b b8bd 36af af3c fef3 133c
00000030: 86c2 c8bd 50f3 9abe 83ac 89bd 9f8d 10bc
00000040: 0197 09be b32c 8c3e 9f76 94bd e9c9 003f
00000050: f88e b0bd 82af 41be d3ff 913c 1711 59bd
00000060: 3a47 923d 2dff 6abd 2f07 a3bc 8265 193d
00000070: 29b9 c33e 62af b1bd de91 e33e 556d 3e3d
00000080: 1725 633d 79a8 a9be 24e7 77be aa06 2bbd
00000090: 48be b93e f1e2 5b3d 7380 71bd 0855 f8bc
000000a0: 76d4 933e 2f6f 23bd 7b8d 383d 98f6 e13e
000000b0: ce1e 52bd 6274 163f caf8 043f 48b0 773c
000000c0: 1f6b a83d 1144 fc3c d629 033f d929 883c
000000d0: 88eb 8c3b b928 a53c d26e 0cbe ed92 75bc
000000e0: 9d72 adbd 91ba 033c 6be6 c2bc 679c 9d3e
000000f0: f61e c2bd 2ec5 c8bd 65fa b63c e408 a93c
-0.05812547 0.07012493 0.34181675 0.02347285 -0.12091553 -0.11124239 -0.0066830344 -0.024296002
-0.103885874 -0.09001771 0.021445852 0.00903034 -0.098027274 -0.30263758 -0.06722357 -0.008822828
-0.1343651 0.27377853 -0.07249188 0.5030809 -0.08621019 -0.18914607 0.017822182 -0.052994814
0.07142492 -0.05737226 -0.019900886 0.03745032 0.38227203 -0.0867603 0.44447225 0.046490986
0.055455294 -0.33136347 -0.24209267 -0.041754402 0.36277986 0.053683225 -0.05896039 -0.030313984
0.28873032 -0.039900955 0.0450568 0.4413345 -0.05129891 0.58771336 0.5194212 0.015117712
0.08223557 0.030794175 0.5123571 0.016621517 0.0043005385 0.02016102 -0.1371415 -0.014988643
-0.084691264 0.008040086 -0.023791512 0.30783388 -0.094785616 -0.09803234 0.022336194 0.020634122

model.4.weight f4 [3, 64]
00000000: 9338 f1bc 0ad3 b9bd 702e 21bc 59aa 42bd
00000010: 70ee a7bc 301e 713d 4055 f33c 5a08 b6bc
00000020: 1823 3abd e8c3 9bbd 1e51 cfbc 4244 66bc
00000030: 988e 95bd f693 22bd 605c 96bd 68fe d6bd
00000040: 3341 0fbd 4d4c 4a3d 81d8 44bd b1fa 9f3c
00000050: e1d6 003d 1a38 c9bc 4e6a 0f3c 2709 77bc
00000060: f695 4bbc b17d 883d a4d6 6a3d a433 80bd
00000070: db45 85ba c215 8cbd 8810 243d 2b95 c33d
00000080: 4ad6 09bb 3189 94bd 07cb 93bd 801b 32bd
00000090: 37f3 583b 42fe 96bd 3231 b33d 9c33 2c3d
000000a0: bb10 8d3c 8808 e43c 4b91 a4bc b321 fd3b
000000b0: 90f4 35bd 1d72 2f3d 20ac 7fbb b1f7 893c
000000c0: 6ec6 95bc 5db6 0d3d 0b32 343d f92d 1f3d
000000d0: c48d bb39 9754 babd 3b57 723c 903f 23bd
000000e0: 7901 3fbd 322b 923a 28d1 f2bc 7e2a 8dbc
000000f0: 850f a9bd dc0b 0abd 32cf fb3c 2128 b4bd
00000100: 474c b7bd 9736 a9bc 797b 33bc 6e98 86bd
00000110: d1f5 803d 4a4b 99bc 68e9 573d d41e fa3c
00000120: 1170 d03a 0300 39bd f0ea 36bc c0e2 bcbd
00000130: 00db 603d 9747 943a a946 873d 3df7 e6bd
00000140: 7c0d b1bc 6e98 3c3c 0ca7 55bc 8aff 33bc
00000150: 6e01 28bd 2501 10bb 3c96 15bc 3e4d 033c
00000160: 9862 7fbb 2054 6dbc cef2 083d 0aa0 643d
00000170: 790f af3c 4fd2 edbb bcde 4a3c f0b7 6b3d
00000180: e671 963c e55a 4ebd 3eca 8fbd 4bca 4e3c
00000190: 0720 343c 088e 763c 3353 9fbd ca01 8c3d
000001a0: 1cb1 963c 4c57 6e3b 46db 79bd 7478 b43b
000001b0: 11ae 893c 7b3d 3c3d f6e5 4ebc c07a 29bc
000001c0: 1088 9a3d 706f b23c 2da5 063d de97 e73d
000001d0: 718b 98bd 5f1a a8bd 9368 c3bb 7142 4f3c
000001e0: 12dc e23d 4e8e c0bd 9222 f33c 66ca 343d
000001f0: 2938 7fbc 2941 58bd 0bbe 9ebd a0c7 ab3c
00000200: c140 203d 295c b73c a30c 4d3c 58fd 5a3d
00000210: 465c eebd 3844 713d 0dbb 3d3d d8b6 2dbd
00000220: 00b6 9fbd 4aa4 f3bd b894 fcbd 9f6a 093d
00000230: 756b 943b 41a4 dbbc 095b a7bd 3865 f8bd
00000240: 85bb 9d3d 9c62 383d f0f5 883c 8cd8 0f3d
00000250: cf63 a13c 2cf3 29bc 65ed 553d cd80 d13c
00000260: fabd d8bc 9c4e 6fbd e4da 063d f4bc 013d
00000270: a1d7 c03c 7eaa 8bbd 8c60 8b3d 50d6 eabd
00000280: d63b 4e3c 4454 73bd bfb4 51bd 4eeb adbd
00000290: 8e1d 473c 8cd9 e33d 0413 63bd 60c3 abbb
000002a0: 362c 993c 72be d1bd 06a1 6abd 950c 62ba
000002b0: 3732 dfbd 1f5b f33c 04af 7cbc 807b b83a
000002c0: 656c d43b b1e5 4e3d c1dc 90bc a6a5 dabd
000002d0: 1f31 b2bd c9f1 8f3d a127 a63b b884 d93d
000002e0: 7ef1 b83d 43de 6abd 17c5 e3ba 93d1 463d
000002f0: 9138 153b 44e0 333c 939b edbd 51bf 95bd
-0.029445922 -0.09073456 -0.009837732 -0.047525737 -0.020499438 0.05886668 0.029703736 -0.02222078
-0.045443624 -0.076057255 -0.025307234 -0.01405436 -0.07302588 -0.039691888 -0.07341838 -0.10497743
-0.03497429 0.049389172 -0.048058037 0.019528719 0.031454924 -0.024562884 0.008753372 -0.015077866
-0.01242589 0.06664599 0.057333604 -0.0625985 -0.0010167913 -0.068400875 0.040054828 0.09549936
-0.0021032267 -0.0725273 -0.07216459 -0.043483257 0.0033103952 -0.073727146 0.08749618 0.042041406
0.017219892 0.0278361 -0.020088812 0.0077249645 -0.044422686 0.042833436 -0.0039012507 0.016841741
-0.018283095 0.034597743 0.043993037 0.038862202 0.00035773043 -0.090981655 0.014791305 -0.03985554
-0.046632264 0.0011151789 -0.02964075 -0.017232176 -0.08254913 -0.033702716 0.030738447 -0.087967165
-0.089500956 -0.020655913 -0.010954731 -0.065720424 0.06296886 -0.018712658 0.052712828 0.030532278
0.0015902539 -0.045166027 -0.011164412 -0.09222937 0.054896355 0.0011312839 0.06605274 -0.11277626
-0.021612875 0.011510951 -0.013040315 -0.010986218 -0.04101699 -0.0021973338 -0.009130057 0.008014021
-0.0038968679 -0.014485389 0.03343468 0.055816688 0.021369683 -0.0072577368 0.012382206 0.057548463
0.018364858 -0.050379653 -0.070209965 0.012621473 0.010993964 0.015048511 -0.07779541 0.06836279
0.018395 0.003636795 -0.06100013 0.005507523 0.016806634 0.04595707 -0.012628069 -0.010344207
0.07545483 0.021781653 0.032872368 0.11308263 -0.07448471 -0.08208155 -0.005963394 0.012650118
0.11077131 -0.094021425 0.02967957 0.044138335 -0.0155773545 -0.052796517 -0.077510916 0.020969212
0.039124254 0.022382813 0.01251522 0.053464264 -0.116386935 0.05890295 0.046320964 -0.0424107
-0.077983856 -0.1189657 -0.12333053 0.033548947 0.0045294114 -0.02681172 -0.081716605 -0.12128681
0.07701782 0.045015916 0.016718835 0.035118625 0.019700913 -0.010372918 0.05222835 0.025574112
-0.026457775 -0.058424577 0.032923594 0.03167434 0.02354032 -0.06819628 0.06805524 -0.11466658
0.012587508 -0.059406534 -0.051197764 -0.084921464 0.0121530425 0.11125478 -0.055438057 -0.0052417964
0.01869784 -0.10241403 -0.05728247 -0.00086230907 -0.108982496 0.029706536 -0.015422586 0.0014074892
0.006482648 0.05051202 -0.017683389 -0.10676126 -0.08700775 0.07028539 0.005070642 0.10621017
0.09030436 -0.05734087 -0.0017377463 0.04853971 0.0022769312 0.010978762 -0.11601939 -0.07311881

model.4.bias f4 [3]
00000000: 5d06 c13d e22c be3d 6a8b bf3d
0.09425042 0.092859045 0.09352763

model.0.weight f4 [128, 21]
00000000: 2db4 12bd 15a6 ca3d 7b4e e8bf 515a 803d
00000010: 8b2d c6bd 22c7 b83e 1875 4c3d 5895 113f
00000020: 3617 b63e 9c28 d53d 35a8 223f aeb6 0ebe
00000030: ceaa d53a 7a7b 3fbd 6251 263f c6b2 b8bd
00000040: 1c86 af3d 2348 6e3e cd4c ce3d d288 833e
00000050: 9f4a 7cbe f226 26bd d7c6 d7bd a582 a93f
00000060: a12b efbe efff acbe 3a92 91be 77da 89bc
00000070: e005 13bf 89d7 dbbd 81a9 273e 594f 55bf
00000080: a4c2 e93e 3152 f03c 5d0a afbd c90c d33d
00000090: 7a0d c43b 9ae5 2d3e 4f78 45bf 812d c4bd
000000a0: 5164 1b3e 3941 0dbe cbe7 413e 4ad9 873e
000000b0: b462 07c0 517f fc3d d503 893e 8c99 eb3e
000000c0: f505 7a3e a17e d13e 078e 4bbc 6191 40be
000000d0: 8ea1 ab3e 3d8a 7e3e 93b7 193e 9d8c 1a3e
000000e0: b956 91bd c749 ef3d 1c65 6d3e dd92 653f
000000f0: 5b4f 45bd d0a4 e9be 653e 103f 38be 0ebe
00000100: 5f1e 47bc 6716 d9bf 8595 473e 7055 50be
00000110: 900f 383e ef75 fa3d 2f6a 063f ad89 d03e
00000120: 52ce e53e 1375 053e af6f 20bf a94a fabd
00000130: 45ce 74be fb59 10bf 6412 023e 60a5 de3d
00000140: bdcf 0f3f 22f0 27be 2d82 06be a03e 813c
00000150: 37ce dbbc 4ab4 3bbe 4519 233e 50d9 8cbe
00000160: d6a2 76be 124e 84bd 8b16 5cbd b08d cebd
00000170: ed75 f73c 27e8 173e 4359 50be 2702 a9bd
00000180: 820d 263d 837d 61be 532c 9bbd 0351 8abe
00000190: ded6 8ebe 7e94 d53d 9fbb cbbd 6a67 47bc
000001a0: a41a 10be 58a3 18be 1e94 3dbe c618 f6bd
000001b0: 1492 43be 4a48 0ebe 235e 5f3e fcd1 283d
000001c0: 42b8 893d c069 50be 6dc2 12be b6c1 94bd
000001d0: 8cc4 0b3d 789f 44be c38f c0bd 8bc6 05be
000001e0: 0087 1e3a f84b a6bd 80c0 77bc 7a6b 17be
000001f0: e660 19be 375d 02be 99b8 e8bd 1a15 69be
00000200: 4ad7 9dbf a1fe 37be 3350 203e d398 bb3e
00000210: 8c76 233e 7142 ea3e fe9b c03e e4fe 153f
00000220: 2c59 78be 749e 3cbf 40b5 bd3d 02d3 0bbd
00000230: 2842 e03f ea13 0dbf ea3a 383e f6ba c3bf
00000240: 24c4 0fbe 3c53 9b3d c8a4 b0be 823b 293e
00000250: a66f 763e 053e a6be b65d 9c3d 00ec cfbd
00000260: a3a2 853d e812 fbbe d90f 213f d012 b2be
00000270: 3820 cbbe 7435 f53e d6fc 31bf 451d 84bd
00000280: ac6c 373e 1e0a 44bf cdae 233d 40e4 4dbe
00000290: 3876 a03f 6b02 79bd fca9 d0bd b16f 313f
000002a0: 31b2 13bd 50db d8bd 440f 963f a9ab 28bd
000002b0: 64f8 5c3d 7982 77be fa54 b3be 9b67 73be
000002c0: 4618 abbe 9dee 2f3e 27cd 6ebd 86ae f6be
000002d0: 07d4 683c 3ec1 df3d a556 0cbd e22b 94bd
000002e0: 15a5 043e 2621 4e3e 3212 1e3e c104 863d
000002f0: 44eb 02be bc0a 99be 4195 5bbd 00a6 e9bf
00000300: 0170 093d 5ab7 68ba f6df 8a3e 0fd7 db3e
00000310: 1ccb e53d 4674 063f 1271 643e cf78 cb3d
00000320: 079c 14bf 81b6 10bd da12 063e 3e1a 913e
00000330: 3703 843c c849 18be 2c40 73bf 31de a9bf
00000340: b631 01bd d8f1 acbd 9c3b da3d 99a6 4f3d
00000350: fde0 7d3f 2a99 34bd 32f5 8d3c cc1f 893d
00000360: 1299 babe f0cd 85bd 024b 8fbe 2cde a8be
00000370: b38b 02be baf6 16ba a399 0ebe de20 c4bd
00000380: cee7 11be fc18 163d d3cd d13d 3b85 813f
00000390: da96 bd3c 143b dfba 0763 7dbe 65ec 1dbd
000003a0: bcdf a4bd d1f1 e7bc 47ac b23d 69ef b7bd
000003b0: 0ac0 d0bd 9b3a f7be 361f 4fbd 915e f4be
000003c0: c257 ec3d 4e93 953c a73e 18bf a636 f2bd
000003d0: bc0b 67be eecd 32bf 8182 c6bd a251 dfbd
000003e0: 40c3 913f a2a8 ad3d d031 93be fa93 8dbe
000003f0: 7b42 25be 3866 31be 0134 e2bf 5482 44be
-0.03581636 0.09894959 -1.814895 0.062672265 -0.096766554 0.36089426 0.049916357 0.56868505
0.35564584 0.10408136 0.63537914 -0.13936874 0.0016301514 -0.046748616 0.6496793 -0.09018473
0.08570501 0.23269705 0.10073242 0.25690323 -0.2463784 -0.040564485 -0.105359726 1.3242995
-0.46712974 -0.33789012 -0.28431875 -0.016827805 -0.5743084 -0.107344694 0.16373254 -0.833242
0.45656312 0.029336067 -0.085468985 0.10305173 0.005983052 0.16982117 -0.771367 -0.09578992
0.15174986 -0.13794412 0.18936078 0.26532966 -2.1153994 0.12328971 0.26760736 0.46015584
0.24416335 0.40916923 -0.012423999 -0.18805458 0.33521694 0.24857421 0.15011434 0.15092702
-0.07096619 0.11683994 0.23183101 0.8967722 -0.048171382 -0.45633554 0.56345206 -0.1393975
-0.012153237 -1.6959962 0.19490631 -0.20345092 0.17974687 0.12229525 0.52505773 0.40730038
0.44883972 0.13032942 -0.62670416 -0.122212715 -0.2390681 -0.563873 0.12702328 0.108713865
0.5617636 -0.16400197 -0.13135596 0.015776932 -0.02683173 -0.18330494 0.15927608 -0.27509546
-0.24085554 -0.06460203 -0.053732436 -0.100856185 0.030207599 0.14834653 -0.2034655 -0.08252364
0.040540226 -0.22020535 -0.075768135 -0.27014932 -0.27898306 0.10428713 -0.09947895 -0.012170652
-0.14072663 -0.1490606 -0.18513533 -0.12016444 -0.19098693 -0.13894764 0.21813254 0.04121588
0.067245975 -0.2035284 -0.1433198 -0.0726351 0.03412299 -0.19201458 -0.0940242 -0.1306402
0.0006047338 -0.08119959 -0.015121579 -0.14787093 -0.1497837 -0.12730871 -0.11363334 -0.22761956
-1.2331326 -0.17968227 0.15655594 0.36640033 0.15963191 0.45753816 0.37619013 0.5859206
-0.24252766 -0.7367928 0.09263086 -0.03413678 1.7520189 -0.5510851 0.17991224 -1.5291431
-0.14039665 0.07584235 -0.34500718 0.16526607 0.24066028 -0.32469192 0.076350614 -0.10152435
0.06525161 -0.49037862 0.62914807 -0.34779978 -0.39673018 0.47892344 -0.6952642 -0.06450895
0.17912549 -0.7657794 0.039961625 -0.20106602 1.2536077 -0.06079332 -0.10188672 0.6931105
-0.03605861 -0.105887055 1.1723409 -0.041179333 0.05394782 -0.24170865 -0.3502577 -0.23769991
-0.33416957 0.17180867 -0.058301117 -0.48180026 0.0142107075 0.1092553 -0.03426232 -0.072349325
0.12953599 0.20129833 0.15436628 0.065438755 -0.12785059 -0.29891002 -0.053609136 -1.8253784
0.03355408 -0.0008877419 0.27123994 0.42937514 0.11220381 0.5252117 0.22308758 0.09935152
-0.5805058 -0.0353303 0.13093129 0.28340334 0.016114814 -0.14871895 -0.95019794 -1.3270932
-0.03154155 -0.084445655 0.10655901 0.05069599 0.9917143 -0.04409138 0.017328832 0.06695518
-0.36444908 -0.0653342 -0.27986914 -0.32982004 -0.12748604 -0.0005758811 -0.13925795 -0.095765814
-0.14248583 0.03664492 0.10244336 1.0118784 0.02314322 -0.0017031156 -0.24744807 -0.03855552
-0.080504864 -0.02831355 0.087242655 -0.08981211 -0.101928785 -0.482869 -0.050566874 -0.47728398
0.11540176 0.018258717 -0.594706 -0.118268296 -0.2256307 -0.69845474 -0.096928604 -0.10904242
1.138771 0.0847943 -0.2874894 -0.2765196 -0.16138642 -0.1732415 -1.767212 -0.19190341

model.0.bias f4 [128]
00000000: ebb6 323e 084e 34be abec 213f cd72 083f
00000010: 9f4d d7bd 56be dfbd d5f4 043f 593f e83d
00000020: 7f94 4fbd 009f 4b3e 6cc8 82be 24bf 8dbe
00000030: 6e5b 0b3f b67b 86bc cdd7 54bd 5f2e 873e
00000040: c7f6 23bd 6c0b a8be a021 86bc a0aa 38be
00000050: bb56 47be b233 18bf 443c 2c3d 8505 85be
00000060: 2ff2 38be 1cb5 a73d fd99 db3e 53b9 2e3e
00000070: f518 e53e 2276 10be 66fd a1bd 9202 ba3e
00000080: 0d1e 103e 561a ff3e d968 193f 1e54 a5be
00000090: ce95 5bbe 95a1 4ebe c63c aa3e fc43 f6ba
000000a0: 998d eabe 826e dc3c 15ed bf3d 339b 453d
000000b0: 5718 29be adc0 ee3e 7a2f 993e ac33 2b3e
000000c0: f532 333f 10f3 2d3f 6d8a 8e3e abde 853d
000000d0: 9f91 993e 24e2 64be e8e5 ecbd 195c 253f
000000e0: 0f49 823e 9f2c 60be a887 1bbf eca6 043e
000000f0: 05ea 953e 2b41 1d3e c7f6 a63d 8c48 87be
00000100: 47a0 5e3e ec2b 3cbe a10d 033e b190 e4bd
00000110: a8ba 633c 255a 8cbe ffa0 ec3d 888f 6ebe
00000120: 2a55 4bbd 4896 293e 91bf 25be 1634 863d
00000130: 3d0d f3be 3c44 8e3e 568d 473e 8059 b7be
00000140: 8a56 3bbf 6a5f 553e 6416 87be f22c 45be
00000150: 1804 c7be 9e85 d8be 4efe a43e 94da 0ebc
00000160: d66f 68be fa55 a2be 2c56 9e3e 419f 7dbe
00000170: 2233 bbbe 0c9f f1bd 0e28 2a3f 5cbc 18be
00000180: 421e 08be 36a0 b93d cfe9 b0be 64cc ab3d
00000190: 49a7 69be 58c4 1abe 975c 22be 89a0 a33e
000001a0: 3f80 30bf 3894 473e 321d f43e 0041 37ba
000001b0: 6d06 aa3e 020d 073d b70c 8ebe 8f16 883c
000001c0: a3bd 8fbe 9db1 89be acbc 0f3e 0f6c 48be
000001d0: e97d e03d 8a70 b6bd ba4a 113f 2a3f ddbe
000001e0: 4fc8 fe3d 21a0 cabe 4af6 d7bd c019 84bd
000001f0: c86c 703e a7a1 14bd cb0f debd 6431 92be
0.1745259 -0.17607892 0.6325175 0.5330017 -0.10512852 -0.109249756 0.51936084 0.113402076
-0.050678726 0.19884872 -0.25543535 -0.2768489 0.54436386 -0.016416412 -0.051963616 0.26402566
-0.040030267 -0.32821214 -0.016373456 -0.18033838 -0.19466679 -0.5945388 0.04204966 -0.25980774
-0.18061136 0.08188841 0.4289092 0.17062883 0.44745603 -0.14107564 -0.0790966 0.36330086
0.14073963 0.4982478 0.5992561 -0.3229074 -0.21443865 -0.20178826 0.3324949 -0.0018788571
-0.45811155 0.026908163 0.09371392 0.048243713 -0.16513191 0.46631375 0.29919034 0.1671893
0.6999963 0.6794901 0.27839985 0.06536611 0.29993913 -0.22351891 -0.11567289 0.64593655
0.25446364 -0.21892022 -0.6075387 0.129543 0.29280105 0.15356891 0.08152538 -0.26422536
0.21740828 -0.1837613 0.12798168 -0.1116041 0.013899483 -0.27412525 0.11554145 -0.2329694
-0.049641766 0.16561234 -0.16186358 0.06552903 -0.47471038 0.27786434 0.19487509 -0.3581047
-0.73178923 0.20837179 -0.2638427 -0.19255427 -0.3887031 -0.42289442 0.3222527 -0.008719105
-0.22698912 -0.3170622 0.3092512 -0.24767782 -0.3656245 -0.11797914 0.6646737 -0.14915603
-0.13292792 0.09063761 -0.34553382 0.08388594 -0.2281772 -0.15113962 -0.15855633 0.31958416
-0.6894569 0.19490135 0.47678524 -0.0006990582 0.33208027 0.03297139 -0.27744076 0.01661232
-0.2807437 -0.2689332 0.14036816 -0.19572471 0.109615155 -0.08908184 0.5675465 -0.43212253
0.124405496 -0.39575294 -0.10545023 -0.06450224 0.23478997 -0.036286976 -0.10842856 -0.28553307

model.2.weight f4 [64, 128]
00000000: b0b7 4c3d d358 72bd b334 aabd 640c 643d
00000010: b472 0d3d 8db6 4dbd f52c e23c 33f7 673a
00000020: 07c4 b7bd 3005 c13b 4a43 bdbc b815 77bc
00000030: da66 953d 4a21 95bd 81db 163d 1f20 78bd
00000040: 57ad b3bd 9be3 853c 92ad 2dbd db8d 23bd
00000050: a265 3e3d db7d afbd 58f3 9abd 2485 f63c
00000060: dfd5 9d3d e03c 19bc fb08 4d3d 7fc0 9d3c
00000070: 38ad 5c3c 60d3 66bd a192 263d 0498 e83c
00000080: b2ae eabc e82e 503d 8a44 b4bd ec06 9c3c
00000090: 6c6d 5abd 800e 13bc b00d 8a3c 54a7 da3c
000000a0: 5d4d b6bc eaca a3bd c056 89bd 0049 ca3a
000000b0: d0ce 7abc e0d6 b1bd 852f 9a3d c4f4 3aba
000000c0: 64f0 a0bd 4b58 d03c 75a8 9dbb 8c41 63bd
000000d0: 1c62 043d c23f 89bd 14e1 fa3c b099 263d
000000e0: b3c2 6c3c ad67 013d 8d6c 79bd 3246 9c3b
000000f0: ec1f 54bc 84da b03c 40b1 92bc 3830 9fbc
00000100: 0da3 12bd 07a6 4cbd 1c0d a7bd 2f96 93bd
00000110: d741 63bd db08 ad3d 5e53 bc3b 4e0c bebd
00000120: 5ff3 68bd 2821 a93c d9df 8fbd ebbc 16bd
00000130: 6ef3 07bd c608 86bd ae4c d4ba efe4 0fbd
00000140: 4057 393d 8657 4f3c 35fa 943d 30b6 3dbd
00000150: 69db 21bd 7770 33bd 320f 90bd 2c1e 143d
00000160: 70b8 2ebc de14 93bd ff2b bebd dd3e fc3c
00000170: 6a99 183d 7721 a53d 8c13 9ebd 102c da3c
00000180: a059 5a3b 9b9b 66bd fa53 62bd 0265 393d
00000190: 1939 80bd b7d0 833d 3a01 50bc cde0 4bbc
000001a0: a44d 3f3d 440c 0bba 0d4d d43c 3ed7 3b3d
000001b0: c04d 48bd 7dfb 3fbd 8866 77bd 0efe 483d
000001c0: 8193 933c 7932 553d 8c66 e4bc a8bf 37bc
000001d0: 9918 d5bd ac5e 2f3d f321 d1bd 8af9 14bd
000001e0: c17a 953d d89d 073c 918f 17bd 7ee6 92bd
000001f0: 1901 95bd 5516 923d d473 a5bd 4faa 843d
00000200: 5154 333d f644 2ebc 9725 05bd b238 353d
00000210: 00f9 2e3c e327 ab3d 367e 093d c9f0 afbd
00000220: 3f7c e83c 3183 2c3c 81ce b8bd 71bf 263c
00000230: 84ae b1bd 4c3a c6bd 5b13 5cbc c187 d8bc
00000240: 5f8a 29bd c4f1 94bd 860c 463d 780c 543d
00000250: 4071 a0bc ed86 99bd 9058 95bb 6839 d7bd
00000260: 99f3 ccbd ce34 f1bc 31c5 e63c c6d7 a9bd
00000270: f658 f0bc a1f3 97bd 053e c6bd e651 37bd
00000280: 8805 18bd 90e8 1bbd af6a eb3c e004 113d
00000290: cb49 1c3d 8531 cf3b 1406 cdbb bd21 aa3b
000002a0: c1aa 8fbd 71b4 ba3c 90ae 303c d3a6 19bd
000002b0: 9d54 00bd a97e dfbd efea d2bd aa41 7fbc
000002c0: 4ce4 ebbc 519a 82bd e735 4f3c b7e9 b8bd
000002d0: 3a0c 83bd 1e0a 3a3d b829 b0bd e504 ecbc
000002e0: 931d 2d3d 7db0 3f3d 1fcd 763c defc efbd
000002f0: bfd4 4cbc baa0 febc fdad 59bd e57b 213d
00000300: 7c12 f6bc 09a4 81bd a54f 91bd da95 643d
00000310: 20c1 8b3b edaa 713d ed71 6c3b 026e c9bd
00000320: e796 e8bb 03a4 a53d 0686 943c 4983 11bc
00000330: 2400 88bd 94cd 9ebd 49a9 ae3c 987b 96bd
00000340: beae a13b 3186 06bd d09f f23c e1c7 42bc
00000350: bc00 aabd fa6c 4fbd 908c 753d 7878 2a3c
00000360: 4555 873c 56b1 8dbd 1a30 c83c e7c3 1abd
00000370: 6ae7 3abd e4e1 923c b20e 9abd 2d7c 11bd
00000380: 91b6 27bd 005a a5bb 2de9 4dbd 63f6 fa3a
00000390: 50ef cebd a5ab d43c c6b1 353d a5ff bdba
000003a0: 1d18 13bd 3bdc ffbd 1b4a 7839 dd52 943d
000003b0: 8384 543d a93f a7bc 91f0 603c 5774 ad3d
000003c0: 0de2 46bc c9a9 acbd 69dd abbd 8a49 1e3d
000003d0: a4bd ad3b 82eb 533d 10a3 b0bd f662 1e3c
000003e0: 41b0 6bbd b013 19bd b6ac be3c f926 c5bd
000003f0: 3203 1c3d e1e7 513c a52a 57bd 1b06 e43c
0.049979866 -0.05916674 -0.08310833 0.05567588 0.034533218 -0.050222922 0.027609328 0.0008848786
-0.08972936 0.005890511 -0.023103375 -0.015080862 0.07295008 -0.0728174 0.03683043 -0.060577508
-0.08773296 0.016343882 -0.042401858 -0.039930206 0.046483643 -0.08568927 -0.075659454 0.030092783
0.07706808 -0.009352893 0.050057393 0.019256828 0.013469033 -0.056353927 0.04066718 0.0283928
-0.028647754 0.050825983 -0.08802135 0.01904627 -0.05332701 -0.008975625 0.01685223 0.026691116
-0.022253687 -0.07997687 -0.067059994 0.0015433133 -0.015308097 -0.08683562 0.07528595 -0.000713181
-0.07858351 0.025432726 -0.0048113414 -0.055482432 0.032320127 -0.06701614 0.030624904 0.04067391
0.014450717 0.031593014 -0.060894538 0.00476911 -0.012947064 0.021588571 -0.017906785 -0.019432172
-0.03580003 -0.049963024 -0.08156797 -0.072063796 -0.05548271 0.08448955 0.005747243 -0.09279691
-0.05687272 0.020645693 -0.070251174 -0.03680126 -0.033191137 -0.06544642 -0.0016197169 -0.035130437
0.045249224 0.012655145 0.07274286 -0.046316326 -0.039515886 -0.043808427 -0.07034148 0.036161587
-0.0106640905 -0.071817145 -0.09285735 0.030791694 0.037255682 0.080630235 -0.07718572 0.026632339
0.003331758 -0.05630074 -0.055255868 0.045262344 -0.062608905 0.064362936 -0.012695605 -0.012443733
0.046704903 -0.0005304257 0.025915647 0.045859568 -0.048902273 -0.046870697 -0.060400516 0.04907041
0.018014671 0.052050088 -0.02788093 -0.011215128 -0.10405082 0.042814896 -0.102115534 -0.03637079
0.07298804 0.008277379 -0.03700215 -0.07172869 -0.072756 0.07133166 -0.08078733 0.06477796
0.043781582 -0.010636559 -0.03250655 0.044243522 0.010679483 0.08357217 0.03356763 -0.08590848
0.028379558 0.010529325 -0.090237625 0.010177479 -0.08675864 -0.09679088 -0.013432349 -0.02643192
-0.041391727 -0.07272676 0.048351787 0.051769704 -0.019585252 -0.07496438 -0.0045576766 -0.10508996
-0.100074 -0.029444125 0.0281702 -0.08293109 -0.029339295 -0.074195154 -0.09679798 -0.04475584
-0.03711465 -0.038063586 0.028737394 0.03540504 0.038156312 0.006323042 -0.006256828 0.00519201
-0.070149906 0.02279112 0.010783806 -0.03751261 -0.031330694 -0.109128304 -0.10298716 -0.01557962
-0.028795384 -0.0637709 0.012647129 -0.090289526 -0.063988164 0.045419805 -0.08601707 -0.028810928
0.042264532 0.04679917 0.015063553 -0.117181525 -0.0125018945 -0.0310825 -0.053144444 0.039424796
-0.03003811 -0.06330115 -0.07095269 0.055806972 0.0042649657 0.0590009 0.0036078647 -0.098354355
-0.007098067 0.080879234 0.018130314 -0.0088813985 -0.06640652 -0.07754055 0.021320956 -0.073477924
0.004934161 -0.03284282 0.02961722 -0.011888475 -0.08300921 -0.050641038 0.059948504 0.010404699
0.016520152 -0.0691859 0.024437 -0.037784483 -0.04563085 0.017929979 -0.07522334 -0.035518814
-0.040945593 -0.005046129 -0.050271202 0.0019146915 -0.10104239 0.025960753 0.04435899 -0.0014495744
-0.035911668 -0.124931775 0.0002367873 0.072423674 0.051884186 -0.020416098 0.0137292305 0.08469456
-0.012138856 -0.084308214 -0.0839184 0.03864435 0.005302148 0.05173827 -0.08624852 0.009667149
-0.057541136 -0.03737229 0.023275714 -0.09626574 0.038088985 0.012811632 -0.052530903 0.027834943

model.2.bias f4 [64]
00000000: f914 6ebd a99d 8f3d 9b02 af3e 224a c03c
00000010: 90a2 f7bd 0dd3 e3bd 5bfd dabb 6908 c7bc
00000020: 1ec2 d4bd 355b b8bd 36af af3c fef3 133c
00000030: 86c2 c8bd 50f3 9abe 83ac 89bd 9f8d 10bc
00000040: 0197 09be b32c 8c3e 9f76 94bd e9c9 003f
00000050: f88e b0bd 82af 41be d3ff 913c 1711 59bd
00000060: 3a47 923d 2dff 6abd 2f07 a3bc 8265 193d
00000070: 29b9 c33e 62af b1bd de91 e33e 556d 3e3d
00000080: 1725 633d 79a8 a9be 24e7 77be aa06 2bbd
00000090: 48be b93e f1e2 5b3d 7380 71bd 0855 f8bc
000000a0: 76d4 933e 2f6f 23bd 7b8d 383d 98f6 e13e
000000b0: ce1e 52bd 6274 163f caf8 043f 48b0 773c
000000c0: 1f6b a83d 1144 fc3c d629 033f d929 883c
000000d0: 88eb 8c3b b928 a53c d26e 0cbe ed92 75bc
000000e0: 9d72 adbd 91ba 033c 6be6 c2bc 679c 9d3e
000000f0: f61e c2bd 2ec5 c8bd 65fa b63c e408 a93c
-0.05812547 0.07012493 0.34181675 0.02347285 -0.12091553 -0.11124239 -0.0066830344 -0.024296002
-0.103885874 -0.09001771 0.021445852 0.00903034 -0.098027274 -0.30263758 -0.06722357 -0.008822828
-0.1343651 0.27377853 -0.07249188 0.5030809 -0.08621019 -0.18914607 0.017822182 -0.052994814
0.07142492 -0.05737226 -0.019900886 0.03745032 0.38227203 -0.0867603 0.44447225 0.046490986
0.055455294 -0.33136347 -0.24209267 -0.041754402 0.36277986 0.053683225 -0.05896039 -0.030313984
0.28873032 -0.039900955 0.0450568 0.4413345 -0.05129891 0.58771336 0.5194212 0.015117712
0.08223557 0.030794175 0.5123571 0.016621517 0.0043005385 0.02016102 -0.1371415 -0.014988643
-0.084691264 0.008040086 -0.023791512 0.30783388 -0.094785616 -0.09803234 0.022336194 0.020634122

model.4.weight f4 [3, 64]
00000000: 9338 f1bc 0ad3 b9bd 702e 21bc 59aa 42bd
00000010: 70ee a7bc 301e 713d 4055 f33c 5a08 b6bc
00000020: 1823 3abd e8c3 9bbd 1e51 cfbc 4244 66bc
00000030: 988e 95bd f693 22bd 605c 96bd 68fe d6bd
00000040: 3341 0fbd 4d4c 4a3d 81d8 44bd b1fa 9f3c
00000050: e1d6 003d 1a38 c9bc 4e6a 0f3c 2709 77bc
00000060: f695 4bbc b17d 883d a4d6 6a3d a433 80bd
00000070: db45 85ba c215 8cbd 8810 243d 2b95 c33d
00000080: 4ad6 09bb 3189 94bd 07cb 93bd 801b 32bd
00000090: 37f3 583b 42fe 96bd 3231 b33d 9c33 2c3d
000000a0: bb10 8d3c 8808 e43c 4b91 a4bc b321 fd3b
000000b0: 90f4 35bd 1d72 2f3d 20ac 7fbb b1f7 893c
000000c0: 6ec6 95bc 5db6 0d3d 0b32 343d f92d 1f3d
000000d0: c48d bb39 9754 babd 3b57 723c 903f 23bd
000000e0: 7901 3fbd 322b 923a 28d1 f2bc 7e2a 8dbc
000000f0: 850f a9bd dc0b 0abd 32cf fb3c 2128 b4bd
00000100: 474c b7bd 9736 a9bc 797b 33bc 6e98 86bd
00000110: d1f5 803d 4a4b 99bc 68e9 573d d41e fa3c
00000120: 1170 d03a 0300 39bd f0ea 36bc c0e2 bcbd
00000130: 00db 603d 9747 943a a946 873d 3df7 e6bd
00000140: 7c0d b1bc 6e98 3c3c 0ca7 55bc 8aff 33bc
00000150: 6e01 28bd 2501 10bb 3c96 15bc 3e4d 033c
00000160: 9862 7fbb 2054 6dbc cef2 083d 0aa0 643d
00000170: 790f af3c 4fd2 edbb bcde 4a3c f0b7 6b3d
00000180: e671 963c e55a 4ebd 3eca 8fbd 4bca 4e3c
00000190: 0720 343c 088e 763c 3353 9fbd ca01 8c3d
000001a0: 1cb1 963c 4c57 6e3b 46db 79bd 7478 b43b
000001b0: 11ae 893c 7b3d 3c3d f6e5 4ebc c07a 29bc
000001c0: 1088 9a3d 706f b23c 2da5 063d de97 e73d
000001d0: 718b 98bd 5f1a a8bd 9368 c3bb 7142 4f3c
000001e0: 12dc e23d 4e8e c0bd 9222 f33c 66ca 343d
000001f0: 2938 7fbc 2941 58bd 0bbe 9ebd a0c7 ab3c
00000200: c140 203d 295c b73c a30c 4d3c 58fd 5a3d
00000210: 465c eebd 3844 713d 0dbb 3d3d d8b6 2dbd
00000220: 00b6 9fbd 4aa4 f3bd b894 fcbd 9f6a 093d
00000230: 756b 943b 41a4 dbbc 095b a7bd 3865 f8bd
00000240: 85bb 9d3d 9c62 383d f0f5 883c 8cd8 0f3d
00000250: cf63 a13c 2cf3 29bc 65ed 553d cd80 d13c
00000260: fabd d8bc 9c4e 6fbd e4da 063d f4bc 013d
00000270: a1d7 c03c 7eaa 8bbd 8c60 8b3d 50d6 eabd
00000280: d63b 4e3c 4454 73bd bfb4 51bd 4eeb adbd
00000290: 8e1d 473c 8cd9 e33d 0413 63bd 60c3 abbb
000002a0: 362c 993c 72be d1bd 06a1 6abd 950c 62ba
000002b0: 3732 dfbd 1f5b f33c 04af 7cbc 807b b83a
000002c0: 656c d43b b1e5 4e3d c1dc 90bc a6a5 dabd
000002d0: 1f31 b2bd c9f1 8f3d a127 a63b b884 d93d
000002e0: 7ef1 b83d 43de 6abd 17c5 e3ba 93d1 463d
000002f0: 9138 153b 44e0 333c 939b edbd 51bf 95bd
-0.029445922 -0.09073456 -0.009837732 -0.047525737 -0.020499438 0.05886668 0.029703736 -0.02222078
-0.045443624 -0.076057255 -0.025307234 -0.01405436 -0.07302588 -0.039691888 -0.07341838 -0.10497743
-0.03497429 0.049389172 -0.048058037 0.019528719 0.031454924 -0.024562884 0.008753372 -0.015077866
-0.01242589 0.06664599 0.057333604 -0.0625985 -0.0010167913 -0.068400875 0.040054828 0.09549936
-0.0021032267 -0.0725273 -0.07216459 -0.043483257 0.0033103952 -0.073727146 0.08749618 0.042041406
0.017219892 0.0278361 -0.020088812 0.0077249645 -0.044422686 0.042833436 -0.0039012507 0.016841741
-0.018283095 0.034597743 0.043993037 0.038862202 0.00035773043 -0.090981655 0.014791305 -0.03985554
-0.046632264 0.0011151789 -0.02964075 -0.017232176 -0.08254913 -0.033702716 0.030738447 -0.087967165
-0.089500956 -0.020655913 -0.010954731 -0.065720424 0.06296886 -0.018712658 0.052712828 0.030532278
0.0015902539 -0.045166027 -0.011164412 -0.09222937 0.054896355 0.0011312839 0.06605274 -0.11277626
-0.021612875 0.011510951 -0.013040315 -0.010986218 -0.04101699 -0.0021973338 -0.009130057 0.008014021
-0.0038968679 -0.014485389 0.03343468 0.055816688 0.021369683 -0.0072577368 0.012382206 0.057548463
0.018364858 -0.050379653 -0.070209965 0.012621473 0.010993964 0.015048511 -0.07779541 0.06836279
0.018395 0.003636795 -0.06100013 0.005507523 0.016806634 0.04595707 -0.012628069 -0.010344207
0.07545483 0.021781653 0.032872368 0.11308263 -0.07448471 -0.08208155 -0.005963394 0.012650118
0.11077131 -0.094021425 0.02967957 0.044138335 -0.0155773545 -0.052796517 -0.077510916 0.020969212
0.039124254 0.022382813 0.01251522 0.053464264 -0.116386935 0.05890295 0.046320964 -0.0424107
-0.077983856 -0.1189657 -0.12333053 0.033548947 0.0045294114 -0.02681172 -0.081716605 -0.12128681
0.07701782 0.045015916 0.016718835 0.035118625 0.019700913 -0.010372918 0.05222835 0.025574112
-0.026457775 -0.058424577 0.032923594 0.03167434 0.02354032 -0.06819628 0.06805524 -0.11466658
0.012587508 -0.059406534 -0.051197764 -0.084921464 0.0121530425 0.11125478 -0.055438057 -0.0052417964
0.01869784 -0.10241403 -0.05728247 -0.00086230907 -0.108982496 0.029706536 -0.015422586 0.0014074892
0.006482648 0.05051202 -0.017683389 -0.10676126 -0.08700775 0.07028539 0.005070642 0.10621017
0.09030436 -0.05734087 -0.0017377463 0.04853971 0.0022769312 0.010978762 -0.11601939 -0.07311881

model.4.bias f4 [3]
00000000: 3a94 be3d ca4e c03d 0e0b bd3d
0.09305616 0.09390028 0.09230624

exp_avg f4 [128, 21]
00000000: 0400 0000 0400 0000 0400 0080 0400 0000
00000010: 0400 0000 0400 0000 0400 0000 0400 0000
00000020: 0400 0000 0400 0080 0400 0000 0400 0080
00000030: 0400 0000 0400 0000 0400 0000 0400 0000
00000040: 0400 0000 0400 0000 0400 0000 0400 0080
00000050: 0400 0000 0400 0080 0400 0080 0400 0000
00000060: 0400 0080 0400 0080 0400 0080 0400 0080
00000070: 0400 0000 0400 0080 0400 0080 0400 0000
00000080: 0400 0000 0400 0080 0400 0080 0400 0080
00000090: 0400 0080 0400 0080 0400 0080 0400 0000
000000a0: 0400 0000 0400 0080 0400 0080 0400 0080
000000b0: 0400 0000 0400 0080 0400 0080 0400 0080
000000c0: 0400 0080 0400 0080 0400 0080 0400 0080
000000d0: 0400 0000 0400 0000 0400 0080 0400 0080
000000e0: 0400 0080 0400 0080 0400 0080 0400 0080
000000f0: 0400 0080 0400 0000 0400 0080 0400 0000
00000100: 0400 0000 0400 0080 0400 0000 0400 0000
00000110: 0400 0000 0400 0000 0400 0080 0400 0000
00000120: 0400 0080 0400 0080 0400 0080 0400 0000
00000130: 0400 0000 0400 0080 0400 0000 0400 0000
00000140: 0400 0080 0400 0000 0400 0000 0400 0000
00000150: 0400 0000 0400 0000 0400 0080 0400 0000
00000160: 0400 0000 0400 0000 0400 0000 0400 0000
00000170: 0400 0000 0000 0000 0400 0000 0400 0000
00000180: 0400 0000 0400 0000 0400 0080 0400 0000
00000190: 0400 0000 0400 0000 0400 0080 0400 0080
000001a0: 0400 0000 0000 0000 0000 0000 0000 0000
000001b0: 0000 0000 0000 0000 0000 0000 0000 0000
000001c0: 0000 0000 0000 0000 0000 0000 0000 0000
000001d0: 0000 0000 0000 0000 0000 0000 0000 0000
000001e0: 0000 0000 0000 0000 0000 0000 0000 0000
000001f0: 0000 0000 0000 0000 0400 0000 0400 0000
00000200: 0400 0080 0400 0000 0400 0000 0400 0000
00000210: 0400 0000 0400 0000 0400 0000 0400 0080
00000220: 0400 0080 0400 0080 0400 0000 0400 0000
00000230: 0400 0000 0400 0000 0400 0000 0400 0000
00000240: 0400 0000 0400 0080 0400 0000 0400 0080
00000250: 0400 0080 0400 0000 0400 0080 0400 0080
00000260: 0400 0080 0400 0080 0400 0080 0400 0080
00000270: 0400 0000 0400 0000 0400 0000 0400 0080
00000280: 0400 0080 0400 0080 0400 0080 0400 0080
00000290: 0400 0080 0400 0080 0400 0000 0400 0080
000002a0: 0400 0080 0400 0080 0400 0000 0400 0080
000002b0: 0400 0080 0400 0080 0400 0080 0400 0080
000002c0: 0400 0080 0400 0000 0400 0080 0400 0000
000002d0: 0400 0080 0400 0080 0400 0000 0400 0080
000002e0: 0400 0080 0400 0000 0400 0080 0400 0000
000002f0: 0400 0080 0400 0080 0400 0080 0400 0000
00000300: 0400 0080 0400 0080 0400 0080 0400 0080
00000310: 0400 0000 0400 0080 0400 0080 0400 0000
00000320: 0400 0000 0400 0080 0400 0080 0400 0000
00000330: 0400 0080 0400 0080 0400 0000 0400 0000
00000340: 0400 0000 0400 0080 0400 0000 0400 0000
00000350: 0400 0080 0400 0000 0400 0000 0400 0000
00000360: 0400 0000 0400 0000 0400 0000 0400 0080
00000370: 0400 0080 0400 0080 0400 0000 0400 0000
00000380: 0400 0000 0400 0000 0400 0000 0400 0000
00000390: 0400 0000 0400 0080 0400 0000 0400 0000
000003a0: 0400 0000 0400 0080 0400 0000 0400 0000
000003b0: 0400 0000 0400 0000 0400 0000 0400 0000
000003c0: 0400 0080 0400 0000 0400 0080 0400 0000
000003d0: 0400 0000 0400 0000 0400 0000 0400 0000
000003e0: 0400 0080 0400 0080 0400 0080 0400 0000
000003f0: 0400 0000 0400 0000 0400 0080 0400 0000
6e-45 6e-45 -6e-45 6e-45 6e-45 6e-45 6e-45 6e-45
6e-45 -6e-45 6e-45 -6e-45 6e-45 6e-45 6e-45 6e-45
6e-45 6e-45 6e-45 -6e-45 6e-45 -6e-45 -6e-45 6e-45
-6e-45 -6e-45 -6e-45 -6e-45 6e-45 -6e-45 -6e-45 6e-45
6e-45 -6e-45 -6e-45 -6e-45 -6e-45 -6e-45 -6e-45 6e-45
6e-45 -6e-45 -6e-45 -6e-45 6e-45 -6e-45 -6e-45 -6e-45
-6e-45 -6e-45 -6e-45 -6e-45 6e-45 6e-45 -6e-45 -6e-45
-6e-45 -6e-45 -6e-45 -6e-45 -6e-45 6e-45 -6e-45 6e-45
6e-45 -6e-45 6e-45 6e-45 6e-45 6e-45 -6e-45 6e-45
-6e-45 -6e-45 -6e-45 6e-45 6e-45 -6e-45 6e-45 6e-45
-6e-45 6e-45 6e-45 6e-45 6e-45 6e-45 -6e-45 6e-45
6e-45 6e-45 6e-45 6e-45 6e-45 0.0 6e-45 6e-45
6e-45 6e-45 -6e-45 6e-45 6e-45 6e-45 -6e-45 -6e-45
6e-45 0.0 0.0 0.0 0.0 0.0 0.0 0.0
0.0 0.0 0.0 0.0 0.0 0.0 0.0 0.0
0.0 0.0 0.0 0.0 0.0 0.0 6e-45 6e-45
-6e-45 6e-45 6e-45 6e-45 6e-45 6e-45 6e-45 -6e-45
-6e-45 -6e-45 6e-45 6e-45 6e-45 6e-45 6e-45 6e-45
6e-45 -6e-45 6e-45 -6e-45 -6e-45 6e-45 -6e-45 -6e-45
-6e-45 -6e-45 -6e-45 -6e-45 6e-45 6e-45 6e-45 -6e-45
-6e-45 -6e-45 -6e-45 -6e-45 -6e-45 -6e-45 6e-45 -6e-45
-6e-45 -6e-45 6e-45 -6e-45 -6e-45 -6e-45 -6e-45 -6e-45
-6e-45 6e-45 -6e-45 6e-45 -6e-45 -6e-45 6e-45 -6e-45
-6e-45 6e-45 -6e-45 6e-45 -6e-45 -6e-45 -6e-45 6e-45
-6e-45 -6e-45 -6e-45 -6e-45 6e-45 -6e-45 -6e-45 6e-45
6e-45 -6e-45 -6e-45 6e-45 -6e-45 -6e-45 6e-45 6e-45
6e-45 -6e-45 6e-45 6e-45 -6e-45 6e-45 6e-45 6e-45
6e-45 6e-45 6e-45 -6e-45 -6e-45 -6e-45 6e-45 6e-45
6e-45 6e-45 6e-45 6e-45 6e-45 -6e-45 6e-45 6e-45
6e-45 -6e-45 6e-45 6e-45 6e-45 6e-45 6e-45 6e-45
-6e-45 6e-45 -6e-45 6e-45 6e-45 6e-45 6e-45 6e-45
-6e-45 -6e-45 -6e-45 6e-45 6e-45 6e-45 -6e-45 6e-45
