models/rl/dqn/dqn_episode_1.pt (torch, 189640 bytes, 24 tensors)

model.0.weight f4 [128, 21]
00000000: 97dd 0a3e 0b63 1d3e 8926 0ec0 0d42 a93e
00000010: dda8 f53b 01c2 e73e a9d8 69bc afe0 403f
00000020: fa99 ec3e 2eb5 37be c91d 3a3f 4445 7cbd
00000030: 90e0 303e d533 a13c 2ab3 89bd 7aa0 bebc
00000040: 3a3e 2c3e 62e4 acbe 0ddc 573d 00cd 2e3f
00000050: c9f5 133e 7492 6fbd 45d0 d03b a065 5d40
00000060: d69a 3cbf f267 2fbf fe71 1cbf cfdf 95be
00000070: d80f 5bbf 1101 2fbf 5632 bebd 0c5b 51bf
00000080: 9bde 6cbd 4340 1b3c 0738 fdbb cf25 49bf
00000090: 1549 22bc 0b63 503e 58aa 51bf c899 8fbb
000000a0: b3c7 23bf ebfa 7fbe 7473 353e 4277 603e
000000b0: ca81 18c0 1023 babd e1b1 9a3e 3c30 0e3f
000000c0: acb4 953e 4498 1d3f 78f0 763e 910e 903e
000000d0: 41a7 a73e 02bd 8a3d 3260 5d3e a9da 023e
000000e0: e630 1a3f 588f 0f3e 7bd4 513e 47ba 3f3f
000000f0: d22f bc3d 445f 6f3e 3bb9 a03e 9365 63bc
00000100: 0415 603d be58 1ac0 e576 a13d 9209 82bd
00000110: 8928 a23e e9e1 e83d 7f0b 493f e259 133f
00000120: 7da7 e63e bc45 3d3e 3b09 a1be 4997 4cbd
00000130: 6976 02be 7020 cb3e f1b8 543e 228b 523e
00000140: 1a22 333f 96c2 2bbe 099c 153f 3dc2 373e
00000150: 028d 9d3c d5f5 0bbe 5225 0e3e 9255 2dbe
00000160: a95b 48be effe a5bc 1677 8bbc 974b 01be
00000170: 040b 893d 27e8 173e 115e 6abe 33b1 09be
00000180: f44b b53d e434 3abe c2e9 703d 6672 9ebe
00000190: 2a01 4fbe bd6b c7bc b4f9 3bbd e268 6cbe
000001a0: 5ee1 ccbd 58a3 18be 1e94 3dbe c618 f6bd
000001b0: 1492 43be 4a48 0ebe 235e 5f3e fcd1 283d
000001c0: 42b8 893d c069 50be 6dc2 12be b6c1 94bd
000001d0: 8cc4 0b3d 789f 44be c38f c0bd 8bc6 05be
000001e0: 0087 1e3a f84b a6bd 80c0 77bc 7a6b 17be
000001f0: e660 19be 375d 02be d2b9 703d 473c 39be
00000200: aa84 2ac0 7c6c 803d c58b 0c3f 157d 373f
00000210: 43e9 56be d453 ac3f 1159 5a3e 449e 0a3f
00000220: 3551 113f 6d23 24bf 815e 673e 472f 5abc
00000230: d8a7 2c3f e80b f0bb 8782 2d3e 9c56 933e
00000240: 6fc0 dfbe f78c 023f f72d 673e 5b12 303e
00000250: 6065 343e 65c0 fdbf 47c3 b33d 6a78 603d
00000260: f02a ac3e 7a8c dbbe a7c7 813f a172 9ebe
00000270: c092 8e3e 60ed 4e3f 56a1 cabe 8055 b7bd
00000280: 8edb 3c3e e11e e93e ac55 753d 31d5 4dbe
00000290: bc15 9f3f deae 883d 506d ab3e a1aa cb3e
000002a0: 6889 5fbc 8965 27be 706e afbf 5c64 1abe
000002b0: e396 063e 1b45 e83d 3975 513e 34d0 1d3c
000002c0: 8ffe f53e 8225 913e 100c 14bd d03f e13e
000002d0: cb03 233d 2081 de3d d953 653f f331 09be
000002e0: ae10 c63d edfe 0c3f 5b25 aa3d 3fa0 0abe
000002f0: c25d c3bd 42ea 1d3c 2106 ecbc af60 17c0
00000300: 4e45 433d fc2c 9f3e 1369 ea3e 1b95 5dbd
00000310: 7b05 413f af32 bb3e 9e1a 8d3e aeea 0e3f
00000320: ed17 dcbe 0687 fcba 70db 653e e9ba 313f
00000330: 0813 483d f028 a8bd 0180 43bd e55f 76be
00000340: 9a65 9e3e 5f6f d63e 19a8 733e 69bf 1d3d
00000350: 746d 3bbf f2d0 90bd 2baf 0f3e a281 983e
00000360: 1f6c 07be 9733 603e 9fde 173d c9d3 153e
00000370: 1767 1b3d 4a90 023f 949f b63b c28f cabd
00000380: 2684 863f 7ff3 593e c785 d93d 27b2 563f
00000390: fbb7 7cbd 135f 2cbe 4afd 66be 2077 c13d
000003a0: 7352 633d 6af6 87bf 8c35 a2bd 6b7d 4f3d
000003b0: b328 423e feda f0be 5352 c73e 59ad b8be
000003c0: a467 b43e e002 9f3e 2f48 c53d 38bb e4bd
000003d0: 49fe 8abd 4485 8c3f 8c38 8abd 9c73 4b3d
000003e0: 1e97 933f 60d3 9d3d a052 863d 1baa 93bd
000003f0: 0ae6 143d 64a9 d7bd 1d80 1fc0 dd8e 8b3c
0.13561092 0.15369813 -2.221102 0.33058205 0.0074969367 0.452652 -0.014272847 0.7534284
0.46211225 -0.17940208 0.727017 -0.061589494 0.17273164 0.019678036 -0.06723626 -0.02326988
0.16820613 -0.33767992 0.05270009 0.68281555 0.14449228 -0.058489278 0.006372484 3.4593277
-0.7367376 -0.6851798 -0.6111144 -0.29272315 -0.8557105 -0.68361 -0.092869446 -0.8177955
-0.05782948 0.00947577 -0.0077276262 -0.78573316 -0.009905119 0.20350282 -0.8190055 -0.004382346
-0.6397659 -0.24998061 0.17719823 0.21920493 -2.3829217 -0.09088719 0.30213836 0.5554235
0.29239404 0.61560464 0.24115169 0.28136113 0.32744792 0.06774332 0.21618727 0.12778725
0.60230863 0.14019525 0.20491211 0.7489361 0.091888085 0.23376185 0.3139132 -0.013879198
0.054707542 -2.4116664 0.078840055 -0.06349482 0.3167155 0.11371214 0.78533167 0.57559025
0.45049658 0.18483633 -0.31452355 -0.049948964 -0.12740482 0.39673185 0.20773675 0.20560887
0.6997391 -0.16773447 0.58441216 0.1794519 0.019232277 -0.13667996 0.13881424 -0.16927174
-0.19566216 -0.020263163 -0.017024558 -0.12626491 0.06691554 0.14834653 -0.22887446 -0.13446502
0.088523775 -0.18184239 0.05881668 -0.30946654 -0.20215288 -0.024343366 -0.045892432 -0.23086885
-0.10003923 -0.1490606 -0.18513533 -0.12016444 -0.19098693 -0.13894764 0.21813254 0.04121588
0.067245975 -0.2035284 -0.1433198 -0.0726351 0.03412299 -0.19201458 -0.0940242 -0.1306402
0.0006047338 -0.08119959 -0.015121579 -0.14787093 -0.1497837 -0.12730871 0.058770962 -0.180894
-2.6643472 0.06270692 0.5490077 0.71675235 -0.2098742 1.3463082 0.21323039 0.54147744
0.5676454 -0.64116555 0.22594644 -0.013316936 0.6744361 -0.007325638 0.16944323 0.28777015
-0.43701503 0.50996345 0.22576128 0.17194502 0.17616796 -1.9824339 0.087774806 0.054802336
0.3362651 -0.42880613 1.0139054 -0.3094683 0.27846336 0.80830956 -0.39576215 -0.08951855
0.18443128 0.4553137 0.059896156 -0.20100857 1.2428508 0.06673978 0.33481836 0.39778617
-0.0136436 -0.16347326 -1.3705578 -0.15077347 0.13143496 0.11341306 0.20454873 0.009632159
0.48045775 0.2834893 -0.036144316 0.43993998 0.03979854 0.108644724 0.89581066 -0.1339796
0.0967115 0.55076486 0.08307906 -0.13537692 -0.09539367 0.009638371 -0.028811516 -2.365276
0.047673516 0.31089008 0.4578329 -0.054097276 0.7539899 0.36562106 0.2755937 0.5582684
-0.42987004 -0.0019266314 0.2244699 0.6942583 0.048846275 -0.08210933 -0.047729496 -0.24060018
0.3093689 0.41881844 0.23794593 0.03851262 -0.7321389 -0.07071103 0.14031665 0.29786402
-0.13224839 0.2189468 0.037077542 0.14631571 0.03794011 0.5100142 0.0055732224 -0.09890701
1.0509079 0.21284293 0.10621219 0.8386559 -0.061698895 -0.16833143 -0.2255756 0.094465494
0.05549855 -1.0622075 -0.079203695 0.050656717 0.18960838 -0.47042078 0.38929996 -0.36069754
0.35235322 0.3105688 0.096329086 -0.11168522 -0.06786782 1.097817 -0.06749067 0.0496708
1.1530492 0.07706332 0.06558728 -0.072101794 0.036352195 -0.105303556 -2.4921944 0.017035896

model.0.bias f4 [128]
00000000: fbc8 8b3e 2f1d 06bf 9cc3 3a3f 398a 2c3f
00000010: dbd2 79bd 56be dfbd 9f32 633f 2f34 cb3e
00000020: f0dd a73e 4b80 c73e 904f d7bb c0ac c63c
00000030: 6f30 373f be49 153f 5cbb 62be 1076 0d3f
00000040: 1bd6 c03e 8364 08bf 425d 253d 631e b1bd
00000050: 251f e5bc 0c98 e33d 443c 2c3d ec41 8dbe
00000060: c782 b3bd 19bc 353e 0a07 223f 8a91 6d3e
00000070: a357 ed3d 31fe f13d 90b9 e7be 66cc f43e
00000080: 8213 a93c 8370 2e3f 743e 303f 36b7 f2bd
00000090: f880 973e b23e 75be 5870 163f 73e3 39be
000000a0: 39c6 f2be bfc3 fb3e ec7f f93e e686 713d
000000b0: 3246 55be f851 213f 6daf e13e abd2 923e
000000c0: 36ae 8dbe 4f5f 403f 3dba efbd 5ab6 b13e
000000d0: 23d7 033f 73b3 cbbe e411 b0bd 56be 3b3f
000000e0: 9454 173f 1368 b43e 884f 40bf b09c 223f
000000f0: 7d69 fc3e 460d 4a3f 4822 ca3c cb4d 17be
00000100: 47a0 5e3e 5b70 b43d a10d 033e 6e7b 0ebe
00000110: 8c92 283e 86f1 aaba 2726 c03d dbeb b53e
00000120: b85e 203d bad3 263e 0b30 9c3e 3213 a83e
00000130: f52a 4ebe cf35 d03e 09bf 903e 81dc 06bf
00000140: 44ef 32bf 5744 9f3e b784 5fbe 11ae d43e
00000150: 5aaa 98be f516 033f b83a 0f3f 7dbc 0abc
00000160: 9d45 62be 908c ae3e 8196 e43e 3d1f a03e
00000170: 3338 cfbe 0c9f f1bd 8d90 4e3f 5cbc 18be
00000180: e0f8 d4bd 36a0 b93d 14f4 5ebe 7b0a 0b3e
00000190: 811a 813e 6361 37be 4f3d 38bd 0f1f 9d3e
000001a0: a7bf 2fbf b82d 593e 3ab8 0e3f 0041 37ba
000001b0: dd54 143f 754e 8a3e f801 c8be 5fef 40be
000001c0: 29a4 75bd c110 153f 5eb9 1a3e 07e8 47be
000001d0: 6152 fa3e 6569 513e 6f66 06bf d2c5 2abe
000001e0: a211 8e3d 4918 05bf beb5 1bbe 4869 5bbe
000001f0: c5e0 cc3e b24c 8dbd cb0f debd 0853 8b3e
0.27301773 -0.5238828 0.72954726 0.6739841 -0.060992103 -0.109249756 0.88749117 0.3968825
0.32786512 0.38965067 -0.006570764 0.024252295 0.7155828 0.58315647 -0.22141784 0.55258274
0.3766335 -0.5327837 0.04037214 -0.08648374 -0.027968952 0.11112985 0.04204966 -0.27589357
-0.08765178 0.17747535 0.6329199 0.2320005 0.11588981 0.11816061 -0.4525876 0.47812194
0.020639185 0.6814043 0.68845296 -0.11851351 0.29590583 -0.23949698 0.5876517 -0.18153171
-0.47416857 0.4917278 0.4873041 0.05896654 -0.20827559 0.630157 0.44079152 0.28676352
-0.27671975 0.7514543 -0.11705444 0.34709436 0.5150015 -0.39785346 -0.08597162 0.73337305
0.5911343 0.35235652 -0.75121355 0.63520336 0.4929923 0.78926504 0.02467455 -0.1477577
0.21740828 0.088104926 0.12798168 -0.13914272 0.16462153 -0.001304195 0.09382277 0.35531506
0.03915283 0.16291705 0.30505404 0.32827145 -0.20133574 0.40666053 0.28270748 -0.5268021
-0.6989634 0.31106827 -0.2182797 0.41539052 -0.29817468 0.51206905 0.5594897 -0.008467791
-0.22096868 0.34091616 0.44646075 0.31273833 -0.40472564 -0.11797914 0.80689317 -0.14915603
-0.10399032 0.09063761 -0.21772796 0.13578217 0.25215533 -0.17908244 -0.044980343 0.30687758
-0.68651813 0.21208847 0.5574986 -0.0006990582 0.5794199 0.27012983 -0.39064002 -0.18841313
-0.05997101 0.5822869 0.15109774 -0.19522105 0.48890975 0.20450361 -0.5250005 -0.16677025
0.06936957 -0.5199018 -0.15206048 -0.2142688 0.40015236 -0.06899394 -0.10842856 0.27211785

model.2.weight f4 [64, 128]
00000000: 71e6 ed3c 4c40 72bd aa16 91bd 664c df3c
00000010: b472 0d3d 8db6 4dbd b860 06bc cee0 f23b
00000020: 8c6b bcbd d7c4 bfbc 4bc9 3dba a8a5 1abd
00000030: b010 293d 79c1 c3bd 167a 133c a83e b8bd
00000040: ef61 bfbd 54ad 403d 92ad 2dbd 7f52 1cbd
00000050: 50db 933c 1046 b4bd 58f3 9abd fd52 d93a
00000060: dfd5 9d3d e03c 19bc 5b75 f53c 33b6 8d3c
00000070: 933c 76bc a9a5 adbd 0589 903d c38f c23b
00000080: f2dd e1bc c9d0 cd3c f000 ebbd 15d2 19bc
00000090: db01 a3bd 800e 13bc 3b34 4f3c d206 1bbb
000000a0: 07b2 193c 1e0d dbbd fb5e c1bd 0049 ca3a
000000b0: ab2b 33bd 9c71 b3bd ac84 6d3d 8f04 1abc
000000c0: 7a69 8ebd 1a2f a3bb 2c81 cd3c 1ec4 a6bd
000000d0: e145 f53c 41a4 c1bd f588 0f3b c03b 2c3d
000000e0: bb76 d43c 0cf5 ee3c e1a3 01bd 2ae1 d2bc
000000f0: 9832 56ba 3977 8fbb 98d0 3dbd a5e8 83bc
00000100: 0da3 12bd fc8e a0bd 1c0d a7bd 29d2 cdbd
00000110: e4dc abbd bd99 653d e94e a43b 42bd bfbd
00000120: b396 acbd 2821 a93c 82aa 61bd 9e38 76bd
00000130: 646b 7cbd e86a 13bd bede fcbc 6b22 bebb
00000140: 424f 2f3d bbee ba3c 707c 353d 6a63 edbc
00000150: 8eee a4bd 7950 65bc dd5d bebd 2c1e 143d
00000160: 70b8 2ebc 0c61 87bd 22cb fdbd 16d7 eb3b
00000170: 2cec 0d3d 7721 a53d b41d 96bd 102c da3c
00000180: bfa4 cdbc 9b9b 66bd f665 abbd 17da 893c
00000190: f762 85bd 7829 133d f18d 02bc a248 7b3c
000001a0: 8317 353d c5fc 673a 41e1 89bb 3ed7 3b3d
000001b0: 9c1b 9ebd 7dfb 3fbd 4f36 fbbc 270c a93c
000001c0: f871 dd3c baa6 c33c 8c66 e4bc a8bf 37bc
000001d0: fdc7 aebd 0b03 763c 490b 8fbd ebef 2dbd
000001e0: 877d 363d 7e59 cb3b c203 86bd e627 cdbd
000001f0: 843c c2bd b0b4 2f3d d473 a5bd 3791 413d
00000200: f05a 1d3d e8de 9abc dfea 4cbd f909 3a3d
00000210: 3d9f 5dbc e327 ab3d aa64 703d d250 c3bd
00000220: b742 843c 2726 003d f914 d2bd 42e5 4a3c
00000230: 9e4a 91bd e07e edbd 4684 02bd 58c3 e6bc
00000240: d5a7 7dbd 9c53 90bd 93b4 e03c d9c5 843d
00000250: b763 25bc ae98 b2bd 9058 95bb c5a5 a0bd
00000260: 20f7 debd b933 b1ba 52e3 743c 6236 abbd
00000270: f6e2 f2bc 04b3 8dbd c851 c9bd 4ea5 54bd
00000280: dea9 fbbc 3b3b cdbc d8ba a43c bcd7 2c3d
00000290: dda6 e83c 1e1b fa3b 4f57 b8bc 2b82 b73b
000002a0: fc6a 91bd 2ab5 c13c f4d1 9e3c d3a6 19bd
000002b0: 4c93 02bb e034 bdbd 806c f1bd 1b3d cfbc
000002c0: e367 b13c c027 55bd f616 693c d342 cbbd
000002d0: 5e5b 9abd aecb d63c b3df c4bd 2a0e adbb
000002e0: 8ec7 093d 013a d83c dca0 903c 19a3 d1bd
000002f0: d37e a3bc b9d1 89bd 3174 cbbc 4550 603d
00000300: 7c12 f6bc 11c9 55bd a54f 91bd f6e5 163d
00000310: 44ed 313c bc78 c63d 9173 aa3b e140 f3bd
00000320: 6886 9ebb d413 583d e89f ac3b 697b e9bb
00000330: ee00 c7bd 3c66 c6bd 63fa f43c b30b b7bd
00000340: aee6 12bb 190e 15bd 157d 293d 8b5d 01bd
00000350: 5feb 8abd 47ad 9dbd 5d6e 2d3d a1ae 1d3d
00000360: ce88 173c 8e8f 8cbd f0b0 343d 1bc9 6bbd
00000370: f656 7cbd e4e1 923c 4855 3ebd 2d7c 11bd
00000380: 3428 1bbd 005a a5bb 0098 83bd 20c7 32bd
00000390: 0578 f4bd 50d4 993c c6db 553d c1e5 dcbc
000003a0: f648 33bd 1825 d8bd e725 a03c dd52 943d
000003b0: afbc 7c3d 2534 23bd 98f1 ad3a 3760 973d
000003c0: d59e 76bc 805f 97bd eaaa 64bd 8a49 1e3d
000003d0: 9f57 5b3a b94a 833d e7b7 90bd b55d eebc
000003e0: 24b4 ddbc 18e3 14bd 888f 293d 7587 e6bd
000003f0: 6298 ea3c aa6f 2a3a a52a 57bd cd2a 8e3c
0.029040547 -0.05914335 -0.07084401 0.02725811 0.034533218 -0.050222922 -0.0082017705 0.0074120527
-0.092002004 -0.02340929 -0.0007239773 -0.03775564 0.04127568 -0.09558386 0.0090012755 -0.08996326
-0.09344851 0.0470403 -0.042401858 -0.038164612 0.018048912 -0.08802426 -0.075659454 0.0016580519
0.07706808 -0.009352893 0.029963186 0.017298793 -0.01502909 -0.08478863 0.070573844 0.005937548
-0.027571652 0.02512397 -0.11474788 -0.009388466 -0.07959338 -0.008975625 0.01264673 -0.0023655188
0.009380824 -0.10695861 -0.09441944 0.0015433133 -0.043742817 -0.08761904 0.057987854 -0.009400501
-0.06953712 -0.00497998 0.025086008 -0.08142875 0.029940547 -0.09455157 0.00219017 0.04204917
0.025935521 0.029169582 -0.031650428 -0.025742132 -0.0008170991 -0.004378226 -0.04634151 -0.016102144
-0.03580003 -0.07839772 -0.08156797 -0.100498505 -0.08391741 0.05605482 0.0050142896 -0.0936227
-0.08427181 0.020645693 -0.05509425 -0.060112588 -0.061625853 -0.035990626 -0.03086793 -0.005802443
0.042800196 0.022818914 0.044308126 -0.028978068 -0.08053313 -0.013996237 -0.09295247 0.036161587
-0.0106640905 -0.06610307 -0.1239226 0.007197271 0.03464906 0.080630235 -0.07329884 0.026632339
-0.025102971 -0.05630074 -0.08369057 0.016827626 -0.06513017 0.03592822 -0.007968412 0.015337141
0.044211876 0.0008849616 -0.0042077606 0.045859568 -0.0772011 -0.046870697 -0.030665545 0.020635678
0.027031884 0.023883212 -0.02788093 -0.011215128 -0.085342385 0.015015374 -0.06984574 -0.04246513
0.044553306 0.0062057367 -0.065436855 -0.10017376 -0.09484199 0.042896926 -0.08078733 0.04725763
0.038416803 -0.018905118 -0.050028678 0.045419667 -0.013526735 0.08357217 0.05868975 -0.095368996
0.016145093 0.031286385 -0.102579065 0.012383761 -0.0709431 -0.11596465 -0.031864427 -0.028169319
-0.061927635 -0.07047197 0.027429854 0.06483049 -0.010094575 -0.087205276 -0.0045576766 -0.07844118
-0.10886979 -0.0013519443 0.0149467755 -0.08359982 -0.029649239 -0.0691891 -0.09830052 -0.05191546
-0.030720647 -0.025052657 0.020108625 0.042197928 0.02839988 0.007632627 -0.02250257 0.005600234
-0.07100484 0.023645956 0.019387223 -0.03751261 -0.0019924222 -0.09238601 -0.11788273 -0.025297692
0.021655982 -0.05203986 0.014226666 -0.09924855 -0.07536958 0.026220169 -0.0961298 -0.0052812295
0.033637576 0.026394846 0.017654829 -0.102361865 -0.019957935 -0.067294545 -0.024835678 0.05476405
-0.03003811 -0.052193705 -0.07095269 0.0368404 0.010859791 0.09690997 0.005201765 -0.11877609
-0.0048378 0.052753285 0.0052680857 -0.0071253073 -0.09716974 -0.096874684 0.02990455 -0.08937778
-0.0022415328 -0.036390398 0.041379053 -0.03158335 -0.06783175 -0.07699066 0.04234158 0.038496617
0.009248925 -0.068633184 0.044114053 -0.057564836 -0.06160637 0.017929979 -0.04646805 -0.035518814
-0.037880138 -0.005046129 -0.06425476 -0.04364693 -0.119369544 0.018777996 0.052211545 -0.026965024
-0.043770753 -0.1055395 0.019549323 0.072423674 0.06170338 -0.03984465 0.0013270853 0.073913984
-0.015052517 -0.07391262 -0.05582706 0.03864435 0.00083672436 0.064107366 -0.070663266 -0.029097417
-0.027063437 -0.036349386 0.041396648 -0.11256305 0.028637115 0.00065016246 -0.052530903 0.017354393

model.2.bias f4 [64]
00000000: 0a69 f1bc 351f 613d ebfc 113f 7348 803d
00000010: b3be a7bd c524 e2bd de1c dcbb 93ce cbbb
00000020: 33aa 99bd 413e 7bbd dee8 e83b e46f 6fbd
00000030: c54b 89bd d360 8abd 3530 efbb 6ce6 4cbc
00000040: 2d01 c3bd 62a2 453e 6b3e 94bd 9cc2 1e3f
00000050: 91ed 5fbd 35c3 d1bd d8aa f83e 4e65 a83c
00000060: 6211 743d ec8c 653e 2cee a0bc 1172 1a3d
00000070: 289e eb3e 504e 18be 207e 123f 827a 3e3d
00000080: 4495 153e c8e5 35be fef8 19be ce5a b33c
00000090: cfa6 a43e a7c5 ae3d fc2e e6bc 5278 b4bc
000000a0: e215 e23e e2be 9bbd 2a26 353d 497a e93e
000000b0: 0048 74bc 22d5 163f bef8 2b3f c2f8 2f3d
000000c0: 4dc7 ad3d 4e99 423d b57c f13e 76f6 863d
000000d0: a29b 743c 47e9 e83c 6e74 aabd 2025 893c
000000e0: 0d58 bbbd 6c02 613c 74a7 cdbb ac4e b43e
000000f0: 9f32 e83c 0d33 27bd 8b32 da3c 50b6 083d
-0.029469032 0.054961402 0.5702655 0.062638186 -0.0819067 -0.110421695 -0.0067173084 -0.006219694
-0.07503166 -0.061338667 0.007107838 -0.058456317 -0.06703905 -0.06756749 -0.007299448 -0.012506109
-0.09521709 0.19300225 -0.07238468 0.620157 -0.05466992 -0.10242311 0.48567843 0.020556118
0.05958689 0.22417039 -0.01964482 0.03770644 0.460191 -0.14873624 0.572237 0.04650355
0.14607722 -0.17763436 -0.15036389 0.021893885 0.32158515 0.08533793 -0.028098576 -0.02203003
0.4415732 -0.076047674 0.04422585 0.4560111 -0.014909744 0.58918965 0.67176425 0.042961843
0.08485279 0.047509484 0.47165456 0.065899774 0.014929684 0.028431548 -0.083229885 0.016741335
-0.09147654 0.013733488 -0.0062760655 0.35216272 0.02834445 -0.04082017 0.026635429 0.03337699

model.4.weight f4 [3, 64]
00000000: 9ae9 5dbd 1510 8cbd 8b5c c93d 9676 8fbd
00000010: a195 81bd 301e 713d 4055 f33c 3909 b6bc
00000020: 1823 3abd b8cc 9fbd 774f 1bbd 26a9 6dbb
00000030: 988e 95bd 346a e8bd 889e eabd ffa8 d7bd
00000040: 948f 0dbc 7258 133d c820 45bd 5991 e13d
00000050: 721a 8c3d bd0b adbd 8942 5f3d 66ee f93b
00000060: fe50 d43d 9030 723d a4d6 6a3d a433 80bd
00000070: 8eed 473d 937a 97bd 786f f13c 8813 fd3d
00000080: af0a e13c 5304 abbd 38f1 b2bd 98e3 9ebd
00000090: 3417 743d 42fe 96bd 3231 b33d 0b02 383d
000000a0: c022 9d3d 4f41 e93b 4b91 a4bc 3818 083d
000000b0: 20f5 98bc efc1 8d3d dc98 923d e40f 323d
000000c0: e6aa 553b ea16 d83d 5ec5 1c3c 58ca 7e3d
000000d0: cdef 1aba 2490 f1bd 0ac7 2cbc 903f 23bd
000000e0: c81b 48bd c03e a0bb 70b1 0abd 3114 d73c
000000f0: 1c29 17bd 6cd6 9ebd 68f6 3b3d 4059 b4bd
00000100: b21b 9ebd 06bd 45bb 399f 743d 796c e2bd
00000110: 07b4 913d ae66 91bc 68e9 573d 80ae a1ba
00000120: b081 dfbc ed87 16bd 53bc 84bc 1b4f 76bd
00000130: 00db 603d 0494 f43b 740f 8a3d 002d dcbd
00000140: 4b71 e3bb d20b 48bc e832 283c 9733 853d
00000150: 4077 98bc 3a6d 553c dfff 5a3d 7e3a ef3c
00000160: 7cf0 8bbd 5dd4 db3c 7eff 093d baac 653d
00000170: 6ca7 723d cf3a 8ebd 6256 093d f386 f13c
00000180: 0344 543c 8b0f f8bd 70d6 dcbd a235 f63c
00000190: 534b e8bc 84be 3f3d 8af6 dbbd ca01 8c3d
000001a0: ff40 973d 895c 823c f427 7abd 4de7 42bc
000001b0: e0df 2e3d 4c5c f53d 5689 853d c07a 29bc
000001c0: ad95 c23d fee5 cdbb d890 0a3e 5046 b93d
000001d0: b419 97bd 0a86 80bd 22eb 5abc e093 9cbc
000001e0: 5305 e73d 48ad 72bd 588b 7c3d d52a aa3d
000001f0: 9189 a5bc 12cb 9ebd 3646 c1bd 8887 d43c
00000200: 2bf1 053d 141f 1a3d 0948 053e b450 933d
00000210: d916 f0bd 3844 713d 1997 3d3d e24a 81bd
00000220: 00b6 9fbd f520 fcbd 6eaa 99bd 2d93 7d3d
00000230: cc8e 113d a40f 8bbd de25 f1bd 64c4 01be
00000240: dc30 b43d 2cc4 e93c 1f99 3e3c 251e 183d
00000250: 5002 513d 1911 3e3b 99fb 9d3d 3be4 243d
00000260: b6e2 83bd 68bb c0bb e4da 063d f4bc 013d
00000270: f834 d73d 2d62 c5bd 821a 9d3d 50d6 eabd
00000280: 4106 c33c 401a 00be 3475 f3bd 4053 92bd
00000290: 544b ea3d 8cd9 e33d 0413 63bd 60c3 abbb
000002a0: 83e8 7eba 7b37 a6bc a9e9 8dbd 8ff9 cd3c
000002b0: 8470 e6bd 745d 323a 1d5a 9b3d 807b b83a
000002c0: 8dfe d23b 3848 b83c d3bc 013e ae77 b9bd
000002d0: e840 c9bd 6190 e43b e0d3 1c3d b884 d93d
000002e0: 292e b63d 75d5 b1bd ea17 22bd b775 bc3b
000002f0: 645a 4e3d 12cb 983d 59f1 b7bd 5524 a2bd
-0.054177858 -0.06839005 0.09832104 -0.0700504 -0.063273676 0.05886668 0.029703736 -0.022221195
-0.045443624 -0.07802719 -0.03791758 -0.003626415 -0.07302588 -0.11348382 -0.11456019 -0.1053028
-0.008640189 0.03597302 -0.048126966 0.11014051 0.068409815 -0.084495045 0.054506812 0.0076272963
0.103670105 0.059128344 0.057333604 -0.0625985 0.048810534 -0.07396426 0.029472098 0.12357241
0.027470915 -0.08350434 -0.08737415 -0.07758254 0.05959244 -0.073727146 0.08749618 0.044923823
0.07672644 0.007118381 -0.020088812 0.03322622 -0.018671572 0.069217555 0.07158062 0.043472186
0.0032603084 0.105512455 0.00956854 0.06220469 -0.0005910367 -0.11795071 -0.0105455015 -0.03985554
-0.04885462 -0.004890293 -0.033860624 0.026254745 -0.03690444 -0.077557415 0.04588929 -0.088060856
-0.07720126 -0.0030172481 0.05972216 -0.11055846 0.071144156 -0.017749157 0.052712828 -0.001233533
-0.02728352 -0.036750723 -0.016203081 -0.060134035 0.054896355 0.007463934 0.06741229 -0.107507706
-0.006940996 -0.012209849 0.010266043 0.065039806 -0.01861155 0.01302653 0.053466674 0.029202696
-0.06832978 0.026834661 0.033690922 0.056072928 0.059241697 -0.069448106 0.033529647 0.029483294
0.012955668 -0.121123396 -0.10783088 0.030054871 -0.02835623 0.04681255 -0.10740383 0.06836279
0.07385444 0.015913265 -0.06107326 -0.011895967 0.042693973 0.11980495 0.065203354 -0.010344207
0.09501205 -0.0062835207 0.13531816 0.09046614 -0.07377949 -0.06275566 -0.013361724 -0.019113481
0.112803124 -0.059247285 0.061656326 0.08308951 -0.020207198 -0.07753576 -0.0943722 0.025943533
0.0327007 0.037627295 0.1301576 0.07193127 -0.11723108 0.05890295 0.046286676 -0.06313111
-0.077983856 -0.123109736 -0.0750321 0.061907936 0.035536572 -0.067900926 -0.11774801 -0.12672573
0.08798382 0.028535925 0.011633187 0.037138123 0.051027596 0.002900189 0.07714004 0.04025672
-0.06439726 -0.0058817156 0.032923594 0.03167434 0.1050815 -0.09637866 0.076710716 -0.11466658
0.023806693 -0.12510014 -0.11887589 -0.07144785 0.11440149 0.11125478 -0.055438057 -0.0052417964
-0.0009723978 -0.020290127 -0.06929333 0.025143413 -0.112519294 0.0006804087 0.07585547 0.0014074892
0.006439036 0.022495374 0.12669687 -0.0905603 -0.09826833 0.006975219 0.038287997 0.10621017
0.08895523 -0.08683292 -0.039573587 0.0057513374 0.050379172 0.074606076 -0.0898158 -0.07917086

model.4.bias f4 [3]
00000000: aca5 033f 699a d63e 670a 1d3e
0.5142467 0.4191468 0.15336

model.0.weight f4 [128, 21]
00000000: cbd9 0b3e 4d25 1d3e 6f34 0ec0 5e4a a83e
00000010: 19aa b73b 4cb2 e73e fdfb 78bc 3ffe 403f
00000020: 5759 ec3e ed8b 37be cc28 3a3f b468 7ebd
00000030: 03af 323e c7f2 9f3c c2e6 88bd 1781 afbc
00000040: 2324 2c3e e0e7 acbe dcde 563d a6c6 2e3f
00000050: cfca 133e 2426 70bd 01c7 c83b 1678 5d40
00000060: 0d95 3cbf fb5e 2fbf 9568 1cbf 1846 95be
00000070: 8132 5bbf c1cb 2ebf bda1 bebd 8570 51bf
00000080: d828 69bd ece5 183c bef6 04bc 0914 49bf
00000090: 88b0 24bc 65ea 4f3e 97c6 51bf d66b 86bb
000000a0: 99bc 23bf 75d3 7fbe 4c53 363e f948 603e
000000b0: c09a 18c0 df73 bebd 2d9e 993e c031 0e3f
000000c0: 9347 953e 89c1 1d3f fe8e 763e ba24 903e
000000d0: 5ad1 a73e 85b6 893d 9ce9 5e3e c1c4 023e
000000e0: c456 1a3f 0234 113e 81d1 513e 61c9 3f3f
000000f0: 2972 bb3d e364 6f3e 48b9 a03e 1d36 55bc
00000100: e9da 5f3d 0275 1ac0 39ef a03d 028c 82bd
00000110: 013f a23e 20ce e83d 201f 493f 4862 133f
00000120: 76a7 e63e ca77 3d3e 7b20 a1be 13ee 48bd
00000130: 877b 02be ad48 cb3e e0a5 553e f68f 523e
00000140: e13a 333f 28d9 2bbe d0a9 153f 03fe 373e
00000150: 8847 9d3c aafa 0bbe 6826 0e3e 3657 2dbe
00000160: 7660 48be c925 a6bc 1d77 8bbc 3955 01be
00000170: 040b 893d 27e8 173e b367 6abe 4ab1 09be
00000180: 613a b53d 3a3b 3abe 5aea 703d 6672 9ebe
00000190: 0908 4fbe b474 c7bc 94e5 3bbd 2a6c 6cbe
000001a0: fdef ccbd 58a3 18be 1e94 3dbe c618 f6bd
000001b0: 1492 43be 4a48 0ebe 235e 5f3e fcd1 283d
000001c0: 42b8 893d c069 50be 6dc2 12be b6c1 94bd
000001d0: 8cc4 0b3d 789f 44be c38f c0bd 8bc6 05be
000001e0: 0087 1e3a f84b a6bd 80c0 77bc 7a6b 17be
000001f0: e660 19be 375d 02be 0e3d 723d beda 38be
00000200: 5299 2ac0 a137 783d 3805 0c3f b07b 373f
00000210: 3fcd 57be 4c64 ac3f 6beb 593e a4aa 0a3f
00000220: 1161 113f fb63 24bf bb1f 683e c4ce 50bc
00000230: 98aa 2c3f f1c8 d7bb b331 2e3e 234c 933e
00000240: 62db dfbe f783 023f 1c12 673e 7dcf 2f3e
00000250: abb5 353e dd8c fdbf 689d b53d 1c34 643d
00000260: 9dc0 ac3e ed4f dabe b8cb 813f 4a7e 9dbe
00000270: 3380 8e3e 8b0a 4f3f dd6b cabe c0ab b9bd
00000280: d40b 3e3e dfe2 e83e 0916 703d b2be 4cbe
00000290: ca35 9f3f 8e15 8a3d eb0e ac3e 6942 cc3e
000002a0: 63ed 5fbc 2ad4 27be e1a5 afbf 6864 1abe
000002b0: 2191 063e 4ad1 e73d fc14 503e 4a95 253c
000002c0: e67f f53e b445 913e cae4 12bd 2abf e03e
000002d0: 65ea 223d 6ad1 dd3d a241 653f 7e2d 09be
000002e0: 0d83 c53d e02e 0d3f cb8b a93d dfcf 0abe
000002f0: 04e5 c3bd 6fd1 2a3c 7147 edbc 886f 17c0
00000300: a8a3 3a3d 1519 9e3e 4365 ea3e 3762 61bd
00000310: 152b 413f aee8 ba3e 3a33 8d3e a901 0f3f
00000320: 3d57 dcbe 4432 f9b9 02c7 653e f1c9 313f
00000330: a7d0 4e3d d436 a8bd 4b60 42bd 519b 76be
00000340: 0b5f 9e3e ed65 d63e 7fc4 723e 9df7 1f3d
00000350: b177 3abf c4f9 93bd 7e19 0e3e 4a7c 983e
00000360: b909 09be b84d 613e 05a2 113d 5106 163e
00000370: b8d9 1f3d b56e 023f cf67 9e3b 3d55 c9bd
00000380: 7665 863f 5632 593e 92c0 da3d 8ec8 563f
00000390: ee1f 7dbd 0f2b 2dbe 6561 67be 399e c13d
000003a0: e607 6a3d 578b 87bf fb34 a2bd cf03 503d
000003b0: 1771 433e 7367 efbe 0856 c73e 187e b7be
000003c0: b452 b43e dc2c 9f3e e31d c73d 0194 e4bd
000003d0: abf1 87bd 037a 8c3f 813d 8abd 48ff 503d
000003e0: 7ca2 933f 4d80 9f3d a174 883d 3719 91bd
000003f0: ecb2 183d 59ff d7bd 278e 1fc0 67c5 733c
0.136573 0.1534626 -2.2219503 0.32869238 0.005604994 0.45253217 -0.015196797 0.7538795
0.4616191 -0.17924471 0.727185 -0.06211157 0.17449574 0.019524945 -0.066846386 -0.02142386
0.1681066 -0.33770657 0.05245863 0.68271863 0.14432834 -0.058630124 0.0061272387 3.4604545
-0.73664933 -0.68504304 -0.6109708 -0.2915504 -0.8562394 -0.68279654 -0.09308193 -0.81812316
-0.056923717 0.009332161 -0.008115469 -0.78546196 -0.010051854 0.20304258 -0.8194365 -0.0041022105
-0.6395965 -0.24983008 0.17805213 0.21902837 -2.3844452 -0.092994444 0.3000349 0.5554466
0.2915617 0.61623436 0.24077985 0.2815302 0.3277691 0.06724266 0.21768802 0.12770368
0.60288644 0.14179996 0.20490076 0.74916655 0.09152634 0.23378329 0.31391358 -0.01301339
0.05465213 -2.4133916 0.07858128 -0.063743606 0.31688693 0.1136744 0.7856312 0.5757184
0.45049638 0.18502727 -0.31470093 -0.04905517 -0.12742434 0.39703885 0.20864058 0.20562729
0.7001172 -0.16782057 0.5846224 0.17967992 0.019199148 -0.1366984 0.13881838 -0.169278
-0.19568047 -0.02028169 -0.017024571 -0.12630166 0.06691554 0.14834653 -0.2289112 -0.13446537
0.088490255 -0.18186656 0.058817245 -0.30946654 -0.20217909 -0.02434764 -0.04587324 -0.23088136
-0.10006712 -0.1490606 -0.18513533 -0.12016444 -0.19098693 -0.13894764 0.21813254 0.04121588
0.067245975 -0.2035284 -0.1433198 -0.0726351 0.03412299 -0.19201458 -0.0940242 -0.1306402
0.0006047338 -0.08119959 -0.015121579 -0.14787093 -0.1497837 -0.12730871 0.059140258 -0.18052194
-2.665608 0.060599927 0.54695463 0.7167311 -0.21074389 1.3468108 0.21281211 0.54166627
0.56788737 -0.6421506 0.22668354 -0.012744609 0.67447805 -0.0065852334 0.17011146 0.28769025
-0.43722063 0.5098261 0.22565502 0.17168994 0.17745082 -1.9808613 0.088679135 0.055713758
0.33740702 -0.42639104 1.0140295 -0.30760413 0.27832183 0.8087546 -0.39535418 -0.09065962
0.185592 0.4548559 0.058614764 -0.1999462 1.243829 0.067423925 0.33605132 0.39894417
-0.013667437 -0.16389528 -1.3722497 -0.15077364 0.131413 0.113192156 0.20320505 0.010106394
0.4794914 0.28373492 -0.03586272 0.43895847 0.039774317 0.10830958 0.8955327 -0.1339626
0.096441366 0.5514965 0.082786165 -0.13555859 -0.09565166 0.010425909 -0.02896473 -2.3661823
0.04556623 0.3087851 0.45780382 -0.055025306 0.7545636 0.36505646 0.27578145 0.5586191
-0.43035308 -0.00047530432 0.22439197 0.69448763 0.050491955 -0.08213583 -0.047455113 -0.24082686
0.30931887 0.41874638 0.2370777 0.0390545 -0.72838885 -0.072253734 0.13876912 0.29782325
-0.13382615 0.22002304 0.035554904 0.14650847 0.039025992 0.50950176 0.0048341523 -0.09830711
1.0499713 0.21210608 0.10681261 0.8389977 -0.06179803 -0.16910957 -0.22595747 0.09454007
0.05713644 -1.0589398 -0.079202615 0.050784882 0.19086109 -0.46758613 0.38932824 -0.3583839
0.35219347 0.31088912 0.09722497 -0.11161042 -0.066378914 1.0974735 -0.06750012 0.051024705
1.1533961 0.07788143 0.0666287 -0.070848875 0.03728001 -0.105467506 -2.4930513 0.014878607

model.0.bias f4 [128]
00000000: fbb9 8b3e 3014 06bf cbc5 3a3f 3896 2c3f
00000010: 42e6 79bd 56be dfbd b831 633f c0c8 cb3e
00000020: 02c2 a73e 327d c73e 98c5 d9bb 80c9 d03c
00000030: 7e2c 373f 4940 153f a273 63be d164 0d3f
00000040: 6dc3 c03e 3155 08bf af4b 223d de3b b2bd
00000050: bfc3 d4bc 32f2 e23d 443c 2c3d 6674 8cbe
00000060: 911e b5bd 19bc 353e 5efe 213f 5b33 6d3e
00000070: 71a5 ec3d 9724 f03d 91b0 e7be 77b6 f43e
00000080: 1ab6 a63c 1a62 2e3f 5442 303f 592f f4bd
00000090: c1b0 973e b23e 75be 656b 163f ce95 39be
000000a0: 57ad f2be 12a9 fb3e 48dc f93e e686 713d
000000b0: 3246 55be ff4d 213f 7d8e e13e 7fd7 923e
000000c0: d891 8dbe 0163 403f bab7 efbd 8e9e b13e
000000d0: ecc3 033f dbab cbbe ba54 b1bd 61b8 3b3f
000000e0: 4e5b 173f 9347 b43e 734e 40bf fc8a 223f
000000f0: 3d53 fc3e c306 4a3f 6cce d93c 9051 17be
00000100: 47a0 5e3e 5378 b83d a10d 033e 4b88 0cbe
00000110: d2b9 2a3e 0656 4a3a ef10 c23d 09d1 b53e
00000120: e54d 223d bad3 263e 06fe 9b3e 21f6 a73e
00000130: 4210 4fbe 873f d03e 3ea1 903e 7bd5 06bf
00000140: d0e5 32bf db45 9f3e 3e35 5dbe 779c d43e
00000150: 2415 98be bc0f 033f 2e35 0f3f 7dbc 0abc
00000160: 5498 60be b967 ae3e 8496 e43e a3fc 9f3e
00000170: 1783 cfbe 0c9f f1bd e688 4e3f 5cbc 18be
00000180: d1b6 d6bd 36a0 b93d 2378 5fbe 9341 0a3e
00000190: 8cf1 803e c5aa 36be 2d94 38bd 9037 9d3e
000001a0: f8b6 2fbf e1cc 593e e59c 0e3f 0041 37ba
000001b0: 1065 143f f5f4 8a3e dae4 c7be db3b 41be
000001c0: 1718 74bd f50b 153f 5eb9 1a3e 07e8 47be
000001d0: 8843 fa3e e839 513e 1654 06bf 17ce 2bbe
000001e0: 50c9 903d 8b15 05bf 8159 1abe 286a 5bbe
000001f0: d9d8 cc3e dd46 8dbd cb0f debd e23e 8b3e
0.2729033 -0.52374554 0.7295806 0.67416716 -0.061010607 -0.109249756 0.8874774 0.39801598
0.32765204 0.38962704 -0.0066458695 0.025486708 0.71552265 0.58301216 -0.22212079 0.5523196
0.37649098 -0.5325499 0.03962296 -0.08702825 -0.025972245 0.11081351 0.04204966 -0.27432555
-0.08843721 0.17747535 0.6327876 0.23164122 0.11554993 0.11725729 -0.45251897 0.4779546
0.020350505 0.6811844 0.6885121 -0.11923093 0.2962704 -0.23949698 0.5875762 -0.18123552
-0.47397873 0.49152428 0.48800874 0.05896654 -0.20827559 0.6300964 0.44054022 0.28680035
-0.27650332 0.7515107 -0.11704965 0.3469128 0.5147083 -0.39779553 -0.086587384 0.73328215
0.59123695 0.35210857 -0.75119704 0.63493323 0.49282256 0.7891657 0.026587687 -0.14777207
0.21740828 0.09007325 0.12798168 -0.13723867 0.16672447 0.0007718507 0.09475886 0.35511044
0.039625067 0.16291705 0.30467242 0.3280497 -0.20221046 0.40673468 0.28248018 -0.52669495
-0.69881916 0.31107983 -0.21602342 0.41525623 -0.2970363 0.51195884 0.5594052 -0.008467791
-0.21933109 0.3406351 0.44646084 0.31247434 -0.405297 -0.11797914 0.8067764 -0.14915603
-0.10484088 0.09063761 -0.21823172 0.13501577 0.25184286 -0.17838581 -0.045063186 0.30706453
-0.68638563 0.21269561 0.5570815 -0.0006990582 0.5796671 0.27140012 -0.39041787 -0.1887049
-0.059593286 0.5822137 0.15109774 -0.19522105 0.48879647 0.20432246 -0.52472055 -0.16777836
0.07069647 -0.51985997 -0.15073206 -0.21427214 0.40009192 -0.06898282 -0.10842856 0.27196413

model.2.weight f4 [64, 128]
00000000: 71e6 ed3c 4c40 72bd aa16 91bd 664c df3c
00000010: b472 0d3d 8db6 4dbd b860 06bc cee0 f23b
00000020: 8c6b bcbd d7c4 bfbc 4bc9 3dba a8a5 1abd
00000030: b010 293d 79c1 c3bd 167a 133c a83e b8bd
00000040: ef61 bfbd 54ad 403d 92ad 2dbd 7f52 1cbd
00000050: 50db 933c 1046 b4bd 58f3 9abd fd52 d93a
00000060: dfd5 9d3d e03c 19bc 5b75 f53c 33b6 8d3c
00000070: 933c 76bc a9a5 adbd 0589 903d c38f c23b
00000080: f2dd e1bc c9d0 cd3c f000 ebbd 15d2 19bc
00000090: db01 a3bd 800e 13bc 3b34 4f3c d206 1bbb
000000a0: 07b2 193c 1e0d dbbd fb5e c1bd 0049 ca3a
000000b0: ab2b 33bd 9c71 b3bd ac84 6d3d 8f04 1abc
000000c0: 7a69 8ebd 1a2f a3bb 2c81 cd3c 1ec4 a6bd
000000d0: e145 f53c 41a4 c1bd f588 0f3b c03b 2c3d
000000e0: bb76 d43c 0cf5 ee3c e1a3 01bd 2ae1 d2bc
000000f0: 9832 56ba 3977 8fbb 98d0 3dbd a5e8 83bc
00000100: 0da3 12bd fc8e a0bd 1c0d a7bd 29d2 cdbd
00000110: e4dc abbd bd99 653d e94e a43b 42bd bfbd
00000120: b396 acbd 2821 a93c 82aa 61bd 9e38 76bd
00000130: 646b 7cbd e86a 13bd bede fcbc 6b22 bebb
00000140: 424f 2f3d bbee ba3c 707c 353d 6a63 edbc
00000150: 8eee a4bd 7950 65bc dd5d bebd 2c1e 143d
00000160: 70b8 2ebc 0c61 87bd 22cb fdbd 16d7 eb3b
00000170: 2cec 0d3d 7721 a53d b41d 96bd 102c da3c
00000180: bfa4 cdbc 9b9b 66bd f665 abbd 17da 893c
00000190: f762 85bd 7829 133d f18d 02bc a248 7b3c
000001a0: 8317 353d c5fc 673a 41e1 89bb 3ed7 3b3d
000001b0: 9c1b 9ebd 7dfb 3fbd 4f36 fbbc 270c a93c
000001c0: f871 dd3c baa6 c33c 8c66 e4bc a8bf 37bc
000001d0: fdc7 aebd 0b03 763c 490b 8fbd ebef 2dbd
000001e0: 877d 363d 7e59 cb3b c203 86bd e627 cdbd
000001f0: 843c c2bd b0b4 2f3d d473 a5bd 3791 413d
00000200: f05a 1d3d e8de 9abc dfea 4cbd f909 3a3d
00000210: 3d9f 5dbc e327 ab3d aa64 703d d250 c3bd
00000220: b742 843c 2726 003d f914 d2bd 42e5 4a3c
00000230: 9e4a 91bd e07e edbd 4684 02bd 58c3 e6bc
00000240: d5a7 7dbd 9c53 90bd 93b4 e03c d9c5 843d
00000250: b763 25bc ae98 b2bd 9058 95bb c5a5 a0bd
00000260: 20f7 debd b933 b1ba 52e3 743c 6236 abbd
00000270: f6e2 f2bc 04b3 8dbd c851 c9bd 4ea5 54bd
00000280: dea9 fbbc 3b3b cdbc d8ba a43c bcd7 2c3d
00000290: dda6 e83c 1e1b fa3b 4f57 b8bc 2b82 b73b
000002a0: fc6a 91bd 2ab5 c13c f4d1 9e3c d3a6 19bd
000002b0: 4c93 02bb e034 bdbd 806c f1bd 1b3d cfbc
000002c0: e367 b13c c027 55bd f616 693c d342 cbbd
000002d0: 5e5b 9abd aecb d63c b3df c4bd 2a0e adbb
000002e0: 8ec7 093d 013a d83c dca0 903c 19a3 d1bd
000002f0: d37e a3bc b9d1 89bd 3174 cbbc 4550 603d
00000300: 7c12 f6bc 11c9 55bd a54f 91bd f6e5 163d
00000310: 44ed 313c bc78 c63d 9173 aa3b e140 f3bd
00000320: 6886 9ebb d413 583d e89f ac3b 697b e9bb
00000330: ee00 c7bd 3c66 c6bd 63fa f43c b30b b7bd
00000340: aee6 12bb 190e 15bd 157d 293d 8b5d 01bd
00000350: 5feb 8abd 47ad 9dbd 5d6e 2d3d a1ae 1d3d
00000360: ce88 173c 8e8f 8cbd f0b0 343d 1bc9 6bbd
00000370: f656 7cbd e4e1 923c 4855 3ebd 2d7c 11bd
00000380: 3428 1bbd 005a a5bb 0098 83bd 20c7 32bd
00000390: 0578 f4bd 50d4 993c c6db 553d c1e5 dcbc
000003a0: f648 33bd 1825 d8bd e725 a03c dd52 943d
000003b0: afbc 7c3d 2534 23bd 98f1 ad3a 3760 973d
000003c0: d59e 76bc 805f 97bd eaaa 64bd 8a49 1e3d
000003d0: 9f57 5b3a b94a 833d e7b7 90bd b55d eebc
000003e0: 24b4 ddbc 18e3 14bd 888f 293d 7587 e6bd
000003f0: 6298 ea3c aa6f 2a3a a52a 57bd cd2a 8e3c
0.029040547 -0.05914335 -0.07084401 0.02725811 0.034533218 -0.050222922 -0.0082017705 0.0074120527
-0.092002004 -0.02340929 -0.0007239773 -0.03775564 0.04127568 -0.09558386 0.0090012755 -0.08996326
-0.09344851 0.0470403 -0.042401858 -0.038164612 0.018048912 -0.08802426 -0.075659454 0.0016580519
0.07706808 -0.009352893 0.029963186 0.017298793 -0.01502909 -0.08478863 0.070573844 0.005937548
-0.027571652 0.02512397 -0.11474788 -0.009388466 -0.07959338 -0.008975625 0.01264673 -0.0023655188
0.009380824 -0.10695861 -0.09441944 0.0015433133 -0.043742817 -0.08761904 0.057987854 -0.009400501
-0.06953712 -0.00497998 0.025086008 -0.08142875 0.029940547 -0.09455157 0.00219017 0.04204917
0.025935521 0.029169582 -0.031650428 -0.025742132 -0.0008170991 -0.004378226 -0.04634151 -0.016102144
-0.03580003 -0.07839772 -0.08156797 -0.100498505 -0.08391741 0.05605482 0.0050142896 -0.0936227
-0.08427181 0.020645693 -0.05509425 -0.060112588 -0.061625853 -0.035990626 -0.03086793 -0.005802443
0.042800196 0.022818914 0.044308126 -0.028978068 -0.08053313 -0.013996237 -0.09295247 0.036161587
-0.0106640905 -0.06610307 -0.1239226 0.007197271 0.03464906 0.080630235 -0.07329884 0.026632339
-0.025102971 -0.05630074 -0.08369057 0.016827626 -0.06513017 0.03592822 -0.007968412 0.015337141
0.044211876 0.0008849616 -0.0042077606 0.045859568 -0.0772011 -0.046870697 -0.030665545 0.020635678
0.027031884 0.023883212 -0.02788093 -0.011215128 -0.085342385 0.015015374 -0.06984574 -0.04246513
0.044553306 0.0062057367 -0.065436855 -0.10017376 -0.09484199 0.042896926 -0.08078733 0.04725763
0.038416803 -0.018905118 -0.050028678 0.045419667 -0.013526735 0.08357217 0.05868975 -0.095368996
0.016145093 0.031286385 -0.102579065 0.012383761 -0.0709431 -0.11596465 -0.031864427 -0.028169319
-0.061927635 -0.07047197 0.027429854 0.06483049 -0.010094575 -0.087205276 -0.0045576766 -0.07844118
-0.10886979 -0.0013519443 0.0149467755 -0.08359982 -0.029649239 -0.0691891 -0.09830052 -0.05191546
-0.030720647 -0.025052657 0.020108625 0.042197928 0.02839988 0.007632627 -0.02250257 0.005600234
-0.07100484 0.023645956 0.019387223 -0.03751261 -0.0019924222 -0.09238601 -0.11788273 -0.025297692
0.021655982 -0.05203986 0.014226666 -0.09924855 -0.07536958 0.026220169 -0.0961298 -0.0052812295
0.033637576 0.026394846 0.017654829 -0.102361865 -0.019957935 -0.067294545 -0.024835678 0.05476405
-0.03003811 -0.052193705 -0.07095269 0.0368404 0.010859791 0.09690997 0.005201765 -0.11877609
-0.0048378 0.052753285 0.0052680857 -0.0071253073 -0.09716974 -0.096874684 0.02990455 -0.08937778
-0.0022415328 -0.036390398 0.041379053 -0.03158335 -0.06783175 -0.07699066 0.04234158 0.038496617
0.009248925 -0.068633184 0.044114053 -0.057564836 -0.06160637 0.017929979 -0.04646805 -0.035518814
-0.037880138 -0.005046129 -0.06425476 -0.04364693 -0.119369544 0.018777996 0.052211545 -0.026965024
-0.043770753 -0.1055395 0.019549323 0.072423674 0.06170338 -0.03984465 0.0013270853 0.073913984
-0.015052517 -0.07391262 -0.05582706 0.03864435 0.00083672436 0.064107366 -0.070663266 -0.029097417
-0.027063437 -0.036349386 0.041396648 -0.11256305 0.028637115 0.00065016246 -0.052530903 0.017354393

model.2.bias f4 [64]
00000000: 0a69 f1bc 351f 613d 01dc 113f 7348 803d
00000010: b3be a7bd c524 e2bd de1c dcbb 93ce cbbb
00000020: 33aa 99bd 413e 7bbd dee8 e83b e46f 6fbd
00000030: c54b 89bd d360 8abd 3530 efbb 6ce6 4cbc
00000040: 2d01 c3bd cab6 453e 6b3e 94bd d9c0 1e3f
00000050: 91ed 5fbd 35c3 d1bd 89bf f83e 4e65 a83c
00000060: 6211 743d 6cac 653e 2cee a0bc 1172 1a3d
00000070: 9078 eb3e 30b8 17be 0c6f 123f 827a 3e3d
00000080: 4495 153e be1b 37be 48ae 19be ce5a b33c
00000090: f32e a43e a7c5 ae3d fc2e e6bc 5278 b4bc
000000a0: 7031 e23e e2be 9bbd 2a26 353d ad3c e93e
000000b0: 0048 74bc a3eb 163f c2ef 2b3f c2f8 2f3d
000000c0: 4dc7 ad3d 4e99 423d 1f7e f13e 76f6 863d
000000d0: a29b 743c 47e9 e83c 6e74 aabd 2025 893c
000000e0: 0d58 bbbd 6c02 613c 74a7 cdbb 9378 b43e
000000f0: 9f32 e83c 0d33 27bd 8b32 da3c 50b6 083d
-0.029469032 0.054961402 0.56976324 0.062638186 -0.0819067 -0.110421695 -0.0067173084 -0.006219694
-0.07503166 -0.061338667 0.007107838 -0.058456317 -0.06703905 -0.06756749 -0.007299448 -0.012506109
-0.09521709 0.1930801 -0.07238468 0.6201301 -0.05466992 -0.10242311 0.4858363 0.020556118
0.05958689 0.22429055 -0.01964482 0.03770644 0.4599042 -0.14816356 0.57200694 0.04650355
0.14607722 -0.17881677 -0.1500789 0.021893885 0.3206707 0.08533793 -0.028098576 -0.02203003
0.44178343 -0.076047674 0.04422585 0.45554104 -0.014909744 0.58953303 0.67162716 0.042961843
0.08485279 0.047509484 0.47166535 0.065899774 0.014929684 0.028431548 -0.083229885 0.016741335
-0.09147654 0.013733488 -0.0062760655 0.3524824 0.02834445 -0.04082017 0.026635429 0.03337699

model.4.weight f4 [3, 64]
00000000: 9ae9 5dbd 1510 8cbd e278 c83d 9676 8fbd
00000010: a195 81bd 301e 713d 4055 f33c 3909 b6bc
00000020: 1823 3abd b8cc 9fbd 774f 1bbd 26a9 6dbb
00000030: 988e 95bd 346a e8bd 889e eabd ffa8 d7bd
00000040: 948f 0dbc 555c 133d c820 45bd 0962 df3d
00000050: 721a 8c3d bd0b adbd 009c 5f3d 66ee f93b
00000060: fe50 d43d 4b0d 703d a4d6 6a3d a433 80bd
00000070: fd00 483d 13e2 9bbd f913 f63c 8813 fd3d
00000080: af0a e13c 064b a9bd 5f53 b1bd 98e3 9ebd
00000090: d057 733d 42fe 96bd 3231 b33d 0b02 383d
000000a0: 7ddf 9d3d 4f41 e93b 4b91 a4bc 69b0 073d
000000b0: 20f5 98bc b97e 8d3d b9e2 923d e40f 323d
000000c0: e6aa 553b ea16 d83d 6152 1a3c 58ca 7e3d
000000d0: cdef 1aba 2490 f1bd 0ac7 2cbc 903f 23bd
000000e0: c81b 48bd c03e a0bb 70b1 0abd 5bed d83c
000000f0: 1c29 17bd 6cd6 9ebd 68f6 3b3d 4059 b4bd
00000100: b21b 9ebd 06bd 45bb 7e6c 793d 796c e2bd
00000110: 07b4 913d ae66 91bc 68e9 573d 80ae a1ba
00000120: b081 dfbc ed87 16bd 53bc 84bc 1b4f 76bd
00000130: 00db 603d 0494 f43b 740f 8a3d 002d dcbd
00000140: 4b71 e3bb 6114 48bc e832 283c 17ba 883d
00000150: 4077 98bc 3a6d 553c 4ac7 5a3d 7e3a ef3c
00000160: 7cf0 8bbd 9a80 e23c 7eff 093d baac 653d
00000170: 496b 783d 6beb 8cbd 7acf 093d f386 f13c
00000180: 0344 543c 9ea1 f9bd adb3 ddbd a235 f63c
00000190: 2947 dabc 84be 3f3d 8af6 dbbd ca01 8c3d
000001a0: 9f17 983d 895c 823c f427 7abd cd8f 39bc
000001b0: e0df 2e3d 8ed7 f83d 723a 873d c07a 29bc
000001c0: ad95 c23d fee5 cdbb 4656 0c3e 5046 b93d
000001d0: b419 97bd 0a86 80bd 22eb 5abc e093 9cbc
000001e0: 5305 e73d 48ad 72bd 588b 7c3d 32f2 aa3d
000001f0: 9189 a5bc 12cb 9ebd 3646 c1bd 8887 d43c
00000200: 2bf1 053d 141f 1a3d f856 043e b450 933d
00000210: d916 f0bd 3844 713d 1997 3d3d e24a 81bd
00000220: 00b6 9fbd f520 fcbd 6eaa 99bd 2d93 7d3d
00000230: cc8e 113d a40f 8bbd de25 f1bd 64c4 01be
00000240: dc30 b43d 2cc4 e93c 1f99 3e3c caaa 183d
00000250: 5002 513d 1911 3e3b 31fa 9d3d 3be4 243d
00000260: b6e2 83bd d779 c7bb e4da 063d f4bc 013d
00000270: 4636 d73d 6a5c c8bd 10c4 9c3d 50d6 eabd
00000280: 4106 c33c 146e ffbd 83bc f2bd 4053 92bd
00000290: 78bb ea3d 8cd9 e33d 0413 63bd 60c3 abbb
000002a0: dfb6 beba 7b37 a6bc a9e9 8dbd 932e cf3c
000002b0: 8470 e6bd 22ba 583a 19b7 9a3d 807b b83a
000002c0: 8dfe d23b 3848 b83c 16db 013e ae77 b9bd
000002d0: e840 c9bd 6190 e43b e0d3 1c3d b884 d93d
000002e0: 292e b63d 75d5 b1bd ea17 22bd 1d3f ad3b
000002f0: 645a 4e3d 12cb 983d 59f1 b7bd 5524 a2bd
-0.054177858 -0.06839005 0.097886816 -0.0700504 -0.063273676 0.05886668 0.029703736 -0.022221195
-0.045443624 -0.07802719 -0.03791758 -0.003626415 -0.07302588 -0.11348382 -0.11456019 -0.1053028
-0.008640189 0.035976727 -0.048126966 0.109073706 0.068409815 -0.084495045 0.054592133 0.0076272963
0.103670105 0.058606427 0.057333604 -0.0625985 0.048829067 -0.076114796 0.03003882 0.12357241
0.027470915 -0.08266263 -0.0865848 -0.07758254 0.059409916 -0.073727146 0.08749618 0.044923823
0.07708643 0.007118381 -0.020088812 0.033127222 -0.018671572 0.06908936 0.0717215 0.043472186
0.0032603084 0.105512455 0.009419055 0.06220469 -0.0005910367 -0.11795071 -0.0105455015 -0.03985554
-0.04885462 -0.004890293 -0.033860624 0.026480367 -0.03690444 -0.077557415 0.04588929 -0.088060856
-0.07720126 -0.0030172481 0.06089448 -0.11055846 0.071144156 -0.017749157 0.052712828 -0.001233533
-0.02728352 -0.036750723 -0.016203081 -0.060134035 0.054896355 0.007463934 0.06741229 -0.107507706
-0.006940996 -0.01221189 0.010266043 0.06676119 -0.01861155 0.01302653 0.053412713 0.029202696
-0.06832978 0.027649213 0.033690922 0.056072928 0.06064919 -0.0688084 0.03364513 0.029483294
0.012955668 -0.12189029 -0.10825286 0.030054871 -0.02664526 0.04681255 -0.10740383 0.06836279
0.0742638 0.015913265 -0.06107326 -0.011325789 0.042693973 0.12150489 0.066029444 -0.010344207
0.09501205 -0.0062835207 0.13704786 0.09046614 -0.07377949 -0.06275566 -0.013361724 -0.019113481
0.112803124 -0.059247285 0.061656326 0.08346976 -0.020207198 -0.07753576 -0.0943722 0.025943533
0.0327007 0.037627295 0.12923801 0.07193127 -0.11723108 0.05890295 0.046286676 -0.06313111
-0.077983856 -0.123109736 -0.0750321 0.061907936 0.035536572 -0.067900926 -0.11774801 -0.12672573
0.08798382 0.028535925 0.011633187 0.037272252 0.051027596 0.002900189 0.07713736 0.04025672
-0.06439726 -0.0060875225 0.032923594 0.03167434 0.10508399 -0.097832516 0.076545835 -0.11466658
0.023806693 -0.124721676 -0.11852362 -0.07144785 0.11461538 0.11125478 -0.055438057 -0.0052417964
-0.001455035 -0.020290127 -0.06929333 0.025290763 -0.112519294 0.0008267482 0.07554454 0.0014074892
0.006439036 0.022495374 0.12681231 -0.0905603 -0.09826833 0.006975219 0.038287997 0.10621017
0.08895523 -0.08683292 -0.039573587 0.0052870647 0.050379172 0.074606076 -0.0898158 -0.07917086

model.4.bias f4 [3]
00000000: b099 033f e0e0 d63e dcd3 1b3e
0.51406384 0.4196844 0.15217537
