models/rl/dqn/dqn_episode_5.pt (torch, 189640 bytes, 24 tensors)

model.0.weight f4 [128, 21]
00000000: b70b a0bd c403 f73d 11f1 1bc0 f29c 433e
00000010: 07ad 07be 7af5 f53e 11cc d33e 6456 043f
00000020: 8b6b 1d3f 975d 32bd e260 263f 2040 82be
00000030: de06 cb3d 8bcf 0abd a22d 04bf f362 c4bd
00000040: 93cf cb3d c6ee 93be 014b c13d 3dce 0f3f
00000050: 7bd1 173d 276e c1bc 4c61 c93c a32e 6840
00000060: 9165 3ebf 7db2 2ebf a27f 1bbf 16a2 21bf
00000070: 26d8 23bf f722 2dbf f41e b0be 61e4 4ebf
00000080: 9e38 b2bd e48d 3a3d 564d 5cbb 902a f8be
00000090: 4488 d93c 75b0 503e 1c3d c3be d1cf cbbc
000000a0: 2181 b5be 983b 00be 3f1f 293e ca13 7e3e
000000b0: cf8f 26c0 02d5 89bd 62fe a63e 46b4 1a3f
000000c0: 01d5 213f df8c e83e 88aa 973e 0141 003f
000000d0: bd95 b03e 0f3d 273e adc6 3d3e 0f2f 173e
000000e0: 1dc9 d33e 26f5 f23d bbf4 643e a72e 193f
000000f0: 627a 273e 636b 093e 3b0d 8b3e 7e2f 9bbd
00000100: 60bd 243d d720 15c0 79dc 903d 1830 95bd
00000110: a309 923e 5c3f 993e 87e0 1c3f 206e 263f
00000120: 316a c73e f4a7 a83d cc93 acbe ffb0 e4bd
00000130: 2d4b 10be 2eed 443e d35d 153e 40d9 3a3e
00000140: 33a2 1e3f e63d 89be cde8 903e ada0 d43c
00000150: 93f0 f0bc 7f8a 26be 6e63 123e 7ea9 31be
00000160: f59f 62be 8ab4 3dbd e478 2fbc adba 3abe
00000170: aef9 953d 27e8 173e 81e6 91be c33f 11be
00000180: f8e5 213d d4d9 5fbe 81f5 803d 9372 9ebe
00000190: 33ef 77be 8e3d 17bd 9001 8ebc 0678 7dbe
000001a0: b266 11be 58a3 18be 1e94 3dbe c618 f6bd
000001b0: 1492 43be 4a48 0ebe 235e 5f3e fcd1 283d
000001c0: 42b8 893d c069 50be 6dc2 12be b6c1 94bd
000001d0: 8cc4 0b3d 789f 44be c38f c0bd 8bc6 05be
000001e0: 0087 1e3a f84b a6bd 80c0 77bc 7a6b 17be
000001f0: e660 19be 375d 02be 09b0 c8bd e848 26be
00000200: d33f 2cc0 8bf3 0abe 7cb2 b53e b51b 3b3f
00000210: 3627 4f3e 6d30 8f3f a503 913e f44f 373f
00000220: 0293 083f 4aa4 48bf c841 313e e1de 4c3a
00000230: 097f 0c3f 0b1b 13bd 06f7 303e ca82 ee3c
00000240: 736d d0be 4f15 c03d f55b 383d 1fcb b93d
00000250: 930b 5a3e 51e0 0cc0 2bbb 2f3c 5be0 a4bc
00000260: 471d d33e 2af4 44bf ea6b a33f d3e1 50be
00000270: fdc7 8dbe 8900 573f b3b3 dfbe f61e 01be
00000280: fefb 4c3e 11d8 643f 163a 173d 59fd 3bbe
00000290: c144 ec3f 7c46 02bd 04f8 143f 836d 3a3f
000002a0: d386 2abd be4f 43be 9c82 94bf 6e59 1abe
000002b0: a6e7 cb3d fc7a 133d 7a5f ba3e d0f3 3cbe
000002c0: cae2 9c3e 75f0 013f c007 e6bc dccd 2e3f
000002d0: 52dd 3b3c de2f c73d 3fa9 0f3f 5fda 20be
000002e0: af64 a63d e667 45be f5f1 823d 0f22 ddbe
000002f0: 5290 74be e907 0ebe 0fd7 61bd dc59 23c0
00000300: 990d 06be 9e32 083e 17aa e53e ff89 983e
00000310: 268f 023f b00e e43e 8c89 e63e 5954 f63e
00000320: 0f22 b3be 1a14 953b cf64 4d3e 23b9 f33e
00000330: 1d6b 5f3d 46bd cebd f992 b4be b480 acbe
00000340: ff46 3ebd 8ada 873e 8ae1 0b3e 3760 73bc
00000350: c427 72bf 6a5a 38bd 0c09 2a3e d653 8d3e
00000360: faf8 ebbd e0a8 333e a70f 21bb 9390 b93e
00000370: efba ec3c 978b cd3e 2523 0fbd 642b 43be
00000380: 242e 693f 4bf3 073e d878 ba3b 6f28 563f
00000390: eb7e 90bd 184d 00be 54ea 9fbe 31b5 713d
000003a0: 25cb 143d b5b8 bfbf 007e 9cbd 705d 4c3d
000003b0: 551c 453e a112 6fbf 9828 203f 183d abbe
000003c0: a046 16bd 7038 a53e 58ae 0b3f dfa6 16be
000003d0: 873b 87bd 9f3f dd3f 9da2 88bd 8e86 4d3d
000003e0: 38f8 b03f 6106 a3bd 3932 3b3f ca58 8d3e
000003f0: aaf8 24be 8773 8abd 1701 2dc0 708b aebd
-0.078147344 0.12061265 -2.4365885 0.19102839 -0.13249598 0.48038846 0.41366628 0.5169432
0.6149222 -0.043546285 0.6499158 -0.25439548 0.09913419 -0.033889335 -0.5163213 -0.095891856
0.09951701 -0.28893107 0.09438134 0.5617407 0.03706501 -0.023612095 0.024582528 3.6278465
-0.7437373 -0.682411 -0.6074163 -0.6313795 -0.6400169 -0.6763148 -0.34398615 -0.8081723
-0.08702205 0.045545474 -0.0033615432 -0.48469973 0.026554234 0.20379813 -0.3813256 -0.024879368
-0.3545008 -0.12522733 0.16515826 0.24812236 -2.6025274 -0.06730081 0.32615954 0.60431325
0.63215643 0.45419976 0.29622293 0.5009919 0.3448924 0.16331886 0.1853282 0.14764045
0.41364375 0.118631646 0.22358982 0.5983681 0.16355279 0.13419871 0.27158532 -0.07577418
0.040219665 -2.3301294 0.07073302 -0.07284564 0.28522977 0.29931152 0.612801 0.6501179
0.38948205 0.082351595 -0.3370651 -0.11166572 -0.14091177 0.19231102 0.14586572 0.18246937
0.61966246 -0.26805037 0.28302613 0.025955522 -0.02941159 -0.1626377 0.14295742 -0.17349812
-0.22131331 -0.046314754 -0.010709975 -0.18235274 0.07323013 0.14834653 -0.28496173 -0.1418448
0.039525956 -0.21860439 0.06296826 -0.30946788 -0.24212341 -0.036923937 -0.01733473 -0.24752817
-0.14199331 -0.1490606 -0.18513533 -0.12016444 -0.19098693 -0.13894764 0.21813254 0.04121588
0.067245975 -0.2035284 -0.1433198 -0.0726351 0.03412299 -0.19201458 -0.0940242 -0.1306402
0.0006047338 -0.08119959 -0.015121579 -0.14787093 -0.1497837 -0.12730871 -0.09799201 -0.16238749
-2.6913955 -0.13569467 0.35487735 0.7308915 0.20229802 1.1186653 0.28323093 0.71606374
0.53349316 -0.78375685 0.1731025 0.0007815194 0.5488134 -0.035914462 0.17281732 0.0291151
-0.40708503 0.09379064 0.045009572 0.090719454 0.21293478 -2.2011912 0.010725777 -0.020126512
0.41233274 -0.76935065 1.2767308 -0.20398645 -0.2769164 0.8398519 -0.43691787 -0.12609467
0.20018002 0.8939219 0.03692063 -0.18358363 1.8458482 -0.0318055 0.5819094 0.7282335
-0.041632485 -0.19073388 -1.1602359 -0.15073177 0.09956293 0.03600596 0.36400968 -0.18452382
0.30641776 0.50757533 -0.028079867 0.68282866 0.011466341 0.09725927 0.56117624 -0.15708302
0.081246726 -0.19277915 0.06393806 -0.43190047 -0.23883179 -0.13870205 -0.055136736 -2.5523596
-0.13091125 0.13300559 0.4485633 0.29792783 0.5099968 0.44542456 0.45026815 0.48111227
-0.34986922 0.0045495154 0.20057987 0.47602186 0.05454551 -0.10094695 -0.3526838 -0.33691943
-0.046454426 0.2653392 0.13660255 -0.014854482 -0.9459193 -0.0450081 0.16605014 0.27603024
-0.11522098 0.1754489 -0.002457598 0.36243114 0.02889773 0.4014556 -0.034945626 -0.19059521
0.9108603 0.13276403 0.005690675 0.83655447 -0.07055458 -0.12529409 -0.31233466 0.05901069
0.036326546 -1.4978243 -0.0764122 0.049893796 0.19249089 -0.933878 0.6256194 -0.33445048
-0.036688447 0.3226962 0.545629 -0.14712094 -0.06603151 1.7285041 -0.06671641 0.05017715
1.382575 -0.07960201 0.7312351 0.27606803 -0.16110483 -0.06760316 -2.7031915 -0.08522689

model.0.bias f4 [128]
00000000: b2ab 9a3e a362 05bf cd8d 473f ed46 243f
00000010: ca2a b2bd 56be dfbd e7bc 663f 36ea f23e
00000020: af3d 7e3e 0656 c33e 0e5f d3bc 9bd4 f23c
00000030: fe41 4c3f 61e7 0e3f 956c aabe 1cec 023f
00000040: 2fe9 853e fcf8 00bf ed09 34be 45a3 05be
00000050: cab6 b8bd b758 3b3c 443c 2c3d 60a7 97be
00000060: b706 39be 19bc 353e d0e7 353f 7c95 303e
00000070: 5470 383e 5a92 55ba e41f 03bf b296 0b3f
00000080: 4c36 6dbd ccec 2d3f 91e5 2d3f 5f41 88be
00000090: 7152 b03e b23e 75be b680 0d3f f047 cabd
000000a0: 32f5 e1be d8ed f43e 5051 f53e e686 713d
000000b0: 3246 55be 8a0d 0d3f c113 b53e 9484 643e
000000c0: c2de 79be 1a32 383f 99d1 c6bd e45e 913e
000000d0: 5da1 fe3e b4b2 cdbe eeec 0cbe 1a3c 353f
000000e0: 738d 073f e055 c63e 2769 57bf 6331 193f
000000f0: 0138 e73e 31ed 4b3f bf83 29bd 2ac5 02be
00000100: 47a0 5e3e 7f70 43bd a10d 033e 28e3 7fbe
00000110: 97a4 073c 75e0 0cbe 4420 b13d 7148 b03e
00000120: ffeb cbbb bad3 263e 3a58 993e bedf 953e
00000130: 1f0a 8bbe bcc5 f63e 69a1 593e 4884 03bf
00000140: 8a20 34bf 9143 593e ae84 b3be be8e ac3e
00000150: 18a7 a2be 9bb9 f83e f58a 093f 7dbc 0abc
00000160: 042a 79be 340f d83e a191 f23e 7bf6 953e
00000170: e129 e9be 0c9f f1bd e5a5 433f 5cbc 18be
00000180: 2478 9bbe 36a0 b93d 5d24 65be 065c 5a3e
00000190: 3a63 7d3e d675 38be 5c17 a4bc f7d6 863e
000001a0: 2fd7 2bbf 2e6f 673e f139 283f 0041 37ba
000001b0: 382b 233f 0380 b03d f04c cfbe d06b 85be
000001c0: 3393 cbbc c29d 1d3f 5eb9 1a3e 07e8 47be
000001d0: 45f2 f13e b347 6a3e f7db 00bf edb4 06bf
000001e0: 8cb7 cbbc c951 00bf 9319 37be da4f 2abe
000001f0: 2e60 cd3e 6cb0 9fbd cb0f debd cc7f 513e
0.30209118 -0.5210363 0.77950746 0.64170724 -0.086995676 -0.109249756 0.9013199 0.47444314
0.24828218 0.38151568 -0.025802162 0.029642394 0.79788196 0.55821806 -0.33285967 0.51141524
0.26154467 -0.5037992 -0.17581911 -0.13050564 -0.09019239 0.0114347255 0.04204966 -0.29619884
-0.18068968 0.17747535 0.7105684 0.17244524 0.180116 -0.0008147113 -0.51220536 0.5452682
-0.05791311 0.6793945 0.67928416 -0.26612374 0.34437898 -0.23949698 0.5527452 -0.09877002
-0.44132382 0.4783771 0.479136 0.05896654 -0.20827559 0.55098784 0.35366634 0.223162
-0.24401382 0.7195145 -0.09707946 0.28392708 0.49732485 -0.40175402 -0.13762257 0.7079483
0.5295021 0.38737392 -0.84144825 0.59840983 0.45159915 0.796588 -0.04138541 -0.12770525
0.21740828 -0.047714707 0.12798168 -0.24988997 0.008278987 -0.13757499 0.08648732 0.34430268
-0.0062232013 0.16291705 0.29950124 0.29272264 -0.2715616 0.48197734 0.2125298 -0.5137372
-0.7036215 0.21217181 -0.35062164 0.33702654 -0.31768107 0.48579106 0.53727657 -0.008467791
-0.24332434 0.421991 0.4737673 0.29289612 -0.45539764 -0.11797914 0.7642501 -0.14915603
-0.30365098 0.09063761 -0.22377153 0.21324167 0.24744883 -0.18013701 -0.02003067 0.2633588
-0.6712522 0.22601005 0.6571341 -0.0006990582 0.6373782 0.08618166 -0.40488386 -0.26058817
-0.024850463 0.61568844 0.15109774 -0.19522105 0.4725515 0.22878914 -0.5033564 -0.5261982
-0.024867795 -0.50124794 -0.1788085 -0.16632023 0.40112442 -0.07797322 -0.10842856 0.20458907

model.2.weight f4 [64, 128]
00000000: 71e6 ed3c 4c40 72bd aa16 91bd 664c df3c
00000010: b472 0d3d 8db6 4dbd b860 06bc cee0 f23b
00000020: 8c6b bcbd d7c4 bfbc 4bc9 3dba a8a5 1abd
00000030: b010 293d 79c1 c3bd 167a 133c a83e b8bd
00000040: ef61 bfbd 54ad 403d 92ad 2dbd 7f52 1cbd
00000050: 50db 933c 1046 b4bd 58f3 9abd fd52 d93a
00000060: dfd5 9d3d e03c 19bc 5b75 f53c 33b6 8d3c
00000070: 933c 76bc a9a5 adbd 0589 903d c38f c23b
00000080: f2dd e1bc c9d0 cd3c f000 ebbd 15d2 19bc
00000090: db01 a3bd 800e 13bc 3b34 4f3c d206 1bbb
000000a0: 07b2 193c 1e0d dbbd fb5e c1bd 0049 ca3a
000000b0: ab2b 33bd 9c71 b3bd ac84 6d3d 8f04 1abc
000000c0: 7a69 8ebd 1a2f a3bb 2c81 cd3c 1ec4 a6bd
000000d0: e145 f53c 41a4 c1bd f588 0f3b c03b 2c3d
000000e0: bb76 d43c 0cf5 ee3c e1a3 01bd 2ae1 d2bc
000000f0: 9832 56ba 3977 8fbb 98d0 3dbd a5e8 83bc
00000100: 0da3 12bd fc8e a0bd 1c0d a7bd 29d2 cdbd
00000110: e4dc abbd bd99 653d e94e a43b 42bd bfbd
00000120: b396 acbd 2821 a93c 82aa 61bd 9e38 76bd
00000130: 646b 7cbd e86a 13bd bede fcbc 6b22 bebb
00000140: 424f 2f3d bbee ba3c 707c 353d 6a63 edbc
00000150: 8eee a4bd 7950 65bc dd5d bebd 2c1e 143d
00000160: 70b8 2ebc 0c61 87bd 22cb fdbd 16d7 eb3b
00000170: 2cec 0d3d 7721 a53d b41d 96bd 102c da3c
00000180: bfa4 cdbc 9b9b 66bd f665 abbd 17da 893c
00000190: f762 85bd 7829 133d f18d 02bc a248 7b3c
000001a0: 8317 353d c5fc 673a 41e1 89bb 3ed7 3b3d
000001b0: 9c1b 9ebd 7dfb 3fbd 4f36 fbbc 270c a93c
000001c0: f871 dd3c baa6 c33c 8c66 e4bc a8bf 37bc
000001d0: fdc7 aebd 0b03 763c 490b 8fbd ebef 2dbd
000001e0: 877d 363d 7e59 cb3b c203 86bd e627 cdbd
000001f0: 843c c2bd b0b4 2f3d d473 a5bd 3791 413d
00000200: 2a65 dd3b e8de 9abc 5938 a7bd f909 3a3d
00000210: 3d9f 5dbc e327 ab3d 83ba dc3c d250 c3bd
00000220: b742 843c 800b d2b9 a85b 09be 42e5 4a3c
00000230: 2221 d2bd 5705 17be f72a 81bd 58c3 e6bc
00000240: d5a7 7dbd 9c53 90bd 93b4 e03c be7e 083d
00000250: b14f 2bbd ae98 b2bd 9058 95bb c5a5 a0bd
00000260: 20f7 debd b933 b1ba 8eeb 13bc 6236 abbd
00000270: f6e2 f2bc 1db3 cebd c851 c9bd 815f 78bd
00000280: 79af 7cbd 3b3b cdbc d8ba a43c c149 2b3c
00000290: dda6 e83c 1e1b fa3b 4f57 b8bc 6245 d5bc
000002a0: fc6a 91bd 2ab5 c13c f4d1 9e3c d3a6 19bd
000002b0: 4c93 02bb e034 bdbd 806c f1bd 1b3d cfbc
000002c0: e367 b13c c027 55bd f616 693c d342 cbbd
000002d0: 5e5b 9abd aecb d63c b3df c4bd ae9c 17bd
000002e0: 8ec7 093d 08f9 aabb dca0 903c 19a3 d1bd
000002f0: 294f 53bd ea2d c4bd ca84 66bd b1a4 bc3c
00000300: 7c12 f6bc 61e7 abbd a54f 91bd cf38 a73b
00000310: 9c16 abbc 1a76 853d 9173 aa3b e140 f3bd
00000320: 6886 9ebb d413 583d e89f ac3b 697b e9bb
00000330: ee00 c7bd 83f3 02be 63fa f43c b30b b7bd
00000340: aee6 12bb 190e 15bd 3a1e 213c 8b5d 01bd
00000350: 5feb 8abd 47ad 9dbd 5d6e 2d3d a1ae 1d3d
00000360: ce88 173c 25a5 ccbd e2ee 4f3c 1bc9 6bbd
00000370: f656 7cbd e4e1 923c 0df8 9fbd 2d7c 11bd
00000380: 567f 8ebd 005a a5bb 0098 83bd 4871 9abd
00000390: 0578 f4bd 50d4 993c e780 a83c c1e5 dcbc
000003a0: f648 33bd 1825 d8bd e725 a03c dd52 943d
000003b0: afbc 7c3d 2534 23bd 98f1 ad3a b386 2d3d
000003c0: 1e94 3fbd df1f ccbd eaaa 64bd 8a49 1e3d
000003d0: 9f57 5b3a b94a 833d e7b7 90bd b55d eebc
000003e0: 5fa9 70bd 18e3 14bd 888f 293d 13b5 13be
000003f0: 6298 ea3c aa6f 2a3a a52a 57bd cd2a 8e3c
0.029040547 -0.05914335 -0.07084401 0.02725811 0.034533218 -0.050222922 -0.0082017705 0.0074120527
-0.092002004 -0.02340929 -0.0007239773 -0.03775564 0.04127568 -0.09558386 0.0090012755 -0.08996326
-0.09344851 0.0470403 -0.042401858 -0.038164612 0.018048912 -0.08802426 -0.075659454 0.0016580519
0.07706808 -0.009352893 0.029963186 0.017298793 -0.01502909 -0.08478863 0.070573844 0.005937548
-0.027571652 0.02512397 -0.11474788 -0.009388466 -0.07959338 -0.008975625 0.01264673 -0.0023655188
0.009380824 -0.10695861 -0.09441944 0.0015433133 -0.043742817 -0.08761904 0.057987854 -0.009400501
-0.06953712 -0.00497998 0.025086008 -0.08142875 0.029940547 -0.09455157 0.00219017 0.04204917
0.025935521 0.029169582 -0.031650428 -0.025742132 -0.0008170991 -0.004378226 -0.04634151 -0.016102144
-0.03580003 -0.07839772 -0.08156797 -0.100498505 -0.08391741 0.05605482 0.0050142896 -0.0936227
-0.08427181 0.020645693 -0.05509425 -0.060112588 -0.061625853 -0.035990626 -0.03086793 -0.005802443
0.042800196 0.022818914 0.044308126 -0.028978068 -0.08053313 -0.013996237 -0.09295247 0.036161587
-0.0106640905 -0.06610307 -0.1239226 0.007197271 0.03464906 0.080630235 -0.07329884 0.026632339
-0.025102971 -0.05630074 -0.08369057 0.016827626 -0.06513017 0.03592822 -0.007968412 0.015337141
0.044211876 0.0008849616 -0.0042077606 0.045859568 -0.0772011 -0.046870697 -0.030665545 0.020635678
0.027031884 0.023883212 -0.02788093 -0.011215128 -0.085342385 0.015015374 -0.06984574 -0.04246513
0.044553306 0.0062057367 -0.065436855 -0.10017376 -0.09484199 0.042896926 -0.08078733 0.04725763
0.0067564445 -0.018905118 -0.08165044 0.045419667 -0.013526735 0.08357217 0.026944404 -0.095368996
0.016145093 -0.0004006289 -0.1341387 0.012383761 -0.10260226 -0.1474813 -0.06307023 -0.028169319
-0.061927635 -0.07047197 0.027429854 0.033323996 -0.041824047 -0.087205276 -0.0045576766 -0.07844118
-0.10886979 -0.0013519443 -0.009028329 -0.08359982 -0.029649239 -0.10092757 -0.09830052 -0.060637955
-0.06169078 -0.025052657 0.020108625 0.010454596 0.02839988 0.007632627 -0.02250257 -0.02603406
-0.07100484 0.023645956 0.019387223 -0.03751261 -0.0019924222 -0.09238601 -0.11788273 -0.025297692
0.021655982 -0.05203986 0.014226666 -0.09924855 -0.07536958 0.026220169 -0.0961298 -0.037014656
0.033637576 -0.005217675 0.017654829 -0.102361865 -0.051589165 -0.0957907 -0.05627898 0.02302775
-0.03003811 -0.083937414 -0.07095269 0.0051032077 -0.020884804 0.06516667 0.005201765 -0.11877609
-0.0048378 0.052753285 0.0052680857 -0.0071253073 -0.09716974 -0.12788205 0.02990455 -0.08937778
-0.0022415328 -0.036390398 0.009833867 -0.03158335 -0.06783175 -0.07699066 0.04234158 0.038496617
0.009248925 -0.09992436 0.012691231 -0.057564836 -0.06160637 0.017929979 -0.07810984 -0.035518814
-0.06957881 -0.005046129 -0.06425476 -0.07541138 -0.119369544 0.018777996 0.020569278 -0.026965024
-0.043770753 -0.1055395 0.019549323 0.072423674 0.06170338 -0.03984465 0.0013270853 0.042364787
-0.046772115 -0.099670164 -0.05582706 0.03864435 0.00083672436 0.064107366 -0.070663266 -0.029097417
-0.058755275 -0.036349386 0.041396648 -0.14424543 0.028637115 0.00065016246 -0.052530903 0.017354393

model.2.bias f4 [64]
00000000: 0a69 f1bc 3682 533d 79fd 043f bead 273d
00000010: 0b8a c5bd c524 e2bd de1c dcbb 93ce cbbb
00000020: 33aa 99bd eadc bdbd dee8 e83b 3fc8 78bd
00000030: c54b 89bd d360 8abd 6dfa 1fbd 6ce6 4cbc
00000040: ed59 ddbd b1c3 393e 6b3e 94bd 86ed 253f
00000050: 8bbb a9bd d356 f9bd 66e6 d43e 0955 9a3c
00000060: 3a37 e43c 6f3a 053e 2cee a0bc 1172 1a3d
00000070: 1229 dc3e bed8 44be 5740 ff3e 827a 3e3d
00000080: 1193 133e 210b b4be cca0 55be ce5a b33c
00000090: 96d2 923e a7c5 ae3d fc2e e6bc 5ec6 aebd
000000a0: 772f cb3e 8562 0dbe 2a26 353d dd13 ca3e
000000b0: 0048 74bc dc4f 063f f8f2 273f c2f8 2f3d
000000c0: 4dc7 ad3d 4e99 423d a5a1 073f 76f6 863d
000000d0: a29b 743c 47e9 e83c cdfa eabd 54fa 5fbd
000000e0: 0d58 bbbd 6c02 613c 74a7 cdbb c80c a03e
000000f0: 191b 5ebb 0d33 27bd 8b32 da3c 50b6 083d
-0.029469032 0.05163785 0.5194927 0.040937178 -0.0964547 -0.110421695 -0.0067173084 -0.006219694
-0.07503166 -0.09270652 0.007107838 -0.060737845 -0.06703905 -0.06756749 -0.039057184 -0.012506109
-0.108081676 0.18141057 -0.07238468 0.64815557 -0.08287724 -0.121747635 0.4158203 0.018839376
0.027858365 0.13010572 -0.01964482 0.03770644 0.43000084 -0.19223306 0.49853775 0.04650355
0.1441157 -0.3516474 -0.2086212 0.021893885 0.2867629 0.08533793 -0.028098576 -0.08533929
0.3968465 -0.13807113 0.04422585 0.3946828 -0.014909744 0.52465606 0.65605116 0.042961843
0.08485279 0.047509484 0.52981025 0.065899774 0.014929684 0.028431548 -0.11473618 -0.05468209
-0.09147654 0.013733488 -0.0062760655 0.3125975 -0.0033890663 -0.04082017 0.026635429 0.03337699

model.4.weight f4 [3, 64]
00000000: 9ae9 5dbd 1510 8cbd 2af5 36bb b7fe 1cbd
00000010: a195 81bd 301e 713d 4055 f33c 3909 b6bc
00000020: 1823 3abd bd01 97bd 774f 1bbd d910 c63c
00000030: 988e 95bd 346a e8bd 889e eabd ffa8 d7bd
00000040: f7a0 8b3c 7678 133d c820 45bd 8de7 28bc
00000050: 2419 163d 91fc 57bd 4486 153d 66ee f93b
00000060: fe50 d43d 73d9 98bb a4d6 6a3d a433 80bd
00000070: 6c3a 96bb 666f 60ba 6abc ad39 8813 fd3d
00000080: 88e8 df3c 506e 91bd b7a4 35bd 98e3 9ebd
00000090: 2b95 00bb 42fe 96bd 3231 b33d dac2 2e3c
000000a0: 9c7d b93b 78e0 bf3c 4b91 a4bc 2509 9fbb
000000b0: 20f5 98bc 2d5a 933b 0d9f 343b e40f 323d
000000c0: e6aa 553b ea16 d83d 1468 2bb8 58ca 7e3d
000000d0: cdef 1aba 2490 f1bd 2197 863c 432e 9cbc
000000e0: c81b 48bd c03e a0bb 70b1 0abd 65e9 b53b
000000f0: 1c29 17bd 6cd6 9ebd 68f6 3b3d 4059 b4bd
00000100: b21b 9ebd bc27 eb3c b82d 66ba 796c e2bd
00000110: 0f24 8c3d ae66 91bc 68e9 573d 80ae a1ba
00000120: b081 dfbc ed87 16bd 53bc 84bc 1b4f 76bd
00000130: 00db 603d 0494 f43b 740f 8a3d 002d dcbd
00000140: 8d60 9a3c bcb1 46bc e832 283c 53c1 28bc
00000150: 4f1f 253c 0964 99bc e3a4 043d e3c7 ee3c
00000160: 90e1 15bd 1a91 09bc 7eff 093d baac 653d
00000170: f87c a3bb 266f c0bb 047d e63c f386 f13c
00000180: 0344 543c e8ed 8ebd 9783 01be a235 f63c
00000190: 57bb 02ba 84be 3f3d 8af6 dbbd 5733 833b
000001a0: b16c 7bbb f7e4 853c f427 7abd cdb7 90bc
000001b0: e0df 2e3d 04c6 633b 7b7b 6a3b c07a 29bc
000001c0: ad95 c23d fee5 cdbb 2bb4 dc3a 5046 b93d
000001d0: b419 97bd 0a86 80bd 22eb 5abc f990 c2bc
000001e0: 5305 e73d 48ad 72bd 588b 7c3d 000f 713c
000001f0: a9de 3c3c 12cb 9ebd 3646 c1bd 8887 d43c
00000200: 2bf1 053d 141f 1a3d e0d5 abbb b450 933d
00000210: d916 f0bd 3844 713d 1997 3d3d e24a 81bd
00000220: 00b6 9fbd f520 fcbd 6eaa 99bd 2d93 7d3d
00000230: cc8e 113d a40f 8bbd 7e17 b0bd 64c4 01be
00000240: 90db be3d 27a1 cd3c 1f99 3e3c 7492 24bc
00000250: 83fb 9d3c c332 65bc 31bc 863d 3be4 243d
00000260: b6e2 83bd a653 28bc e4da 063d f4bc 013d
00000270: e862 b7bb b370 463b 350b 453d 50d6 eabd
00000280: 4106 c33c 0df5 99bd a2a8 98bd 4053 92bd
00000290: 2475 ca3b 8cd9 e33d 0413 63bd 1368 dd3c
000002a0: e898 a6bc cac7 2a3c a9e9 8dbd c346 3b39
000002b0: 8470 e6bd 5adb cb3b d19e 933b 807b b83a
000002c0: 8dfe d23b 3848 b83c e470 ba39 ae77 b9bd
000002d0: e840 c9bd 6190 e43b e0d3 1c3d 43f7 f23d
000002e0: 292e b63d 75d5 b1bd ea17 22bd 1bad 01bc
000002f0: 645a 4e3d 12cb 983d 59f1 b7bd 5524 a2bd
-0.054177858 -0.06839005 -0.0027917125 -0.038328853 -0.063273676 0.05886668 0.029703736 -0.022221195
-0.045443624 -0.073733784 -0.03791758 0.024177955 -0.07302588 -0.11348382 -0.11456019 -0.1053028
0.017044527 0.036003552 -0.048126966 -0.010309112 0.03664507 -0.0527311 0.036505 0.0076272963
0.103670105 -0.004664594 0.057333604 -0.0625985 -0.004584601 -0.00085615215 0.0003313751 0.12357241
0.02733256 -0.071011186 -0.044346537 -0.07758254 -0.001962016 -0.073727146 0.08749618 0.010666573
0.0056607258 0.023422465 -0.020088812 -0.004853385 -0.018671572 0.004496834 0.0027560622 0.043472186
0.0032603084 0.105512455 -4.0866507e-05 0.06220469 -0.0005910367 -0.11795071 0.016429486 -0.019065028
-0.04885462 -0.004890293 -0.033860624 0.0055515044 -0.03690444 -0.077557415 0.04588929 -0.088060856
-0.07720126 0.02870547 -0.00087806163 -0.11055846 0.06842815 -0.017749157 0.052712828 -0.001233533
-0.02728352 -0.036750723 -0.016203081 -0.060134035 0.054896355 0.007463934 0.06741229 -0.107507706
0.018844867 -0.012127336 0.010266043 -0.010299998 0.010078265 -0.018724458 0.03238381 0.029148048
-0.036592066 -0.008396411 0.033690922 0.056072928 -0.0049892627 -0.005872625 0.028135784 0.029483294
0.012955668 -0.06978971 -0.12647854 0.030054871 -0.0004987022 0.04681255 -0.10740383 0.004003923
-0.0038364346 0.01634453 -0.06107326 -0.017665768 0.042693973 0.0034755478 0.0035779167 -0.010344207
0.09501205 -0.0062835207 0.0016838362 0.09046614 -0.07377949 -0.06275566 -0.013361724 -0.023750769
0.112803124 -0.059247285 0.061656326 0.014713049 0.011527696 -0.07753576 -0.0943722 0.025943533
0.0327007 0.037627295 -0.0052440017 0.07193127 -0.11723108 0.05890295 0.046286676 -0.06313111
-0.077983856 -0.123109736 -0.0750321 0.061907936 0.035536572 -0.067900926 -0.08598231 -0.12672573
0.09319222 0.025101257 0.011633187 -0.010044683 0.01928497 -0.013989153 0.065788634 0.04025672
-0.06439726 -0.01027385 0.032923594 0.03167434 -0.0055965073 0.0030279576 0.04810639 -0.11466658
0.023806693 -0.07517443 -0.07454039 -0.07144785 0.006178515 0.11125478 -0.055438057 0.027027166
-0.020336583 0.01042361 -0.06929333 0.0001786007 -0.112519294 0.006221217 0.0045050164 0.0014074892
0.006439036 0.022495374 0.00035560795 -0.0905603 -0.09826833 0.006975219 0.038287997 0.11863568
0.08895523 -0.08683292 -0.039573587 -0.007914807 0.050379172 0.074606076 -0.0898158 -0.07917086

model.4.bias f4 [3]
00000000: a904 b43e dd8b b13e 44d9 b13e
0.35159805 0.3467702 0.34736073

model.0.weight f4 [128, 21]
00000000: d60c a0bd e2fe f63d 01ed 1bc0 f29c 433e
00000010: 0dad 07be 16df f53e 63a1 d33e 8f5b 043f
00000020: 4b53 1d3f c73d 33bd e56a 263f 7a37 82be
00000030: 6c04 cb3d 2209 0bbd fd30 04bf 4866 c4bd
00000040: c594 cb3d 3bec 93be a711 c03d 04b8 0f3f
00000050: b9f9 163d c06a c1bc 59d1 c83c 9430 6840
00000060: 5a75 3ebf 59b7 2ebf 2584 1bbf f19c 21bf
00000070: 97e3 23bf 3621 2dbf f9ea afbe 28ee 4ebf
00000080: de32 b2bd 988f 3a3d a274 61bb d05f f8be
00000090: 588c d93c e09d 503e 8257 c3be b1b2 cbbc
000000a0: 51b9 b5be 7071 00be fb1e 293e 4d13 7e3e
000000b0: c88a 26c0 02d5 89bd 62fe a63e 1eaa 1a3f
000000c0: 69b2 213f 12ad e83e 7968 973e 461f 003f
000000d0: 41b6 b03e 612d 273e e4c3 3d3e 7a2a 173e
000000e0: 6ece d33e e0ee f23d a4ec 643e 8335 193f
000000f0: 24f3 263e 2c46 093e fe00 8b3e f538 9bbd
00000100: 4326 253d 4919 15c0 c4db 903d 3d3e 95bd
00000110: d900 923e 16df 983e d7fd 1c3f 9741 263f
00000120: de01 c73e 4d9f a93d 2e9e acbe 75ba e4bd
00000130: 1137 10be 3727 453e 1859 153e bbdd 3a3e
00000140: e4a9 1e3f fdb2 89be b2c5 903e d361 d43c
00000150: 93f0 f0bc 7f8a 26be 6e63 123e 7ea9 31be
00000160: f59f 62be 8ab4 3dbd e478 2fbc adba 3abe
00000170: aef9 953d 27e8 173e 81e6 91be c33f 11be
00000180: f8e5 213d d4d9 5fbe 81f5 803d 9372 9ebe
00000190: 33ef 77be 8e3d 17bd 9001 8ebc 0678 7dbe
000001a0: b266 11be 58a3 18be 1e94 3dbe c618 f6bd
000001b0: 1492 43be 4a48 0ebe 235e 5f3e fcd1 283d
000001c0: 42b8 893d c069 50be 6dc2 12be b6c1 94bd
000001d0: 8cc4 0b3d 789f 44be c38f c0bd 8bc6 05be
000001e0: 0087 1e3a f84b a6bd 80c0 77bc 7a6b 17be
000001f0: e660 19be 375d 02be 0fb8 c8bd ca2e 26be
00000200: ba30 2cc0 8bf3 0abe 76b2 b53e 8918 3b3f
00000210: 9b32 4e3e b040 8f3f 2495 903e 25e6 363f
00000220: 7eb4 083f 69c4 48bf ec3c 313e 7855 633a
00000230: 0291 0c3f f231 13bd 3f02 313e 20d7 f33c
00000240: 8fee d0be 5505 c03d 4f93 383d a4f1 b83d
00000250: 781c 5a3e 6bd4 0cc0 dcb9 2f3c 16f9 a4bc
00000260: 4c02 d33e d236 45bf c181 a33f 06e6 51be
00000270: 4769 8ebe cf2f 573f 8ad6 dfbe 5699 01be
00000280: 1301 4d3e 46c6 643f b11d 153d 2605 3cbe
00000290: 0b49 ec3f 8f75 07bd c8cc 143f db60 3a3f
000002a0: 0489 2abd f712 43be 5093 94bf 1058 1abe
000002b0: 6c56 cc3d 6309 153d c397 ba3e 09cd 3cbe
000002c0: 6e27 9d3e 75f0 013f 290d e6bc cbce 2e3f
000002d0: 33d3 3b3c dcb7 c73d f2cd 0f3f 5bdd 20be
000002e0: 3702 a73d 2360 45be fc5d 833d 82a0 dcbe
000002f0: 9fbd 73be 520d 0ebe 3f52 61bd 4656 23c0
00000300: 990d 06be a832 083e 73b3 e53e ea4e 983e
00000310: 37a9 023f 5ed8 e33e df18 e63e 718b f63e
00000320: 863c b3be 5a5d 933b 1a81 4d3e e29b f33e
00000330: 0833 5f3d bc98 cebd 0f82 b4be fac4 acbe
00000340: 02b5 3ebd a0e9 873e b9e2 0b3e a40c 72bc
00000350: 4938 72bf 6a5a 38bd 0d09 2a3e b764 8d3e
00000360: 8f7b ebbd e0a8 333e dcea 12bb 9390 b93e
00000370: efba ec3c 8799 cd3e 8c19 0fbd 5b13 43be
00000380: 3831 693f 0cf6 073e 52bc bd3b b82f 563f
00000390: a985 90bd 3754 00be f0df 9fbe bac1 723d
000003a0: 060f 143d 61e1 bfbf bb76 9cbd ca79 4c3d
000003b0: 091f 453e 27bc 6ebf 8402 203f 439e aabe
000003c0: 00f4 0fbd 31e8 a43e 82c9 0b3f c563 16be
000003d0: a193 87bd da4b dd3f dddf 87bd 600b 4d3d
000003e0: f0fc b03f 3e7d a1bd 2535 3b3f ce51 8d3e
000003f0: 5afa 24be c141 8abd f4f5 2cc0 708b aebd
-0.07814948 0.12060334 -2.4363406 0.19102839 -0.13249607 0.48021764 0.41334066 0.5170221
0.6145522 -0.043760087 0.6500686 -0.2543295 0.09912953 -0.033944257 -0.5163725 -0.09589821
0.09940485 -0.28891167 0.09378367 0.5614016 0.036859248 -0.023610473 0.024513887 3.627965
-0.74397814 -0.68248516 -0.6074851 -0.631301 -0.6401915 -0.676288 -0.34358957 -0.8083215
-0.087011084 0.045547098 -0.0034401794 -0.485106 0.026556179 0.20372725 -0.381527 -0.02486548
-0.35492948 -0.12543273 0.16515724 0.2481205 -2.6022205 -0.06730081 0.32615954 0.6041583
0.6316286 0.45444542 0.29571894 0.5004772 0.3451405 0.16325904 0.18531758 0.14762297
0.4136843 0.11861968 0.22355896 0.5984728 0.16303688 0.13405675 0.27149194 -0.07579223
0.040319692 -2.3296683 0.07073167 -0.07287262 0.28516272 0.298577 0.6132483 0.6494383
0.38868612 0.08282337 -0.33714432 -0.11168376 -0.14083506 0.1925324 0.14584768 0.18248646
0.6197798 -0.2689437 0.2827583 0.025925552 -0.02941159 -0.1626377 0.14295742 -0.17349812
-0.22131331 -0.046314754 -0.010709975 -0.18235274 0.07323013 0.14834653 -0.28496173 -0.1418448
0.039525956 -0.21860439 0.06296826 -0.30946788 -0.24212341 -0.036923937 -0.01733473 -0.24752817
-0.14199331 -0.1490606 -0.18513533 -0.12016444 -0.19098693 -0.13894764 0.21813254 0.04121588
0.067245975 -0.2035284 -0.1433198 -0.0726351 0.03412299 -0.19201458 -0.0940242 -0.1306402
0.0006047338 -0.08119959 -0.015121579 -0.14787093 -0.1497837 -0.12730871 -0.098007314 -0.16228786
-2.690474 -0.13569467 0.35487717 0.7308431 0.20136492 1.1191616 0.28238785 0.7144492
0.5340041 -0.784247 0.17308396 0.00086720986 0.54908764 -0.035936303 0.17286013 0.029765666
-0.40807006 0.09376017 0.04506236 0.09030464 0.21299922 -2.200465 0.010725465 -0.020138305
0.4121269 -0.77036774 1.2773973 -0.20497903 -0.27814695 0.84057325 -0.43718368 -0.1265615
0.20019941 0.8936504 0.03640527 -0.18361339 1.8459791 -0.033071097 0.5812497 0.7280404
-0.041634575 -0.19050203 -1.1607456 -0.15072656 0.09977421 0.036385905 0.3644391 -0.1843759
0.30694145 0.50757533 -0.028082447 0.6828429 0.011463928 0.09751865 0.5617362 -0.1570944
0.08154719 -0.19274954 0.064144105 -0.43091208 -0.23802803 -0.13872269 -0.055010077 -2.5521407
-0.13091125 0.13300574 0.4486347 0.29747707 0.5103945 0.44501013 0.4494085 0.4815326
-0.35007113 0.0044972124 0.2006878 0.47579867 0.054492027 -0.100877255 -0.35255477 -0.3374403
-0.04655934 0.2654543 0.13660707 -0.014773522 -0.94617134 -0.0450081 0.16605015 0.27615902
-0.11498176 0.1754489 -0.002241782 0.36243114 0.02889773 0.40156195 -0.034936473 -0.19050352
0.91090727 0.13277453 0.005790272 0.83666563 -0.07056744 -0.12532125 -0.31225538 0.059266783
0.03614714 -1.4990655 -0.076398335 0.049920835 0.1925012 -0.9325585 0.6250384 -0.3332387
-0.035144806 0.32208398 0.5460435 -0.14686497 -0.06619955 1.7288773 -0.066344954 0.050059676
1.382719 -0.07885216 0.7312797 0.27601475 -0.16111127 -0.06750823 -2.7025118 -0.08522689

model.0.bias f4 [128]
00000000: 6c94 9a3e 5467 05bf 3583 473f ec41 243f
00000010: ca2a b2bd 56be dfbd 3bb9 663f 3ecd f23e
00000020: cba4 7e3e ed5e c33e 3f41 d2bc 6f07 f33c
00000030: 813b 4c3f 25ea 0e3f 956c aabe 80e7 023f
00000040: 40e5 853e adf7 00bf ed09 34be 45a3 05be
00000050: cab6 b8bd 9cc6 3b3c 443c 2c3d 60a7 97be
00000060: b706 39be 19bc 353e f9e6 353f 39b6 303e
00000070: c570 383e 24f5 46ba e41f 03bf 7690 0b3f
00000080: 71df 6dbd a2e7 2d3f 59db 2d3f 5f41 88be
00000090: 394d b03e b23e 75be 847c 0d3f 796b cabd
000000a0: 70f5 e1be 19e7 f43e 662c f53e e686 713d
000000b0: 3246 55be 0815 0d3f c030 b53e d15b 643e
000000c0: b2c6 79be b72e 383f 77c7 c6bd 867d 913e
000000d0: 4194 fe3e b4b2 cdbe eeec 0cbe 7d44 353f
000000e0: 8891 073f dd51 c63e 4e68 57bf 742b 193f
000000f0: 1a49 e73e 5fea 4b3f bf83 29bd c9af 02be
00000100: 47a0 5e3e 7f70 43bd a10d 033e 28e3 7fbe
00000110: 97a4 073c 75e0 0cbe 4420 b13d 3247 b03e
00000120: 1c50 cfbb bad3 263e ad59 993e 2d8e 953e
00000130: 1f0a 8bbe 41ae f63e d0a7 593e 0681 03bf
00000140: 7821 34bf 205a 593e ae84 b3be 6894 ac3e
00000150: 18a7 a2be 1bbb f83e 2e87 093f 7dbc 0abc
00000160: 042a 79be 430d d83e 4f91 f23e e8f1 953e
00000170: 561e e9be 0c9f f1bd 76a7 433f 5cbc 18be
00000180: 2478 9bbe 36a0 b93d f030 65be 065c 5a3e
00000190: 315c 7d3e d675 38be e6ea a3bc d4e3 863e
000001a0: f3d3 2bbf 6ca3 673e e328 283f 0041 37ba
000001b0: b45a 233f 0380 b03d cc4f cfbe d06b 85be
000001c0: 74fa cbbc ca9b 1d3f 5eb9 1a3e 07e8 47be
000001d0: e2f1 f13e 162c 6a3e 8ad7 00bf edb4 06bf
000001e0: 8cb7 cbbc 2d50 00bf 9319 37be eb27 2abe
000001f0: 6351 cd3e 6cb0 9fbd cb0f debd 5ddf 513e
0.30191362 -0.5211079 0.7793458 0.6416309 -0.086995676 -0.109249756 0.9012639 0.47422212
0.24867551 0.3815836 -0.025665877 0.02966663 0.79778296 0.55826026 -0.33285967 0.5113449
0.26151466 -0.50377923 -0.17581911 -0.13050564 -0.09019239 0.011460926 0.04204966 -0.29619884
-0.18068968 0.17747535 0.7105556 0.17257012 0.18011768 -0.00075896294 -0.51220536 0.54517305
-0.05807442 0.6793157 0.6791282 -0.26612374 0.34433916 -0.23949698 0.5526812 -0.0988378
-0.44132566 0.47832564 0.47885436 0.05896654 -0.20827559 0.55110216 0.35388756 0.2230065
-0.24392202 0.7194628 -0.09706014 0.2841608 0.49722484 -0.40175402 -0.13762257 0.7080763
0.5295644 0.38734332 -0.8414353 0.5983193 0.4517296 0.79654497 -0.04138541 -0.12762369
0.21740828 -0.047714707 0.12798168 -0.24988997 0.008278987 -0.13757499 0.08648732 0.34429318
-0.0063266885 0.16291705 0.2995123 0.29210034 -0.2715616 0.4817982 0.21255422 -0.5136875
-0.7036357 0.21225786 -0.35062164 0.33706975 -0.31768107 0.4858025 0.5372189 -0.008467791
-0.24332434 0.42197618 0.47376487 0.29286122 -0.45530957 -0.11797914 0.764274 -0.14915603
-0.30365098 0.09063761 -0.2238195 0.21324167 0.247422 -0.18013701 -0.02000947 0.26345694
-0.67120284 0.22620934 0.6568739 -0.0006990582 0.63810277 0.08618166 -0.40490568 -0.26058817
-0.024899699 0.6156584 0.15109774 -0.19522105 0.47254854 0.2286838 -0.50328887 -0.5261982
-0.024867795 -0.5012234 -0.1788085 -0.1661679 0.40101156 -0.07797322 -0.10842856 0.20495363

model.2.weight f4 [64, 128]
00000000: 71e6 ed3c 4c40 72bd aa16 91bd 664c df3c
00000010: b472 0d3d 8db6 4dbd b860 06bc cee0 f23b
00000020: 8c6b bcbd d7c4 bfbc 4bc9 3dba a8a5 1abd
00000030: b010 293d 79c1 c3bd 167a 133c a83e b8bd
00000040: ef61 bfbd 54ad 403d 92ad 2dbd 7f52 1cbd
00000050: 50db 933c 1046 b4bd 58f3 9abd fd52 d93a
00000060: dfd5 9d3d e03c 19bc 5b75 f53c 33b6 8d3c
00000070: 933c 76bc a9a5 adbd 0589 903d c38f c23b
00000080: f2dd e1bc c9d0 cd3c f000 ebbd 15d2 19bc
00000090: db01 a3bd 800e 13bc 3b34 4f3c d206 1bbb
000000a0: 07b2 193c 1e0d dbbd fb5e c1bd 0049 ca3a
000000b0: ab2b 33bd 9c71 b3bd ac84 6d3d 8f04 1abc
000000c0: 7a69 8ebd 1a2f a3bb 2c81 cd3c 1ec4 a6bd
000000d0: e145 f53c 41a4 c1bd f588 0f3b c03b 2c3d
000000e0: bb76 d43c 0cf5 ee3c e1a3 01bd 2ae1 d2bc
000000f0: 9832 56ba 3977 8fbb 98d0 3dbd a5e8 83bc
00000100: 0da3 12bd fc8e a0bd 1c0d a7bd 29d2 cdbd
00000110: e4dc abbd bd99 653d e94e a43b 42bd bfbd
00000120: b396 acbd 2821 a93c 82aa 61bd 9e38 76bd
00000130: 646b 7cbd e86a 13bd bede fcbc 6b22 bebb
00000140: 424f 2f3d bbee ba3c 707c 353d 6a63 edbc
00000150: 8eee a4bd 7950 65bc dd5d bebd 2c1e 143d
00000160: 70b8 2ebc 0c61 87bd 22cb fdbd 16d7 eb3b
00000170: 2cec 0d3d 7721 a53d b41d 96bd 102c da3c
00000180: bfa4 cdbc 9b9b 66bd f665 abbd 17da 893c
00000190: f762 85bd 7829 133d f18d 02bc a248 7b3c
000001a0: 8317 353d c5fc 673a 41e1 89bb 3ed7 3b3d
000001b0: 9c1b 9ebd 7dfb 3fbd 4f36 fbbc 270c a93c
000001c0: f871 dd3c baa6 c33c 8c66 e4bc a8bf 37bc
000001d0: fdc7 aebd 0b03 763c 490b 8fbd ebef 2dbd
000001e0: 877d 363d 7e59 cb3b c203 86bd e627 cdbd
000001f0: 843c c2bd b0b4 2f3d d473 a5bd 3791 413d
00000200: 2a65 dd3b e8de 9abc 5938 a7bd f909 3a3d
00000210: 3d9f 5dbc e327 ab3d 83ba dc3c d250 c3bd
00000220: b742 843c 800b d2b9 a85b 09be 42e5 4a3c
00000230: 2221 d2bd 5705 17be f72a 81bd 58c3 e6bc
00000240: d5a7 7dbd 9c53 90bd 93b4 e03c be7e 083d
00000250: b14f 2bbd ae98 b2bd 9058 95bb c5a5 a0bd
00000260: 20f7 debd b933 b1ba 8eeb 13bc 6236 abbd
00000270: f6e2 f2bc 1db3 cebd c851 c9bd 815f 78bd
00000280: 79af 7cbd 3b3b cdbc d8ba a43c c149 2b3c
00000290: dda6 e83c 1e1b fa3b 4f57 b8bc 6245 d5bc
000002a0: fc6a 91bd 2ab5 c13c f4d1 9e3c d3a6 19bd
000002b0: 4c93 02bb e034 bdbd 806c f1bd 1b3d cfbc
000002c0: e367 b13c c027 55bd f616 693c d342 cbbd
000002d0: 5e5b 9abd aecb d63c b3df c4bd ae9c 17bd
000002e0: 8ec7 093d 08f9 aabb dca0 903c 19a3 d1bd
000002f0: 294f 53bd ea2d c4bd ca84 66bd b1a4 bc3c
00000300: 7c12 f6bc 61e7 abbd a54f 91bd cf38 a73b
00000310: 9c16 abbc 1a76 853d 9173 aa3b e140 f3bd
00000320: 6886 9ebb d413 583d e89f ac3b 697b e9bb
00000330: ee00 c7bd 83f3 02be 63fa f43c b30b b7bd
00000340: aee6 12bb 190e 15bd 3a1e 213c 8b5d 01bd
00000350: 5feb 8abd 47ad 9dbd 5d6e 2d3d a1ae 1d3d
00000360: ce88 173c 25a5 ccbd e2ee 4f3c 1bc9 6bbd
00000370: f656 7cbd e4e1 923c 0df8 9fbd 2d7c 11bd
00000380: 567f 8ebd 005a a5bb 0098 83bd 4871 9abd
00000390: 0578 f4bd 50d4 993c e780 a83c c1e5 dcbc
000003a0: f648 33bd 1825 d8bd e725 a03c dd52 943d
000003b0: afbc 7c3d 2534 23bd 98f1 ad3a b386 2d3d
000003c0: 1e94 3fbd df1f ccbd eaaa 64bd 8a49 1e3d
000003d0: 9f57 5b3a b94a 833d e7b7 90bd b55d eebc
000003e0: 5fa9 70bd 18e3 14bd 888f 293d 13b5 13be
000003f0: 6298 ea3c aa6f 2a3a a52a 57bd cd2a 8e3c
0.029040547 -0.05914335 -0.07084401 0.02725811 0.034533218 -0.050222922 -0.0082017705 0.0074120527
-0.092002004 -0.02340929 -0.0007239773 -0.03775564 0.04127568 -0.09558386 0.0090012755 -0.08996326
-0.09344851 0.0470403 -0.042401858 -0.038164612 0.018048912 -0.08802426 -0.075659454 0.0016580519
0.07706808 -0.009352893 0.029963186 0.017298793 -0.01502909 -0.08478863 0.070573844 0.005937548
-0.027571652 0.02512397 -0.11474788 -0.009388466 -0.07959338 -0.008975625 0.01264673 -0.0023655188
0.009380824 -0.10695861 -0.09441944 0.0015433133 -0.043742817 -0.08761904 0.057987854 -0.009400501
-0.06953712 -0.00497998 0.025086008 -0.08142875 0.029940547 -0.09455157 0.00219017 0.04204917
0.025935521 0.029169582 -0.031650428 -0.025742132 -0.0008170991 -0.004378226 -0.04634151 -0.016102144
-0.03580003 -0.07839772 -0.08156797 -0.100498505 -0.08391741 0.05605482 0.0050142896 -0.0936227
-0.08427181 0.020645693 -0.05509425 -0.060112588 -0.061625853 -0.035990626 -0.03086793 -0.005802443
0.042800196 0.022818914 0.044308126 -0.028978068 -0.08053313 -0.013996237 -0.09295247 0.036161587
-0.0106640905 -0.06610307 -0.1239226 0.007197271 0.03464906 0.080630235 -0.07329884 0.026632339
-0.025102971 -0.05630074 -0.08369057 0.016827626 -0.06513017 0.03592822 -0.007968412 0.015337141
0.044211876 0.0008849616 -0.0042077606 0.045859568 -0.0772011 -0.046870697 -0.030665545 0.020635678
0.027031884 0.023883212 -0.02788093 -0.011215128 -0.085342385 0.015015374 -0.06984574 -0.04246513
0.044553306 0.0062057367 -0.065436855 -0.10017376 -0.09484199 0.042896926 -0.08078733 0.04725763
0.0067564445 -0.018905118 -0.08165044 0.045419667 -0.013526735 0.08357217 0.026944404 -0.095368996
0.016145093 -0.0004006289 -0.1341387 0.012383761 -0.10260226 -0.1474813 -0.06307023 -0.028169319
-0.061927635 -0.07047197 0.027429854 0.033323996 -0.041824047 -0.087205276 -0.0045576766 -0.07844118
-0.10886979 -0.0013519443 -0.009028329 -0.08359982 -0.029649239 -0.10092757 -0.09830052 -0.060637955
-0.06169078 -0.025052657 0.020108625 0.010454596 0.02839988 0.007632627 -0.02250257 -0.02603406
-0.07100484 0.023645956 0.019387223 -0.03751261 -0.0019924222 -0.09238601 -0.11788273 -0.025297692
0.021655982 -0.05203986 0.014226666 -0.09924855 -0.07536958 0.026220169 -0.0961298 -0.037014656
0.033637576 -0.005217675 0.017654829 -0.102361865 -0.051589165 -0.0957907 -0.05627898 0.02302775
-0.03003811 -0.083937414 -0.07095269 0.0051032077 -0.020884804 0.06516667 0.005201765 -0.11877609
-0.0048378 0.052753285 0.0052680857 -0.0071253073 -0.09716974 -0.12788205 0.02990455 -0.08937778
-0.0022415328 -0.036390398 0.009833867 -0.03158335 -0.06783175 -0.07699066 0.04234158 0.038496617
0.009248925 -0.09992436 0.012691231 -0.057564836 -0.06160637 0.017929979 -0.07810984 -0.035518814
-0.06957881 -0.005046129 -0.06425476 -0.07541138 -0.119369544 0.018777996 0.020569278 -0.026965024
-0.043770753 -0.1055395 0.019549323 0.072423674 0.06170338 -0.03984465 0.0013270853 0.042364787
-0.046772115 -0.099670164 -0.05582706 0.03864435 0.00083672436 0.064107366 -0.070663266 -0.029097417
-0.058755275 -0.036349386 0.041396648 -0.14424543 0.028637115 0.00065016246 -0.052530903 0.017354393

model.2.bias f4 [64]
00000000: 0a69 f1bc 3682 533d 9ffa 043f bead 273d
00000010: 0b8a c5bd c524 e2bd de1c dcbb 93ce cbbb
00000020: 33aa 99bd eadc bdbd dee8 e83b 3fc8 78bd
00000030: c54b 89bd d360 8abd 6dfa 1fbd 6ce6 4cbc
00000040: ed59 ddbd b1c3 393e 6b3e 94bd 01e6 253f
00000050: 8bbb a9bd d356 f9bd 66e6 d43e 0955 9a3c
00000060: 3a37 e43c 501a 053e 2cee a0bc 1172 1a3d
00000070: 3428 dc3e dda1 44be 5740 ff3e 827a 3e3d
00000080: 1193 133e 210b b4be cca0 55be ce5a b33c
00000090: 64dd 923e a7c5 ae3d fc2e e6bc 5ec6 aebd
000000a0: 851c cb3e 8562 0dbe 2a26 353d ddc2 c93e
000000b0: 0048 74bc e155 063f b90e 283f c2f8 2f3d
000000c0: 4dc7 ad3d 4e99 423d 19a4 073f 76f6 863d
000000d0: a29b 743c 47e9 e83c cdfa eabd 54fa 5fbd
000000e0: 0d58 bbbd 6c02 613c 74a7 cdbb 010c a03e
000000f0: 191b 5ebb 0d33 27bd 8b32 da3c 50b6 083d
-0.029469032 0.05163785 0.5194492 0.040937178 -0.0964547 -0.110421695 -0.0067173084 -0.006219694
-0.07503166 -0.09270652 0.007107838 -0.060737845 -0.06703905 -0.06756749 -0.039057184 -0.012506109
-0.108081676 0.18141057 -0.07238468 0.64804083 -0.08287724 -0.121747635 0.4158203 0.018839376
0.027858365 0.12998319 -0.01964482 0.03770644 0.42999423 -0.19202371 0.49853775 0.04650355
0.1441157 -0.3516474 -0.2086212 0.021893885 0.28684533 0.08533793 -0.028098576 -0.08533929
0.39670196 -0.13807113 0.04422585 0.3940648 -0.014909744 0.5247479 0.65647465 0.042961843
0.08485279 0.047509484 0.5298477 0.065899774 0.014929684 0.028431548 -0.11473618 -0.05468209
-0.09147654 0.013733488 -0.0062760655 0.31259158 -0.0033890663 -0.04082017 0.026635429 0.03337699

model.4.weight f4 [3, 64]
00000000: 9ae9 5dbd 1510 8cbd 8d24 0abb b7fe 1cbd
00000010: a195 81bd 301e 713d 4055 f33c 3909 b6bc
00000020: 1823 3abd bd01 97bd 774f 1bbd d910 c63c
00000030: 988e 95bd 346a e8bd 889e eabd ffa8 d7bd
00000040: f7a0 8b3c 7678 133d c820 45bd 49a8 2cbc
00000050: 2419 163d 91fc 57bd 4486 153d 66ee f93b
00000060: fe50 d43d 6d0d 86bb a4d6 6a3d a433 80bd
00000070: e10e 88bb 99ce 3aba 6abc ad39 8813 fd3d
00000080: 88e8 df3c 506e 91bd b7a4 35bd 98e3 9ebd
00000090: 8d2e c0ba 42fe 96bd 3231 b33d dac2 2e3c
000000a0: 87f4 b53b 78e0 bf3c 4b91 a4bc f6d1 9ebb
000000b0: 20f5 98bc fce0 8f3b fd7d 4e3b e40f 323d
000000c0: e6aa 553b ea16 d83d 712d 05b9 58ca 7e3d
000000d0: cdef 1aba 2490 f1bd 2197 863c 432e 9cbc
000000e0: c81b 48bd c03e a0bb 70b1 0abd 04b9 b53b
000000f0: 1c29 17bd 6cd6 9ebd 68f6 3b3d 4059 b4bd
00000100: b21b 9ebd bc27 eb3c 3f7c 94ba 796c e2bd
00000110: 0f24 8c3d ae66 91bc 68e9 573d 80ae a1ba
00000120: b081 dfbc ed87 16bd 53bc 84bc 1b4f 76bd
00000130: 00db 603d 0494 f43b 740f 8a3d 002d dcbd
00000140: 8d60 9a3c bcb1 46bc e832 283c dd88 21bc
00000150: 4f1f 253c 0964 99bc e3a4 043d e3c7 ee3c
00000160: 90e1 15bd be4d 0abc 7eff 093d baac 653d
00000170: 2160 a8bb a9d6 bfbb 047d e63c f386 f13c
00000180: 0344 543c e8ed 8ebd 9783 01be a235 f63c
00000190: 83b5 43ba 84be 3f3d 8af6 dbbd 5733 833b
000001a0: b16c 7bbb f7e4 853c f427 7abd d4b7 90bc
000001b0: e0df 2e3d 4994 713b faa8 683b c07a 29bc
000001c0: ad95 c23d fee5 cdbb d3af e03a 5046 b93d
000001d0: b419 97bd 0a86 80bd 22eb 5abc f990 c2bc
000001e0: 5305 e73d 48ad 72bd 588b 7c3d 000f 713c
000001f0: a9de 3c3c 12cb 9ebd 3646 c1bd 8887 d43c
00000200: 2bf1 053d 141f 1a3d 433f aabb b450 933d
00000210: d916 f0bd 3844 713d 1997 3d3d e24a 81bd
00000220: 00b6 9fbd f520 fcbd 6eaa 99bd 2d93 7d3d
00000230: cc8e 113d a40f 8bbd 7e17 b0bd 64c4 01be
00000240: 90db be3d 27a1 cd3c 1f99 3e3c 7ffc 27bc
00000250: 83fb 9d3c c332 65bc 31bc 863d 3be4 243d
00000260: b6e2 83bd 1a63 27bc e4da 063d f4bc 013d
00000270: 2da7 b6bb dbca 5a3b 350b 453d 50d6 eabd
00000280: 4106 c33c 0df5 99bd a2a8 98bd 4053 92bd
00000290: abc4 cb3b 8cd9 e33d 0413 63bd 1368 dd3c
000002a0: e898 a6bc cac7 2a3c a9e9 8dbd f646 3b39
000002b0: 8470 e6bd e0da d53b 5d3f 993b 807b b83a
000002c0: 8dfe d23b 3848 b83c 40fa d839 ae77 b9bd
000002d0: e840 c9bd 6190 e43b e0d3 1c3d 43f7 f23d
000002e0: 292e b63d 75d5 b1bd ea17 22bd 1bad 01bc
000002f0: 645a 4e3d 12cb 983d 59f1 b7bd 5524 a2bd
-0.054177858 -0.06839005 -0.0021078915 -0.038328853 -0.063273676 0.05886668 0.029703736 -0.022221195
-0.045443624 -0.073733784 -0.03791758 0.024177955 -0.07302588 -0.11348382 -0.11456019 -0.1053028
0.017044527 0.036003552 -0.048126966 -0.010538169 0.03664507 -0.0527311 0.036505 0.0076272963
0.103670105 -0.004090956 0.057333604 -0.0625985 -0.0041521643 -0.00071261224 0.0003313751 0.12357241
0.02733256 -0.071011186 -0.044346537 -0.07758254 -0.0014662311 -0.073727146 0.08749618 0.010666573
0.0055528316 0.023422465 -0.020088812 -0.0048468066 -0.018671572 0.004390834 0.00315082 0.043472186
0.0032603084 0.105512455 -0.00012700797 0.06220469 -0.0005910367 -0.11795071 0.016429486 -0.019065028
-0.04885462 -0.004890293 -0.033860624 0.005545737 -0.03690444 -0.077557415 0.04588929 -0.088060856
-0.07720126 0.02870547 -0.0011328532 -0.11055846 0.06842815 -0.017749157 0.052712828 -0.001233533
-0.02728352 -0.036750723 -0.016203081 -0.060134035 0.054896355 0.007463934 0.06741229 -0.107507706
0.018844867 -0.012127336 0.010266043 -0.009859291 0.010078265 -0.018724458 0.03238381 0.029148048
-0.036592066 -0.008441387 0.033690922 0.056072928 -0.0051384126 -0.005854447 0.028135784 0.029483294
0.012955668 -0.06978971 -0.12647854 0.030054871 -0.0007465707 0.04681255 -0.10740383 0.004003923
-0.0038364346 0.01634453 -0.06107326 -0.017665781 0.042693973 0.0036862066 0.0035501109 -0.010344207
0.09501205 -0.0062835207 0.0017142243 0.09046614 -0.07377949 -0.06275566 -0.013361724 -0.023750769
0.112803124 -0.059247285 0.061656326 0.014713049 0.011527696 -0.07753576 -0.0943722 0.025943533
0.0327007 0.037627295 -0.0051955297 0.07193127 -0.11723108 0.05890295 0.046286676 -0.06313111
-0.077983856 -0.123109736 -0.0750321 0.061907936 0.035536572 -0.067900926 -0.08598231 -0.12672573
0.09319222 0.025101257 0.011633187 -0.010253071 0.01928497 -0.013989153 0.065788634 0.04025672
-0.06439726 -0.010216499 0.032923594 0.03167434 -0.005574128 0.0033385071 0.04810639 -0.11466658
0.023806693 -0.07517443 -0.07454039 -0.07144785 0.006218513 0.11125478 -0.055438057 0.027027166
-0.020336583 0.01042361 -0.06929333 0.00017860145 -0.112519294 0.006526336 0.004676743 0.0014074892
0.006439036 0.022495374 0.0004138518 -0.0905603 -0.09826833 0.006975219 0.038287997 0.11863568
0.08895523 -0.08683292 -0.039573587 -0.007914807 0.050379172 0.074606076 -0.0898158 -0.07917086

model.4.bias f4 [3]
00000000: 8ceb b33e f1e4 b13e 88b7 b13e
0.35140646 0.3474498 0.34710336
