models/rl/dqn/dqn_episode_3.pt (torch, 189640 bytes, 24 tensors)

model.0.weight f4 [128, 21]
-0.016297838 0.15001431 -2.505239 0.29804814 -0.025066651 0.48191363 0.40739658 0.5269504
0.60481685 0.053251166 0.6630951 -0.016114851 0.09923488 0.007200042 -0.23563671 -0.08718825
0.15242082 -0.4703948 0.076763295 0.5161679 0.021592781 -0.01274243 0.0054427595 3.5856094
-0.73431104 -0.7017007 -0.6270683 -0.62969 -0.6710513 -0.68513376 -0.39104524 -0.83098817
-0.12915118 0.05642491 -0.012222142 -0.51809645 0.035092738 0.19715711 -0.46496868 -0.0034858368
-0.49741104 -0.18358475 0.1584717 0.20547104 -2.5964992 -0.07701199 0.3162789 0.5564429
0.58763707 0.42278028 0.2463989 0.53325456 0.31854022 0.16236633 0.21130095 0.11086989
0.50969076 0.13244942 0.1890925 0.5275648 0.11398128 0.18518327 0.2616865 -0.06423052
0.033899505 -2.383748 0.07087603 -0.07326214 0.2867471 0.2707795 0.6363592 0.5992797
0.4581338 0.121610165 -0.2243345 -0.100123264 -0.14102112 0.24080889 0.1574076 0.1808505
0.4937042 -0.24317385 0.5119614 0.09885306 -0.02941159 -0.1626377 0.14295742 -0.17349812
-0.22131331 -0.046314754 -0.010709975 -0.18235274 0.07323013 0.14834653 -0.28496173 -0.1418448
0.039525956 -0.21860439 0.06296826 -0.30946788 -0.24212341 -0.036923937 -0.01733473 -0.24752817
-0.14199331 -0.1490606 -0.18513533 -0.12016444 -0.19098693 -0.13894764 0.21813254 0.04121588
0.067245975 -0.2035284 -0.1433198 -0.0726351 0.03412299 -0.19201458 -0.0940242 -0.1306402
0.0006047338 -0.08119959 -0.015121579 -0.14787093 -0.1497837 -0.12730871 -0.024517406 -0.1620281
-2.7991583 0.057150386 0.5480327 0.7486569 0.21220487 1.1403028 0.28221706 0.83776605
0.5600589 -0.5095803 0.17965458 0.0037047737 0.51526463 -0.0371044 0.17659706 -0.02110721
-0.40477258 0.32849595 0.123694755 0.0644235 0.14879456 -2.1344707 0.010728004 -0.0224229
0.3096065 -0.9140835 1.2375445 -0.3960513 -0.20883529 0.84141773 -0.3431431 -0.1557192
0.16052036 0.8748707 0.00418359 -0.21741672 1.5385969 -0.069035746 0.5682085 0.63939303
-0.030740172 -0.17561238 -1.2416067 -0.15076613 0.12768513 0.0934126 0.433044 -0.159264
0.39583844 0.54674935 -0.021963965 0.57240385 0.022481594 0.09707948 0.5582609 -0.10666166
0.08183114 0.08976547 0.055073243 -0.29412156 -0.15051885 -0.124572225 -0.027991157 -2.5338578
-0.10725862 0.15680338 0.47473168 0.2970482 0.5505278 0.43163466 0.5382167 0.5289242
-0.28542966 0.0018887442 0.22489637 0.5028218 0.05182429 -0.08159922 -0.35232168 -0.3004396
0.14284861 0.32694262 0.11798153 -0.022355894 -0.96209514 -0.0343052 0.17670667 0.26899225
-0.10539431 0.1558981 -9.649929e-05 0.36243114 0.012904755 0.44225323 -0.08064677 -0.19537172
0.9501785 0.11971341 -8.322965e-05 0.8523298 -0.018870505 -0.17452587 -0.32520738 0.08528936
0.0493909 -1.4134214 -0.0790054 0.05302781 0.1988269 -0.9573865 0.64919144 -0.31266782
-0.11953423 0.32233042 0.33344528 -0.120782375 -0.06443167 1.7285056 -0.029653544 0.061337337
1.5456048 -0.14466769 0.36038452 0.1819878 -0.11868492 -0.090709426 -2.7396288 -0.061577242
00000000: 0b83 85bc 5a9d 193e d655 20c0 c499 983e
00000010: 9458 cdbc 62bd f63e 4996 d03e 39e6 063f
00000020: 47d5 1a3f e51d 5a3d 9ac0 293f 4b03 84bc
00000030: a83b cb3d 54ee eb3b c04a 71be c18f b2bd
00000040: 3414 1c3e 96d7 f0be 1336 9d3d 9423 043f
00000050: 58e3 b03c a0c5 50bc 2d59 b23b a07a 6540
00000060: cffb 3bbf a8a2 33bf 8c87 20bf 5d33 21bf
00000070: 05ca 2bbf ed64 2fbf 1537 c8be a4bb 54bf
00000080: 3540 04be ce1d 673d 613f 48bc f8a1 04bf
00000090: 67bd 0f3d 8ee3 493e 6010 eebe a372 64bb
000000a0: a9ac febe a4fd 3bbe 6846 223e 0067 523e
000000b0: 0b2d 26c0 76b8 9dbd 4fef a13e 0b73 0e3f
000000c0: 626f 163f a876 d83e fe4f 7c3e 5f83 083f
000000d0: b417 a33e 5c43 263e 475f 583e c10f e33d
000000e0: 187b 023f d2a0 073e 77a1 413e 7d0e 073f
000000f0: 046f e93d afa0 3d3e c6fb 853e 4a8b 83bd
00000100: 35da 0a3d 548f 18c0 7427 913d 760a 96bd
00000110: 84d0 923e 9ca3 8a3e 70e8 223f 656a 193f
00000120: 8390 ea3e c00e f93d f1b7 65be 6d0d cdbd
00000130: d767 10be 9b96 763e 752f 213e e030 393e
00000140: ccc6 fc3e 9102 79be e70f 033f 7973 ca3d
00000150: 93f0 f0bc 7f8a 26be 6e63 123e 7ea9 31be
00000160: f59f 62be 8ab4 3dbd e478 2fbc adba 3abe
00000170: aef9 953d 27e8 173e 81e6 91be c33f 11be
00000180: f8e5 213d d4d9 5fbe 81f5 803d 9372 9ebe
00000190: 33ef 77be 8e3d 17bd 9001 8ebc 0678 7dbe
000001a0: b266 11be 58a3 18be 1e94 3dbe c618 f6bd
000001b0: 1492 43be 4a48 0ebe 235e 5f3e fcd1 283d
000001c0: 42b8 893d c069 50be 6dc2 12be b6c1 94bd
000001d0: 8cc4 0b3d 789f 44be c38f c0bd 8bc6 05be
000001e0: 0087 1e3a f84b a6bd 80c0 77bc 7a6b 17be
000001f0: e660 19be 375d 02be bad8 c8bc b2ea 25be
00000200: 6925 33c0 8616 6a3d df4b 0c3f fba7 3f3f
00000210: 3c4c 593e 71f5 913f c17e 903e d677 563f
00000220: 0560 0f3f db73 02bf 5ff7 373e cacb 723b
00000230: 62e8 033f c9fa 17bd dcd5 343e 07e9 acbc
00000240: 5a3e cfbe 9f30 a83e ad53 fd3d 78f0 833d
00000250: 9a5d 183e 2b9b 08c0 83c4 2f3c 3bb0 b7bc
00000260: be84 9e3e 6001 6abf dc67 9e3f 3cc7 cabe
00000270: ebd8 55be 2767 573f 74b0 afbe db74 1fbe
00000280: 735f 243e 87f7 5f3f 7f16 893b 7da2 5ebe
00000290: bef0 c43f 9d62 8dbd 1d76 113f 43af 233f
000002a0: d0d2 fbbc bbd3 33be f8ec 9ebf 7062 1abe
000002b0: e4bf 023e 1b4f bf3d f1b7 dd3e 1a16 23be
000002c0: 56ab ca3e c4f7 0b3f c6ed b3bc 0f89 123f
000002d0: 522b b83c 9bd1 c63d 30ea 0e3f 6e71 dabd
000002e0: 1697 a73d f5d6 b73d 7b94 613d 1a97 96be
000002f0: 9d21 1abe b91f ffbd b64d e5bc ba2a 22c0
00000300: 68aa dbbd 1191 203e 0810 f33e b416 983e
00000310: 64ef 0c3f 38ff dc3e 92c8 093f 9467 073f
00000320: d623 92be bd8f f73a 3c4b 663e eeb8 003f
00000330: b545 543d 7e1d a7bd 8263 b4be 38d3 99be
00000340: e846 123e 0665 a73e 4da0 f13d b523 b7bc
00000350: de4b 76bf 9c83 0cbd 98f2 343e 5ab9 893e
00000360: f9d8 d7bd c0a3 1f3e a95f cab8 9390 b93e
00000370: 776e 533c 046f e23e 222a a5bd 860f 48be
00000380: e63e 733f 4e2c f53d 948b aeb8 4932 5a3f
00000390: 5196 9abc e9b6 32be 9581 a6be 30ac ae3d
000003a0: 1d4e 4a3d feea b4bf 95cd a1bd b033 593d
000003b0: 4799 4b3e 4817 75bf 6931 263f ff15 a0be
000003c0: 5dce f4bd 7e08 a53e 57b9 aa3e c05c f7bd
000003d0: c0f4 83bd ac3f dd3f fdeb f2bc dc3c 7b3d
000003e0: 61d6 c53f c423 14be 5284 b83e 035b 3a3e
000003f0: 1411 f3bd ddc5 b9bd 1456 2fc0 6b38 7cbd

model.0.bias f4 [128]
0.30431813 -0.54054636 0.7321729 0.64384186 -0.086995676 -0.109249756 0.92024624 0.37100077
0.3071895 0.40766573 -0.032590028 0.035151027 0.7637799 0.6002843 -0.32307935 0.5599885
0.32487908 -0.5340294 -0.12373279 -0.14045921 -0.109794915 0.06884548 0.04204966 -0.29619884
-0.17312905 0.17747535 0.6992717 0.22189248 0.1460949 0.010189075 -0.485796 0.5415109
-0.019739892 0.6897883 0.67558455 -0.24349758 0.33353767 -0.23949698 0.5465129 -0.15671709
-0.47075126 0.48779458 0.5007614 0.05896654 -0.20827559 0.6028706 0.41567937 0.21571724
-0.2741274 0.73588645 -0.1116693 0.329847 0.51757467 -0.40175402 -0.13762257 0.7513158
0.58034074 0.3854924 -0.7912343 0.6080783 0.49428144 0.8125115 -0.04138541 -0.15362816
0.21740828 -0.015452192 0.12798168 -0.23105034 0.0812916 -0.08658029 0.08648732 0.36764714
0.018704817 0.16291705 0.3318648 0.31659907 -0.26556912 0.41849896 0.23873073 -0.5395836
-0.69784296 0.26025566 -0.35062164 0.3814152 -0.31768107 0.5137457 0.56076133 -0.008467791
-0.24332434 0.41797826 0.47979963 0.2755309 -0.41197324 -0.11797914 0.8056969 -0.14915603
-0.24808584 0.09063761 -0.20880586 0.17561267 0.26414442 -0.18013701 -0.059638962 0.30102336
-0.68288463 0.24658585 0.51566696 -0.0006990582 0.60287964 0.16328844 -0.41298488 -0.2374118
-0.044760115 0.62079555 0.15109774 -0.19522105 0.49667826 0.21738076 -0.5267349 -0.41576368
-0.024867795 -0.5338565 -0.1788085 -0.20463157 0.41117635 -0.07797322 -0.10842856 0.280244
00000000: 96cf 9b3e 3f61 0abf af6f 3b3f d2d2 243f
00000010: ca2a b2bd 56be dfbd 4295 6b3f d0f3 bd3e
00000020: f147 9d3e 90b9 d03e 1f7d 05bd 86fa 0f3d
00000030: 1487 433f 3bac 193f a86a a5be 685b 0f3f
00000040: 8d56 a63e 27b6 08bf 9e67 fdbd 8ad4 0fbe
00000050: 28dc e0bd dcfe 8c3d 443c 2c3d 60a7 97be
00000060: be48 31be 19bc 353e 7803 333f c837 633e
00000070: e799 153e 14f0 263c 41ba f8be 75a0 0a3f
00000080: 8eb5 a1bc f795 303f 1cf3 2c3f 6e57 79be
00000090: 73c5 aa3e b23e 75be 45e8 0b3f 727a 20be
000000a0: 4f06 f1be 36c0 f93e e631 003f e686 713d
000000b0: 3246 55be ba55 1a3f edd3 d43e fbe4 5c3e
000000c0: 6d5a 8cbe 0e63 3c3f e0b2 e4bd b5e1 a83e
000000d0: c67f 043f b4b2 cdbe eeec 0cbe 3b56 403f
000000e0: 3691 143f 435f c53e 558e 4abf 05ab 1b3f
000000f0: 7512 fd3e c100 503f bf83 29bd b350 1dbe
00000100: 47a0 5e3e 312b 7dbc a10d 033e 7698 6cbe
00000110: 367c a63d 0251 b1bd 4420 b13d 3f3c bc3e
00000120: d83a 993c bad3 263e 2fea a93e 4619 a23e
00000130: adf8 87be 7f45 d63e d475 743e 2722 0abf
00000140: d6a5 32bf 3b40 853e ae84 b3be da48 c33e
00000150: 18a7 a2be d784 033f 0e8e 0f3f 7dbc 0abc
00000160: 042a 79be 3f01 d63e 4ca8 f53e 6312 8d3e
00000170: 28ee d2be 0c9f f1bd 2742 4e3f 5cbc 18be
00000180: 370a 7ebe 36a0 b93d 34d1 55be cfd3 333e
00000190: f03d 873e d675 38be fc47 74bd bc1f 9a3e
000001a0: 87d1 2ebf 0081 7c3e c002 043f 0041 37ba
000001b0: 5256 1a3f 1635 273e c172 d3be 141c 73be
000001c0: 6256 37bd 75ec 1e3f 5eb9 1a3e 07e8 47be
000001d0: 9d4c fe3e 1099 5e3e 19d8 06bf fade d4be
000001e0: 8cb7 cbbc d2aa 08bf 9319 37be f08a 51be
000001f0: b585 d23e 6cb0 9fbd cb0f debd 247c 8f3e

model.2.weight f4 [64, 128]
0.029040547 -0.05914335 -0.07084401 0.02725811 0.034533218 -0.050222922 -0.0082017705 0.0074120527
-0.092002004 -0.02340929 -0.0007239773 -0.03775564 0.04127568 -0.09558386 0.0090012755 -0.08996326
-0.09344851 0.0470403 -0.042401858 -0.038164612 0.018048912 -0.08802426 -0.075659454 0.0016580519
0.07706808 -0.009352893 0.029963186 0.017298793 -0.01502909 -0.08478863 0.070573844 0.005937548
-0.027571652 0.02512397 -0.11474788 -0.009388466 -0.07959338 -0.008975625 0.01264673 -0.0023655188
0.009380824 -0.10695861 -0.09441944 0.0015433133 -0.043742817 -0.08761904 0.057987854 -0.009400501
-0.06953712 -0.00497998 0.025086008 -0.08142875 0.029940547 -0.09455157 0.00219017 0.04204917
0.025935521 0.029169582 -0.031650428 -0.025742132 -0.0008170991 -0.004378226 -0.04634151 -0.016102144
-0.03580003 -0.07839772 -0.08156797 -0.100498505 -0.08391741 0.05605482 0.0050142896 -0.0936227
-0.08427181 0.020645693 -0.05509425 -0.060112588 -0.061625853 -0.035990626 -0.03086793 -0.005802443
0.042800196 0.022818914 0.044308126 -0.028978068 -0.08053313 -0.013996237 -0.09295247 0.036161587
-0.0106640905 -0.06610307 -0.1239226 0.007197271 0.03464906 0.080630235 -0.07329884 0.026632339
-0.025102971 -0.05630074 -0.08369057 0.016827626 -0.06513017 0.03592822 -0.007968412 0.015337141
0.044211876 0.0008849616 -0.0042077606 0.045859568 -0.0772011 -0.046870697 -0.030665545 0.020635678
0.027031884 0.023883212 -0.02788093 -0.011215128 -0.085342385 0.015015374 -0.06984574 -0.04246513
0.044553306 0.0062057367 -0.065436855 -0.10017376 -0.09484199 0.042896926 -0.08078733 0.04725763
0.0067564445 -0.018905118 -0.08165044 0.045419667 -0.013526735 0.08357217 0.026944404 -0.095368996
0.016145093 -0.0004006289 -0.1341387 0.012383761 -0.10260226 -0.1474813 -0.06307023 -0.028169319
-0.061927635 -0.07047197 0.027429854 0.033323996 -0.041824047 -0.087205276 -0.0045576766 -0.07844118
-0.10886979 -0.0013519443 -0.009028329 -0.08359982 -0.029649239 -0.10092757 -0.09830052 -0.060637955
-0.06169078 -0.025052657 0.020108625 0.010454596 0.02839988 0.007632627 -0.02250257 -0.02603406
-0.07100484 0.023645956 0.019387223 -0.03751261 -0.0019924222 -0.09238601 -0.11788273 -0.025297692
0.021655982 -0.05203986 0.014226666 -0.09924855 -0.07536958 0.026220169 -0.0961298 -0.037014656
0.033637576 -0.005217675 0.017654829 -0.102361865 -0.051589165 -0.0957907 -0.05627898 0.02302775
-0.03003811 -0.083937414 -0.07095269 0.0051032077 -0.020884804 0.06516667 0.005201765 -0.11877609
-0.0048378 0.052753285 0.0052680857 -0.0071253073 -0.09716974 -0.12788205 0.02990455 -0.08937778
-0.0022415328 -0.036390398 0.009833867 -0.03158335 -0.06783175 -0.07699066 0.04234158 0.038496617
0.009248925 -0.09992436 0.012691231 -0.057564836 -0.06160637 0.017929979 -0.07810984 -0.035518814
-0.06957881 -0.005046129 -0.06425476 -0.07541138 -0.119369544 0.018777996 0.020569278 -0.026965024
-0.043770753 -0.1055395 0.019549323 0.072423674 0.06170338 -0.03984465 0.0013270853 0.042364787
-0.046772115 -0.099670164 -0.05582706 0.03864435 0.00083672436 0.064107366 -0.070663266 -0.029097417
-0.058755275 -0.036349386 0.041396648 -0.14424543 0.028637115 0.00065016246 -0.052530903 0.017354393
00000000: 71e6 ed3c 4c40 72bd aa16 91bd 664c df3c
00000010: b472 0d3d 8db6 4dbd b860 06bc cee0 f23b
00000020: 8c6b bcbd d7c4 bfbc 4bc9 3dba a8a5 1abd
00000030: b010 293d 79c1 c3bd 167a 133c a83e b8bd
00000040: ef61 bfbd 54ad 403d 92ad 2dbd 7f52 1cbd
00000050: 50db 933c 1046 b4bd 58f3 9abd fd52 d93a
00000060: dfd5 9d3d e03c 19bc 5b75 f53c 33b6 8d3c
00000070: 933c 76bc a9a5 adbd 0589 903d c38f c23b
00000080: f2dd e1bc c9d0 cd3c f000 ebbd 15d2 19bc
00000090: db01 a3bd 800e 13bc 3b34 4f3c d206 1bbb
000000a0: 07b2 193c 1e0d dbbd fb5e c1bd 0049 ca3a
000000b0: ab2b 33bd 9c71 b3bd ac84 6d3d 8f04 1abc
000000c0: 7a69 8ebd 1a2f a3bb 2c81 cd3c 1ec4 a6bd
000000d0: e145 f53c 41a4 c1bd f588 0f3b c03b 2c3d
000000e0: bb76 d43c 0cf5 ee3c e1a3 01bd 2ae1 d2bc
000000f0: 9832 56ba 3977 8fbb 98d0 3dbd a5e8 83bc
00000100: 0da3 12bd fc8e a0bd 1c0d a7bd 29d2 cdbd
00000110: e4dc abbd bd99 653d e94e a43b 42bd bfbd
00000120: b396 acbd 2821 a93c 82aa 61bd 9e38 76bd
00000130: 646b 7cbd e86a 13bd bede fcbc 6b22 bebb
00000140: 424f 2f3d bbee ba3c 707c 353d 6a63 edbc
00000150: 8eee a4bd 7950 65bc dd5d bebd 2c1e 143d
00000160: 70b8 2ebc 0c61 87bd 22cb fdbd 16d7 eb3b
00000170: 2cec 0d3d 7721 a53d b41d 96bd 102c da3c
00000180: bfa4 cdbc 9b9b 66bd f665 abbd 17da 893c
00000190: f762 85bd 7829 133d f18d 02bc a248 7b3c
000001a0: 8317 353d c5fc 673a 41e1 89bb 3ed7 3b3d
000001b0: 9c1b 9ebd 7dfb 3fbd 4f36 fbbc 270c a93c
000001c0: f871 dd3c baa6 c33c 8c66 e4bc a8bf 37bc
000001d0: fdc7 aebd 0b03 763c 490b 8fbd ebef 2dbd
000001e0: 877d 363d 7e59 cb3b c203 86bd e627 cdbd
000001f0: 843c c2bd b0b4 2f3d d473 a5bd 3791 413d
00000200: 2a65 dd3b e8de 9abc 5938 a7bd f909 3a3d
00000210: 3d9f 5dbc e327 ab3d 83ba dc3c d250 c3bd
00000220: b742 843c 800b d2b9 a85b 09be 42e5 4a3c
00000230: 2221 d2bd 5705 17be f72a 81bd 58c3 e6bc
00000240: d5a7 7dbd 9c53 90bd 93b4 e03c be7e 083d
00000250: b14f 2bbd ae98 b2bd 9058 95bb c5a5 a0bd
00000260: 20f7 debd b933 b1ba 8eeb 13bc 6236 abbd
00000270: f6e2 f2bc 1db3 cebd c851 c9bd 815f 78bd
00000280: 79af 7cbd 3b3b cdbc d8ba a43c c149 2b3c
00000290: dda6 e83c 1e1b fa3b 4f57 b8bc 6245 d5bc
000002a0: fc6a 91bd 2ab5 c13c f4d1 9e3c d3a6 19bd
000002b0: 4c93 02bb e034 bdbd 806c f1bd 1b3d cfbc
000002c0: e367 b13c c027 55bd f616 693c d342 cbbd
000002d0: 5e5b 9abd aecb d63c b3df c4bd ae9c 17bd
000002e0: 8ec7 093d 08f9 aabb dca0 903c 19a3 d1bd
000002f0: 294f 53bd ea2d c4bd ca84 66bd b1a4 bc3c
00000300: 7c12 f6bc 61e7 abbd a54f 91bd cf38 a73b
00000310: 9c16 abbc 1a76 853d 9173 aa3b e140 f3bd
00000320: 6886 9ebb d413 583d e89f ac3b 697b e9bb
00000330: ee00 c7bd 83f3 02be 63fa f43c b30b b7bd
00000340: aee6 12bb 190e 15bd 3a1e 213c 8b5d 01bd
00000350: 5feb 8abd 47ad 9dbd 5d6e 2d3d a1ae 1d3d
00000360: ce88 173c 25a5 ccbd e2ee 4f3c 1bc9 6bbd
00000370: f656 7cbd e4e1 923c 0df8 9fbd 2d7c 11bd
00000380: 567f 8ebd 005a a5bb 0098 83bd 4871 9abd
00000390: 0578 f4bd 50d4 993c e780 a83c c1e5 dcbc
000003a0: f648 33bd 1825 d8bd e725 a03c dd52 943d
000003b0: afbc 7c3d 2534 23bd 98f1 ad3a b386 2d3d
000003c0: 1e94 3fbd df1f ccbd eaaa 64bd 8a49 1e3d
000003d0: 9f57 5b3a b94a 833d e7b7 90bd b55d eebc
000003e0: 5fa9 70bd 18e3 14bd 888f 293d 13b5 13be
000003f0: 6298 ea3c aa6f 2a3a a52a 57bd cd2a 8e3c

model.2.bias f4 [64]
-0.029469032 0.05163785 0.5631264 0.040937178 -0.0964547 -0.110421695 -0.0067173084 -0.006219694
-0.07503166 -0.061338667 0.007107838 -0.060737845 -0.06703905 -0.06756749 -0.039057184 -0.012506109
-0.09521709 0.18141057 -0.07238468 0.6205123 -0.08287724 -0.10242311 0.4158203 0.018839376
0.027858365 0.17162368 -0.01964482 0.03770644 0.48354688 -0.17694966 0.50883716 0.04650355
0.1441157 -0.3078146 -0.19018231 0.021893885 0.3203648 0.08533793 -0.028098576 -0.07805534
0.42648712 -0.13807113 0.04422585 0.3867135 -0.014909744 0.5774677 0.70742416 0.042961843
0.08485279 0.047509484 0.55521953 0.065899774 0.014929684 0.028431548 -0.11473618 -0.05468209
-0.09147654 0.013733488 -0.0062760655 0.33261338 -0.0033890663 -0.04082017 0.026635429 0.03337699
00000000: 0a69 f1bc 3682 533d 0d29 103f bead 273d
00000010: 0b8a c5bd c524 e2bd de1c dcbb 93ce cbbb
00000020: 33aa 99bd 413e 7bbd dee8 e83b 3fc8 78bd
00000030: c54b 89bd d360 8abd 6dfa 1fbd 6ce6 4cbc
00000040: 2d01 c3bd b1c3 393e 6b3e 94bd e5d9 1e3f
00000050: 8bbb a9bd 35c3 d1bd 66e6 d43e 0955 9a3c
00000060: 3a37 e43c 1ebe 2f3e 2cee a0bc 1172 1a3d
00000070: 7593 f73e 4b32 35be 2743 023f 827a 3e3d
00000080: 1193 133e e099 9dbe 27bf 42be ce5a b33c
00000090: db06 a43e a7c5 ae3d fc2e e6bc 7adb 9fbd
000000a0: 855c da3e 8562 0dbe 2a26 353d 50ff c53e
000000b0: 0048 74bc ecd4 133f c019 353f c2f8 2f3d
000000c0: 4dc7 ad3d 4e99 423d de22 0e3f 76f6 863d
000000d0: a29b 743c 47e9 e83c cdfa eabd 54fa 5fbd
000000e0: 0d58 bbbd 6c02 613c 74a7 cdbb 4d4c aa3e
000000f0: 191b 5ebb 0d33 27bd 8b32 da3c 50b6 083d

model.4.weight f4 [3, 64]
-0.054177858 -0.06839005 0.008688799 -0.038328853 -0.063273676 0.05886668 0.029703736 -0.022221195
-0.045443624 -0.07802719 -0.03791758 0.024177955 -0.07302588 -0.11348382 -0.11456019 -0.1053028
-0.008640189 0.036003552 -0.048126966 0.008893519 0.03664507 -0.084495045 0.036505 0.0076272963
0.103670105 -0.0015607576 0.057333604 -0.0625985 0.009131432 -0.004599642 0.0003335207 0.12357241
0.02733256 -0.059052914 -0.055524375 -0.07758254 0.0013360766 -0.073727146 0.08749618 0.010666573
0.022658555 0.023422465 -0.020088812 -0.013297452 -0.018671572 0.014299899 0.010211085 0.043472186
0.0032603084 0.105512455 0.026068833 0.06220469 -0.0005910367 -0.11795071 0.016429486 -0.019065028
-0.04885462 -0.004890293 -0.033860624 0.037352115 -0.03690444 -0.077557415 0.04588929 -0.088060856
-0.07720126 0.02870547 0.019541109 -0.11055846 0.06842815 -0.017749157 0.052712828 -0.001233533
-0.02728352 -0.036750723 -0.016203081 -0.060134035 0.054896355 0.007463934 0.06741229 -0.107507706
-0.006940996 -0.012127336 0.010266043 0.0097002145 0.010078265 0.01302653 0.03238381 0.029148048
-0.036592066 0.005657628 0.033690922 0.056072928 -0.0016561031 -0.0011364442 0.028113462 0.029483294
0.012955668 -0.10155131 -0.13748646 0.030054871 -0.00606426 0.04681255 -0.10740383 0.03372212
0.0305161 0.01634453 -0.06107326 -0.01511121 0.042693973 0.01250644 0.013796969 -0.010344207
0.09501205 -0.0062835207 0.027278947 0.09046614 -0.07377949 -0.06275566 -0.013361724 -0.023750769
0.112803124 -0.059247285 0.061656326 0.012309741 0.011527696 -0.07753576 -0.0943722 0.025943533
0.0327007 0.037627295 0.007891668 0.07193127 -0.11723108 0.05890295 0.046286676 -0.06313111
-0.077983856 -0.123109736 -0.0750321 0.061907936 0.035536572 -0.067900926 -0.08598231 -0.12672573
0.08798382 0.025101257 0.011633187 0.012044065 0.01928497 0.002900189 0.065788634 0.04025672
-0.06439726 -0.011572215 0.032923594 0.03167434 0.013446579 -0.0017264849 0.06337834 -0.11466658
0.023806693 -0.06286564 -0.07831482 -0.07144785 0.010636109 0.11125478 -0.055438057 0.017291822
0.024334794 0.01042361 -0.06929333 0.0106730815 -0.112519294 0.002807377 0.02550828 0.0014074892
0.006439036 0.022495374 0.031522136 -0.0905603 -0.09826833 0.006975219 0.038287997 0.11863568
0.08895523 -0.08683292 -0.039573587 0.0122806765 0.050379172 0.074606076 -0.0898158 -0.07917086
00000000: 9ae9 5dbd 1510 8cbd 775b 0e3c b7fe 1cbd
00000010: a195 81bd 301e 713d 4055 f33c 3909 b6bc
00000020: 1823 3abd b8cc 9fbd 774f 1bbd d910 c63c
00000030: 988e 95bd 346a e8bd 889e eabd ffa8 d7bd
00000040: 948f 0dbc 7678 133d c820 45bd 1fb6 113c
00000050: 2419 163d bd0b adbd 4486 153d 66ee f93b
00000060: fe50 d43d 5692 ccba a4d6 6a3d a433 80bd
00000070: 009c 153c 98b8 96bb 64dc ae39 8813 fd3d
00000080: 88e8 df3c 78e1 71bd 876d 63bd 98e3 9ebd
00000090: 4b1f af3a 42fe 96bd 3231 b33d dac2 2e3c
000000a0: 6f9e b93c 78e0 bf3c 4b91 a4bc 8edd 59bc
000000b0: 20f5 98bc 204a 6a3c 654c 273c e40f 323d
000000c0: e6aa 553b ea16 d83d 4e8e d53c 58ca 7e3d
000000d0: cdef 1aba 2490 f1bd 2197 863c 432e 9cbc
000000e0: c81b 48bd c03e a0bb 70b1 0abd 88fe 183d
000000f0: 1c29 17bd 6cd6 9ebd 68f6 3b3d 4059 b4bd
00000100: b21b 9ebd bc27 eb3c ad14 a03c 796c e2bd
00000110: 0f24 8c3d ae66 91bc 68e9 573d 80ae a1ba
00000120: b081 dfbc ed87 16bd 53bc 84bc 1b4f 76bd
00000130: 00db 603d 0494 f43b 740f 8a3d 002d dcbd
00000140: 4b71 e3bb bcb1 46bc e832 283c a6ed 1e3c
00000150: 4f1f 253c 3a6d 553c e3a4 043d e3c7 ee3c
00000160: 90e1 15bd a063 b93b 7eff 093d baac 653d
00000170: 9911 d9ba bdf4 94ba 344e e63c f386 f13c
00000180: 0344 543c 22fa cfbd 40c9 0cbe a235 f63c
00000190: b3b6 c6bb 84be 3f3d 8af6 dbbd 3520 0a3d
000001a0: e6fc f93c f7e4 853c f427 7abd 0295 77bc
000001b0: e0df 2e3d d0e7 4c3c af0c 623c c07a 29bc
000001c0: ad95 c23d fee5 cdbb 1978 df3c 5046 b93d
000001d0: b419 97bd 0a86 80bd 22eb 5abc f990 c2bc
000001e0: 5305 e73d 48ad 72bd 588b 7c3d ccae 493c
000001f0: a9de 3c3c 12cb 9ebd 3646 c1bd 8887 d43c
00000200: 2bf1 053d 141f 1a3d 0e4c 013c b450 933d
00000210: d916 f0bd 3844 713d 1997 3d3d e24a 81bd
00000220: 00b6 9fbd f520 fcbd 6eaa 99bd 2d93 7d3d
00000230: cc8e 113d a40f 8bbd 7e17 b0bd 64c4 01be
00000240: dc30 b43d 27a1 cd3c 1f99 3e3c 7854 453c
00000250: 83fb 9d3c 1911 3e3b 31bc 863d 3be4 243d
00000260: b6e2 83bd 6399 3dbc e4da 063d f4bc 013d
00000270: 0a4f 5c3c 384b e2ba 81cc 813d 50d6 eabd
00000280: 4106 c33c b3bf 80bd 8563 a0bd 4053 92bd
00000290: 1343 2e3c 8cd9 e33d 0413 63bd 94a7 8d3c
000002a0: c359 c73c cac7 2a3c a9e9 8dbd 26de 2e3c
000002b0: 8470 e6bd f8fb 373b bef6 d03c 807b b83a
000002c0: 8dfe d23b 3848 b83c 5b1d 013d ae77 b9bd
000002d0: e840 c9bd 6190 e43b e0d3 1c3d 43f7 f23d
000002e0: 292e b63d 75d5 b1bd ea17 22bd e434 493c
000002f0: 645a 4e3d 12cb 983d 59f1 b7bd 5524 a2bd

model.4.bias f4 [3]
0.5453879 0.49174678 0.3288663
00000000: 8b9e 0b3f 3cc6 fb3e 2a61 a83e

model.0.weight f4 [128, 21]
-0.01621943 0.14994524 -2.5046043 0.29804814 -0.025066702 0.48177513 0.40699387 0.5269995
0.60470635 0.053390622 0.6629573 -0.015854547 0.09939174 0.0071395664 -0.23510706 -0.08702935
0.15238671 -0.46944788 0.077021174 0.5161551 0.02146265 -0.012900747 0.005466905 3.5834303
-0.7338582 -0.70136464 -0.62674814 -0.6286658 -0.6712365 -0.6843547 -0.39108866 -0.83102185
-0.13058195 0.05626641 -0.012200058 -0.51801115 0.034929786 0.1971919 -0.4682738 -0.002823665
-0.49777785 -0.18356864 0.15847325 0.20534958 -2.5961757 -0.07701199 0.31627887 0.5562683
0.5873351 0.42274022 0.2461362 0.533286 0.3184755 0.16259317 0.21130975 0.11074193
0.5097017 0.13245098 0.18896589 0.52822155 0.1139018 0.18507516 0.26154286 -0.064221054
0.034057792 -2.3813438 0.07087577 -0.07328389 0.28652772 0.26977554 0.63667005 0.5984503
0.45818985 0.12182805 -0.22320746 -0.10011379 -0.14086382 0.24081117 0.15741709 0.18099876
0.49684042 -0.24454707 0.51269174 0.09911654 -0.02941159 -0.1626377 0.14295742 -0.17349812
-0.22131331 -0.046314754 -0.010709975 -0.18235274 0.07323013 0.14834653 -0.28496173 -0.1418448
0.039525956 -0.21860439 0.06296826 -0.30946788 -0.24212341 -0.036923937 -0.01733473 -0.24752817
-0.14199331 -0.1490606 -0.18513533 -0.12016444 -0.19098693 -0.13894764 0.21813254 0.04121588
0.067245975 -0.2035284 -0.1433198 -0.0726351 0.03412299 -0.19201458 -0.0940242 -0.1306402
0.0006047338 -0.08119959 -0.015121579 -0.14787093 -0.1497837 -0.12730871 -0.024432313 -0.16201688
-2.7973232 0.05715038 0.5480314 0.74841106 0.21129937 1.1405132 0.28156823 0.83782953
0.5601117 -0.50828004 0.17978296 0.003723959 0.51528466 -0.036973912 0.17659658 -0.01834025
-0.40524733 0.32909602 0.12380326 0.06441912 0.14880097 -2.1353 0.010728022 -0.02242127
0.30973747 -0.9134927 1.2373949 -0.39562812 -0.2088297 0.8413589 -0.34401777 -0.15572418
0.1605119 0.8750788 0.0041779475 -0.21739987 1.5369455 -0.06900267 0.56762475 0.6392766
-0.030750405 -0.17575459 -1.239218 -0.15076762 0.12755273 0.09291905 0.43189648 -0.1592039
0.39485088 0.5467895 -0.022007458 0.57395124 0.022471376 0.09693314 0.5574763 -0.10671849
0.081668265 0.09395404 0.054005593 -0.29391766 -0.15066454 -0.12459287 -0.027826382 -2.5329933
-0.10725862 0.15680343 0.4747661 0.2967774 0.55075425 0.43151325 0.53827655 0.52905387
-0.2846905 0.001838322 0.22507644 0.50279117 0.05177273 -0.08144523 -0.35174266 -0.300577
0.14354332 0.32725012 0.11805002 -0.022517767 -0.96215016 -0.0343052 0.17670667 0.26890782
-0.105549626 0.15589623 1.0575495e-05 0.36243114 0.012731955 0.4423197 -0.08040988 -0.19551946
0.95062345 0.119957075 -0.00018325525 0.85271007 -0.018435966 -0.17468455 -0.32532847 0.0853114
0.049449954 -1.414645 -0.07900303 0.053180587 0.19904964 -0.95648897 0.6490325 -0.31195876
-0.1195638 0.32226068 0.33248556 -0.120760396 -0.06439509 1.7288103 -0.029618835 0.061404366
1.5438331 -0.14446896 0.35972008 0.18188372 -0.11861268 -0.09074593 -2.7384324 -0.061577242
00000000: 9cde 84bc 3f8b 193e 704b 20c0 c499 983e
00000010: af58 cdbc 3bab f63e 8061 d03e 70e9 063f
00000020: 09ce 1a3f 20b0 5a3d 92b7 293f 65e1 81bc
00000030: e68d cb3d 06f3 e93b e8bf 70be 723c b2bd
00000040: 430b 1c3e 795b f0be 47bd 9d3d be22 043f
00000050: 70d2 af3c a85d 53bc b923 b33b ec56 6540
00000060: 22de 3bbf a28c 33bf 9172 20bf 3ef0 20bf
00000070: 28d6 2bbf df31 2fbf c63c c8be d9bd 54bf
00000080: 46b7 05be 9b77 663d c1e2 47bc 619c 04bf
00000090: 8912 0f3d acec 493e 95c1 efbe 3d0d 39bb
000000a0: bddc febe 6bf9 3bbe d046 223e 2947 523e
000000b0: be27 26c0 76b8 9dbd 4eef a13e 9967 0e3f
000000c0: 985b 163f 6871 d83e 210b 7c3e 6e85 083f
000000d0: 390f a33e d37e 263e 9561 583e aacc e23d
000000e0: d07b 023f 3ba1 073e 4680 413e 8739 073f
000000f0: 5945 e93d 5884 3d3e f2e8 853e 5486 83bd
00000100: 2f80 0b3d f067 18c0 5127 913d dd15 96bd
00000110: c3b3 923e 0520 8a3e cffc 223f 0a34 193f
00000120: dc97 ea3e fc80 f93d 7f90 64be 7508 cdbd
00000130: 9b3e 10be 3497 763e f231 213e bd57 393e
00000140: de61 fe3e 8c6a 7abe c43f 033f 9dfd ca3d
00000150: 93f0 f0bc 7f8a 26be 6e63 123e 7ea9 31be
00000160: f59f 62be 8ab4 3dbd e478 2fbc adba 3abe
00000170: aef9 953d 27e8 173e 81e6 91be c33f 11be
00000180: f8e5 213d d4d9 5fbe 81f5 803d 9372 9ebe
00000190: 33ef 77be 8e3d 17bd 9001 8ebc 0678 7dbe
000001a0: b266 11be 58a3 18be 1e94 3dbe c618 f6bd
000001b0: 1492 43be 4a48 0ebe 235e 5f3e fcd1 283d
000001c0: 42b8 893d c069 50be 6dc2 12be b6c1 94bd
000001d0: 8cc4 0b3d 789f 44be c38f c0bd 8bc6 05be
000001e0: 0087 1e3a f84b a6bd 80c0 77bc 7a6b 17be
000001f0: e660 19be 375d 02be 4626 c8bc c1e7 25be
00000200: 5807 33c0 8416 6a3d c94b 0c3f de97 3f3f
00000210: dd5e 583e 56fc 913f b629 903e ff7b 563f
00000220: 7b63 0f3f a41e 02bf 0619 383e aa0d 743b
00000230: b2e9 033f f571 17bd bcd5 343e 4b3e 96bc
00000240: 947c cfbe 467f a83e 908c fd3d 2cee 833d
00000250: 485f 183e c1a8 08c0 96c4 2f3c d0ac b7bc
00000260: e995 9e3e a8da 69bf f562 9e3f c58f cabe
00000270: 74d7 55be 4c63 573f 1923 b0be 2976 1fbe
00000280: 3b5d 243e 2a05 603f 2ae7 883b 129e 5ebe
00000290: a1ba c43f 4651 8dbd db4f 113f a2a7 233f
000002a0: 46e8 fbbc 03f9 33be b29e 9ebf d462 1abe
000002b0: 2f9d 023e 584c be3d 8921 dd3e 5906 23be
000002c0: e529 ca3e 66fa 0b3f fc48 b4bc 78ee 123f
000002d0: e415 b83c e284 c63d c4b6 0e3f 398f dabd
000002e0: b141 a73d fa6a c03d f834 5d3d 607c 96be
000002f0: ce47 1abe 8c2a ffbd 27f4 e3bc 901c 22c0
00000300: 68aa dbbd 1491 203e 8b14 f33e 35f3 973e
00000310: 3bfe 0c3f 4eef dc3e 7ecc 093f 1370 073f
00000320: f4c2 91be daf3 f03a 707a 663e ecb6 003f
00000330: a40f 543d c2cc a6bd 9d17 b4be 3be5 99be
00000340: 05fd 123e 548d a73e 35c4 f13d 2e77 b8bc
00000350: 794f 76bf 9c83 0cbd 98f2 343e 49ae 893e
00000360: 672a d8bd 43a3 1f3e 686d 3137 9390 b93e
00000370: b199 503c ba77 e23e efad a4bd 4136 48be
00000380: 0f5c 733f 0eac f53d 3528 40b9 354b 5a3f
00000390: 0607 97bc 82e0 32be 7491 a6be beb7 ae3d
000003a0: 098c 4a3d 1613 b5bf 57cc a1bd e3d3 593d
000003b0: abd3 4b3e 76dc 74bf fe26 263f 0fb9 9fbe
000003c0: dedd f4bd 5aff a43e 8c3b aa3e 3a51 f7bd
000003d0: 93e1 83bd a849 dd3f 33a3 f2bc 2583 7b3d
000003e0: 539c c53f acef 13be 3b2d b83e ba3f 3a3e
000003f0: 34eb f2bd 01d9 b9bd 7a42 2fc0 6b38 7cbd

model.0.bias f4 [128]
0.30417454 -0.54021126 0.7319956 0.64360315 -0.086995676 -0.109249756 0.9199882 0.37113616
0.3066786 0.40769395 -0.032672588 0.035379827 0.7635727 0.60006326 -0.32310587 0.5598366
0.32458925 -0.5337407 -0.12401795 -0.1404496 -0.109794915 0.0684138 0.04204966 -0.29619884
-0.1731018 0.17747535 0.6993342 0.22158244 0.14684498 0.01021879 -0.48588705 0.5413982
-0.019647298 0.689597 0.67586035 -0.24349758 0.33389494 -0.23949698 0.5465361 -0.15636586
-0.4705629 0.4878036 0.50104463 0.05896654 -0.20827559 0.6026725 0.41561702 0.21526133
-0.27385873 0.73573154 -0.11138999 0.32965782 0.5174393 -0.40175402 -0.13762257 0.7512208
0.5801763 0.38537967 -0.79126924 0.6078989 0.4941164 0.81226754 -0.04138541 -0.15333575
0.21740828 -0.015452193 0.12798168 -0.23105034 0.0812916 -0.08658029 0.08648732 0.36752963
0.018674985 0.16291705 0.3316072 0.31589052 -0.26550096 0.41853896 0.23885374 -0.5393135
-0.6980972 0.25991604 -0.35062164 0.38092053 -0.31768107 0.51352865 0.56064 -0.008467791
-0.24332434 0.41781977 0.4796829 0.27571583 -0.41210207 -0.11797914 0.8054949 -0.14915603
-0.24817847 0.09063761 -0.20900956 0.17561728 0.2639881 -0.18013701 -0.059418466 0.3006868
-0.6830743 0.246382 0.5160221 -0.0006990582 0.6033018 0.16361031 -0.41321704 -0.23735708
-0.044529293 0.6206739 0.15109774 -0.19522105 0.49651596 0.217311 -0.526435 -0.41532737
-0.024867795 -0.5336302 -0.1788085 -0.20453571 0.4109175 -0.07797322 -0.10842856 0.28012636
00000000: c4bc 9b3e 494b 0abf 1064 3b3f 2dc3 243f
00000010: ca2a b2bd 56be dfbd 5984 6b3f 8f05 be3e
00000020: fa04 9d3e 43bd d03e b1d3 05bd 70ea 103d
00000030: 8079 433f bf9d 193f 226e a5be 7451 0f3f
00000040: 9030 a63e 3ba3 08bf 1ffd fdbd 05d2 0fbe
00000050: 28dc e0bd 891c 8c3d 443c 2c3d 60a7 97be
00000060: 9941 31be 19bc 353e 9107 333f 82e6 623e
00000070: 885e 163e b66c 273c 30c6 f8be 1399 0a3f
00000080: 5ff3 a0bc 6e89 303f 2f05 2d3f 6e57 79be
00000090: 47f4 aa3e b23e 75be cae9 0b3f 5f1e 20be
000000a0: 9fed f0be 65c1 f93e 7644 003f e686 713d
000000b0: 3246 55be bf48 1a3f c1cb d43e 776d 5c3e
000000c0: 3637 8cbe e758 3c3f 6f20 e4bd e9c8 a83e
000000d0: e776 043f b4b2 cdbe eeec 0cbe 0250 403f
000000e0: 6f86 143f 7c50 c53e 9f90 4abf 439f 1b3f
000000f0: d3fc fc3e c4f0 4f3f bf83 29bd 0c04 1dbe
00000100: 47a0 5e3e 322b 7dbc a10d 033e 7698 6cbe
00000110: 367c a63d 0251 b1bd 4420 b13d d82c bc3e
00000120: 48fc 983c bad3 263e 6bc8 a93e 67bc a13e
00000130: beef 87be bd4a d63e 1396 743e 7310 0abf
00000140: 80b6 32bf b713 853e ae84 b3be 0408 c33e
00000150: 18a7 a2be 9d76 033f 1a86 0f3f 7dbc 0abc
00000160: 042a 79be 79ec d53e ff98 f53e a02a 8d3e
00000170: 0bff d2be 0c9f f1bd ea34 4e3f 5cbc 18be
00000180: 7f22 7ebe 36a0 b93d 9a06 56be 04d5 333e
00000190: 7329 873e d675 38be c760 73bd 9ff3 993e
000001a0: f5dd 2ebf 904b 7c3e 061a 043f 0041 37ba
000001b0: fd71 1a3f 7689 273e 2f91 d3be bc0d 73be
000001c0: 5964 36bd 7ce4 1e3f 5eb9 1a3e 07e8 47be
000001d0: 5737 fe3e c686 5e3e 72c4 06bf caa5 d4be
000001e0: 8cb7 cbbc fd9b 08bf 9319 37be cf71 51be
000001f0: c763 d23e 6cb0 9fbd cb0f debd b96c 8f3e

model.2.weight f4 [64, 128]
0.029040547 -0.05914335 -0.07084401 0.02725811 0.034533218 -0.050222922 -0.0082017705 0.0074120527
-0.092002004 -0.02340929 -0.0007239773 -0.03775564 0.04127568 -0.09558386 0.0090012755 -0.08996326
-0.09344851 0.0470403 -0.042401858 -0.038164612 0.018048912 -0.08802426 -0.075659454 0.0016580519
0.07706808 -0.009352893 0.029963186 0.017298793 -0.01502909 -0.08478863 0.070573844 0.005937548
-0.027571652 0.02512397 -0.11474788 -0.009388466 -0.07959338 -0.008975625 0.01264673 -0.0023655188
0.009380824 -0.10695861 -0.09441944 0.0015433133 -0.043742817 -0.08761904 0.057987854 -0.009400501
-0.06953712 -0.00497998 0.025086008 -0.08142875 0.029940547 -0.09455157 0.00219017 0.04204917
0.025935521 0.029169582 -0.031650428 -0.025742132 -0.0008170991 -0.004378226 -0.04634151 -0.016102144
-0.03580003 -0.07839772 -0.08156797 -0.100498505 -0.08391741 0.05605482 0.0050142896 -0.0936227
-0.08427181 0.020645693 -0.05509425 -0.060112588 -0.061625853 -0.035990626 -0.03086793 -0.005802443
0.042800196 0.022818914 0.044308126 -0.028978068 -0.08053313 -0.013996237 -0.09295247 0.036161587
-0.0106640905 -0.06610307 -0.1239226 0.007197271 0.03464906 0.080630235 -0.07329884 0.026632339
-0.025102971 -0.05630074 -0.08369057 0.016827626 -0.06513017 0.03592822 -0.007968412 0.015337141
0.044211876 0.0008849616 -0.0042077606 0.045859568 -0.0772011 -0.046870697 -0.030665545 0.020635678
0.027031884 0.023883212 -0.02788093 -0.011215128 -0.085342385 0.015015374 -0.06984574 -0.04246513
0.044553306 0.0062057367 -0.065436855 -0.10017376 -0.09484199 0.042896926 -0.08078733 0.04725763
0.0067564445 -0.018905118 -0.08165044 0.045419667 -0.013526735 0.08357217 0.026944404 -0.095368996
0.016145093 -0.0004006289 -0.1341387 0.012383761 -0.10260226 -0.1474813 -0.06307023 -0.028169319
-0.061927635 -0.07047197 0.027429854 0.033323996 -0.041824047 -0.087205276 -0.0045576766 -0.07844118
-0.10886979 -0.0013519443 -0.009028329 -0.08359982 -0.029649239 -0.10092757 -0.09830052 -0.060637955
-0.06169078 -0.025052657 0.020108625 0.010454596 0.02839988 0.007632627 -0.02250257 -0.02603406
-0.07100484 0.023645956 0.019387223 -0.03751261 -0.0019924222 -0.09238601 -0.11788273 -0.025297692
0.021655982 -0.05203986 0.014226666 -0.09924855 -0.07536958 0.026220169 -0.0961298 -0.037014656
0.033637576 -0.005217675 0.017654829 -0.102361865 -0.051589165 -0.0957907 -0.05627898 0.02302775
-0.03003811 -0.083937414 -0.07095269 0.0051032077 -0.020884804 0.06516667 0.005201765 -0.11877609
-0.0048378 0.052753285 0.0052680857 -0.0071253073 -0.09716974 -0.12788205 0.02990455 -0.08937778
-0.0022415328 -0.036390398 0.009833867 -0.03158335 -0.06783175 -0.07699066 0.04234158 0.038496617
0.009248925 -0.09992436 0.012691231 -0.057564836 -0.06160637 0.017929979 -0.07810984 -0.035518814
-0.06957881 -0.005046129 -0.06425476 -0.07541138 -0.119369544 0.018777996 0.020569278 -0.026965024
-0.043770753 -0.1055395 0.019549323 0.072423674 0.06170338 -0.03984465 0.0013270853 0.042364787
-0.046772115 -0.099670164 -0.05582706 0.03864435 0.00083672436 0.064107366 -0.070663266 -0.029097417
-0.058755275 -0.036349386 0.041396648 -0.14424543 0.028637115 0.00065016246 -0.052530903 0.017354393
00000000: 71e6 ed3c 4c40 72bd aa16 91bd 664c df3c
00000010: b472 0d3d 8db6 4dbd b860 06bc cee0 f23b
00000020: 8c6b bcbd d7c4 bfbc 4bc9 3dba a8a5 1abd
00000030: b010 293d 79c1 c3bd 167a 133c a83e b8bd
00000040: ef61 bfbd 54ad 403d 92ad 2dbd 7f52 1cbd
00000050: 50db 933c 1046 b4bd 58f3 9abd fd52 d93a
00000060: dfd5 9d3d e03c 19bc 5b75 f53c 33b6 8d3c
00000070: 933c 76bc a9a5 adbd 0589 903d c38f c23b
00000080: f2dd e1bc c9d0 cd3c f000 ebbd 15d2 19bc
00000090: db01 a3bd 800e 13bc 3b34 4f3c d206 1bbb
000000a0: 07b2 193c 1e0d dbbd fb5e c1bd 0049 ca3a
000000b0: ab2b 33bd 9c71 b3bd ac84 6d3d 8f04 1abc
000000c0: 7a69 8ebd 1a2f a3bb 2c81 cd3c 1ec4 a6bd
000000d0: e145 f53c 41a4 c1bd f588 0f3b c03b 2c3d
000000e0: bb76 d43c 0cf5 ee3c e1a3 01bd 2ae1 d2bc
000000f0: 9832 56ba 3977 8fbb 98d0 3dbd a5e8 83bc
00000100: 0da3 12bd fc8e a0bd 1c0d a7bd 29d2 cdbd
00000110: e4dc abbd bd99 653d e94e a43b 42bd bfbd
00000120: b396 acbd 2821 a93c 82aa 61bd 9e38 76bd
00000130: 646b 7cbd e86a 13bd bede fcbc 6b22 bebb
00000140: 424f 2f3d bbee ba3c 707c 353d 6a63 edbc
00000150: 8eee a4bd 7950 65bc dd5d bebd 2c1e 143d
00000160: 70b8 2ebc 0c61 87bd 22cb fdbd 16d7 eb3b
00000170: 2cec 0d3d 7721 a53d b41d 96bd 102c da3c
00000180: bfa4 cdbc 9b9b 66bd f665 abbd 17da 893c
00000190: f762 85bd 7829 133d f18d 02bc a248 7b3c
000001a0: 8317 353d c5fc 673a 41e1 89bb 3ed7 3b3d
000001b0: 9c1b 9ebd 7dfb 3fbd 4f36 fbbc 270c a93c
000001c0: f871 dd3c baa6 c33c 8c66 e4bc a8bf 37bc
000001d0: fdc7 aebd 0b03 763c 490b 8fbd ebef 2dbd
000001e0: 877d 363d 7e59 cb3b c203 86bd e627 cdbd
000001f0: 843c c2bd b0b4 2f3d d473 a5bd 3791 413d
00000200: 2a65 dd3b e8de 9abc 5938 a7bd f909 3a3d
00000210: 3d9f 5dbc e327 ab3d 83ba dc3c d250 c3bd
00000220: b742 843c 800b d2b9 a85b 09be 42e5 4a3c
00000230: 2221 d2bd 5705 17be f72a 81bd 58c3 e6bc
00000240: d5a7 7dbd 9c53 90bd 93b4 e03c be7e 083d
00000250: b14f 2bbd ae98 b2bd 9058 95bb c5a5 a0bd
00000260: 20f7 debd b933 b1ba 8eeb 13bc 6236 abbd
00000270: f6e2 f2bc 1db3 cebd c851 c9bd 815f 78bd
00000280: 79af 7cbd 3b3b cdbc d8ba a43c c149 2b3c
00000290: dda6 e83c 1e1b fa3b 4f57 b8bc 6245 d5bc
000002a0: fc6a 91bd 2ab5 c13c f4d1 9e3c d3a6 19bd
000002b0: 4c93 02bb e034 bdbd 806c f1bd 1b3d cfbc
000002c0: e367 b13c c027 55bd f616 693c d342 cbbd
000002d0: 5e5b 9abd aecb d63c b3df c4bd ae9c 17bd
000002e0: 8ec7 093d 08f9 aabb dca0 903c 19a3 d1bd
000002f0: 294f 53bd ea2d c4bd ca84 66bd b1a4 bc3c
00000300: 7c12 f6bc 61e7 abbd a54f 91bd cf38 a73b
00000310: 9c16 abbc 1a76 853d 9173 aa3b e140 f3bd
00000320: 6886 9ebb d413 583d e89f ac3b 697b e9bb
00000330: ee00 c7bd 83f3 02be 63fa f43c b30b b7bd
00000340: aee6 12bb 190e 15bd 3a1e 213c 8b5d 01bd
00000350: 5feb 8abd 47ad 9dbd 5d6e 2d3d a1ae 1d3d
00000360: ce88 173c 25a5 ccbd e2ee 4f3c 1bc9 6bbd
00000370: f656 7cbd e4e1 923c 0df8 9fbd 2d7c 11bd
00000380: 567f 8ebd 005a a5bb 0098 83bd 4871 9abd
00000390: 0578 f4bd 50d4 993c e780 a83c c1e5 dcbc
000003a0: f648 33bd 1825 d8bd e725 a03c dd52 943d
000003b0: afbc 7c3d 2534 23bd 98f1 ad3a b386 2d3d
000003c0: 1e94 3fbd df1f ccbd eaaa 64bd 8a49 1e3d
000003d0: 9f57 5b3a b94a 833d e7b7 90bd b55d eebc
000003e0: 5fa9 70bd 18e3 14bd 888f 293d 13b5 13be
000003f0: 6298 ea3c aa6f 2a3a a52a 57bd cd2a 8e3c

model.2.bias f4 [64]
-0.029469032 0.05163785 0.5629245 0.040937178 -0.0964547 -0.110421695 -0.0067173084 -0.006219694
-0.07503166 -0.061338667 0.007107838 -0.060737845 -0.06703905 -0.06756749 -0.039057184 -0.012506109
-0.09521709 0.18141057 -0.07238468 0.6203184 -0.08287724 -0.10242311 0.4158203 0.018839376
0.027858365 0.17186187 -0.01964482 0.03770644 0.4833211 -0.17695642 0.5088388 0.04650355
0.1441157 -0.3078146 -0.19018231 0.021893885 0.32032377 0.08533793 -0.028098576 -0.07805534
0.42485753 -0.13807113 0.04422585 0.38669565 -0.014909744 0.57741636 0.7073191 0.042961843
0.08485279 0.047509484 0.5550149 0.065899774 0.014929684 0.028431548 -0.11473618 -0.05468209
-0.09147654 0.013733488 -0.0062760655 0.3326108 -0.0033890663 -0.04082017 0.026635429 0.03337699
00000000: 0a69 f1bc 3682 533d d21b 103f bead 273d
00000010: 0b8a c5bd c524 e2bd de1c dcbb 93ce cbbb
00000020: 33aa 99bd 413e 7bbd dee8 e83b 3fc8 78bd
00000030: c54b 89bd d360 8abd 6dfa 1fbd 6ce6 4cbc
00000040: 2d01 c3bd b1c3 393e 6b3e 94bd 30cd 1e3f
00000050: 8bbb a9bd 35c3 d1bd 66e6 d43e 0955 9a3c
00000060: 3a37 e43c 8ffc 2f3e 2cee a0bc 1172 1a3d
00000070: dd75 f73e 1034 35be 4243 023f 827a 3e3d
00000080: 1193 133e e099 9dbe 27bf 42be ce5a b33c
00000090: 7a01 a43e a7c5 ae3d fc2e e6bc 7adb 9fbd
000000a0: ed86 d93e 8562 0dbe 2a26 353d f9fc c53e
000000b0: 0048 74bc 8fd1 133f dd12 353f c2f8 2f3d
000000c0: 4dc7 ad3d 4e99 423d 7515 0e3f 76f6 863d
000000d0: a29b 743c 47e9 e83c cdfa eabd 54fa 5fbd
000000e0: 0d58 bbbd 6c02 613c 74a7 cdbb f64b aa3e
000000f0: 191b 5ebb 0d33 27bd 8b32 da3c 50b6 083d

model.4.weight f4 [3, 64]
-0.054177858 -0.06839005 0.008740816 -0.038328853 -0.063273676 0.05886668 0.029703736 -0.022221195
-0.045443624 -0.07802719 -0.03791758 0.024177955 -0.07302588 -0.11348382 -0.11456019 -0.1053028
-0.008640189 0.036003552 -0.048126966 0.009085496 0.03664507 -0.084495045 0.036505 0.0076272963
0.103670105 -0.0015367867 0.057333604 -0.0625985 0.009166639 -0.0046159336 0.0003335207 0.12357241
0.02733256 -0.059052914 -0.055524375 -0.07758254 0.0013627029 -0.073727146 0.08749618 0.010666573
0.02253593 0.023422465 -0.020088812 -0.013297452 -0.018671572 0.014383283 0.010278725 0.043472186
0.0032603084 0.105512455 0.026436409 0.06220469 -0.0005910367 -0.11795071 0.016429486 -0.019065028
-0.04885462 -0.004890293 -0.033860624 0.037301008 -0.03690444 -0.077557415 0.04588929 -0.088060856
-0.07720126 0.02870547 0.018549936 -0.11055846 0.06842815 -0.017749157 0.052712828 -0.001233533
-0.02728352 -0.036750723 -0.016203081 -0.060134035 0.054896355 0.007463934 0.06741229 -0.107507706
-0.006940996 -0.012127336 0.010266043 0.009490511 0.010078265 0.01302653 0.03238381 0.029148048
-0.036592066 0.0053527257 0.033690922 0.056072928 -0.0021215838 -0.0010557603 0.02811342 0.029483294
0.012955668 -0.10155131 -0.13748646 0.030054871 -0.006758196 0.04681255 -0.10740383 0.03372212
0.028669383 0.01634453 -0.06107326 -0.01511053 0.042693973 0.012210411 0.013342102 -0.010344207
0.09501205 -0.0062835207 0.027321795 0.09046614 -0.07377949 -0.06275566 -0.013361724 -0.023750769
0.112803124 -0.059247285 0.061656326 0.012358463 0.011527696 -0.07753576 -0.0943722 0.025943533
0.0327007 0.037627295 0.0076277265 0.07193127 -0.11723108 0.05890295 0.046286676 -0.06313111
-0.077983856 -0.123109736 -0.0750321 0.061907936 0.035536572 -0.067900926 -0.08598231 -0.12672573
0.08798382 0.025101257 0.011633187 0.012024488 0.01928497 0.002900189 0.065788634 0.04025672
-0.06439726 -0.011731446 0.032923594 0.03167434 0.013322292 -0.0017000794 0.063378364 -0.11466658
0.023806693 -0.06286564 -0.07831482 -0.07144785 0.010604987 0.11125478 -0.055438057 0.017291822
0.024497988 0.01042361 -0.06929333 0.010673247 -0.112519294 0.0026596796 0.02545421 0.0014074892
0.006439036 0.022495374 0.031373125 -0.0905603 -0.09826833 0.006975219 0.038287997 0.11863568
0.08895523 -0.08683292 -0.039573587 0.012306977 0.050379172 0.074606076 -0.0898158 -0.07917086
00000000: 9ae9 5dbd 1510 8cbd a435 0f3c b7fe 1cbd
00000010: a195 81bd 301e 713d 4055 f33c 3909 b6bc
00000020: 1823 3abd b8cc 9fbd 774f 1bbd d910 c63c
00000030: 988e 95bd 346a e8bd 889e eabd ffa8 d7bd
00000040: 948f 0dbc 7678 133d c820 45bd 55db 143c
00000050: 2419 163d bd0b adbd 4486 153d 66ee f93b
00000060: fe50 d43d 016e c9ba a4d6 6a3d a433 80bd
00000070: ac2f 163c 4241 97bb 64dc ae39 8813 fd3d
00000080: 88e8 df3c 78e1 71bd 876d 63bd 98e3 9ebd
00000090: b99c b23a 42fe 96bd 3231 b33d dac2 2e3c
000000a0: 459d b83c 78e0 bf3c 4b91 a4bc 8edd 59bc
000000b0: 20f5 98bc dda7 6b3c 1968 283c e40f 323d
000000c0: e6aa 553b ea16 d83d 2b91 d83c 58ca 7e3d
000000d0: cdef 1aba 2490 f1bd 2197 863c 432e 9cbc
000000e0: c81b 48bd c03e a0bb 70b1 0abd f1c8 183d
000000f0: 1c29 17bd 6cd6 9ebd 68f6 3b3d 4059 b4bd
00000100: b21b 9ebd bc27 eb3c 09f6 973c 796c e2bd
00000110: 0f24 8c3d ae66 91bc 68e9 573d 80ae a1ba
00000120: b081 dfbc ed87 16bd 53bc 84bc 1b4f 76bd
00000130: 00db 603d 0494 f43b 740f 8a3d 002d dcbd
00000140: 4b71 e3bb bcb1 46bc e832 283c 177e 1b3c
00000150: 4f1f 253c 3a6d 553c e3a4 043d e3c7 ee3c
00000160: 90e1 15bd eb65 af3b 7eff 093d baac 653d
00000170: 450a 0bbb 7061 8aba 1d4e e63c f386 f13c
00000180: 0344 543c 22fa cfbd 40c9 0cbe a235 f63c
00000190: db73 ddbb 84be 3f3d 8af6 dbbd 3520 0a3d
000001a0: 0edc ea3c f7e4 853c f427 7abd 2892 77bc
000001b0: e0df 2e3d 2d0e 483c d598 5a3c c07a 29bc
000001c0: ad95 c23d fee5 cdbb f5d1 df3c 5046 b93d
000001d0: b419 97bd 0a86 80bd 22eb 5abc f990 c2bc
000001e0: 5305 e73d 48ad 72bd 588b 7c3d 277b 4a3c
000001f0: a9de 3c3c 12cb 9ebd 3646 c1bd 8887 d43c
00000200: 2bf1 053d 141f 1a3d 02f2 f93b b450 933d
00000210: d916 f0bd 3844 713d 1997 3d3d e24a 81bd
00000220: 00b6 9fbd f520 fcbd 6eaa 99bd 2d93 7d3d
00000230: cc8e 113d a40f 8bbd 7e17 b0bd 64c4 01be
00000240: dc30 b43d 27a1 cd3c 1f99 3e3c 5c02 453c
00000250: 83fb 9d3c 1911 3e3b 31bc 863d 3be4 243d
00000260: b6e2 83bd 4035 40bc e4da 063d f4bc 013d
00000270: be45 5a3c 33d5 deba 84cc 813d 50d6 eabd
00000280: 4106 c33c b3bf 80bd 8563 a0bd 4053 92bd
00000290: 8ac0 2d3c 8cd9 e33d 0413 63bd 94a7 8d3c
000002a0: 01b0 c83c cac7 2a3c a9e9 8dbd d8de 2e3c
000002b0: 8470 e6bd 054e 2e3b 5985 d03c 807b b83a
000002c0: 8dfe d23b 3848 b83c 1b81 003d ae77 b9bd
000002d0: e840 c9bd 6190 e43b e0d3 1c3d 43f7 f23d
000002e0: 292e b63d 75d5 b1bd ea17 22bd 34a3 493c
000002f0: 645a 4e3d 12cb 983d 59f1 b7bd 5524 a2bd

model.4.bias f4 [3]
0.5457807 0.49128044 0.3284863
00000000: 49b8 0b3f 1c89 fb3e 5b2f a83e
