models/rl/dqn/dqn_final.pt (torch, 189504 bytes, 24 tensors)

model.0.weight f4 [128, 21]
00000000: 893b 9fbd 4458 ac3d 1a06 20c0 5924 643e
00000010: 8c01 cebd 01c5 033f 2225 f43e ee49 f63e
00000020: ec65 2d3f 655f 99bd e9c7 1e3f 9f05 9bbe
00000030: fac5 8c3d 636c 42bd 71d0 0cbf 5d4a cdbd
00000040: be1f c33d 3fbb 7fbe 4742 cb3d d873 ed3e
00000050: 5375 9d3d b604 493a 2bde 00bb 6dc5 7340
00000060: e509 44bf 21d0 3fbf 15f1 2bbf 3cb9 3abf
00000070: 0665 25bf 01fa 45bf a5a8 9abe 5346 51bf
00000080: 3343 5dbe 7a33 8f3d 28ba fcbc 182d 2dbf
00000090: 90f6 f33c 1426 403e 27e4 9abe 1daa 263c
000000a0: 6485 eabd 41ed bbbc 2b1d 633e dea2 863e
000000b0: a5a1 1dc0 498f 11bd 5329 b73e e8b5 103f
000000c0: 6a30 143f 296f d23e b712 703e f059 103f
000000d0: 6786 973e 5a3c 093e 2448 573e db24 193e
000000e0: 3bb2 d53e 999e ef3d 53f6 6c3e 233c 2e3f
000000f0: f391 4a3e 8355 683e 74ff b23e 4c35 ccbd
00000100: 226e 1c3d e734 0ec0 f385 953d 3a8b 40bd
00000110: ffda 983e 416a a53e 1df4 143f 08e3 2d3f
00000120: 6bf1 b93e ffb6 613d 263f c9be bbe6 0abe
00000130: 9fa0 28be 911e 2e3e 458b f93d 2e28 243e
00000140: ee23 2e3f acaa 3bbe c97a 603e 7e96 eb3d
00000150: 93f0 f0bc 7f8a 26be 6e63 123e 7ea9 31be
00000160: f59f 62be 8ab4 3dbd e478 2fbc adba 3abe
00000170: aef9 953d 27e8 173e 81e6 91be c33f 11be
00000180: f8e5 213d d4d9 5fbe 81f5 803d 9372 9ebe
00000190: 33ef 77be 8e3d 17bd 9001 8ebc 0678 7dbe
000001a0: b266 11be 58a3 18be 1e94 3dbe c618 f6bd
000001b0: 1492 43be 4a48 0ebe 235e 5f3e fcd1 283d
000001c0: 42b8 893d c069 50be 6dc2 12be b6c1 94bd
000001d0: 8cc4 0b3d 789f 44be c38f c0bd 8bc6 05be
000001e0: 0087 1e3a f84b a6bd 80c0 77bc 7a6b 17be
000001f0: e660 19be 375d 02be e130 b0bd 52fd 3ebe
00000200: 6347 0ac0 140c d5bd b4cd c33e 08d6 223f
00000210: 5168 023e 3854 833f 9045 4d3e 14fd 663f
00000220: 9798 df3e 21df 3cbf 4783 1c3e 72d3 25bc
00000230: b123 813f 54e5 cebc 9750 2e3e bfac d63e
00000240: 2a20 d5be 8399 3d3e 00b6 5dba 2aca 6d3e
00000250: 527a 523e 785d fdbf 7d93 113c 4e8c 8bbd
00000260: f960 bc3e 26ec 4abf cce5 9a3f 7b9d 6dbe
00000270: 3552 2abe 2b1b 433f be9a 07bf e636 ce3c
00000280: 775b 3e3e 85aa 573f bf8a 323e 0f4b 41be
00000290: db85 0440 ea5f 3abd 3616 4a3f 65cc 4e3f
000002a0: 7392 7dbd 13c0 50be c24d a7bf cae0 30be
000002b0: d223 0c3e f014 923d ae36 b83e ddc3 26bd
000002c0: c663 a13e 432d b03e ffe2 c33d f72c 553f
000002d0: 192e 9d3c 1079 d23d 41d0 243f 52c9 0bbe
000002e0: dd67 583d f5af d7be 0c8a a73e a85a 13bf
000002f0: 528f e4be 92b5 05be ce42 92bd 60be 1ec0
00000300: 490f 06be 48ec 073e 2a1a d23e 27e9 8b3e
00000310: 5f0c f03e e1d0 d63e 94ef eb3e 14e5 e13e
00000320: 20f1 c3be 8d23 523d 7146 3e3e 7744 113f
00000330: f47e d23d 145d e8bd 9b52 9abe e4a4 c0be
00000340: 6506 44be 06bc 863e c945 ef3d 8a8f 21be
00000350: 1243 85bf e3f6 58bc fd81 4a3e b7a3 493e
00000360: affa 85be 99db 423e 5f25 c8bd 9390 b93e
00000370: dd34 893b 8f46 e73e 374e babd 74e5 9bbe
00000380: ace1 783f cabc cb3d 65b7 a1bd be09 583f
00000390: 75e2 96bd 3d5e 30be ba7f c5be 8974 d23c
000003a0: 4cb8 833a 1dcf cdbf 453d b5bd d095 103d
000003b0: b6c7 323e 18aa 93bf 2982 333f e05b 07bf
000003c0: 3193 36be 4852 d13e 97cd 293f 138d 2cbe
000003d0: 2304 c7bd 12bb c03f 1e8c c4bd e8c2 d93a
000003e0: 4388 8e3f f498 b23e 60d8 3e3f 9643 4f3e
000003f0: c3f9 5bbe cbfc f9bd a90e 1bc0 769f efbd
-0.07775027 0.08415273 -2.5003724 0.2227949 -0.10058889 0.5147248 0.4768458 0.4810328
0.67733645 -0.07488898 0.6202379 -0.30277726 0.068736985 -0.047466647 -0.55005556 -0.10023949
0.09527539 -0.24973772 0.09924751 0.46377444 0.076883934 0.00076682435 -0.0019663672 3.808925
-0.765776 -0.74926955 -0.67164737 -0.72938895 -0.64607275 -0.773346 -0.3020679 -0.8174793
-0.21607666 0.0699224 -0.030850485 -0.6764693 0.029780656 0.18764526 -0.3025219 0.010172394
-0.114512235 -0.02294028 0.22179095 0.26296133 -2.462991 -0.035537038 0.35773715 0.56527567
0.57886374 0.41100433 0.23444639 0.56387234 0.29594728 0.13401929 0.21023613 0.14955465
0.41737542 0.11700172 0.2314084 0.6806051 0.19782238 0.2268887 0.3496052 -0.09971103
0.03819097 -2.221979 0.073009394 -0.047007777 0.2985458 0.32307628 0.5818499 0.6792455
0.36317 0.05510616 -0.3930599 -0.13564579 -0.16467522 0.17003848 0.12184767 0.16030952
0.68023574 -0.18326825 0.21921839 0.115033135 -0.02941159 -0.1626377 0.14295742 -0.17349812
-0.22131331 -0.046314754 -0.010709975 -0.18235274 0.07323013 0.14834653 -0.28496173 -0.1418448
0.039525956 -0.21860439 0.06296826 -0.30946788 -0.24212341 -0.036923937 -0.01733473 -0.24752817
-0.14199331 -0.1490606 -0.18513533 -0.12016444 -0.19098693 -0.13894764 0.21813254 0.04121588
0.067245975 -0.2035284 -0.1433198 -0.0726351 0.03412299 -0.19201458 -0.0940242 -0.1306402
0.0006047338 -0.08119959 -0.015121579 -0.14787093 -0.1497837 -0.12730871 -0.08603073 -0.18651322
-2.160607 -0.10402694 0.38242877 0.63607836 0.12735106 1.0260077 0.20046067 0.90229917
0.43671104 -0.7377797 0.15284453 -0.010121213 1.0089017 -0.025255837 0.1702293 0.4192867
-0.41626102 0.18515591 -0.0008457601 0.2322165 0.20554474 -1.9794149 0.008885262 -0.0681387
0.36792734 -0.79266584 1.2101378 -0.23204605 -0.16632922 0.7621333 -0.5297049 0.025172662
0.18589579 0.8424457 0.1743574 -0.18876289 2.07067 -0.045501627 0.7894014 0.8078063
-0.061907243 -0.2038577 -1.3070605 -0.1727325 0.1368554 0.071329 0.35979217 -0.040714134
0.31521434 0.34409532 0.095647804 0.83271736 0.01918702 0.10276997 0.6438027 -0.13651016
0.052833427 -0.42126432 0.3272251 -0.57560205 -0.44640595 -0.13057545 -0.07141648 -2.4803696
-0.13091768 0.13273728 0.41035587 0.2732632 0.46884438 0.41956237 0.4608122 0.44120085
-0.382699 0.051303435 0.18581559 0.56745094 0.10278121 -0.11345878 -0.30141148 -0.37625802
-0.19143064 0.26315325 0.11683232 -0.15777412 -1.0411093 -0.013242456 0.19776149 0.19691359
-0.2616782 0.19029082 -0.09772753 0.36243114 0.00418721 0.4517102 -0.090969495 -0.30448496
0.9721935 0.09948118 -0.07896308 0.84389865 -0.07367412 -0.17223449 -0.3857401 0.025690334
0.0010049432 -1.6078831 -0.08849577 0.035299122 0.17458996 -1.1536283 0.70120484 -0.52874565
-0.17829587 0.40883088 0.6632933 -0.1685069 -0.09717586 1.5057089 -0.09597038 0.0016613873
1.1135334 0.3488232 0.7454891 0.20240626 -0.21481995 -0.122064196 -2.4227698 -0.11700337

model.0.bias f4 [128]
00000000: f4c7 ae3e d465 16bf 4f1d 3c3f 788f 273f
00000010: ca2a b2bd 56be dfbd 0ee1 4c3f b8a9 d93e
00000020: 8750 923e daeb ae3e 18e5 cebd 46a2 663c
00000030: 058c 2e3f 81e3 ef3e 1881 cdbe c39c 1e3f
00000040: 408f 643e 489e d8be ed09 34be 9592 63be
00000050: ea34 72bd 4e26 1fbd 443c 2c3d 60a7 97be
00000060: b706 39be 19bc 353e 1f57 173f e257 043e
00000070: 8b81 4c3e 218c 0cbd 52b9 03bf cb39 e63e
00000080: 07a1 e8bd c916 123f 285d 373f e269 98be
00000090: 69d0 bd3e b23e 75be bf44 e93e 2f50 10be
000000a0: c1fb a8be ad3f eb3e a50a 183f e686 713d
000000b0: 3246 55be 6663 123f 7947 c03e d871 093e
000000c0: 6423 04be 0081 2b3f 3149 dabd 27de 6d3e
000000d0: 1f69 c73e b4b2 cdbe eeec 0cbe 6ca5 2b3f
000000e0: 1239 cf3e 8fb4 a13e a02c 5fbf da39 0c3f
000000f0: 5f31 f93e fc30 2d3f bf83 29bd 36bd 11bc
00000100: 47a0 5e3e b543 a2bd a10d 033e 28e3 7fbe
00000110: dd84 b7bc de6a 26be 4420 b13d 58ed 893e
00000120: 9826 fbbd bad3 263e 7586 e13e e444 a13e
00000130: 1f0a 8bbe fee9 ee3e 320b b13e d620 cdbe
00000140: 77dd 38bf 9a09 a13e ae84 b3be a7ed 9f3e
00000150: 18a7 a2be b3e1 c53e 4213 d93e 7dbc 0abc
00000160: 042a 79be 47dc bc3e bd81 b63e 9587 5c3e
00000170: e3b8 03bf 0c9f f1bd a9a3 263f 5cbc 18be
00000180: 39ce afbe 36a0 b93d 838d aabe 4d89 603e
00000190: 1be3 0a3e d675 38be 9bd1 ab3d 02bf 933e
000001a0: 32b2 26bf 51b4 7a3e ff91 223f 0041 37ba
000001b0: 90ef 4e3f dde1 c93d b5f2 9dbe a87b 92be
000001c0: 3aa8 6b3d 4be2 0f3f 5eb9 1a3e 07e8 47be
000001d0: 2483 c73e f7ad fe3d c268 d3be fb08 26bf
000001e0: 8cb7 cbbc 7598 d7be 9319 37be b389 37be
000001f0: e4e4 903e 6cb0 9fbd cb0f debd 7bc6 3c3e
0.34136927 -0.5874913 0.7348222 0.6545329 -0.086995676 -0.109249756 0.80030906 0.42512298
0.28577062 0.34164315 -0.1010229 0.014076775 0.681824 0.4685326 -0.40137553 0.6195795
0.2232027 -0.4230826 -0.17581911 -0.22223885 -0.059132494 -0.03885489 0.04204966 -0.29619884
-0.18068968 0.17747535 0.5911731 0.1292415 0.19971292 -0.034313325 -0.5145465 0.44965968
-0.113588385 0.5706602 0.7162652 -0.29768282 0.37073067 -0.23949698 0.45560262 -0.14093088
-0.33004573 0.45947018 0.5939124 0.05896654 -0.20827559 0.5718292 0.3755453 0.13422334
-0.12904125 0.66993713 -0.106584914 0.23229276 0.3894739 -0.40175402 -0.13762257 0.6704929
0.4047323 0.31583068 -0.8717747 0.54775774 0.4867048 0.6765287 -0.04138541 -0.008895209
0.21740828 -0.0792307 0.12798168 -0.24988997 -0.022402221 -0.16251704 0.08648732 0.2693889
-0.122632205 0.16291705 0.44047895 0.31497872 -0.2715616 0.46662897 0.34578854 -0.40064114
-0.7221293 0.31452638 -0.35062164 0.31236002 -0.31768107 0.38648757 0.42397505 -0.008467791
-0.24332434 0.36886808 0.35645857 0.21536095 -0.5145399 -0.11797914 0.65093476 -0.14915603
-0.34337023 0.09063761 -0.3331109 0.21927376 0.13563196 -0.18013701 0.083895884 0.28856665
-0.65115654 0.24482848 0.6350402 -0.0006990582 0.80834293 0.09857533 -0.30849233 -0.28609967
0.05753348 0.5620467 0.15109774 -0.19522105 0.3896724 0.12435525 -0.4129086 -0.64857453
-0.024867795 -0.42108503 -0.1788085 -0.17923622 0.2829963 -0.07797322 -0.10842856 0.1843509

model.2.weight f4 [64, 128]
00000000: 71e6 ed3c 4c40 72bd aa16 91bd 664c df3c
00000010: b472 0d3d 8db6 4dbd b860 06bc cee0 f23b
00000020: 8c6b bcbd d7c4 bfbc 4bc9 3dba a8a5 1abd
00000030: b010 293d 79c1 c3bd 167a 133c a83e b8bd
00000040: ef61 bfbd 54ad 403d 92ad 2dbd 7f52 1cbd
00000050: 50db 933c 1046 b4bd 58f3 9abd fd52 d93a
00000060: dfd5 9d3d e03c 19bc 5b75 f53c 33b6 8d3c
00000070: 933c 76bc a9a5 adbd 0589 903d c38f c23b
00000080: f2dd e1bc c9d0 cd3c f000 ebbd 15d2 19bc
00000090: db01 a3bd 800e 13bc 3b34 4f3c d206 1bbb
000000a0: 07b2 193c 1e0d dbbd fb5e c1bd 0049 ca3a
000000b0: ab2b 33bd 9c71 b3bd ac84 6d3d 8f04 1abc
000000c0: 7a69 8ebd 1a2f a3bb 2c81 cd3c 1ec4 a6bd
000000d0: e145 f53c 41a4 c1bd f588 0f3b c03b 2c3d
000000e0: bb76 d43c 0cf5 ee3c e1a3 01bd 2ae1 d2bc
000000f0: 9832 56ba 3977 8fbb 98d0 3dbd a5e8 83bc
00000100: 0da3 12bd fc8e a0bd 1c0d a7bd 29d2 cdbd
00000110: e4dc abbd bd99 653d e94e a43b 42bd bfbd
00000120: b396 acbd 2821 a93c 82aa 61bd 9e38 76bd
00000130: 646b 7cbd e86a 13bd bede fcbc 6b22 bebb
00000140: 424f 2f3d bbee ba3c 707c 353d 6a63 edbc
00000150: 8eee a4bd 7950 65bc dd5d bebd 2c1e 143d
00000160: 70b8 2ebc 0c61 87bd 22cb fdbd 16d7 eb3b
00000170: 2cec 0d3d 7721 a53d b41d 96bd 102c da3c
00000180: bfa4 cdbc 9b9b 66bd f665 abbd 17da 893c
00000190: f762 85bd 7829 133d f18d 02bc a248 7b3c
000001a0: 8317 353d c5fc 673a 41e1 89bb 3ed7 3b3d
000001b0: 9c1b 9ebd 7dfb 3fbd 4f36 fbbc 270c a93c
000001c0: f871 dd3c baa6 c33c 8c66 e4bc a8bf 37bc
000001d0: fdc7 aebd 0b03 763c 490b 8fbd ebef 2dbd
000001e0: 877d 363d 7e59 cb3b c203 86bd e627 cdbd
000001f0: 843c c2bd b0b4 2f3d d473 a5bd 3791 413d
00000200: 2a65 dd3b e8de 9abc 5938 a7bd f909 3a3d
00000210: 3d9f 5dbc e327 ab3d 83ba dc3c d250 c3bd
00000220: b742 843c 800b d2b9 a85b 09be 42e5 4a3c
00000230: 2221 d2bd 5705 17be f72a 81bd 58c3 e6bc
00000240: d5a7 7dbd 9c53 90bd 93b4 e03c be7e 083d
00000250: b14f 2bbd ae98 b2bd 9058 95bb c5a5 a0bd
00000260: 20f7 debd b933 b1ba 8eeb 13bc 6236 abbd
00000270: f6e2 f2bc 1db3 cebd c851 c9bd 815f 78bd
00000280: 79af 7cbd 3b3b cdbc d8ba a43c c149 2b3c
00000290: dda6 e83c 1e1b fa3b 4f57 b8bc 6245 d5bc
000002a0: fc6a 91bd 2ab5 c13c f4d1 9e3c d3a6 19bd
000002b0: 4c93 02bb e034 bdbd 806c f1bd 1b3d cfbc
000002c0: e367 b13c c027 55bd f616 693c d342 cbbd
000002d0: 5e5b 9abd aecb d63c b3df c4bd ae9c 17bd
000002e0: 8ec7 093d 08f9 aabb dca0 903c 19a3 d1bd
000002f0: 294f 53bd ea2d c4bd ca84 66bd b1a4 bc3c
00000300: 7c12 f6bc 61e7 abbd a54f 91bd cf38 a73b
00000310: 9c16 abbc 1a76 853d 9173 aa3b e140 f3bd
00000320: 6886 9ebb d413 583d e89f ac3b 697b e9bb
00000330: ee00 c7bd 83f3 02be 63fa f43c b30b b7bd
00000340: aee6 12bb 190e 15bd 3a1e 213c 8b5d 01bd
00000350: 5feb 8abd 47ad 9dbd 5d6e 2d3d a1ae 1d3d
00000360: ce88 173c 25a5 ccbd e2ee 4f3c 1bc9 6bbd
00000370: f656 7cbd e4e1 923c 0df8 9fbd 2d7c 11bd
00000380: 567f 8ebd 005a a5bb 0098 83bd 4871 9abd
00000390: 0578 f4bd 50d4 993c e780 a83c c1e5 dcbc
000003a0: f648 33bd 1825 d8bd e725 a03c dd52 943d
000003b0: afbc 7c3d 2534 23bd 98f1 ad3a b386 2d3d
000003c0: 1e94 3fbd df1f ccbd eaaa 64bd 8a49 1e3d
000003d0: 9f57 5b3a b94a 833d e7b7 90bd b55d eebc
000003e0: 5fa9 70bd 18e3 14bd 888f 293d 13b5 13be
000003f0: 6298 ea3c aa6f 2a3a a52a 57bd cd2a 8e3c
0.029040547 -0.05914335 -0.07084401 0.02725811 0.034533218 -0.050222922 -0.0082017705 0.0074120527
-0.092002004 -0.02340929 -0.0007239773 -0.03775564 0.04127568 -0.09558386 0.0090012755 -0.08996326
-0.09344851 0.0470403 -0.042401858 -0.038164612 0.018048912 -0.08802426 -0.075659454 0.0016580519
0.07706808 -0.009352893 0.029963186 0.017298793 -0.01502909 -0.08478863 0.070573844 0.005937548
-0.027571652 0.02512397 -0.11474788 -0.009388466 -0.07959338 -0.008975625 0.01264673 -0.0023655188
0.009380824 -0.10695861 -0.09441944 0.0015433133 -0.043742817 -0.08761904 0.057987854 -0.009400501
-0.06953712 -0.00497998 0.025086008 -0.08142875 0.029940547 -0.09455157 0.00219017 0.04204917
0.025935521 0.029169582 -0.031650428 -0.025742132 -0.0008170991 -0.004378226 -0.04634151 -0.016102144
-0.03580003 -0.07839772 -0.08156797 -0.100498505 -0.08391741 0.05605482 0.0050142896 -0.0936227
-0.08427181 0.020645693 -0.05509425 -0.060112588 -0.061625853 -0.035990626 -0.03086793 -0.005802443
0.042800196 0.022818914 0.044308126 -0.028978068 -0.08053313 -0.013996237 -0.09295247 0.036161587
-0.0106640905 -0.06610307 -0.1239226 0.007197271 0.03464906 0.080630235 -0.07329884 0.026632339
-0.025102971 -0.05630074 -0.08369057 0.016827626 -0.06513017 0.03592822 -0.007968412 0.015337141
0.044211876 0.0008849616 -0.0042077606 0.045859568 -0.0772011 -0.046870697 -0.030665545 0.020635678
0.027031884 0.023883212 -0.02788093 -0.011215128 -0.085342385 0.015015374 -0.06984574 -0.04246513
0.044553306 0.0062057367 -0.065436855 -0.10017376 -0.09484199 0.042896926 -0.08078733 0.04725763
0.0067564445 -0.018905118 -0.08165044 0.045419667 -0.013526735 0.08357217 0.026944404 -0.095368996
0.016145093 -0.0004006289 -0.1341387 0.012383761 -0.10260226 -0.1474813 -0.06307023 -0.028169319
-0.061927635 -0.07047197 0.027429854 0.033323996 -0.041824047 -0.087205276 -0.0045576766 -0.07844118
-0.10886979 -0.0013519443 -0.009028329 -0.08359982 -0.029649239 -0.10092757 -0.09830052 -0.060637955
-0.06169078 -0.025052657 0.020108625 0.010454596 0.02839988 0.007632627 -0.02250257 -0.02603406
-0.07100484 0.023645956 0.019387223 -0.03751261 -0.0019924222 -0.09238601 -0.11788273 -0.025297692
0.021655982 -0.05203986 0.014226666 -0.09924855 -0.07536958 0.026220169 -0.0961298 -0.037014656
0.033637576 -0.005217675 0.017654829 -0.102361865 -0.051589165 -0.0957907 -0.05627898 0.02302775
-0.03003811 -0.083937414 -0.07095269 0.0051032077 -0.020884804 0.06516667 0.005201765 -0.11877609
-0.0048378 0.052753285 0.0052680857 -0.0071253073 -0.09716974 -0.12788205 0.02990455 -0.08937778
-0.0022415328 -0.036390398 0.009833867 -0.03158335 -0.06783175 -0.07699066 0.04234158 0.038496617
0.009248925 -0.09992436 0.012691231 -0.057564836 -0.06160637 0.017929979 -0.07810984 -0.035518814
-0.06957881 -0.005046129 -0.06425476 -0.07541138 -0.119369544 0.018777996 0.020569278 -0.026965024
-0.043770753 -0.1055395 0.019549323 0.072423674 0.06170338 -0.03984465 0.0013270853 0.042364787
-0.046772115 -0.099670164 -0.05582706 0.03864435 0.00083672436 0.064107366 -0.070663266 -0.029097417
-0.058755275 -0.036349386 0.041396648 -0.14424543 0.028637115 0.00065016246 -0.052530903 0.017354393

model.2.bias f4 [64]
00000000: 0a69 f1bc 3682 533d 1715 fd3e bead 273d
00000010: 0b8a c5bd c524 e2bd de1c dcbb c849 15bd
00000020: 33aa 99bd eadc bdbd dee8 e83b 3fc8 78bd
00000030: c54b 89bd d360 8abd 6dfa 1fbd 6ce6 4cbc
00000040: ed59 ddbd b1c3 393e 6b3e 94bd c894 0d3f
00000050: 8bbb a9bd d356 f9bd 66e6 d43e 0955 9a3c
00000060: 3a37 e43c 2926 c03d 2cee a0bc 1172 1a3d
00000070: 4612 c53e 6781 57be 5740 ff3e 827a 3e3d
00000080: 1193 133e 210b b4be 5a24 76be ce5a b33c
00000090: 21ec 8d3e a7c5 ae3d fc2e e6bc 5ec6 aebd
000000a0: dfb4 c53e 8562 0dbe 2a26 353d 6886 c53e
000000b0: 0048 74bc 8478 043f 1d48 203f c2f8 2f3d
000000c0: 4dc7 ad3d 4e99 423d 6ac5 eb3e 76f6 863d
000000d0: a29b 743c 47e9 e83c cdfa eabd 54fa 5fbd
000000e0: 0d58 bbbd 6c02 613c 74a7 cdbb e49c 9e3e
000000f0: 191b 5ebb 0d33 27bd 8b32 da3c 50b6 083d
-0.029469032 0.05163785 0.49430153 0.040937178 -0.0964547 -0.110421695 -0.0067173084 -0.036447316
-0.07503166 -0.09270652 0.007107838 -0.060737845 -0.06703905 -0.06756749 -0.039057184 -0.012506109
-0.108081676 0.18141057 -0.07238468 0.5530515 -0.08287724 -0.121747635 0.4158203 0.018839376
0.027858365 0.093822785 -0.01964482 0.03770644 0.38490504 -0.21045457 0.49853775 0.04650355
0.1441157 -0.3516474 -0.24037305 0.021893885 0.27719215 0.08533793 -0.028098576 -0.08533929
0.38614556 -0.13807113 0.04422585 0.38579106 -0.014909744 0.5174639 0.62610036 0.042961843
0.08485279 0.047509484 0.46049052 0.065899774 0.014929684 0.028431548 -0.11473618 -0.05468209
-0.09147654 0.013733488 -0.0062760655 0.30979073 -0.0033890663 -0.04082017 0.026635429 0.03337699

model.4.weight f4 [3, 64]
00000000: 9ae9 5dbd 1510 8cbd 0057 c5bb b7fe 1cbd
00000010: a195 81bd 301e 713d 4055 f33c 3909 b6bc
00000020: 1823 3abd bd01 97bd 774f 1bbd d910 c63c
00000030: 988e 95bd 346a e8bd 889e eabd ffa8 d7bd
00000040: f7a0 8b3c 7678 133d c820 45bd 3f52 09bb
00000050: 2419 163d 91fc 57bd 4486 153d 66ee f93b
00000060: fe50 d43d e7ee e9bb a4d6 6a3d a433 80bd
00000070: 65d4 08bc c5c4 beb9 6abc ad39 8813 fd3d
00000080: 88e8 df3c 506e 91bd b7a4 35bd 98e3 9ebd
00000090: bea1 a1bc 42fe 96bd 3231 b33d dac2 2e3c
000000a0: 47fe bc3b 78e0 bf3c 4b91 a4bc 257c d2bb
000000b0: 20f5 98bc 6a66 823c 77ed 56bc e40f 323d
000000c0: e6aa 553b ea16 d83d cb07 ceba 58ca 7e3d
000000d0: cdef 1aba 2490 f1bd 2197 863c 432e 9cbc
000000e0: c81b 48bd c03e a0bb 70b1 0abd c338 503c
000000f0: 1c29 17bd 6cd6 9ebd 68f6 3b3d 4059 b4bd
00000100: b21b 9ebd bc27 eb3c 0abf b93b 796c e2bd
00000110: 0f24 8c3d ae66 91bc 68e9 573d 80ae a1ba
00000120: b081 dfbc ed87 16bd 53bc 84bc 1b4f 76bd
00000130: 00db 603d 0494 f43b 740f 8a3d 002d dcbd
00000140: 8d60 9a3c bcb1 46bc e832 283c f264 06bc
00000150: 4f1f 253c 0964 99bc e3a4 043d e3c7 ee3c
00000160: 90e1 15bd 9e16 4abc 7eff 093d baac 653d
00000170: e51a 0c3b abc0 96bb 047d e63c f386 f13c
00000180: 0344 543c e8ed 8ebd 9783 01be a235 f63c
00000190: a655 87bc 84be 3f3d 8af6 dbbd 5733 833b
000001a0: b16c 7bbb f7e4 853c f427 7abd 20fe 0d3b
000001b0: e0df 2e3d ab7b 973b 7e60 f23b c07a 29bc
000001c0: ad95 c23d fee5 cdbb ab83 95bc 5046 b93d
000001d0: b419 97bd 0a86 80bd 22eb 5abc f990 c2bc
000001e0: 5305 e73d 48ad 72bd 588b 7c3d cdf0 e23b
000001f0: a9de 3c3c 12cb 9ebd 3646 c1bd 8887 d43c
00000200: 2bf1 053d 141f 1a3d 11c1 94bc b450 933d
00000210: d916 f0bd 3844 713d 1997 3d3d 7145 14bd
00000220: 00b6 9fbd f520 fcbd 6eaa 99bd 2d93 7d3d
00000230: cc8e 113d a40f 8bbd 7e17 b0bd 64c4 01be
00000240: 90db be3d 27a1 cd3c 1f99 3e3c 6f47 28bc
00000250: 83fb 9d3c c332 65bc 31bc 863d 3be4 243d
00000260: b6e2 83bd 508e e1bb e4da 063d f4bc 013d
00000270: 1a5a 27bc 037a 353b 350b 453d 50d6 eabd
00000280: 4106 c33c 0df5 99bd 8734 2fbd 4053 92bd
00000290: 2873 b0bc 8cd9 e33d 0413 63bd 1368 dd3c
000002a0: e898 a6bc cac7 2a3c a9e9 8dbd ec97 95bc
000002b0: 8470 e6bd e6c7 363c d5ae 6fbb 807b b83a
000002c0: 8dfe d23b 3848 b83c b6da 273b ae77 b9bd
000002d0: e840 c9bd 6190 e43b e0d3 1c3d 43f7 f23d
000002e0: 292e b63d 75d5 b1bd ea17 22bd ec7d 71bb
000002f0: 645a 4e3d 12cb 983d 59f1 b7bd 5524 a2bd
-0.054177858 -0.06839005 -0.006022334 -0.038328853 -0.063273676 0.05886668 0.029703736 -0.022221195
-0.045443624 -0.073733784 -0.03791758 0.024177955 -0.07302588 -0.11348382 -0.11456019 -0.1053028
0.017044527 0.036003552 -0.048126966 -0.0020953564 0.03664507 -0.0527311 0.036505 0.0076272963
0.103670105 -0.007139075 0.057333604 -0.0625985 -0.00835142 -0.0003638623 0.0003313751 0.12357241
0.02733256 -0.071011186 -0.044346537 -0.07758254 -0.019730445 -0.073727146 0.08749618 0.010666573
0.005767617 0.023422465 -0.020088812 -0.0064234906 -0.018671572 0.015917975 -0.0131181395 0.043472186
0.0032603084 0.105512455 -0.0015718875 0.06220469 -0.0005910367 -0.11795071 0.016429486 -0.019065028
-0.04885462 -0.004890293 -0.033860624 0.012708846 -0.03690444 -0.077557415 0.04588929 -0.088060856
-0.07720126 0.02870547 0.0056685256 -0.11055846 0.06842815 -0.017749157 0.052712828 -0.001233533
-0.02728352 -0.036750723 -0.016203081 -0.060134035 0.054896355 0.007463934 0.06741229 -0.107507706
0.018844867 -0.012127336 0.010266043 -0.008202778 0.010078265 -0.018724458 0.03238381 0.029148048
-0.036592066 -0.012334494 0.033690922 0.056072928 0.0021378335 -0.0046006045 0.028135784 0.029483294
0.012955668 -0.06978971 -0.12647854 0.030054871 -0.016520333 0.04681255 -0.10740383 0.004003923
-0.0038364346 0.01634453 -0.06107326 0.0021666363 0.042693973 0.0046228967 0.0073967567 -0.010344207
0.09501205 -0.0062835207 -0.01825126 0.09046614 -0.07377949 -0.06275566 -0.013361724 -0.023750769
0.112803124 -0.059247285 0.061656326 0.0069256783 0.011527696 -0.07753576 -0.0943722 0.025943533
0.0327007 0.037627295 -0.018158467 0.07193127 -0.11723108 0.05890295 0.046286676 -0.036199037
-0.077983856 -0.123109736 -0.0750321 0.061907936 0.035536572 -0.067900926 -0.08598231 -0.12672573
0.09319222 0.025101257 0.011633187 -0.010270937 0.01928497 -0.013989153 0.065788634 0.04025672
-0.06439726 -0.00688342 0.032923594 0.03167434 -0.010214353 0.0027691133 0.04810639 -0.11466658
0.023806693 -0.07517443 -0.042774703 -0.07144785 -0.021539286 0.11125478 -0.055438057 0.027027166
-0.020336583 0.01042361 -0.06929333 -0.018260919 -0.112519294 0.011156058 -0.0036572714 0.0014074892
0.006439036 0.022495374 0.002561254 -0.0905603 -0.09826833 0.006975219 0.038287997 0.11863568
0.08895523 -0.08683292 -0.039573587 -0.0036848737 0.050379172 0.074606076 -0.0898158 -0.07917086

model.4.bias f4 [3]
00000000: 1101 c03d 2651 be3d 9087 bd3d
0.093752034 0.092928216 0.09254372

model.0.weight f4 [128, 21]
00000000: 893b 9fbd 4458 ac3d 1a06 20c0 5924 643e
00000010: 8c01 cebd 01c5 033f 2225 f43e ee49 f63e
00000020: ec65 2d3f 655f 99bd e9c7 1e3f 9f05 9bbe
00000030: fac5 8c3d 636c 42bd 71d0 0cbf 5d4a cdbd
00000040: be1f c33d 3fbb 7fbe 4742 cb3d d873 ed3e
00000050: 5375 9d3d b604 493a 2bde 00bb 6dc5 7340
00000060: e509 44bf 21d0 3fbf 15f1 2bbf 3cb9 3abf
00000070: 0665 25bf 01fa 45bf a5a8 9abe 5346 51bf
00000080: 3343 5dbe 7a33 8f3d 28ba fcbc 182d 2dbf
00000090: 90f6 f33c 1426 403e 27e4 9abe 1daa 263c
000000a0: 6485 eabd 41ed bbbc 2b1d 633e dea2 863e
000000b0: a5a1 1dc0 498f 11bd 5329 b73e e8b5 103f
000000c0: 6a30 143f 296f d23e b712 703e f059 103f
000000d0: 6786 973e 5a3c 093e 2448 573e db24 193e
000000e0: 3bb2 d53e 999e ef3d 53f6 6c3e 233c 2e3f
000000f0: f391 4a3e 8355 683e 74ff b23e 4c35 ccbd
00000100: 226e 1c3d e734 0ec0 f385 953d 3a8b 40bd
00000110: ffda 983e 416a a53e 1df4 143f 08e3 2d3f
00000120: 6bf1 b93e ffb6 613d 263f c9be bbe6 0abe
00000130: 9fa0 28be 911e 2e3e 458b f93d 2e28 243e
00000140: ee23 2e3f acaa 3bbe c97a 603e 7e96 eb3d
00000150: 93f0 f0bc 7f8a 26be 6e63 123e 7ea9 31be
00000160: f59f 62be 8ab4 3dbd e478 2fbc adba 3abe
00000170: aef9 953d 27e8 173e 81e6 91be c33f 11be
00000180: f8e5 213d d4d9 5fbe 81f5 803d 9372 9ebe
00000190: 33ef 77be 8e3d 17bd 9001 8ebc 0678 7dbe
000001a0: b266 11be 58a3 18be 1e94 3dbe c618 f6bd
000001b0: 1492 43be 4a48 0ebe 235e 5f3e fcd1 283d
000001c0: 42b8 893d c069 50be 6dc2 12be b6c1 94bd
000001d0: 8cc4 0b3d 789f 44be c38f c0bd 8bc6 05be
000001e0: 0087 1e3a f84b a6bd 80c0 77bc 7a6b 17be
000001f0: e660 19be 375d 02be e130 b0bd 52fd 3ebe
00000200: 6347 0ac0 140c d5bd b4cd c33e 08d6 223f
00000210: 5168 023e 3854 833f 9045 4d3e 14fd 663f
00000220: 9798 df3e 21df 3cbf 4783 1c3e 72d3 25bc
00000230: b123 813f 54e5 cebc 9750 2e3e bfac d63e
00000240: 2a20 d5be 8399 3d3e 00b6 5dba 2aca 6d3e
00000250: 527a 523e 785d fdbf 7d93 113c 4e8c 8bbd
00000260: f960 bc3e 26ec 4abf cce5 9a3f 7b9d 6dbe
00000270: 3552 2abe 2b1b 433f be9a 07bf e636 ce3c
00000280: 775b 3e3e 85aa 573f bf8a 323e 0f4b 41be
00000290: db85 0440 ea5f 3abd 3616 4a3f 65cc 4e3f
000002a0: 7392 7dbd 13c0 50be c24d a7bf cae0 30be
000002b0: d223 0c3e f014 923d ae36 b83e ddc3 26bd
000002c0: c663 a13e 432d b03e ffe2 c33d f72c 553f
000002d0: 192e 9d3c 1079 d23d 41d0 243f 52c9 0bbe
000002e0: dd67 583d f5af d7be 0c8a a73e a85a 13bf
000002f0: 528f e4be 92b5 05be ce42 92bd 60be 1ec0
00000300: 490f 06be 48ec 073e 2a1a d23e 27e9 8b3e
00000310: 5f0c f03e e1d0 d63e 94ef eb3e 14e5 e13e
00000320: 20f1 c3be 8d23 523d 7146 3e3e 7744 113f
00000330: f47e d23d 145d e8bd 9b52 9abe e4a4 c0be
00000340: 6506 44be 06bc 863e c945 ef3d 8a8f 21be
00000350: 1243 85bf e3f6 58bc fd81 4a3e b7a3 493e
00000360: affa 85be 99db 423e 5f25 c8bd 9390 b93e
00000370: dd34 893b 8f46 e73e 374e babd 74e5 9bbe
00000380: ace1 783f cabc cb3d 65b7 a1bd be09 583f
00000390: 75e2 96bd 3d5e 30be ba7f c5be 8974 d23c
000003a0: 4cb8 833a 1dcf cdbf 453d b5bd d095 103d
000003b0: b6c7 323e 18aa 93bf 2982 333f e05b 07bf
000003c0: 3193 36be 4852 d13e 97cd 293f 138d 2cbe
000003d0: 2304 c7bd 12bb c03f 1e8c c4bd e8c2 d93a
000003e0: 4388 8e3f f498 b23e 60d8 3e3f 9643 4f3e
000003f0: c3f9 5bbe cbfc f9bd a90e 1bc0 769f efbd
-0.07775027 0.08415273 -2.5003724 0.2227949 -0.10058889 0.5147248 0.4768458 0.4810328
0.67733645 -0.07488898 0.6202379 -0.30277726 0.068736985 -0.047466647 -0.55005556 -0.10023949
0.09527539 -0.24973772 0.09924751 0.46377444 0.076883934 0.00076682435 -0.0019663672 3.808925
-0.765776 -0.74926955 -0.67164737 -0.72938895 -0.64607275 -0.773346 -0.3020679 -0.8174793
-0.21607666 0.0699224 -0.030850485 -0.6764693 0.029780656 0.18764526 -0.3025219 0.010172394
-0.114512235 -0.02294028 0.22179095 0.26296133 -2.462991 -0.035537038 0.35773715 0.56527567
0.57886374 0.41100433 0.23444639 0.56387234 0.29594728 0.13401929 0.21023613 0.14955465
0.41737542 0.11700172 0.2314084 0.6806051 0.19782238 0.2268887 0.3496052 -0.09971103
0.03819097 -2.221979 0.073009394 -0.047007777 0.2985458 0.32307628 0.5818499 0.6792455
0.36317 0.05510616 -0.3930599 -0.13564579 -0.16467522 0.17003848 0.12184767 0.16030952
0.68023574 -0.18326825 0.21921839 0.115033135 -0.02941159 -0.1626377 0.14295742 -0.17349812
-0.22131331 -0.046314754 -0.010709975 -0.18235274 0.07323013 0.14834653 -0.28496173 -0.1418448
0.039525956 -0.21860439 0.06296826 -0.30946788 -0.24212341 -0.036923937 -0.01733473 -0.24752817
-0.14199331 -0.1490606 -0.18513533 -0.12016444 -0.19098693 -0.13894764 0.21813254 0.04121588
0.067245975 -0.2035284 -0.1433198 -0.0726351 0.03412299 -0.19201458 -0.0940242 -0.1306402
0.0006047338 -0.08119959 -0.015121579 -0.14787093 -0.1497837 -0.12730871 -0.08603073 -0.18651322
-2.160607 -0.10402694 0.38242877 0.63607836 0.12735106 1.0260077 0.20046067 0.90229917
0.43671104 -0.7377797 0.15284453 -0.010121213 1.0089017 -0.025255837 0.1702293 0.4192867
-0.41626102 0.18515591 -0.0008457601 0.2322165 0.20554474 -1.9794149 0.008885262 -0.0681387
0.36792734 -0.79266584 1.2101378 -0.23204605 -0.16632922 0.7621333 -0.5297049 0.025172662
0.18589579 0.8424457 0.1743574 -0.18876289 2.07067 -0.045501627 0.7894014 0.8078063
-0.061907243 -0.2038577 -1.3070605 -0.1727325 0.1368554 0.071329 0.35979217 -0.040714134
0.31521434 0.34409532 0.095647804 0.83271736 0.01918702 0.10276997 0.6438027 -0.13651016
0.052833427 -0.42126432 0.3272251 -0.57560205 -0.44640595 -0.13057545 -0.07141648 -2.4803696
-0.13091768 0.13273728 0.41035587 0.2732632 0.46884438 0.41956237 0.4608122 0.44120085
-0.382699 0.051303435 0.18581559 0.56745094 0.10278121 -0.11345878 -0.30141148 -0.37625802
-0.19143064 0.26315325 0.11683232 -0.15777412 -1.0411093 -0.013242456 0.19776149 0.19691359
-0.2616782 0.19029082 -0.09772753 0.36243114 0.00418721 0.4517102 -0.090969495 -0.30448496
0.9721935 0.09948118 -0.07896308 0.84389865 -0.07367412 -0.17223449 -0.3857401 0.025690334
0.0010049432 -1.6078831 -0.08849577 0.035299122 0.17458996 -1.1536283 0.70120484 -0.52874565
-0.17829587 0.40883088 0.6632933 -0.1685069 -0.09717586 1.5057089 -0.09597038 0.0016613873
1.1135334 0.3488232 0.7454891 0.20240626 -0.21481995 -0.122064196 -2.4227698 -0.11700337

model.0.bias f4 [128]
00000000: f4c7 ae3e d465 16bf 4f1d 3c3f 788f 273f
00000010: ca2a b2bd 56be dfbd 0ee1 4c3f b8a9 d93e
00000020: 8750 923e daeb ae3e 18e5 cebd 46a2 663c
00000030: 058c 2e3f 81e3 ef3e 1881 cdbe c39c 1e3f
00000040: 408f 643e 489e d8be ed09 34be 9592 63be
00000050: ea34 72bd 4e26 1fbd 443c 2c3d 60a7 97be
00000060: b706 39be 19bc 353e 1f57 173f e257 043e
00000070: 8b81 4c3e 218c 0cbd 52b9 03bf cb39 e63e
00000080: 07a1 e8bd c916 123f 285d 373f e269 98be
00000090: 69d0 bd3e b23e 75be bf44 e93e 2f50 10be
000000a0: c1fb a8be ad3f eb3e a50a 183f e686 713d
000000b0: 3246 55be 6663 123f 7947 c03e d871 093e
000000c0: 6423 04be 0081 2b3f 3149 dabd 27de 6d3e
000000d0: 1f69 c73e b4b2 cdbe eeec 0cbe 6ca5 2b3f
000000e0: 1239 cf3e 8fb4 a13e a02c 5fbf da39 0c3f
000000f0: 5f31 f93e fc30 2d3f bf83 29bd 36bd 11bc
00000100: 47a0 5e3e b543 a2bd a10d 033e 28e3 7fbe
00000110: dd84 b7bc de6a 26be 4420 b13d 58ed 893e
00000120: 9826 fbbd bad3 263e 7586 e13e e444 a13e
00000130: 1f0a 8bbe fee9 ee3e 320b b13e d620 cdbe
00000140: 77dd 38bf 9a09 a13e ae84 b3be a7ed 9f3e
00000150: 18a7 a2be b3e1 c53e 4213 d93e 7dbc 0abc
00000160: 042a 79be 47dc bc3e bd81 b63e 9587 5c3e
00000170: e3b8 03bf 0c9f f1bd a9a3 263f 5cbc 18be
00000180: 39ce afbe 36a0 b93d 838d aabe 4d89 603e
00000190: 1be3 0a3e d675 38be 9bd1 ab3d 02bf 933e
000001a0: 32b2 26bf 51b4 7a3e ff91 223f 0041 37ba
000001b0: 90ef 4e3f dde1 c93d b5f2 9dbe a87b 92be
000001c0: 3aa8 6b3d 4be2 0f3f 5eb9 1a3e 07e8 47be
000001d0: 2483 c73e f7ad fe3d c268 d3be fb08 26bf
000001e0: 8cb7 cbbc 7598 d7be 9319 37be b389 37be
000001f0: e4e4 903e 6cb0 9fbd cb0f debd 7bc6 3c3e
0.34136927 -0.5874913 0.7348222 0.6545329 -0.086995676 -0.109249756 0.80030906 0.42512298
0.28577062 0.34164315 -0.1010229 0.014076775 0.681824 0.4685326 -0.40137553 0.6195795
0.2232027 -0.4230826 -0.17581911 -0.22223885 -0.059132494 -0.03885489 0.04204966 -0.29619884
-0.18068968 0.17747535 0.5911731 0.1292415 0.19971292 -0.034313325 -0.5145465 0.44965968
-0.113588385 0.5706602 0.7162652 -0.29768282 0.37073067 -0.23949698 0.45560262 -0.14093088
-0.33004573 0.45947018 0.5939124 0.05896654 -0.20827559 0.5718292 0.3755453 0.13422334
-0.12904125 0.66993713 -0.106584914 0.23229276 0.3894739 -0.40175402 -0.13762257 0.6704929
0.4047323 0.31583068 -0.8717747 0.54775774 0.4867048 0.6765287 -0.04138541 -0.008895209
0.21740828 -0.0792307 0.12798168 -0.24988997 -0.022402221 -0.16251704 0.08648732 0.2693889
-0.122632205 0.16291705 0.44047895 0.31497872 -0.2715616 0.46662897 0.34578854 -0.40064114
-0.7221293 0.31452638 -0.35062164 0.31236002 -0.31768107 0.38648757 0.42397505 -0.008467791
-0.24332434 0.36886808 0.35645857 0.21536095 -0.5145399 -0.11797914 0.65093476 -0.14915603
-0.34337023 0.09063761 -0.3331109 0.21927376 0.13563196 -0.18013701 0.083895884 0.28856665
-0.65115654 0.24482848 0.6350402 -0.0006990582 0.80834293 0.09857533 -0.30849233 -0.28609967
0.05753348 0.5620467 0.15109774 -0.19522105 0.3896724 0.12435525 -0.4129086 -0.64857453
-0.024867795 -0.42108503 -0.1788085 -0.17923622 0.2829963 -0.07797322 -0.10842856 0.1843509

model.2.weight f4 [64, 128]
00000000: 71e6 ed3c 4c40 72bd aa16 91bd 664c df3c
00000010: b472 0d3d 8db6 4dbd b860 06bc cee0 f23b
00000020: 8c6b bcbd d7c4 bfbc 4bc9 3dba a8a5 1abd
00000030: b010 293d 79c1 c3bd 167a 133c a83e b8bd
00000040: ef61 bfbd 54ad 403d 92ad 2dbd 7f52 1cbd
00000050: 50db 933c 1046 b4bd 58f3 9abd fd52 d93a
00000060: dfd5 9d3d e03c 19bc 5b75 f53c 33b6 8d3c
00000070: 933c 76bc a9a5 adbd 0589 903d c38f c23b
00000080: f2dd e1bc c9d0 cd3c f000 ebbd 15d2 19bc
00000090: db01 a3bd 800e 13bc 3b34 4f3c d206 1bbb
000000a0: 07b2 193c 1e0d dbbd fb5e c1bd 0049 ca3a
000000b0: ab2b 33bd 9c71 b3bd ac84 6d3d 8f04 1abc
000000c0: 7a69 8ebd 1a2f a3bb 2c81 cd3c 1ec4 a6bd
000000d0: e145 f53c 41a4 c1bd f588 0f3b c03b 2c3d
000000e0: bb76 d43c 0cf5 ee3c e1a3 01bd 2ae1 d2bc
000000f0: 9832 56ba 3977 8fbb 98d0 3dbd a5e8 83bc
00000100: 0da3 12bd fc8e a0bd 1c0d a7bd 29d2 cdbd
00000110: e4dc abbd bd99 653d e94e a43b 42bd bfbd
00000120: b396 acbd 2821 a93c 82aa 61bd 9e38 76bd
00000130: 646b 7cbd e86a 13bd bede fcbc 6b22 bebb
00000140: 424f 2f3d bbee ba3c 707c 353d 6a63 edbc
00000150: 8eee a4bd 7950 65bc dd5d bebd 2c1e 143d
00000160: 70b8 2ebc 0c61 87bd 22cb fdbd 16d7 eb3b
00000170: 2cec 0d3d 7721 a53d b41d 96bd 102c da3c
00000180: bfa4 cdbc 9b9b 66bd f665 abbd 17da 893c
00000190: f762 85bd 7829 133d f18d 02bc a248 7b3c
000001a0: 8317 353d c5fc 673a 41e1 89bb 3ed7 3b3d
000001b0: 9c1b 9ebd 7dfb 3fbd 4f36 fbbc 270c a93c
000001c0: f871 dd3c baa6 c33c 8c66 e4bc a8bf 37bc
000001d0: fdc7 aebd 0b03 763c 490b 8fbd ebef 2dbd
000001e0: 877d 363d 7e59 cb3b c203 86bd e627 cdbd
000001f0: 843c c2bd b0b4 2f3d d473 a5bd 3791 413d
00000200: 2a65 dd3b e8de 9abc 5938 a7bd f909 3a3d
00000210: 3d9f 5dbc e327 ab3d 83ba dc3c d250 c3bd
00000220: b742 843c 800b d2b9 a85b 09be 42e5 4a3c
00000230: 2221 d2bd 5705 17be f72a 81bd 58c3 e6bc
00000240: d5a7 7dbd 9c53 90bd 93b4 e03c be7e 083d
00000250: b14f 2bbd ae98 b2bd 9058 95bb c5a5 a0bd
00000260: 20f7 debd b933 b1ba 8eeb 13bc 6236 abbd
00000270: f6e2 f2bc 1db3 cebd c851 c9bd 815f 78bd
00000280: 79af 7cbd 3b3b cdbc d8ba a43c c149 2b3c
00000290: dda6 e83c 1e1b fa3b 4f57 b8bc 6245 d5bc
000002a0: fc6a 91bd 2ab5 c13c f4d1 9e3c d3a6 19bd
000002b0: 4c93 02bb e034 bdbd 806c f1bd 1b3d cfbc
000002c0: e367 b13c c027 55bd f616 693c d342 cbbd
000002d0: 5e5b 9abd aecb d63c b3df c4bd ae9c 17bd
000002e0: 8ec7 093d 08f9 aabb dca0 903c 19a3 d1bd
000002f0: 294f 53bd ea2d c4bd ca84 66bd b1a4 bc3c
00000300: 7c12 f6bc 61e7 abbd a54f 91bd cf38 a73b
00000310: 9c16 abbc 1a76 853d 9173 aa3b e140 f3bd
00000320: 6886 9ebb d413 583d e89f ac3b 697b e9bb
00000330: ee00 c7bd 83f3 02be 63fa f43c b30b b7bd
00000340: aee6 12bb 190e 15bd 3a1e 213c 8b5d 01bd
00000350: 5feb 8abd 47ad 9dbd 5d6e 2d3d a1ae 1d3d
00000360: ce88 173c 25a5 ccbd e2ee 4f3c 1bc9 6bbd
00000370: f656 7cbd e4e1 923c 0df8 9fbd 2d7c 11bd
00000380: 567f 8ebd 005a a5bb 0098 83bd 4871 9abd
00000390: 0578 f4bd 50d4 993c e780 a83c c1e5 dcbc
000003a0: f648 33bd 1825 d8bd e725 a03c dd52 943d
000003b0: afbc 7c3d 2534 23bd 98f1 ad3a b386 2d3d
000003c0: 1e94 3fbd df1f ccbd eaaa 64bd 8a49 1e3d
000003d0: 9f57 5b3a b94a 833d e7b7 90bd b55d eebc
000003e0: 5fa9 70bd 18e3 14bd 888f 293d 13b5 13be
000003f0: 6298 ea3c aa6f 2a3a a52a 57bd cd2a 8e3c
0.029040547 -0.05914335 -0.07084401 0.02725811 0.034533218 -0.050222922 -0.0082017705 0.0074120527
-0.092002004 -0.02340929 -0.0007239773 -0.03775564 0.04127568 -0.09558386 0.0090012755 -0.08996326
-0.09344851 0.0470403 -0.042401858 -0.038164612 0.018048912 -0.08802426 -0.075659454 0.0016580519
0.07706808 -0.009352893 0.029963186 0.017298793 -0.01502909 -0.08478863 0.070573844 0.005937548
-0.027571652 0.02512397 -0.11474788 -0.009388466 -0.07959338 -0.008975625 0.01264673 -0.0023655188
0.009380824 -0.10695861 -0.09441944 0.0015433133 -0.043742817 -0.08761904 0.057987854 -0.009400501
-0.06953712 -0.00497998 0.025086008 -0.08142875 0.029940547 -0.09455157 0.00219017 0.04204917
0.025935521 0.029169582 -0.031650428 -0.025742132 -0.0008170991 -0.004378226 -0.04634151 -0.016102144
-0.03580003 -0.07839772 -0.08156797 -0.100498505 -0.08391741 0.05605482 0.0050142896 -0.0936227
-0.08427181 0.020645693 -0.05509425 -0.060112588 -0.061625853 -0.035990626 -0.03086793 -0.005802443
0.042800196 0.022818914 0.044308126 -0.028978068 -0.08053313 -0.013996237 -0.09295247 0.036161587
-0.0106640905 -0.06610307 -0.1239226 0.007197271 0.03464906 0.080630235 -0.07329884 0.026632339
-0.025102971 -0.05630074 -0.08369057 0.016827626 -0.06513017 0.03592822 -0.007968412 0.015337141
0.044211876 0.0008849616 -0.0042077606 0.045859568 -0.0772011 -0.046870697 -0.030665545 0.020635678
0.027031884 0.023883212 -0.02788093 -0.011215128 -0.085342385 0.015015374 -0.06984574 -0.04246513
0.044553306 0.0062057367 -0.065436855 -0.10017376 -0.09484199 0.042896926 -0.08078733 0.04725763
0.0067564445 -0.018905118 -0.08165044 0.045419667 -0.013526735 0.08357217 0.026944404 -0.095368996
0.016145093 -0.0004006289 -0.1341387 0.012383761 -0.10260226 -0.1474813 -0.06307023 -0.028169319
-0.061927635 -0.07047197 0.027429854 0.033323996 -0.041824047 -0.087205276 -0.0045576766 -0.07844118
-0.10886979 -0.0013519443 -0.009028329 -0.08359982 -0.029649239 -0.10092757 -0.09830052 -0.060637955
-0.06169078 -0.025052657 0.020108625 0.010454596 0.02839988 0.007632627 -0.02250257 -0.02603406
-0.07100484 0.023645956 0.019387223 -0.03751261 -0.0019924222 -0.09238601 -0.11788273 -0.025297692
0.021655982 -0.05203986 0.014226666 -0.09924855 -0.07536958 0.026220169 -0.0961298 -0.037014656
0.033637576 -0.005217675 0.017654829 -0.102361865 -0.051589165 -0.0957907 -0.05627898 0.02302775
-0.03003811 -0.083937414 -0.07095269 0.0051032077 -0.020884804 0.06516667 0.005201765 -0.11877609
-0.0048378 0.052753285 0.0052680857 -0.0071253073 -0.09716974 -0.12788205 0.02990455 -0.08937778
-0.0022415328 -0.036390398 0.009833867 -0.03158335 -0.06783175 -0.07699066 0.04234158 0.038496617
0.009248925 -0.09992436 0.012691231 -0.057564836 -0.06160637 0.017929979 -0.07810984 -0.035518814
-0.06957881 -0.005046129 -0.06425476 -0.07541138 -0.119369544 0.018777996 0.020569278 -0.026965024
-0.043770753 -0.1055395 0.019549323 0.072423674 0.06170338 -0.03984465 0.0013270853 0.042364787
-0.046772115 -0.099670164 -0.05582706 0.03864435 0.00083672436 0.064107366 -0.070663266 -0.029097417
-0.058755275 -0.036349386 0.041396648 -0.14424543 0.028637115 0.00065016246 -0.052530903 0.017354393

model.2.bias f4 [64]
00000000: 0a69 f1bc 3682 533d 1715 fd3e bead 273d
00000010: 0b8a c5bd c524 e2bd de1c dcbb c849 15bd
00000020: 33aa 99bd eadc bdbd dee8 e83b 3fc8 78bd
00000030: c54b 89bd d360 8abd 6dfa 1fbd 6ce6 4cbc
00000040: ed59 ddbd b1c3 393e 6b3e 94bd c894 0d3f
00000050: 8bbb a9bd d356 f9bd 66e6 d43e 0955 9a3c
00000060: 3a37 e43c 2926 c03d 2cee a0bc 1172 1a3d
00000070: 4612 c53e 6781 57be 5740 ff3e 827a 3e3d
00000080: 1193 133e 210b b4be 5a24 76be ce5a b33c
00000090: 21ec 8d3e a7c5 ae3d fc2e e6bc 5ec6 aebd
000000a0: dfb4 c53e 8562 0dbe 2a26 353d 6886 c53e
000000b0: 0048 74bc 8478 043f 1d48 203f c2f8 2f3d
000000c0: 4dc7 ad3d 4e99 423d 6ac5 eb3e 76f6 863d
000000d0: a29b 743c 47e9 e83c cdfa eabd 54fa 5fbd
000000e0: 0d58 bbbd 6c02 613c 74a7 cdbb e49c 9e3e
000000f0: 191b 5ebb 0d33 27bd 8b32 da3c 50b6 083d
-0.029469032 0.05163785 0.49430153 0.040937178 -0.0964547 -0.110421695 -0.0067173084 -0.036447316
-0.07503166 -0.09270652 0.007107838 -0.060737845 -0.06703905 -0.06756749 -0.039057184 -0.012506109
-0.108081676 0.18141057 -0.07238468 0.5530515 -0.08287724 -0.121747635 0.4158203 0.018839376
0.027858365 0.093822785 -0.01964482 0.03770644 0.38490504 -0.21045457 0.49853775 0.04650355
0.1441157 -0.3516474 -0.24037305 0.021893885 0.27719215 0.08533793 -0.028098576 -0.08533929
0.38614556 -0.13807113 0.04422585 0.38579106 -0.014909744 0.5174639 0.62610036 0.042961843
0.08485279 0.047509484 0.46049052 0.065899774 0.014929684 0.028431548 -0.11473618 -0.05468209
-0.09147654 0.013733488 -0.0062760655 0.30979073 -0.0033890663 -0.04082017 0.026635429 0.03337699

model.4.weight f4 [3, 64]
00000000: 9ae9 5dbd 1510 8cbd 0057 c5bb b7fe 1cbd
00000010: a195 81bd 301e 713d 4055 f33c 3909 b6bc
00000020: 1823 3abd bd01 97bd 774f 1bbd d910 c63c
00000030: 988e 95bd 346a e8bd 889e eabd ffa8 d7bd
00000040: f7a0 8b3c 7678 133d c820 45bd 3f52 09bb
00000050: 2419 163d 91fc 57bd 4486 153d 66ee f93b
00000060: fe50 d43d e7ee e9bb a4d6 6a3d a433 80bd
00000070: 65d4 08bc c5c4 beb9 6abc ad39 8813 fd3d
00000080: 88e8 df3c 506e 91bd b7a4 35bd 98e3 9ebd
00000090: bea1 a1bc 42fe 96bd 3231 b33d dac2 2e3c
000000a0: 47fe bc3b 78e0 bf3c 4b91 a4bc 257c d2bb
000000b0: 20f5 98bc 6a66 823c 77ed 56bc e40f 323d
000000c0: e6aa 553b ea16 d83d cb07 ceba 58ca 7e3d
000000d0: cdef 1aba 2490 f1bd 2197 863c 432e 9cbc
000000e0: c81b 48bd c03e a0bb 70b1 0abd c338 503c
000000f0: 1c29 17bd 6cd6 9ebd 68f6 3b3d 4059 b4bd
00000100: b21b 9ebd bc27 eb3c 0abf b93b 796c e2bd
00000110: 0f24 8c3d ae66 91bc 68e9 573d 80ae a1ba
00000120: b081 dfbc ed87 16bd 53bc 84bc 1b4f 76bd
00000130: 00db 603d 0494 f43b 740f 8a3d 002d dcbd
00000140: 8d60 9a3c bcb1 46bc e832 283c f264 06bc
00000150: 4f1f 253c 0964 99bc e3a4 043d e3c7 ee3c
00000160: 90e1 15bd 9e16 4abc 7eff 093d baac 653d
00000170: e51a 0c3b abc0 96bb 047d e63c f386 f13c
00000180: 0344 543c e8ed 8ebd 9783 01be a235 f63c
00000190: a655 87bc 84be 3f3d 8af6 dbbd 5733 833b
000001a0: b16c 7bbb f7e4 853c f427 7abd 20fe 0d3b
000001b0: e0df 2e3d ab7b 973b 7e60 f23b c07a 29bc
000001c0: ad95 c23d fee5 cdbb ab83 95bc 5046 b93d
000001d0: b419 97bd 0a86 80bd 22eb 5abc f990 c2bc
000001e0: 5305 e73d 48ad 72bd 588b 7c3d cdf0 e23b
000001f0: a9de 3c3c 12cb 9ebd 3646 c1bd 8887 d43c
00000200: 2bf1 053d 141f 1a3d 11c1 94bc b450 933d
00000210: d916 f0bd 3844 713d 1997 3d3d 7145 14bd
00000220: 00b6 9fbd f520 fcbd 6eaa 99bd 2d93 7d3d
00000230: cc8e 113d a40f 8bbd 7e17 b0bd 64c4 01be
00000240: 90db be3d 27a1 cd3c 1f99 3e3c 6f47 28bc
00000250: 83fb 9d3c c332 65bc 31bc 863d 3be4 243d
00000260: b6e2 83bd 508e e1bb e4da 063d f4bc 013d
00000270: 1a5a 27bc 037a 353b 350b 453d 50d6 eabd
00000280: 4106 c33c 0df5 99bd 8734 2fbd 4053 92bd
00000290: 2873 b0bc 8cd9 e33d 0413 63bd 1368 dd3c
000002a0: e898 a6bc cac7 2a3c a9e9 8dbd ec97 95bc
000002b0: 8470 e6bd e6c7 363c d5ae 6fbb 807b b83a
000002c0: 8dfe d23b 3848 b83c b6da 273b ae77 b9bd
000002d0: e840 c9bd 6190 e43b e0d3 1c3d 43f7 f23d
000002e0: 292e b63d 75d5 b1bd ea17 22bd ec7d 71bb
000002f0: 645a 4e3d 12cb 983d 59f1 b7bd 5524 a2bd
-0.054177858 -0.06839005 -0.006022334 -0.038328853 -0.063273676 0.05886668 0.029703736 -0.022221195
-0.045443624 -0.073733784 -0.03791758 0.024177955 -0.07302588 -0.11348382 -0.11456019 -0.1053028
0.017044527 0.036003552 -0.048126966 -0.0020953564 0.03664507 -0.0527311 0.036505 0.0076272963
0.103670105 -0.007139075 0.057333604 -0.0625985 -0.00835142 -0.0003638623 0.0003313751 0.12357241
0.02733256 -0.071011186 -0.044346537 -0.07758254 -0.019730445 -0.073727146 0.08749618 0.010666573
0.005767617 0.023422465 -0.020088812 -0.0064234906 -0.018671572 0.015917975 -0.0131181395 0.043472186
0.0032603084 0.105512455 -0.0015718875 0.06220469 -0.0005910367 -0.11795071 0.016429486 -0.019065028
-0.04885462 -0.004890293 -0.033860624 0.012708846 -0.03690444 -0.077557415 0.04588929 -0.088060856
-0.07720126 0.02870547 0.0056685256 -0.11055846 0.06842815 -0.017749157 0.052712828 -0.001233533
-0.02728352 -0.036750723 -0.016203081 -0.060134035 0.054896355 0.007463934 0.06741229 -0.107507706
0.018844867 -0.012127336 0.010266043 -0.008202778 0.010078265 -0.018724458 0.03238381 0.029148048
-0.036592066 -0.012334494 0.033690922 0.056072928 0.0021378335 -0.0046006045 0.028135784 0.029483294
0.012955668 -0.06978971 -0.12647854 0.030054871 -0.016520333 0.04681255 -0.10740383 0.004003923
-0.0038364346 0.01634453 -0.06107326 0.0021666363 0.042693973 0.0046228967 0.0073967567 -0.010344207
0.09501205 -0.0062835207 -0.01825126 0.09046614 -0.07377949 -0.06275566 -0.013361724 -0.023750769
0.112803124 -0.059247285 0.061656326 0.0069256783 0.011527696 -0.07753576 -0.0943722 0.025943533
0.0327007 0.037627295 -0.018158467 0.07193127 -0.11723108 0.05890295 0.046286676 -0.036199037
-0.077983856 -0.123109736 -0.0750321 0.061907936 0.035536572 -0.067900926 -0.08598231 -0.12672573
0.09319222 0.025101257 0.011633187 -0.010270937 0.01928497 -0.013989153 0.065788634 0.04025672
-0.06439726 -0.00688342 0.032923594 0.03167434 -0.010214353 0.0027691133 0.04810639 -0.11466658
0.023806693 -0.07517443 -0.042774703 -0.07144785 -0.021539286 0.11125478 -0.055438057 0.027027166
-0.020336583 0.01042361 -0.06929333 -0.018260919 -0.112519294 0.011156058 -0.0036572714 0.0014074892
0.006439036 0.022495374 0.002561254 -0.0905603 -0.09826833 0.006975219 0.038287997 0.11863568
0.08895523 -0.08683292 -0.039573587 -0.0036848737 0.050379172 0.074606076 -0.0898158 -0.07917086

model.4.bias f4 [3]
00000000: d503 c03d 920c c03d 0241 be3d
0.09375731 0.093773976 0.09289743

exp_avg f4 [128, 21]
00000000: 0400 0080 0400 0080 0400 0000 0400 0080
00000010: 0400 0080 0400 0080 0400 0080 0400 0080
00000020: 0400 0080 0400 0080 0400 0080 0400 0080
00000030: 0400 0080 0400 0080 0400 0000 0400 0080
00000040: 0400 0080 0400 0080 0400 0080 0400 0080
00000050: 0400 0080 0400 0000 0400 0000 0400 0080
00000060: 0400 0000 0400 0000 0400 0000 0400 0000
00000070: 0400 0000 0400 0000 0400 0000 0400 0000
00000080: 0400 0000 0400 0000 0400 0000 0400 0000
00000090: 0400 0000 0400 0000 0400 0000 0400 0000
000000a0: 0400 0000 0400 0000 0400 0000 0400 0000
000000b0: 0400 0080 0400 0000 0400 0000 0400 0000
000000c0: 0400 0000 0400 0000 0400 0000 0400 0000
000000d0: 0400 0000 0400 0000 0400 0000 0400 0000
000000e0: 0400 0080 0400 0000 0400 0000 0400 0080
000000f0: 0400 0000 0400 0000 0400 0000 0400 0080
00000100: 0400 0080 0400 0000 0400 0080 0400 0080
00000110: 0400 0080 0400 0080 0400 0080 0400 0080
00000120: 0400 0000 0400 0080 0400 0080 0400 0080
00000130: 0400 0080 0400 0000 0400 0080 0400 0080
00000140: 0400 0080 0400 0080 0400 0080 0400 0080
00000150: 0400 0000 0400 0000 0400 0080 0400 0000
00000160: 0400 0000 0400 0000 0400 0000 0400 0000
00000170: 0400 0000 0000 0000 0400 0000 0400 0000
00000180: 0400 0000 0400 0000 0400 0080 0400 0000
00000190: 0400 0000 0400 0000 0400 0000 0400 0000
000001a0: 0400 0000 0000 0000 0000 0000 0000 0000
000001b0: 0000 0000 0000 0000 0000 0000 0000 0000
000001c0: 0000 0000 0000 0000 0000 0000 0000 0000
000001d0: 0000 0000 0000 0000 0000 0000 0000 0000
000001e0: 0000 0000 0000 0000 0000 0000 0000 0000
000001f0: 0000 0000 0000 0000 0400 0000 0400 0000
00000200: 0400 0080 0400 0000 0400 0000 0400 0000
00000210: 0400 0000 0400 0000 0400 0000 0400 0000
00000220: 0400 0000 0400 0000 0400 0000 0400 0000
00000230: 0400 0080 0400 0000 0400 0000 0400 0080
00000240: 0400 0000 0400 0000 0400 0000 0400 0000
00000250: 0400 0000 0400 0080 0400 0000 0400 0000
00000260: 0400 0000 0400 0000 0400 0000 0400 0000
00000270: 0400 0000 0400 0000 0400 0000 0400 0000
00000280: 0400 0000 0400 0080 0400 0000 0400 0000
00000290: 0400 0080 0400 0000 0400 0000 0400 0000
000002a0: 0400 0080 0400 0080 0400 0000 0400 0080
000002b0: 0400 0080 0400 0080 0400 0080 0400 0000
000002c0: 0400 0080 0400 0080 0400 0000 0400 0080
000002d0: 0400 0080 0400 0080 0400 0000 0400 0080
000002e0: 0400 0080 0400 0000 0400 0080 0400 0080
000002f0: 0400 0080 0400 0080 0400 0080 0400 0000
00000300: 0400 0080 0400 0080 0400 0080 0400 0080
00000310: 0400 0080 0400 0080 0400 0080 0400 0080
00000320: 0400 0080 0400 0080 0400 0080 0400 0000
00000330: 0400 0080 0400 0080 0400 0080 0400 0080
00000340: 0400 0080 0400 0080 0400 0080 0400 0080
00000350: 0400 0080 0400 0080 0400 0080 0400 0080
00000360: 0400 0080 0400 0080 0400 0080 0400 0080
00000370: 0400 0080 0400 0080 0400 0080 0400 0080
00000380: 0400 0080 0400 0080 0400 0080 0400 0080
00000390: 0400 0000 0400 0000 0400 0080 0400 0080
000003a0: 0400 0080 0400 0000 0400 0080 0400 0080
000003b0: 0400 0080 0400 0000 0400 0080 0400 0000
000003c0: 0400 0080 0400 0080 0400 0000 0400 0080
000003d0: 0400 0080 0400 0080 0400 0080 0400 0080
000003e0: 0400 0000 0400 0080 0400 0000 0400 0080
000003f0: 0400 0000 0400 0000 0400 0080 0400 0000
-6e-45 -6e-45 6e-45 -6e-45 -6e-45 -6e-45 -6e-45 -6e-45
-6e-45 -6e-45 -6e-45 -6e-45 -6e-45 -6e-45 6e-45 -6e-45
-6e-45 -6e-45 -6e-45 -6e-45 -6e-45 6e-45 6e-45 -6e-45
6e-45 6e-45 6e-45 6e-45 6e-45 6e-45 6e-45 6e-45
6e-45 6e-45 6e-45 6e-45 6e-45 6e-45 6e-45 6e-45
6e-45 6e-45 6e-45 6e-45 -6e-45 6e-45 6e-45 6e-45
6e-45 6e-45 6e-45 6e-45 6e-45 6e-45 6e-45 6e-45
-6e-45 6e-45 6e-45 -6e-45 6e-45 6e-45 6e-45 -6e-45
-6e-45 6e-45 -6e-45 -6e-45 -6e-45 -6e-45 -6e-45 -6e-45
6e-45 -6e-45 -6e-45 -6e-45 -6e-45 6e-45 -6e-45 -6e-45
-6e-45 -6e-45 -6e-45 -6e-45 6e-45 6e-45 -6e-45 6e-45
6e-45 6e-45 6e-45 6e-45 6e-45 0.0 6e-45 6e-45
6e-45 6e-45 -6e-45 6e-45 6e-45 6e-45 6e-45 6e-45
6e-45 0.0 0.0 0.0 0.0 0.0 0.0 0.0
0.0 0.0 0.0 0.0 0.0 0.0 0.0 0.0
0.0 0.0 0.0 0.0 0.0 0.0 6e-45 6e-45
-6e-45 6e-45 6e-45 6e-45 6e-45 6e-45 6e-45 6e-45
6e-45 6e-45 6e-45 6e-45 -6e-45 6e-45 6e-45 -6e-45
6e-45 6e-45 6e-45 6e-45 6e-45 -6e-45 6e-45 6e-45
6e-45 6e-45 6e-45 6e-45 6e-45 6e-45 6e-45 6e-45
6e-45 -6e-45 6e-45 6e-45 -6e-45 6e-45 6e-45 6e-45
-6e-45 -6e-45 6e-45 -6e-45 -6e-45 -6e-45 -6e-45 6e-45
-6e-45 -6e-45 6e-45 -6e-45 -6e-45 -6e-45 6e-45 -6e-45
-6e-45 6e-45 -6e-45 -6e-45 -6e-45 -6e-45 -6e-45 6e-45
-6e-45 -6e-45 -6e-45 -6e-45 -6e-45 -6e-45 -6e-45 -6e-45
-6e-45 -6e-45 -6e-45 6e-45 -6e-45 -6e-45 -6e-45 -6e-45
-6e-45 -6e-45 -6e-45 -6e-45 -6e-45 -6e-45 -6e-45 -6e-45
-6e-45 -6e-45 -6e-45 -6e-45 -6e-45 -6e-45 -6e-45 -6e-45
-6e-45 -6e-45 -6e-45 -6e-45 6e-45 6e-45 -6e-45 -6e-45
-6e-45 6e-45 -6e-45 -6e-45 -6e-45 6e-45 -6e-45 6e-45
-6e-45 -6e-45 6e-45 -6e-45 -6e-45 -6e-45 -6e-45 -6e-45
6e-45 -6e-45 6e-45 -6e-45 6e-45 6e-45 -6e-45 6e-45
