models/rl/ppo/ppo_20250315_232423/ppo_episode_4.pt (torch, 286334 bytes, 33 tensors)

network.0.weight f4 [128, 22]
00000000: 1496 1b3e 989a 1d3e 0ef9 90bd 1fcc 5a3e
00000010: a832 13bd fdd6 253d 0d47 afbd bed5 933d
00000020: 9a62 553e 5a65 c6be c775 023e a823 b83d
00000030: f37b 153e 7d78 94ba e5a6 f33c d647 12bd
00000040: 16cd 0c3e 48ab 8ebd c92b 08be 1e7f 653d
00000050: 6a53 e4bd 663c 3e3d 9be8 e4bd b5d7 d23d
00000060: b269 38be f6b5 2abe 5ea7 a6bd a7f8 18be
00000070: 7bf5 89bb bc5a 61be 66a1 243e c778 e6bd
00000080: 4893 2a3e 4338 0b3e 1852 c1bd 67eb b63d
00000090: fed1 38bd c8a1 163e 6432 8bbc 6191 29be
000000a0: 56b0 7abd 2050 2fbd b8a2 7e3d b0a0 8b3e
000000b0: 4ae7 e93d 0f1b ddbd 66bf 093e 1a9b 033d
000000c0: 79dd cb3d 1ff8 16be a111 6bbe 9eef abbd
000000d0: 2b36 38be 5623 333e 600e 683d fda0 b33d
000000e0: 0bc0 6b3d 9e8e 8cbc 7e78 263e 3ecc 1dbe
000000f0: 7e84 00bb 5748 19be 0049 8d3d 0c1a 87bd
00000100: ed10 553d 8380 59bd 2128 333e 7c64 11be
00000110: b0d3 00be a628 00be 7fff 2d3e 883b 5f3d
00000120: 73da 6f3e bc1a 7abe 9936 28be 7cfc b8be
00000130: 6707 77be 3627 30bd 2d4f 993d 744a 2b3e
00000140: ac2f 9bbd 629b 1bbe 4ef1 cb3d 20a6 c0bc
00000150: c578 9a3e a647 4abd 5146 e43d bcd6 66be
00000160: 13c4 1a3c e8b9 6b3d dfe9 9a3c 4f83 80bd
00000170: fdfd 053e a28c 1d3e f9e6 21be 1072 cdbd
00000180: 521b 3a3e 39b3 9b3c 5761 4abd 0bf7 afbd
00000190: 7c83 64ba 40a5 173d 152c acbd 2bfc 08bd
000001a0: c292 debb c762 8fbe c6e9 a7be c1f0 f5bd
000001b0: e4dc 43be 8f07 e4bc 42f6 4a3e c98a d63b
000001c0: 3051 893d 1794 56be 9132 30be 4161 d3bd
000001d0: b566 103c f211 53be 487d e5bd 29b3 02be
000001e0: 881f d6bc 0773 b2bd 4b30 f3bc 87be 39be
000001f0: 0611 17be 7f39 19be e027 e2bd ea06 36be
00000200: e6f7 443e 77e8 ebbc 3483 1c3e fecc 083d
00000210: 9bf1 42be 87f4 093e 92c9 a8bc 68b1 68bd
00000220: 65a8 54be cba1 78be 5c8a 3b3d 74eb 73bd
00000230: 9814 8d3d 6833 bbbd a105 163e c6d2 63be
00000240: 5dcb 3ebd 6643 1a3d 0abe 383e 2741 263e
00000250: 2355 3e3e de04 ccbc 4638 2b3e 020e a4bd
00000260: 7780 09bd fc66 99be e646 3a3e 1dad 2bbe
00000270: 658e ed3d 50f7 823d 9bc0 643d b7e4 00be
00000280: 5d8c 3a3e 73a9 323d c889 813c b464 40be
00000290: b4ac b03d edd0 d6bc e5c3 dbbd 7592 2f3e
000002a0: d9c9 3b3d 368d f9bd f01b f5bd 78fa fbbb
000002b0: 98e9 e13d 8190 46bd c772 08be 0396 b2bd
000002c0: 5012 cebd 58c6 1a3d a2e1 243e 7e98 5fbe
000002d0: f4b5 dc3c a154 b23d b3e0 553c 484a bbbd
000002e0: f4c7 a03d 5e63 6c3e 80b3 863d df86 793d
000002f0: 9113 123b bd4f a7bc bfc8 68bd 4611 9dbb
00000300: 7018 c53d 9917 2d3d e439 3bbe f4e8 abbc
00000310: 71c0 97bc 23ad 8fbb 01b0 773d 8ecd 5b3d
00000320: 8461 3ebe aeca ccbd 5338 2b3e b5db 983d
00000330: 4e19 4bbd 7621 96bd a559 3dbe 4209 293c
00000340: 8d7f 213c 4a60 063e bfda 143e 9572 ba3d
00000350: 9687 3bbe 4e1e 04be 0108 24bd 18a6 6c3e
00000360: ce24 99bd 2699 29bd 3116 a33d 5bc6 c2bd
00000370: d754 0fbe c616 113e 91fd b2bd fc52 75bd
00000380: 1e24 6cbe 44e5 fd3d b3e0 f03d d5fc 023e
00000390: 73b0 52be 4a22 093d c8d9 d6bd c9d4 413e
000003a0: 39a6 cd3d d806 2b3e 3a02 1e3e f904 553d
000003b0: 9859 4bbc f61c cfbd 0a7c 87be 9d3c 37be
000003c0: 621c 983d 01fb 29be 74bf 2fbd 2949 fbbd
000003d0: 6021 1fbd d5a8 19be f0a6 0ebe 28d6 903d
000003e0: 30c4 81bd e0c6 063e 8c13 8cbd 8d26 20be
000003f0: 3014 1abd 60a8 d3bd b895 85bd 5cd6 4fbe
0.15193969 0.15391004 -0.070787534 0.21366929 -0.03593698 0.040488232 -0.08558474 0.072185025
0.20838395 -0.387492 0.12740241 0.08991176 0.14598064 -0.0011327412 0.029742667 -0.03571304
0.13750109 -0.06966263 -0.13297953 0.05602943 -0.111487225 0.04644432 -0.111771785 0.10295049
-0.1800907 -0.16670975 -0.081373915 -0.14938603 -0.0042101718 -0.22007269 0.16077194 -0.11253505
0.16657746 0.13595681 -0.09439486 0.08931618 -0.04512214 0.14710152 -0.016991802 -0.16559364
-0.061203323 -0.042801023 0.0621669 0.27271032 0.11421068 -0.10796177 0.13451919 0.03213034
0.09954352 -0.14743088 -0.22955944 -0.08395313 -0.17989413 0.17493948 0.056654334 0.087709405
0.057556193 -0.017157849 0.16256902 -0.15409943 -0.0019610221 -0.14969002 0.06898689 -0.06596765
0.052018095 -0.053101074 0.17495777 -0.14198488 -0.12580752 -0.12515506 0.16991995 0.054500133
0.23423176 -0.24424261 -0.16427077 -0.3613013 -0.24123918 -0.043006144 0.07485805 0.1672762
-0.07577452 -0.15195993 0.099581346 -0.023516715 0.30170265 -0.049384736 0.11146224 -0.22542852
0.009446162 0.05755034 0.018910347 -0.06275045 0.1308517 0.15385678 -0.15810765 -0.10031521
0.18174484 0.019006358 -0.049409237 -0.085920416 -0.00087171025 0.03702283 -0.084068455 -0.03344361
-0.0067923972 -0.2800505 -0.32795542 -0.12008811 -0.19127232 -0.027835635 0.19820502 0.006547306
0.067049384 -0.2095493 -0.1720679 -0.10321284 0.00881355 -0.20612314 -0.11205536 -0.12763657
-0.026138082 -0.08713346 -0.029686114 -0.18139087 -0.14752588 -0.1496334 -0.11042762 -0.17776075
0.19235191 -0.028797371 0.15284425 0.03339862 -0.19037478 0.13472186 -0.020603929 -0.056809813
-0.20767362 -0.24280469 0.045786247 -0.059550717 0.068886936 -0.09140664 0.14650585 -0.22248372
-0.04658066 0.037661932 0.18041244 0.16235791 0.18587165 -0.024904665 0.16720685 -0.08010484
-0.03356978 -0.29961383 0.18191108 -0.16765256 0.11599425 0.06394827 0.055847745 -0.12587248
0.18217607 0.04361863 0.01581277 -0.18788415 0.086266905 -0.02622267 -0.10730723 0.17145713
0.045846794 -0.12185137 -0.11968219 -0.0076897703 0.110308826 -0.048477653 -0.13325034 -0.08720019
-0.100620866 0.03778681 0.16101697 -0.21835515 0.02694223 0.08707548 0.013054061 -0.091450274
0.07850638 0.2308478 0.06577206 0.06091964 0.0022289495 -0.020423764 -0.05683207 -0.004793319
0.09623802 0.042258833 -0.18283802 -0.020985104 -0.01852438 -0.004384653 0.060470585 0.05366283
-0.18591887 -0.099995956 0.16720705 0.07463781 -0.04958468 -0.07330601 -0.18491228 0.010317149
0.009857071 0.13122669 0.1453657 0.09103886 -0.1831344 -0.12902185 -0.040046696 0.23110235
-0.07477723 -0.04140582 0.07963217 -0.095104896 -0.13997208 0.14168844 -0.0873977 -0.059893593
-0.23060653 0.123972446 0.11761608 0.1279176 -0.20575123 0.033479966 -0.10490757 0.18928827
0.1004147 0.1670183 0.15430537 0.052006695 -0.0124114975 -0.10112946 -0.26461822 -0.17894216
0.074272886 -0.16599657 -0.042907193 -0.122698136 -0.03885019 -0.1500581 -0.13930869 0.07072097
-0.06336248 0.13161802 -0.06839666 -0.15639706 -0.03761691 -0.10334849 -0.06522697 -0.20296615

network.0.bias f4 [128]
00000000: 68f7 163e 00e8 06be 857f e6bd e6a4 163e
00000010: 31d9 bd3d ed0a 1dbe 3280 083d 7566 c63d
00000020: 510c 59be db61 013d a0dc f73c a00b 08bc
00000030: 551b 453e 259e 0ebe 04b5 ec3d 7b54 b4bd
00000040: 0cb8 2abe a335 1a3e 8d71 08be c5da eeba
00000050: cdfb f23d 8138 36be f24d 45be 3bac 8d3d
00000060: 8e97 1d3e cffd 9dbc 39c9 093e 9b75 e53d
00000070: 4d35 5a3d c77a 0ebe dcac 3a3e b3f0 a63d
00000080: 27fd 163c a84b 003e eacb 44be e5b8 133d
00000090: 65f1 babd aae7 42bd 3f79 713d 59af 4f3d
000000a0: 140b 6b3d 3f54 31be e003 0bbe cfcd 8dbb
000000b0: e55e 8fbd fb5c 3fbe c5cc 533e 22be 10bd
000000c0: cc66 3fbe 7ec4 a13d a936 5d3d d47b e8bd
000000d0: 380b e83d 05a9 e8bd d7cc 8c3d d305 743e
000000e0: e014 fa3d e6d6 df3d b221 19bd e0e8 2f3d
000000f0: df31 863d 7eda 293d a605 edbc 98b0 f33c
00000100: 3abb b7bd 0e0d f7bd 8c27 60be a1b7 3cbe
00000110: b2ef 21be f6b6 4a3e 7390 333d c17e 54be
00000120: 1c0b 01be 736c 213d b6c8 82bd ea65 8ebd
00000130: c639 86bd 53a9 0abd 128e 26bd 6dcf 6cba
00000140: 69d0 2f3e 2798 0a3e aeea 0a3e f599 6cbd
00000150: dedd e6bd 92c3 81bc 6cc0 21be b0f3 733d
00000160: 2032 bbbd 8597 d6bd f2d6 55be 9387 c13d
00000170: ab2a 843d 4a4e 453e 2246 adbd ded3 bebb
00000180: 8d29 e7bc c4e3 9fbd 4495 0cbe 5d53 e83d
00000190: 812d 02be 6f2d e03d bd06 a03d 15f6 8c3d
000001a0: 68c6 153e 07f7 b93d 025d d43d d39a 9a3d
000001b0: 1f4b b9bd 1b8a e7bd f4f2 2dbd 5e18 b13d
000001c0: 1706 103e f2f3 273e 0161 c3bd 9f04 a23b
000001d0: db3e 28be 844c f73d ecfe 18be 4181 a0bd
000001e0: 7247 343e e9c7 573d f4b4 dfbd 079c 2dbe
000001f0: a6ad 34be 45a6 0e3e 0d8b 47be 5a50 2a3e
0.14742815 -0.13174438 -0.11254791 0.14711341 0.092699416 -0.15336199 0.03332538 0.09687511
-0.21196105 0.031587463 0.03025657 -0.008303553 0.19248708 -0.13927515 0.115579635 -0.08805176
-0.16671771 0.15059523 -0.13324566 -0.0018223157 0.118644334 -0.17794992 -0.19268015 0.06917616
0.15389845 -0.019286064 0.13455667 0.11204072 0.053273488 -0.13914023 0.18230003 0.081513785
0.00921563 0.1252886 -0.19218412 0.036065 -0.091280736 -0.047584213 0.05895352 0.050704334
0.05738361 -0.17317294 -0.13575697 -0.004327513 -0.070005216 -0.18687813 0.20683582 -0.035337575
-0.18691558 0.07898806 0.054007206 -0.11351743 0.11330265 -0.11360363 0.068750076 0.23830347
0.12211013 0.109296605 -0.03738565 0.042946696 0.06552481 0.041468136 -0.028933357 0.029747292
-0.089712575 -0.12063037 -0.21890086 -0.18429424 -0.15814093 0.19796357 0.04383893 -0.20751478
-0.12601894 0.039410066 -0.06385939 -0.06953032 -0.06553988 -0.033852886 -0.040662833 -0.00090335944
0.17169346 0.13534604 0.13566086 -0.057764012 -0.112727866 -0.015840326 -0.1579606 0.05955857
-0.0914042 -0.10478119 -0.20882776 0.09449687 0.06453451 0.19268146 -0.084606424 -0.0058235964
-0.028218055 -0.07807115 -0.13728815 0.11344025 -0.12712671 0.10946166 0.07813785 0.06882874
0.14626467 0.0908032 0.10369302 0.075490616 -0.09047531 -0.113056384 -0.042468026 0.08647226
0.14064823 0.16401652 -0.095399864 0.0049443985 -0.16430227 0.12075141 -0.14940995 -0.07837153
0.17605379 0.052680884 -0.10923186 -0.16954051 -0.17644367 0.13930614 -0.19486637 0.16632214

network.2.weight f4 [64, 128]
00000000: 64fb 863d ab6c f4ba 24fe 41ba 58e6 863d
00000010: 3d05 ee3c 6e9e bb3d d78e 823d 4ac0 5dbd
00000020: ca38 423d 69f8 273d cab2 90bd 82e0 2d3d
00000030: ac28 5cbd 0fc2 65bd 8022 d83a 7dfc 58bc
00000040: 99c2 a2bc ca91 86bd f9f3 283d 2b7d b43d
00000050: f3cc fbbc a8ee 73bd ff61 51bc 6997 9dbd
00000060: 9dcc 9fbd 1344 18bd 76d8 3f3d 74e9 39bd
00000070: 6478 c4bc f2fe 3bbd 7bee b4bd 3b9f f9bc
00000080: 370d 403b e22d 78bc faeb 883d 8be4 f83c
00000090: 7c12 813d 1db2 313d bb89 b03b 1a4d 2e3d
000000a0: 3349 81bd 2b7a 593d ce1f 423d be7e fdbc
000000b0: 5c29 c23a cd1d 9abd 9e09 98bd bdc6 d8bb
000000c0: f651 4d3c 5b45 d8bc 54ec 943c df5a 76bd
000000d0: 8c31 43bd 2943 8e3d 01fc c3bd 41b1 aa3c
000000e0: 263d 9c3d 6e13 6a3d 1e1d cd3c 9c48 b3bd
000000f0: 8159 973b d02d e8bc 0349 9bbc 15b2 8a3d
00000100: 8c06 1bbd 933d 72bd 5208 a0bd 7244 3d3d
00000110: dd85 96bb 324a b23d 9222 213c ff36 98bd
00000120: 06a1 673c 0c1a 9d3d 3749 4d3d 948b 0d3d
00000130: e7f3 9cbd 7bd1 59bd 9399 8b3d 95c1 86bd
00000140: b02f a53c 91f8 87bc 903d b33c a870 443c
00000150: 4b81 74bd 7b02 20bd 0c00 943d 1d09 2f3b
00000160: 1da3 523d 7099 15bd c391 9b3d a517 34bc
00000170: 48ec f4bc 6fd0 4d3c 0329 1fbd 144d 2abd
00000180: 66e2 a7bc e6ab 8dbb 8490 4ebd ea6f be3c
00000190: 007e a0bd 8d44 7a3d 6dd5 b53d bacb 003c
000001a0: 03b5 e8bc 475f a6bd 90a8 083d f0ee 833d
000001b0: 0fc2 9a3d d021 013c 260d 613c 5774 ad3d
000001c0: d85f ab3c c87c 15bd 7b95 9ebd 5d4d f03c
000001d0: d510 203d 7269 b13d a68d 49bd 7e57 3c3d
000001e0: 6890 efbc b704 cfbc 7e16 3c3d a2a7 acbd
000001f0: 50ab 953d b6fa f43c a52a 57bd ac2b 3e3d
00000200: 85ba fbbc e65d c73a 396a ccbc 293c bebd
00000210: 7c07 90bc 2258 2b3d 8955 95bc 8b85 37bd
00000220: b8a3 84bb 80b3 333c 513b 01bd ab60 8cbd
00000230: 96a7 5dbd 6563 a6bb b862 023d 753d 8c3d
00000240: fd4d 30bb 06a0 013d 5eca 2e3d 1ade 1dbd
00000250: cab2 12bd 7224 703d 0458 7e3d 6ac0 8d3c
00000260: fb50 97bd fe7c 4d3d c94f aabd 617d 463b
00000270: 09df 8ebc 3ce3 e93c c773 b7bd 2bd0 17bd
00000280: ba76 143d 625a 893d ca85 92bc f77a 8e3d
00000290: 0cf3 acbc 4e5b 6dbd bdc7 3dbd 22f6 5aba
000002a0: d002 adbc d2fd 1d3d 9aa8 4dbd 73a4 d7bc
000002b0: c452 bcbd 6f0f 893d 99ed b7bc 96bd 9dbd
000002c0: 18eb 21bc a0d2 ccbb 5926 923c b6d4 64bc
000002d0: f91e 2f3d 1987 07bd c552 ffbc f28d 8abc
000002e0: f0f4 693c fda1 7b3d bf4d 5dbc 0c82 723d
000002f0: a3a9 773d 842f aabd d4a5 8abb 53e7 2abd
00000300: f0ae e83c 4960 27bd 8da4 9f3c b58f e3bb
00000310: 0ce8 82bd 569e 8fbd 1cb8 bdbd 920b 5cbd
00000320: bdba dc3c a6ac 91ba 6b8d 733d 87b1 a6bd
00000330: 8c91 f6bb 01b9 9ebd de5b 7ebb 4009 ce3c
00000340: 4860 cdbd 556f 933d 52e4 e0bc fc8f 973d
00000350: c7a2 9abc 5b28 343d c4d2 a13d 06cf 03bd
00000360: 4541 cdbc 9eec 313d ab2c a0bd b10a 513d
00000370: 9a38 71bd d7fd 993d 5bb6 84bd abbc 26bd
00000380: b398 713d 4a9d 5bbd 18bf 913d 444c 563d
00000390: c7fe 963d dc9d b8bd 5ff7 92b9 1001 f9bc
000003a0: db89 5b3c 2850 97bd 3aca 013d 4c88 45bc
000003b0: af21 2bbd 7cd8 a2bd 0d3d 303d a52a 3bbd
000003c0: cbe9 823d 9b7a 2e3c 3c61 b83c f9c6 0dbc
000003d0: 4be3 95bc 074a 00bd 360e abbd bbd8 513d
000003e0: 96fd 63bd 7912 513d 6911 1ebd a151 503d
000003f0: 6f2f 923d 13af 6fbd e778 953d 99c9 02bb
0.06590918 -0.0018648108 -0.00074002356 0.06586903 0.029055232 0.091610774 0.06374901 -0.05413846
0.04741744 0.041008387 -0.07065351 0.042450435 -0.053749725 -0.05609327 0.0016489774 -0.013243792
-0.019868182 -0.06570776 0.041248295 0.088129364 -0.030737376 -0.059553772 -0.012779712 -0.07694895
-0.07802699 -0.037174296 0.046837293 -0.045388654 -0.023983188 -0.04589743 -0.08834549 -0.030471435
0.0029304752 -0.015147658 0.06685634 0.030382415 0.06302354 0.043382753 0.0053875125 0.042554
-0.0631279 0.053095024 0.047393613 -0.030944224 0.0014813351 -0.07525215 -0.07423709 -0.0066154883
0.012531748 -0.026400259 0.018179096 -0.060145255 -0.047654673 0.069464035 -0.0956955 0.020836474
0.07628851 0.057147436 0.025038298 -0.087540835 0.004618824 -0.028342158 -0.018955713 0.06772248
-0.03784804 -0.059140753 -0.07814087 0.046207853 -0.0045935945 0.08705558 0.009834902 -0.07432365
0.014137512 0.07670984 0.05011865 0.03455694 -0.07663708 -0.05317829 0.06816401 -0.065798916
0.02016434 -0.016598018 0.021879941 0.01198975 -0.059693616 -0.039064866 0.072265714 0.0026708313
0.05142509 -0.036523283 0.07596161 -0.010991965 -0.029897824 0.0125619015 -0.03885747 -0.041577414
-0.020493697 -0.0043234704 -0.05043079 0.023246724 -0.078365326 0.06110053 0.08878598 0.007861072
-0.028406626 -0.081236415 0.03336388 0.06442058 0.07556545 0.007881597 0.013736045 0.08469456
0.020919725 -0.036495954 -0.07743355 0.029333765 0.039078552 0.0866269 -0.049207352 0.045981877
-0.029243663 -0.025270803 0.045919888 -0.08430411 0.07308066 0.029904705 -0.052530903 0.046428367
-0.030728588 0.0015210479 -0.024952995 -0.092888184 -0.017581694 0.041832097 -0.018229263 -0.04480509
-0.004047837 0.010968089 -0.03155071 -0.068543755 -0.0541149 -0.0050777667 0.031832427 0.068476595
-0.0026901953 0.03164675 0.04267346 -0.03854189 -0.035815038 0.058628507 0.062095657 0.017303664
-0.07388493 0.05016803 -0.08315999 0.0030287134 -0.017440336 0.028550737 -0.0895763 -0.03706376
0.03624604 0.06706692 -0.017886061 0.069570474 -0.021111988 -0.057948403 -0.046333063 -0.00083527167
-0.021119505 0.03857214 -0.05020962 -0.026323533 -0.09195474 0.06692397 -0.022452163 -0.07702176
-0.009882711 -0.0062506944 0.017840551 -0.01396673 0.042754147 -0.033087824 -0.031167397 -0.016913388
0.014279589 0.06143378 -0.013507306 0.059206054 0.060464513 -0.08309844 -0.004231194 -0.041724514
0.02840373 -0.04086331 0.019487644 -0.0069446214 -0.06391916 -0.07012622 -0.09263632 -0.05372197
0.026944513 -0.0011114075 0.05946104 -0.081393294 -0.0075246748 -0.077501304 -0.0038812081 0.025150895
-0.1002813 0.07198969 -0.027452622 0.0740051 -0.018876446 0.0439838 0.079015285 -0.032179855
-0.025055537 0.043438546 -0.0782102 0.051035587 -0.05889187 0.07519119 -0.06480094 -0.04070727
0.058983516 -0.0536168 0.07116526 0.052318826 0.07372814 -0.09014484 -0.00028031596 -0.030396014
0.0133995665 -0.073883355 0.031687 -0.0120564215 -0.04178017 -0.07951447 0.043026973 -0.045694966
0.06392249 0.010649349 0.022507302 -0.008653396 -0.018296858 -0.031320598 -0.0835232 0.05123208
-0.05566176 0.051043008 -0.038590822 0.050859097 0.071379535 -0.058516573 0.07298451 -0.0019956587

network.2.bias f4 [64]
00000000: 7811 9cbd 95b6 59bc 7592 a9bc 378b b6bd
00000010: 33c3 2b3d 4d49 943b d684 803c 2bb3 59bb
00000020: 225b 1ebc db07 10bd c0cd 0cbc 2742 8ebd
00000030: d797 0a3d 5e31 b13c c493 9b3d e21d a9bd
00000040: f9ae b3bc 9275 41bd 0cd5 78bb d3a0 eb3b
00000050: 62fe b0bc 81ce 21bc ad1f 3ebd b291 f23c
00000060: 79e7 45bd 82d5 4dbc 9df3 f63c e921 833d
00000070: bd42 9f3b 0c3a af3b 05b6 113d 0636 0e3d
00000080: 9311 f5bb cf85 49bd 3e26 48bd 5531 053d
00000090: 68b6 20bd e419 323d 105f a2bd 5d19 2c3d
000000a0: d569 583d 22f9 50bb b73c 99bd 83db 64bc
000000b0: bf55 373d 077b 783d c20c 7f3b c8e7 c6bc
000000c0: 4b1f 6c3d 4629 54bb f9ac a23d 0d9e b13d
000000d0: 554a 8fbd e628 8abd 89a5 28bd 794d b0bc
000000e0: cdda 763d e407 93bd d67f 1a3d 4b05 8a3d
000000f0: 93be 88bb b884 bbbd 1844 89bd febf a83b
-0.076205194 -0.01328816 -0.020699719 -0.08913272 0.041934203 0.0045253397 0.015688341 -0.0033218365
-0.009665282 -0.03516374 -0.0085939765 -0.06946211 0.033836212 0.021629985 0.075965434 -0.08257653
-0.02193402 -0.047231264 -0.0037968783 0.0071908026 -0.021605674 -0.0098758945 -0.046416927 0.029610489
-0.048316453 -0.012563111 0.03014546 0.06402952 0.0048602507 0.005347496 0.035573978 0.03471949
-0.0074789017 -0.049199875 -0.048864596 0.03251775 -0.039236456 0.043481722 -0.07928288 0.042016376
0.052835304 -0.0031886776 -0.074822836 -0.013968351 0.04475951 0.060664203 0.0038917516 -0.024280444
0.05764703 -0.0032373234 0.07943148 0.08672724 -0.069965996 -0.06746082 -0.04117349 -0.021521317
0.06026726 -0.071792394 0.03771957 0.06739291 -0.004173109 -0.091561735 -0.06702441 0.0051498404

output_layer.weight f4 [3, 64]
00000000: b4e4 383d 43a3 363d 9b57 973d 6739 af3d
00000010: d04f e1bd b024 ba3c 9378 3f3d 2be6 59bd
00000020: 8c2f 58bd 8a8d e1bd 1064 e4bd 04c2 853d
00000030: fab4 063d 5727 48bd 4dd7 d9bd 9ebf d6bd
00000040: 9173 ce3d df49 653d cb1d c83c ff1c 28bb
00000050: cafe f73c b73f 9c3c 1859 173d 9ce8 043d
00000060: b6e2 83bd 8d3c 4abd 9a3e 593c 66a3 4d3d
00000070: ea3a 963d cea8 7dbd 7acd 693d 89a8 d4bd
00000080: c317 67bc 9172 c3bd f352 5dbd b33b 81bd
00000090: 7754 f43d d2ca f13d 12cf 46bd b650 8b3b
000000a0: 3189 83bd 63e5 7fbd a6ec 72bd 482e b23c
000000b0: 3275 dcbd db9d a4bc 1939 b83c e567 b2bc
000000c0: 9cf6 97bc ac73 0e3d 76dc 953d df8a 90bd
000000d0: 4ec8 b2bd 8efc 4c3d 5995 013d 279d c13d
000000e0: 0c9c cc3d 1b57 bbbd e1d4 75bc 2f87 d5bd
000000f0: cae0 0d3d ea6f 2e3d b547 b7bd 5a6c 87bd
00000100: c9b2 773d 8b35 3e3d 3342 89bd 8a06 c5bb
00000110: 589a afbd 5a7e 553d 5e0f 283d f33d cd3c
00000120: 0443 dfbc 66c9 19bb 753d abbd b8f8 ee3d
00000130: 8818 2a3c 7d70 e3bc c238 3f3c 246b d5bd
00000140: ec1b 763d 87d2 c83d 1613 1e3d 2ecd 1d3c
00000150: 7c73 fc3c 9c98 ba3c fc04 0c3c 95ad 433d
00000160: f8a7 283d 1ce0 043d 8ddf 42bd d750 853c
00000170: c906 983d 2aaf 533d 3034 97bd 205a 033d
00000180: 7c29 8cbd 5dc9 b13c 6d7e 483d aca3 8cbd
00000190: b915 ae3d fe6a c63d 7352 cc3d 61e2 e73c
000001a0: fcd4 423d f957 e1bb cd4a 78bd 1660 023d
000001b0: d6c3 5dbd 3796 d13c 4b8f 85bd 6865 52bd
000001c0: 72dc 90bd 25b8 e3bb e887 6a3d 7047 0b3d
000001d0: 9a20 503a 24fc 6a3d 0771 cf3d 00d8 1cbd
000001e0: caf0 49bd 0cbe bb3d 319c d6bd 4094 babd
000001f0: b862 b7bd 6dca 7dbd 9fe5 a4bd e1ad 2fbb
00000200: b164 60bd 2e20 8f3d b935 e1bd 9646 aebd
00000210: 10be e0bd f12b 9dbd fffb 2e3d 0be4 aebd
00000220: e324 e8bc 0f3e 64bd 064c 52bd b459 56bd
00000230: e22f 8b3d 7a0c 28bd 8f24 7cbd b302 4b3d
00000240: 5f49 d23d fe2a d03d 7ef0 463c d0d7 b63c
00000250: 213c 1fbd 2eab 4dbc ca54 bc3c b9c2 7abd
00000260: 1891 95bc 5301 513d b445 c83c 7500 973d
00000270: 87db c8bc 2bb4 44bd 950c e3bd 58cc 723d
00000280: 5a2d 51bd 5c83 debd 42ad 833b 0fad 74bd
00000290: 6b15 8dbd 5d8c a73d d4da 9abd 635d 783d
000002a0: af8c 9b3d 9a9a 483d 77f6 6ebd b6ab bd3d
000002b0: eccd b1bd 5282 cc3d 9d38 06bd 5806 14bd
000002c0: 8a53 3cbb 803f b23d 9b0d f43c 38ce 873d
000002d0: 1020 723c 5282 5abd 7df7 a9bd 8246 d43d
000002e0: 93f5 c13d 0fb7 9d3d 47fa d83d 8885 c0bd
000002f0: 2e93 71bd c06f b0bc 0f6a a0bd 9f95 d5bc
0.045139983 0.044589292 0.07389756 0.085558705 -0.11001551 0.022722572 0.046745848 -0.05319802
-0.05277972 -0.110133246 -0.11151898 0.06531146 0.032887436 -0.048865642 -0.106367685 -0.10485767
0.10080636 0.055978652 0.024428269 -0.0025652049 0.03027286 0.01907335 0.0369502 0.032448396
-0.06439726 -0.049374152 0.013259554 0.050204657 0.07335456 -0.061928563 0.057080723 -0.10383708
-0.014104786 -0.09543336 -0.054034185 -0.06310215 0.11930173 0.11806263 -0.04853732 0.004251565
-0.064226516 -0.06247462 -0.059307717 0.021750584 -0.10764541 -0.020094803 0.022488164 -0.021778056
-0.01855021 0.034778282 0.0731744 -0.070577376 -0.08729611 0.050045542 0.03163657 0.094538026
0.09990701 -0.091474734 -0.015004368 -0.10426175 0.034638204 0.0425872 -0.08949224 -0.06612463
0.060473237 0.04643778 -0.067020796 -0.0060127424 -0.085743606 0.05212245 0.04103028 0.025053954
-0.027253635 -0.002346599 -0.083613314 0.11668533 0.010381825 -0.0277636 0.011671247 -0.10420826
0.060085222 0.0980578 0.03859242 0.009631438 0.030816786 0.022777848 0.00854611 0.047772963
0.041175812 0.03244029 -0.047576476 0.016273899 0.07423169 0.05168072 -0.07383001 0.03206837
-0.0684385 0.021702463 0.048948694 -0.068671554 0.08500237 0.09688376 0.099766634 0.028306188
0.0475664 -0.0068769422 -0.06061821 0.031829916 -0.05414184 0.025584323 -0.065214716 -0.05136624
-0.070732966 -0.006949442 0.057258517 0.034003675 0.00079394283 0.057369366 0.1012898 -0.03829193
-0.0493019 0.09167108 -0.1047901 -0.09110308 -0.08954376 -0.061960626 -0.08051609 -0.002680652
-0.054783527 0.0698856 -0.10996575 -0.08509557 -0.109737515 -0.07674397 0.04272079 -0.085395895
-0.028337901 -0.055723246 -0.051342033 -0.05233164 0.06796242 -0.041027524 -0.061558302 0.04956312
0.10267901 0.1016445 0.012142299 0.022319704 -0.038875703 -0.012553019 0.02298965 -0.06122086
-0.018257663 0.051026653 0.0244473 0.07373134 -0.024518741 -0.048023384 -0.11086384 0.05927691
-0.05106864 -0.108648986 0.0040184567 -0.059735354 -0.06888851 0.08181069 -0.075612694 0.060635936
0.07595193 0.048975565 -0.058340516 0.09261267 -0.086818546 0.09985794 -0.032768834 -0.036138862
-0.0028736317 0.08703518 0.029791644 0.0663113 0.014778152 -0.05334694 -0.08299158 0.10365011
0.09470668 0.07700931 0.105946116 -0.09400469 -0.058978252 -0.021537662 -0.07832729 -0.026072321

output_layer.bias f4 [3]
00000000: aa2e c13c 5375 0b3d 399b a23d
0.023581821 0.034047436 0.079397626

network.0.weight f4 [128, 22]
00000000: d57e b3bd 0cbe 183e 9416 6ebe 691b f33d
00000010: 991b 283e e28d a73d fd73 8e3e 60ed 123e
00000020: 31d9 2fbd 2f9d 2b3e 7a80 c1bd 4c57 38bb
00000030: f29d 0dbe 3fd6 e4bd edcb e7bd 5b14 5ebe
00000040: 1f5b 283e 418a 5abd 4e0b adbd fbbe 553d
00000050: 1704 953c 833b b3bd 40f1 723d 461a 08be
00000060: 8d63 2dbe a70d 03be 493e 2abe c607 2b3e
00000070: 54f3 a63d aa4e 3f3e 0db0 2fbe 8b50 2dbe
00000080: c036 ad3d a067 ccbd c8d1 85bd 5244 00be
00000090: b7b1 37be a69c 00be 7c49 09be e4b4 df3d
000000a0: 0065 b8bb 0a6e 083e 88cd 3d3e 422d 103e
000000b0: 381d 77be 941a b13d 26f2 db3e f3c8 6abe
000000c0: 6a14 5cbe 9d51 bebd aa55 febd 291e 73be
000000d0: 8203 05be afa0 a6bd 7f4c 523c 0481 e43d
000000e0: ff21 863d 784a 32bd 7864 28be 7dc0 0f3e
000000f0: 5303 0abd 65d6 763d 5349 00be 57d9 54bb
00000100: a997 f03b b415 b2be 1967 22be 61c8 e93c
00000110: b42c 2f3e af63 a63d 9595 7cbc bc42 4ebc
00000120: e528 ad3d ddef d7bd b97b 193e 2062 e63d
00000130: a958 7dbe d381 5c3e bfdc ecbc 6516 42be
00000140: d30a 94bd b32a 2c3e d057 53be e796 623d
00000150: adf7 1fbd dc52 04be 84eb 0d3d 5fe1 b63d
00000160: 4328 023e aa92 9cbe c19a 493e cec6 233e
00000170: c20d 9a3a 64d5 e73c 28ea 5a3e 44f1 b8be
00000180: d8f3 f73d c81b 503d 5678 23be 568c db3a
00000190: 899a 91bd 00ba 67be 322d 0c3e 5102 843c
000001a0: a31c 5abd 959d 89bd 95fc 24bd dd15 023e
000001b0: 9392 67be f818 70be f1ae 9ebd a670 ff3d
000001c0: bf91 c9bd 23ac 4abe 39c6 08be d0cc 55be
000001d0: ac82 073e 5fa1 b7bd b407 c6bd b06e 27be
000001e0: 714d 593d c79f 48be 562b 28be 140a 7bbd
000001f0: 9426 0b3e 6a17 0dbe 531d 34be 1ed0 1d3d
00000200: 89b3 68be 62e7 393e 73c1 833d 7ddd c03d
00000210: d09f 023e 2070 153e c76f 5dbd 121e f63d
00000220: 6765 e03d 37f0 7c3d f936 0c3c 8fa9 82be
00000230: 2574 9fbd c8b9 17bd 790c 0cbe e1e2 f43d
00000240: b10a 0c3e 3096 50be a2be 0f3e adfc acbc
00000250: 559e 3fbd 2bbb 183e d68c d63d 066d 1cbe
00000260: d9cb c9bc 0a52 23bf ac79 0bbe afb3 47be
00000270: 7b02 bf3d 9572 07bd f57a 1dbe 405a 77bd
00000280: 18af a9bc bb26 5b3d 1df5 2f3e 31f5 10be
00000290: 8b89 07bd bb92 5d3e 2667 fa3d 1794 a93d
000002a0: 5fd9 63bd 1ce9 803b 6ac4 35ba 4480 e83c
000002b0: d06b 1d3e 55ea 3dbd ef60 a4bd da10 073e
000002c0: c9fe 21bd 83f4 88be 7c45 8cbc 91d5 843d
000002d0: 17ad 3c3d 274a 8a3d 2e25 3dbe 78f6 4dbe
000002e0: aa21 803c 768a 273e 6742 fa3d 1994 043e
000002f0: ca0c 203d 5dea 4ebe 14ad 3b3d 72e1 8ebd
00000300: af1d 60bd a4d4 de3d aa2f 29be 36a3 a33d
00000310: a14b 11be c789 a33d 516d 76be a5c3 0cbe
00000320: a4d0 ecbe df00 d33d 3653 bf3d 4800 963e
00000330: 8ab8 983e 4811 e53d e9be f13d 02c7 313e
00000340: f98f 913d ec91 c9bc 4ca3 fbbd 5942 0e3e
00000350: 9b83 35be e9a6 3e3e 4371 a53d 0e56 a73d
00000360: 866c a33d c348 b83d 6816 b3bd fbe3 e93c
00000370: 71ce f7bd 194b 27be 8ca5 a6bd 97ab c63b
00000380: d8b8 13bc 551c d03d ebd2 883e 6bf9 b3bd
00000390: a199 ffbc 5ca6 98bd c4b2 cf3d e72a 7fbe
000003a0: 8f48 be3d 73a4 213e 9563 a13d 4bf9 32bc
000003b0: 20bb 9ebd bcf8 2d3e 1463 64be bd04 ba3c
000003c0: 592a 0ebd a096 2a3e 2190 83bd 8cfe 0abe
000003d0: 0a05 dbbd 2653 cd3d 84d3 573d 1609 02be
000003e0: 6085 b8bd a3cf f0bd 2dbf e63c 0487 75bd
000003f0: 515d 8e3d f12a a93c fe23 3dbd c777 4dbc
-0.08764426 0.14916247 -0.232508 0.118704624 0.16416778 0.08181359 0.27822867 0.14348364
-0.04293174 0.1675918 -0.09448333 -0.0028128205 -0.13829783 -0.11173677 -0.11318193 -0.21687452
0.1644101 -0.053354505 -0.08449422 0.052184086 0.018190427 -0.08751585 0.059312105 -0.13291273
-0.16932507 -0.12798177 -0.16625322 0.16702184 0.0815188 0.18682352 -0.17157002 -0.16925256
0.08457708 -0.099807024 -0.06534153 -0.12526062 -0.17938887 -0.12559757 -0.13406938 0.10923174
-0.0056272745 0.13323227 0.18535435 0.14079764 -0.2413224 0.086476475 0.42958182 -0.22928219
-0.21492162 -0.0929291 -0.12418683 -0.23741974 -0.1298962 -0.08136117 0.012835621 0.1115742
0.06549453 -0.04352805 -0.16444576 0.14038272 -0.033694576 0.060263056 -0.12527971 -0.0032478177
0.007342298 -0.34782183 -0.15859641 0.02853793 0.17106897 0.08124482 -0.0154165225 -0.012589153
0.08455066 -0.10543797 0.14988603 0.112491846 -0.24740852 0.21533899 -0.028913854 -0.18953855
-0.07228627 0.16813163 -0.20638967 0.055319693 -0.03905456 -0.12922233 0.034648433 0.08929705
0.12710671 -0.30580646 0.1968794 0.15993807 0.0011753368 0.028299995 0.21378386 -0.3612157
0.121070564 0.050807744 -0.15963873 0.0016750197 -0.07109553 -0.22629547 0.13689116 0.016114386
-0.053249966 -0.067195095 -0.040279943 0.12703653 -0.22614507 -0.23447025 -0.07748211 0.12472658
-0.09842252 -0.19792227 -0.13356866 -0.20878911 0.13233441 -0.08966326 -0.09669438 -0.16350818
0.05305237 -0.195922 -0.16422781 -0.061288908 0.13588935 -0.13778463 -0.17589311 0.038528554
-0.22724737 0.18154672 0.06433382 0.094172455 0.12756276 0.14593554 -0.054061677 0.12017454
0.10956841 0.061752524 0.008558028 -0.25519988 -0.07785825 -0.03704241 -0.13676633 0.11957336
0.13675953 -0.20369792 0.14037564 -0.021116579 -0.046781857 0.14915149 0.10476081 -0.15275964
-0.024633335 -0.63797057 -0.13620633 -0.19502138 0.09326645 -0.03306826 -0.15378936 -0.060388803
-0.020713374 0.053503733 0.17183347 -0.14156033 -0.033090156 0.21638004 0.12226705 0.08280199
-0.055627223 0.003934039 -0.000693387 0.028381474 0.15373158 -0.046366055 -0.08026301 0.13190022
-0.039549623 -0.26749048 -0.017122976 0.06486047 0.04606351 0.06752425 -0.18471214 -0.20113552
0.015641052 0.16361412 0.122196965 0.1294712 0.039074697 -0.2020659 0.045819357 -0.06976594
-0.05471581 0.10880402 -0.16522089 0.079901144 -0.14189006 0.07985263 -0.24065138 -0.13746507
-0.4625293 0.103029005 0.09342043 0.2929709 0.29828292 0.11184937 0.11803991 0.17361072
0.07107539 -0.024605714 -0.12287006 0.13892497 -0.17725985 0.18618359 0.080782436 0.081707105
0.079796836 0.08998253 -0.08744508 0.028551092 -0.120999224 -0.16337241 -0.08137044 0.0060629356
-0.009016238 0.10161654 0.26723418 -0.08787807 -0.031201186 -0.074536055 0.10141519 -0.2491871
0.09291183 0.15785389 0.07880322 -0.010923694 -0.07750535 0.16989416 -0.2230342 0.022707338
-0.034708355 0.16659021 -0.06423975 -0.13573664 -0.106943205 0.10025625 0.05269195 -0.12698779
-0.09009814 -0.117583536 0.028167332 -0.059943214 0.069513924 0.020650359 -0.046176903 -0.012540764

network.0.bias f4 [128]
00000000: 6226 8b3d 6426 f7bd 0e06 c2be d158 0f3d
00000010: ee67 8cbe 8535 923d b612 30be 5012 f2bc
00000020: 6782 12be 11b7 a73d 1481 2fbd 4546 1ebe
00000030: 65a6 2c3e 91c4 883c 1725 ebbd 2a7f 413e
00000040: 08f2 de3c d1d1 d9bd a7c2 40bc 472e d2bc
00000050: 4bd4 ecbc e3c6 d13c 2508 7ebd 949f 083e
00000060: d21f cb3d 5cd8 afbd 247f 52bd 01b0 f9bc
00000070: 120f a53d 6b78 9fbd 03cb 873d b6db 4abe
00000080: 3e27 923d a7c8 993d 22b8 013e 41de 4abe
00000090: 221b e0bc bae4 493e 3d61 2dbe cbab f2bc
000000a0: 0e43 57be 0645 59be 48f9 203e 77f1 3ebd
000000b0: d90d 03be 1157 ecbd 974f 25be 0974 cc3e
000000c0: 78d2 2a3d 9b10 6fbc 5991 cebd 9ca1 523e
000000d0: c243 023e ac03 8b3e d0af 893e 1b70 4cbd
000000e0: d0a0 1cbd d425 cbba 1880 aebd 275c 4abe
000000f0: 1293 a43e 58be 7e3e b39d ccbb 3dae a1bd
00000100: bff9 b0bd 6a01 24be 9e3a 02be 14cf 3cbc
00000110: a95c a53d ab21 a4be c3bd a23d a5ea 1e3e
00000120: ccb3 b83d 3ec3 b0bd 951c ccbd 1831 b9bc
00000130: 051e 213e d3b6 373e a806 cc3d 3bf4 bbbe
00000140: 90d8 81be 7a68 913e ffc6 4cbe aae0 3ebe
00000150: 6704 cabc 3b26 94bd d59f f33d c0e5 b3be
00000160: 54d6 773d 29a7 51be 6570 c83e f5f1 753e
00000170: 2c91 74bd 737f 1ebe 3732 913c 16db c33e
00000180: aa51 49be 6c51 7bbd fcb1 4d3d 8223 48bd
00000190: dbf4 1fbe 7cba a63d fd00 a23c 7ccc 49bd
000001a0: 8f13 48be aa84 c53c a6b2 df3d 9d42 b43d
000001b0: ce3d ee3d f261 b03d b110 9b3e 3a9f 0fbe
000001c0: f467 133d 8f3b 8abe 57e4 983e 37f3 8ebe
000001d0: 6058 5bbe 72a5 6ebe 016f e6bd b306 f0bd
000001e0: baf8 c43d d929 31be e9df 1abd f9c2 12be
000001f0: 1d35 8abc aecb 25be 5498 02bd 2904 0e3e
0.0679443 -0.12067869 -0.37895244 0.03499681 -0.27423042 0.07139114 -0.17194638 -0.029549748
-0.14307557 0.08189214 -0.042847708 -0.15456493 0.1686035 0.016695293 -0.11481684 0.18896165
0.027215019 -0.106357224 -0.011765159 -0.025656832 -0.028909823 0.025607532 -0.062019486 0.13342124
0.099181786 -0.08586189 -0.051390782 -0.030479433 0.08059515 -0.0778664 0.06630518 -0.19810376
0.07136391 0.075089745 0.12667897 -0.19811346 -0.027356688 0.19716159 -0.16931625 -0.029622933
-0.21021673 -0.21217737 0.15720093 -0.046616998 -0.12798251 -0.11540044 -0.16143642 0.39932278
0.041704625 -0.014591361 -0.100863166 0.20569462 0.1272116 0.2715124 0.26891947 -0.0499116
-0.0382393 -0.0015498945 -0.08520526 -0.19761716 0.32143456 0.24877298 -0.006244385 -0.078945614
-0.08641385 -0.16016164 -0.12717673 -0.011523981 0.08074314 -0.32056937 0.079463504 0.15519197
0.090186685 -0.086309895 -0.09966389 -0.022606418 0.15734108 0.17940836 0.09962207 -0.3670977
-0.25360537 0.28400022 -0.19997786 -0.1864039 -0.024660302 -0.072338544 0.1189572 -0.35136223
0.060507134 -0.20473923 0.3914825 0.2401808 -0.05970876 -0.15478306 0.01772414 0.38253087
-0.19660059 -0.061356947 0.050218567 -0.048861988 -0.15620749 0.08141038 0.019775862 -0.049267277
-0.19538711 0.02411111 0.10922746 0.08801768 0.11632882 0.086124316 0.30286172 -0.14025584
0.03598781 -0.26998565 0.2986171 -0.27919933 -0.21420431 -0.233053 -0.11251641 -0.11720028
0.09617753 -0.1730112 -0.037811194 -0.14332189 -0.01687103 -0.16190979 -0.031883553 0.13868774

network.2.weight f4 [64, 128]
00000000: b5da b23c c48e db3c ab8f 5abd 4e95 d6bd
00000010: 0954 f43b 8560 a63d a7f0 c33c 9489 7d3d
00000020: 5bc4 81bd c903 553d b917 b93d bcfe 3b3d
00000030: 0289 7bbd dca9 443d 4415 9dbd 09d7 5bbd
00000040: d254 3d3d 268e 523d 4878 1d3d 83cb 16bd
00000050: 5001 a2bd aa06 3b3d 7ecd 88bd 6132 5b3d
00000060: 7fc9 0dbc dee8 113d b8ff 91ba 3132 debc
00000070: f7f2 3ebd f45f 22bd 1888 ddbc b2cb c8bd
00000080: cfb5 e33c 7a0e 723c df45 debd 61b1 15bd
00000090: 13eb a8bd 4def 013c f360 4abd 6edf 763d
000000a0: 190c 8abd e8d3 74bd a7dc 9f3d 64a1 c1bb
000000b0: 290a 6d3d 71de 5abd 918a 9c3d cd83 90bd
000000c0: 1bee 0fbd 5b73 babd 7e49 903d 420a 0a3d
000000d0: a55b 00bd 90c5 3b3d 2f01 8abc 2863 acbd
000000e0: e021 a1bd f454 b63c 5f5b 833d 314f b3bb
000000f0: 4d02 ad3d 9b06 e2bc c975 0b3d c8da a43d
00000100: 23bd 923d b6c2 8b3c 6408 82bd 7243 643d
00000110: 5123 7ebd 7e78 a9bd 723c 77bd 304b a13d
00000120: 3abd f1b9 147e 003d a933 47bd 0fd8 aebd
00000130: f7fa b63c 779d aebd 9087 983c e660 00bd
00000140: e43c 803a 3581 8a3d 091f c9bd 6f86 d13c
00000150: 2851 18bd 262d 14bd 15d4 06be 8b4e 22bd
00000160: 1fa9 fe3c 86d6 033d 50ca b4bd a665 0e3c
00000170: e561 0b3a b21f 1e3d 534c 54bc 5159 923d
00000180: 3f71 703d f222 bbbd ef4f 4b3d acdf 57bc
00000190: 7f3e a6bc a395 5cbd e273 52bd 2b59 3e3c
000001a0: d0f3 2ebd ca34 523c 4798 4dbc ceb1 dfbc
000001b0: 6c59 a53d fb89 97bd dc19 05bd 8438 703d
000001c0: db98 073d d071 3d3d 860f 373d 8e82 adbd
000001d0: 24b3 3c3d 82b4 86bc f8fd 7d3d b815 8fbc
000001e0: 613d 3f3d 542d ba3b 752d 283d 6d11 d7bc
000001f0: 104e b2bc 6752 153d 9fd0 073d 5c64 88bd
00000200: 6624 45bd 74f1 f53c 0547 aebd adb2 59bd
00000210: 5063 363c d1bd aa3d e908 b7bd 28be 7bbc
00000220: 843a 85bd b812 1abc 1b19 a03d a5d6 8abd
00000230: bed1 733d 5436 b13c 20ce 3d3c 123e 6e3d
00000240: 62da 323d 189b e53c 08f2 4c3c 8870 6bbd
00000250: d7ab e2bd 4e9c 723d 1e44 04bd 18c3 a3bd
00000260: 06a4 ecbc 7ae8 7ebd 6391 933d 43b5 853d
00000270: 89d7 d7bd d00b 133d 05bd 13bd 6904 ad3d
00000280: 808f 083c 90c8 b1bb 7a78 0e3d 7942 9bbd
00000290: 4f99 0fbd f583 953d fd12 9b3d c93d 2dbd
000002a0: 0737 883d a08e 94bd a0a7 8ebd 60e5 36bd
000002b0: f336 e0bd 6bcb 493d 8090 54bc c7ec 40bd
000002c0: acbd dd3c 4c82 2abd 52f3 543d fab7 4f3d
000002d0: 997b 85bd 7086 a03c 833d 36bd 6204 323d
000002e0: e5e3 7bbd 808b bb3a 94b0 da3c aecd 8fbd
000002f0: bce3 de3c 09ec 0abd 2e57 063d 9d93 19bd
00000300: 0843 9dbc eb4a adbd c393 1ebd 5750 883d
00000310: 7016 ff3c 78f1 bebd d8c6 96bd 271f 893d
00000320: 00bf 1bbd 46fa 8fbd ef4b 14bd bb31 a13c
00000330: 00c4 2f3c 5313 39bd aa79 333d ccb3 7b3d
00000340: 68e4 a23c d579 bebd a8ed c5bc 8f36 b4bd
00000350: 197a 9a3d e2ed 6cbd a0f3 26bb ebf9 a0bd
00000360: 2b84 f0bc 2cf6 7fbd faff 8ebd 1180 82bd
00000370: be23 1a3d bf04 b5bd 1328 403d 8a1c 1c3d
00000380: e21e 423d 0a29 653d ca39 a5bc 386e b8bc
00000390: e9e9 a6bd e91e 57bd 8668 77bd c18d dcbd
000003a0: 140f 16bd c067 eeba 8da3 f0bc 6072 613c
000003b0: 08e2 78bd 76db d23c ac33 a8bd 3c5c f73c
000003c0: 1df9 0fbd c71b 483d 34cf 95bd addd a83d
000003d0: 80c4 83bd 7e5b adbd 8897 14bc 04f6 7bbd
000003e0: 581f 133c d562 81bd 90a6 18bc a87c 39bc
000003f0: fa2d 00bd 101f 6b3c 0bb2 4dbd 0243 533d
0.021832803 0.026801474 -0.05335967 -0.10477696 0.007456307 0.081238784 0.023918463 0.061898783
-0.0633628 0.052005563 0.09037728 0.04589723 -0.061409958 0.048013553 -0.07670072 -0.05367187
0.04622347 0.051405095 0.038444787 -0.036815178 -0.079104066 0.045660652 -0.066798195 0.053514842
-0.008653997 0.03562247 -0.0011138832 -0.027123543 -0.046618428 -0.03964229 -0.027042434 -0.09804477
0.027796654 0.014773959 -0.108531706 -0.036546115 -0.08247962 0.007930589 -0.049408864 0.060271673
-0.06740589 -0.059772402 0.07805758 -0.005909132 0.057871018 -0.053434793 0.07643617 -0.07056389
-0.035139184 -0.091040336 0.070452675 0.03370119 -0.0313374 0.045842707 -0.016846268 -0.0841735
-0.07867789 0.022257306 0.06413912 -0.005472087 0.084477045 -0.02759104 0.034047876 0.08049542
0.07164981 0.017060619 -0.06349257 0.055728383 -0.0620454 -0.08274935 -0.06036038 0.07875669
-0.00046108087 0.031370237 -0.04863325 -0.08537304 0.022336466 -0.08526128 0.018619329 -0.03134241
0.0009783772 0.067629255 -0.098203726 0.025576798 -0.03718677 -0.03617587 -0.1316684 -0.039625686
0.031086503 0.032187007 -0.088276505 0.008691227 0.00053170166 0.038604446 -0.01295765 0.07145942
0.05870175 -0.09137525 0.049636777 -0.013175886 -0.020293472 -0.053853642 -0.051380046 0.011617939
-0.042712986 0.012829969 -0.012548513 -0.027306464 0.080736965 -0.073993646 -0.032495365 0.058647648
0.03310476 0.04625112 0.04469254 -0.08472167 0.04606928 -0.016443495 0.06200978 -0.017466411
0.046689395 0.005681673 0.041058976 -0.026253426 -0.021765739 0.036455538 0.03315794 -0.06659767
-0.048130415 0.03002236 -0.0850964 -0.053148914 0.011132076 0.08336986 -0.08937246 -0.015365161
-0.065053016 -0.009403877 0.078172885 -0.067792214 0.059526198 0.021632351 0.011584789 0.058164664
0.043665297 0.028028056 0.012508877 -0.057480365 -0.11067932 0.059231095 -0.032291524 -0.079961956
-0.028886806 -0.062233426 0.07205465 0.065287136 -0.10539157 0.035899937 -0.036068935 0.08448107
0.008334994 -0.0054255202 0.034782864 -0.07581038 -0.035058316 0.073005594 0.07571981 -0.04229525
0.06651121 -0.07253766 -0.06965566 -0.044652343 -0.10947981 0.04926626 -0.012973905 -0.04710081
0.027067982 -0.041628167 0.05198986 0.050712563 -0.06517715 0.019595355 -0.044492256 0.04346121
-0.061496634 0.0014308542 0.026695527 -0.07021652 0.027208202 -0.033916507 0.032797985 -0.03749429
-0.019197002 -0.08461555 -0.038715135 0.066559486 0.031138629 -0.093234 -0.07362145 0.06695395
-0.03802395 -0.07030158 -0.03620523 0.019677034 0.010727882 -0.045184445 0.0438172 0.061450765
0.019884303 -0.09300581 -0.024161175 -0.08799469 0.075428195 -0.05784405 -0.0025474802 -0.07860168
-0.029359898 -0.062490627 -0.069824174 -0.06372083 0.037631743 -0.08838796 0.046913218 0.038113154
0.047392733 0.05594734 -0.020169158 -0.022513494 -0.081500836 -0.052519713 -0.060402416 -0.10769225
-0.036635473 -0.0018188879 -0.029374862 0.013760179 -0.060762435 0.025739413 -0.08212981 0.030195348
-0.035149682 0.048854616 -0.073149115 0.08245406 -0.06433964 -0.084647164 -0.009069331 -0.061513916
0.008979641 -0.06317679 -0.009317055 -0.011321224 -0.031293847 0.014350668 -0.050218623 0.051577576

network.2.bias f4 [64]
00000000: 611f 4e3d f6e1 21bc 0a80 7d3d 9145 46bd
00000010: 4cea 3f3e 77df bdbd 18fa fd3c bd5b 93bc
00000020: 6420 a5bc 7642 df3d 6771 09bc 54fd 2abe
00000030: 9fe6 843d 5ae3 a8bd 3ecd d1bd 23d4 b6bd
00000040: 6a81 ce3c 2d48 113a e87a 91bc 3aab 533d
00000050: b701 193c c98a e33c 76ad d73d b9a5 80bc
00000060: 4943 bbbc 4f4e a4bd 5bed a83c 4d7d 6c3d
00000070: 9d75 3bbc ef72 203d 8df1 83bd f375 c53c
00000080: f593 fb3c 55fa 83bd ac5f 5c3a 71fe 9cbd
00000090: ec70 703d ae8b a7bd 196b 583e a094 babd
000000a0: e83a ab3c 37cb 0f3d 52d5 fcbc 5a8a 603c
000000b0: 160c 18bd b88d 2f3e 86e3 a53d 7840 cfbd
000000c0: 6488 043e 13a6 633d 2f13 133e b8cb 0fbe
000000d0: 4559 d8bd cf77 0d3d d386 1fbe 9741 383d
000000e0: 91cf 0cbe 2847 283e a26f 42be 2d45 2b3e
000000f0: dfc4 db3d 2ac9 5d3d b7ea 9e3b 9f9e 1d3e
0.050322894 -0.009880533 0.061889686 -0.048406187 0.18741721 -0.09271138 0.031003043 -0.01798808
-0.020157047 0.10901348 -0.008388854 -0.166982 0.064893 -0.08246489 -0.10244225 -0.089271806
0.025208194 0.0005542066 -0.017758802 0.051676966 0.009338788 0.027776139 0.10531132 -0.015704023
-0.022859233 -0.08022749 0.020620992 0.057736684 -0.011441615 0.03917211 -0.064425565 0.024104094
0.0307102 -0.064442314 0.000840659 -0.07665718 0.05870144 -0.08180939 0.21134605 -0.09110379
0.020902112 0.03510591 -0.030863438 0.013704861 -0.0371209 0.17143905 0.08100037 -0.10119718
0.12942654 0.055578303 0.14362787 -0.14042556 -0.10563902 0.034538087 -0.15578775 0.044984426
-0.13751055 0.16433394 -0.18987897 0.16725607 0.107309096 0.054146923 0.0048497575 0.1539254

network.4.weight f4 [1, 64]
00000000: 16f9 6dbd 4758 a4bd 2568 debd 329b 843d
00000010: ebba 88bd 2182 4f3d 9ad2 983d a819 69bc
00000020: 2dda dd3d 86a7 3ebc 8445 4739 4495 a43a
00000030: 5ec3 11bd 3839 9b3d af6a b8bb 6310 59bd
00000040: b1a1 0a3c ba93 5abc f4c4 e93b 5fd6 d3b9
00000050: 8f3c 7f3d 75d3 c0bb d793 edbc 6847 83ba
00000060: 2df5 b3bb 95bf 0e3b 94e0 543c 8d17 57bd
00000070: 93cb a2bd 1478 e4bc 7d36 103c f58f 3abb
00000080: d4ba 493b 83d9 823d de6a ba38 2d50 593c
00000090: 1f7a fa3a 15c3 85bd 9652 02bd f4b5 953c
000000a0: f8ce 67bb 3ba6 63ba b8d4 723d 1024 e33b
000000b0: 3dee bebb b023 92bc 6fc3 69bb 8794 63bd
000000c0: 3974 f0bc f995 a4bc 82f5 2abc b281 273c
000000d0: e33f ae3c 3772 a83d 2de7 883d 3963 82bb
000000e0: 394c 643b 607a 05bc 3156 573c f96e eebb
000000f0: f218 18bb fae9 23bc 30ed 853b 92ff cbbc
-0.058098875 -0.0802465 -0.10859708 0.06474914 -0.06676277 0.05066121 0.07462044 -0.014227308
0.10832629 -0.01163662 0.00019004015 0.0012556692 -0.035586707 0.07579273 -0.005627952 -0.052994143
0.008461402 -0.013340885 0.0071340743 -0.00040404775 0.062313613 -0.0058845826 -0.02900116 -0.0010015788
-0.0054918737 0.0021781672 0.012992997 -0.052512694 -0.07948985 -0.027889289 0.0088020535 -0.0028467153
0.0030781524 0.06389143 8.889077e-05 0.013263744 0.0019109881 -0.065313496 -0.03181704 0.018275239
-0.0035371166 -0.0008684133 0.059284896 0.006931789 -0.00582674 -0.017839283 -0.0035669466 -0.05556157
-0.029352294 -0.020091044 -0.01043451 0.010223793 0.021270698 0.0822491 0.06684718 -0.0039791134
0.0034835471 -0.008146852 0.013143108 -0.0072764126 -0.0023208228 -0.010004515 0.004087113 -0.024902139

exp_avg f4 [128, 22]
00000000: 9b6a bcb8 c61a 9ab9 424e c035 d126 9734
00000010: 2fa7 dfb7 ccb4 d9b7 7037 f0b7 5a34 e235
00000020: 1746 07b8 a349 5b34 b305 ab36 ffcd 7e32
00000030: 8ff7 cab8 5330 6ab9 a525 7b34 5606 dab8
00000040: 56a9 3ab9 a4a9 3eb5 5de2 0938 f0c4 8835
00000050: 686e 15b9 6805 92b7 3507 ec39 f6d1 91b8
00000060: 0a2a 9b35 dc0b 6c34 bd5e a4b7 d4da 9fb7
00000070: 8753 abb7 ec0f 2235 b12b d7b7 2a94 8833
00000080: 5c80 c136 beca 4bb4 752c fe39 d975 d4b7
00000090: f860 04b5 81dc 083a 6b07 cfb8 a572 00b4
000000a0: a46b a537 24f3 05b5 11bb d7b7 4e37 24b7
000000b0: 5838 5935 1b6e 9033 e319 62ad 8f18 222e
000000c0: 1c82 e330 a359 dd30 9654 de30 1069 1a26
000000d0: 9654 de30 0000 0000 1069 1a26 68e3 87ae
000000e0: 8bed 6935 420b 1e33 1e7b 262d 5756 122e
000000f0: e143 0433 bfbd 74ad 9154 de30 22c0 12af
00000100: d64e 0532 42dd 3130 0ad9 2bbb 650f 943a
00000110: a81d 94b6 b903 fe34 fb7a ad38 c836 a638
00000120: bdbe aa38 bdb7 5935 b1da dc38 e419 1db1
00000130: 1f9d c1b7 d17f 0935 8011 39bb 9da1 213a
00000140: 1904 2e36 b854 47bb f056 8d3a befe cbb5
00000150: 95e7 ec38 6506 4137 ce31 b63a 6cde 97b4
00000160: dda5 53ba 85d0 2ebb 3acd bb36 ea5d 5fb5
00000170: 39c6 fbb8 e19e f2b8 6fbd e7b8 ee30 12b7
00000180: f568 06b9 890a 5934 d20e 1337 55b5 00b5
00000190: 92e6 63ba 3aa2 18bb 9867 b1b5 e222 75ba
000001a0: 5eb3 19bb ab95 a534 6cdc 36b8 49a9 0fb6
000001b0: fa58 87ba e7ad 16b8 6e6f 1d35 b35b 5133
000001c0: 42df 23ad 33f7 ea2d 57e4 a430 c26d a030
000001d0: 9b23 a130 24b1 ef25 9b23 a130 0000 0000
000001e0: 24b1 ef25 f8f9 44ae 708b 2935 9117 e532
000001f0: 6952 f12c 6b1f d42d 7ab9 bf32 c361 31ad
00000200: 9823 a130 beb8 d4ae 703c c131 4be9 0030
00000210: 5d53 3fba bbd9 a33a 246b 51b6 50c7 8634
00000220: ff2d 8738 455f 8238 c710 6138 8adf 3037
00000230: 435a 8c38 1a73 63b3 b92f 33b6 abe1 1b35
00000240: db0c 4eba c1f9 873a 2930 e135 75e8 5dba
00000250: 115e a53a 3b2a c7b4 0701 e737 f597 ad36
00000260: c700 0e3a 9fdb 3d37 930a 4b35 ae00 8733
00000270: c357 53ad f183 172e 79a8 d430 e4e6 ce30
00000280: 6dd1 cf30 31df 1026 6dd1 cf30 0000 0000
00000290: 31df 1026 7009 7eae 9ea8 5a35 57ba 1333
000002a0: 3c9d 1b2d 0dc9 082e 7143 f732 24c4 64ad
000002b0: 6bd1 cf30 ee2b 09af 8a36 f931 2a41 2630
000002c0: 7072 7039 1fe7 83ba d085 3636 f84f 71b5
000002d0: 16c3 3fb8 fbc4 34b8 aba5 3db8 eafd db34
000002e0: d2a9 58b8 eb1c ceb3 7a19 e936 6207 14b5
000002f0: 6685 8139 e951 68ba 05b4 83b5 7085 8b39
00000300: 359a 81ba 1403 8235 33d4 95b8 549b 6cb6
00000310: 357b 1cba 53e4 bcb3 d736 943a bf88 63ba
00000320: 7cfd 2b36 5601 02b5 010e 4fb8 54d0 45b8
00000330: c6a6 4db8 51b5 2e34 4cc3 80b8 bb54 4ab3
00000340: 7104 5337 a297 9bb4 cf9e 9f3a 1533 20ba
00000350: c172 b0b5 6eee ab3a bd8e 56ba f61c 8e35
00000360: 507c 8cb8 5abe a3b6 4503 5eba 0468 56b6
00000370: 660e 533a 9d94 b6ba 5f32 1636 2634 48b5
00000380: 32df 61b8 fda5 58b8 3758 3bb8 9c58 0db7
00000390: d0d3 64b8 cbb5 09b4 c4e4 d535 5b8e fab4
000003a0: 684f 633a 0b20 98ba 4830 a5b5 a6ce 743a
000003b0: 24eb b1ba 9b9c a835 6a21 9cb8 32bc 69b6
000003c0: 8e8c 4eba 2c10 f3b5 0000 0000 0000 0000
000003d0: 0000 0000 0000 0000 0000 0000 0000 0000
000003e0: 0000 0000 0000 0000 0000 0000 0000 0000
000003f0: 0000 0000 0000 0000 0000 0000 0000 0000
-8.9843954e-05 -0.00029393117 1.4327891e-06 2.8154184e-07 -2.6661522e-05 -2.5952606e-05 -2.8636045e-05 1.6853548e-06
-3.2251784e-05 2.0422753e-07 5.0968606e-06 1.4831584e-08 -9.678222e-05 -0.00022333981 2.3389892e-07 -0.0001039623
-0.00017801425 -7.1027375e-07 3.2874163e-05 1.0190106e-06 -0.00014250877 -1.7407074e-05 0.00045018797 -6.953247e-05
1.1560635e-06 2.1983527e-07 -1.959444e-05 -1.9056177e-05 -2.0423684e-05 6.037287e-07 -2.5650343e-05 6.3599444e-08
5.766791e-06 -1.8979605e-07 0.00048479778 -2.5327246e-05 -4.931494e-07 0.0005220846 -9.871911e-05 -1.1962636e-07
1.9719657e-05 -4.9900177e-07 -2.5717107e-05 -9.788038e-06 8.092079e-07 6.7255506e-08 -1.2852361e-11 3.6856348e-11
1.6553403e-09 1.6105343e-09 1.6176667e-09 5.357187e-16 1.6176667e-09 0.0 5.357187e-16 -6.179485e-11
8.7144934e-07 3.679748e-08 9.463345e-12 3.3273242e-11 3.079538e-08 -1.3911926e-11 1.6176661e-09 -1.3346882e-10
7.759544e-09 6.470665e-10 -0.0026221895 0.0011296092 -4.414196e-06 4.7313895e-07 8.27219e-05 7.9257006e-05
8.1417595e-05 8.1106174e-07 0.00010531152 -2.2861224e-09 -2.3080558e-05 5.1222474e-07 -0.002823919 0.0006165745
2.5930406e-06 -0.0030415487 0.0010783356 -1.5198818e-06 0.000112964924 1.1505185e-05 0.0013900341 -2.8287775e-07
-0.0008073727 -0.002667458 5.596926e-06 -8.3210637e-07 -0.000120055345 -0.00011569053 -0.00011050223 -8.7136705e-06
-0.00012818335 2.0213533e-07 8.765333e-06 -4.794759e-07 -0.00086937204 -0.0023290054 -1.3217677e-06 -0.0009351206
-0.0023452858 3.0842543e-07 -4.3597465e-05 -2.1407197e-06 -0.00103262 -3.5924746e-05 5.864921e-07 4.8745004e-08
-9.3150505e-12 2.6712499e-11 1.1997469e-09 1.1672727e-09 1.1724411e-09 4.1579926e-16 1.1724411e-09 0.0
4.1579926e-16 -4.4787257e-11 6.3160314e-07 2.6669825e-08 6.8587813e-12 2.4115562e-11 2.2319671e-08 -1.0082993e-11
1.1724408e-09 -9.6734606e-11 5.6239102e-09 4.689766e-10 -0.0007298494 0.0012500802 -3.120579e-06 2.5104464e-07
6.445869e-05 6.2166284e-05 5.3659805e-05 1.0542464e-05 6.692533e-05 -5.295724e-08 -2.6700857e-06 5.807039e-07
-0.0007860192 0.0010374115 1.6777823e-06 -0.000846512 0.0012616535 -3.7097365e-07 2.7537824e-05 5.173492e-06
0.0005416986 1.1316412e-05 7.563878e-07 6.286551e-08 -1.2013448e-11 3.4450613e-11 1.5472913e-09 1.5054096e-09
1.5120755e-09 5.0262517e-16 1.5120755e-09 0.0 5.0262517e-16 -5.7761296e-11 8.14567e-07 3.439558e-08
8.845643e-12 3.110139e-11 2.8785253e-08 -1.30038515e-11 1.5120752e-09 -1.2475684e-10 7.253054e-09 6.048305e-10
0.00022930815 -0.0010063386 2.7198002e-06 -8.9895866e-07 -4.5719637e-05 -4.3098797e-05 -4.52154e-05 4.0976676e-07
-5.165657e-05 -9.597883e-08 6.946907e-06 -5.514504e-07 0.00024704187 -0.0008862303 -9.812653e-07 0.00026611565
-0.0009887876 9.686651e-07 -7.144399e-05 -3.5257153e-06 -0.0005969287 -8.795964e-08 0.0011307847 -0.00086797395
2.5628533e-06 -4.843072e-07 -4.9365688e-05 -4.716248e-05 -4.903113e-05 1.6270975e-07 -6.1398925e-05 -4.7108852e-08
1.2577614e-05 -2.8981327e-07 0.0012178066 -0.00061111274 -1.314642e-06 0.0013117322 -0.0008184722 1.0588253e-06
-6.698875e-05 -4.8799384e-06 -0.0008469115 -3.194903e-06 0.0008051157 -0.0013929788 2.2381062e-06 -7.458169e-07
-5.3852047e-05 -5.1653e-05 -4.466643e-05 -8.424886e-06 -5.45567e-05 -1.2825255e-07 1.5936316e-06 -4.6669706e-07
0.0008671195 -0.0011606229 -1.230751e-06 0.00093386543 -0.0013574106 1.2562554e-06 -7.4448835e-05 -3.482925e-06
-0.00078792206 -1.8109617e-06 0.0 0.0 0.0 0.0 0.0 0.0
0.0 0.0 0.0 0.0 0.0 0.0 0.0 0.0
