models/rl/ppo/ppo_20250315_232423/ppo_episode_10.pt (torch, 286386 bytes, 33 tensors)

network.0.weight f4 [128, 22]
00000000: 6347 f23d 4a06 1d3e 7561 2bbe a585 5e3e
00000010: 6bb2 0e3c 625f ad3d 30cb a4bc 6eef 823d
00000020: 9a53 903e cd58 c8be efcd dd3d d197 123e
00000030: d110 e63d b6e7 27bc 8a02 0a3d 092d 91bd
00000040: b4d5 063e 5025 0fbe 5d2c 5cbe 107c ac3d
00000050: 4c78 f2bd 5e86 603e f6fd d3bd 4f4a b73d
00000060: d27a 8abe 0556 1fbe 0a75 77bd 1d46 05be
00000070: 635e 543c c1bb 55be d2bd 4c3e 6147 f3bd
00000080: 5e2c 1e3e 47a7 743e 0067 b0bd 82d9 9a3d
00000090: 8c76 4ebd 2b18 1f3e 70f3 02bd bf54 6ebe
000000a0: e148 6abe 4e5e cbbc 2817 0b3d 3abf d13e
000000b0: 793e d73d e439 efbd c313 0d3e 3775 e83c
000000c0: cd0c c43d 230e 20be b043 74be 9eef abbd
000000d0: c267 41be 5623 333e 600e 683d f838 c23d
000000e0: e005 473d 189c d0bc 7b67 233e c6cc 1dbe
000000f0: 9fa4 25bc 8e28 15be d0e4 9e3d abbe 6abd
00000100: 9a78 313d 0d7b 7cbd 0af3 333e 2fc8 1fbe
00000110: a085 64bd fbff 0ebe 5b56 093e e1e0 a73c
00000120: f067 5e3e 14fc 8abe a3f0 56be 96a8 acbe
00000130: b612 73be 3959 8fbd 8ae6 9a3d 9958 253e
00000140: e299 7ebd 0a56 1abe 9d82 ba3d 594b 453c
00000150: 5081 093f 9f34 3fbd ca17 d53d 7097 9bbe
00000160: 8014 0d3c 73f0 763d 7b46 90bd 9508 01bd
00000170: c9a3 283e f8de 3d3e 4700 12be abd6 95bd
00000180: 12b1 683e 8212 fe39 c17a 5bbd a0c9 81bd
00000190: 19ab e3ba 6371 0a3d 4d36 bfbd 0954 1abd
000001a0: 8b1d e7bb 8ad8 bbbe 0d2e 0fbf aece e2bd
000001b0: ba00 4dbe 3b1f a63d 1af8 433e a827 70b9
000001c0: 7766 8d3d 4501 5dbe cabf 37be 2f57 e2bd
000001d0: ddcf 6e3a f211 53be 249c f5bd 29b3 02be
000001e0: 881f d6bc f1b8 a3bd ad90 15bd e4b4 3ebe
000001f0: 16df 19be 9539 19be 4206 ebbd 1e29 32be
00000200: 0372 4c3e 661f aebc 8e51 163e d545 f13c
00000210: 37db 3abe 06be e33d 615f 383d 476c c7bd
00000220: 40b5 82be 9a0f 94be 0487 a73b de24 a8bd
00000230: 2ac1 2a3c 0715 93bd 628a 133e de51 8bbe
00000240: ad6f 1ebd 8e45 a73c e990 493e 3658 2e3e
00000250: d3dd 2d3e 8d89 273b 932e 9c3e 7092 9abd
00000260: 3fac 2fbd 9b39 dbbe 6d89 303e 7756 35be
00000270: 20ba f63d 8275 763d c20e 553d 0288 0abe
00000280: b3e7 303e 73a9 323d d58f d13b b464 40be
00000290: b4ac b03d 4b0e 99bc 94e5 eebd d9dd 253e
000002a0: 77d3 2c3d c474 03be 064c 04be cf50 4dbb
000002b0: b06d f43d 118c 21bd a334 12be 3077 c5bd
000002c0: 5ee9 a5bd 8ce1 ef3c f234 cf3d ddce 3cbe
000002d0: 69dd 233d 980a ca3d b440 b03c 28b2 aebd
000002e0: 7a5c e53d 8bed 513e 66c1 2b3d 73cf e83d
000002f0: d7e8 b23c dce1 05bd d764 a9bd b4c6 723c
00000300: 4dd1 b73d 0ea0 b43c 084f c8be 3262 86bc
00000310: b97b a5bc 79c1 913c 96f2 6a3d f231 2b3d
00000320: a03a 5cbe b006 bdbd 8eb0 273e 670b 8f3d
00000330: 09f1 72bd 4169 8bbd 6641 2cbe 9145 1abc
00000340: d2bb 88bc b096 103e abab 113e aa55 983d
00000350: d56f 49be 2c71 07be 702e 61bd 0fd8 5b3e
00000360: 313f 9ebe 96af 12bd da52 883d 809b afbd
00000370: 1735 1abe 8577 043e f101 f5bd 9a22 4bbc
00000380: a867 71be d5f7 ef3d 1ace d53d 39de 093e
00000390: 45be 45be f81f 833b c289 03be d74d 393e
000003a0: 93e5 b73d c693 173e 12c9 093e 2684 293d
000003b0: cc24 efbc 4d44 e0bd f847 01bf 931b 3bbe
000003c0: 75cf 863d 09c0 39be 74bf 2fbd 2949 fbbd
000003d0: 6021 1fbd d5a8 19be f0a6 0ebe 28d6 903d
000003e0: 30c4 81bd e0c6 063e 8c13 8cbd 8d26 20be
000003f0: 3014 1abd 60a8 d3bd b895 85bd 5cd6 4fbe
0.11830022 0.1533443 -0.16736396 0.21730669 0.00870953 0.084654585 -0.020116419 0.06393324
0.28188783 -0.3913025 0.10830294 0.14315726 0.11233676 -0.010248115 0.033693828 -0.07088668
0.13167459 -0.13979077 -0.21501298 0.084221005 -0.11839351 0.21926257 -0.103511736 0.0894972
-0.2704683 -0.15560158 -0.06041435 -0.13015027 0.012961957 -0.20872404 0.19994286 -0.11878849
0.15446612 0.23891936 -0.08613396 0.075610176 -0.050406024 0.15536563 -0.03197044 -0.23274516
-0.22879364 -0.024825241 0.03395763 0.40966207 0.105099626 -0.11680964 0.1377707 0.028376205
0.09572754 -0.15630393 -0.23853946 -0.08395313 -0.18887237 0.17493948 0.056654334 0.09483522
0.048589587 -0.025465056 0.15957443 -0.15410146 -0.0101100495 -0.14566252 0.07758486 -0.05731074
0.043327905 -0.061640788 0.17573181 -0.15603708 -0.055791497 -0.13964836 0.13411848 0.020492973
0.21719337 -0.27145445 -0.20990233 -0.3372237 -0.23737606 -0.0699944 0.07563503 0.16147079
-0.062158473 -0.15071884 0.09106944 0.01204189 0.5371294 -0.046681043 0.10404928 -0.30388975
0.008610845 0.060287904 -0.07044693 -0.031502325 0.16468729 0.18542087 -0.14257918 -0.07316335
0.22723797 0.00048460445 -0.053583864 -0.06337285 -0.0017369717 0.03379954 -0.09336529 -0.0376778
-0.0070530823 -0.36688644 -0.5592964 -0.11074577 -0.20019808 0.081114255 0.19137612 -0.00022902957
0.06904309 -0.21582516 -0.17944255 -0.11051785 0.00091099535 -0.20612314 -0.11992672 -0.12763657
-0.026138082 -0.07994259 -0.036514927 -0.18623692 -0.15026507 -0.14963372 -0.11475803 -0.17398497
0.19965367 -0.021255206 0.14679548 0.029452244 -0.18247686 0.111202285 0.045012835 -0.09737449
-0.25528908 -0.28918153 0.0051125307 -0.08210157 0.01042203 -0.07181745 0.14408258 -0.27210897
-0.03868072 0.020418908 0.19684185 0.17025837 0.1697915 0.0025564164 0.30504283 -0.07547462
-0.042888876 -0.42817387 0.17239924 -0.17708765 0.12047219 0.060170658 0.052016027 -0.13528445
0.17275886 0.04361863 0.00639532 -0.18788415 0.086266905 -0.018683573 -0.11664882 0.1619791
0.042193856 -0.12837511 -0.12919626 -0.0031328683 0.11934984 -0.03944022 -0.14277892 -0.09641874
-0.08101152 0.029282354 0.101175204 -0.18438287 0.040006075 0.09865302 0.021515228 -0.08530074
0.11199279 0.20500772 0.041932486 0.11367693 0.021839542 -0.0326861 -0.08271187 0.014817882
0.08975468 0.022048976 -0.39122796 -0.016404245 -0.020200597 0.01779245 0.057360254 0.04179568
-0.21506739 -0.09229791 0.16375944 0.06984597 -0.0593119 -0.06807185 -0.16821823 -0.009416
-0.016691122 0.14119983 0.14225642 0.07438214 -0.19671567 -0.13226765 -0.054975927 0.21469139
-0.30907586 -0.035811983 0.06656428 -0.08574581 -0.15059315 0.12936218 -0.11963261 -0.012398386
-0.23574698 0.11717192 0.104397014 0.13463677 -0.19310863 0.0040016137 -0.12845519 0.180961
0.08979335 0.14802465 0.13455608 0.041385792 -0.02919235 -0.10950527 -0.5050044 -0.18272237
0.06582538 -0.18139662 -0.042907193 -0.122698136 -0.03885019 -0.1500581 -0.13930869 0.07072097
-0.06336248 0.13161802 -0.06839666 -0.15639706 -0.03761691 -0.10334849 -0.06522697 -0.20296615

network.0.bias f4 [128]
00000000: 3ad0 453e d0ab e2bd afac f8bd edbd e43d
00000010: a2f5 003e 348e 24be 6f97 69bc b61d b33d
00000020: 54f8 4bbe 9d28 e23c a03b c83c a00b 08bc
00000030: f31b 7a3e e02c 12be 04b5 ec3d 8344 8fbd
00000040: 170a 22be df7b 183e a18e 20be 7f5c 19bd
00000050: a0d0 093e 8138 36be 5f87 51be 01fe 983d
00000060: 2aa8 173e e74a b0bc 7602 f93d 7d4c fa3d
00000070: e5af 773d c77a 0ebe 74df 333e 4f5c d43d
00000080: 367e 343b f7f8 cf3d 8638 42be 9f39 9dbb
00000090: d657 d0bd 73f6 64bd d98b 5a3d e513 9f3d
000000a0: 0046 543d 2f1b 09be a613 08be cfcd 8dbb
000000b0: dce1 2cbd d617 39be c5cc 533e 546d 83bd
000000c0: 31b4 51be a3d5 ba3d a88c 1c3d 51e8 23be
000000d0: 786a d73d 9a60 08be 2471 a53d 7922 7c3e
000000e0: 047a f83d 9cd7 b13d 3231 d1bc 8b5e 393d
000000f0: 45d1 613d db9e 573d 56f4 fabc 98b0 f33c
00000100: 0259 79bd 4f4e abbd d58b 6ebe 2744 17be
00000110: c7da 48be 3ee8 523e 945c 503d 32d5 57be
00000120: 4003 04be 7a6a d73c ae00 59bd 7a5a bfbd
00000130: dfb3 b4bd 1210 98bc 218c 3abd 4194 49bb
00000140: e450 263e 37cf 163e d129 083e 4ab3 09bd
00000150: 5da9 0fbe 87e3 3bbd 676f 15be 56e5 733d
00000160: 670d d6bd a969 01be e0c5 78be 487a d33d
00000170: c230 813d 2d6a 583e 00fa dfbd 8cbd 55bc
00000180: abec 29bd 2d6d a3bd d445 23be e1cb f03d
00000190: 153b e7bd 81ed be3d fb16 913d 2a90 8b3d
000001a0: c636 293e 1adb d23d 91d2 f43d 7c07 823d
000001b0: 9a78 ccbd 1b8a e7bd e9e9 98bd 5e18 b13d
000001c0: 9eab 063e 7eff 573e 7f3b 8cbd be26 523b
000001d0: 26b3 3cbe 9fd6 e43d 5e62 30be d37f aebd
000001e0: 7247 343e d244 3c3d 8a8d 62bd ab88 3cbe
000001f0: dd9c 59be 14ab e73d 0d8b 47be f4d5 073e
0.19317713 -0.11067927 -0.12142312 0.11169038 0.12593701 -0.16069871 -0.014257296 0.08745901
-0.19918948 0.027607257 0.024442494 -0.008303553 0.24424724 -0.14274931 0.115579635 -0.069954894
-0.15824161 0.14891003 -0.15679409 -0.037441727 0.1345849 -0.17794992 -0.20461796 0.074703224
0.14810243 -0.021520091 0.121586725 0.1222162 0.06047048 -0.13914023 0.1756571 0.10369169
0.0027541048 0.10154908 -0.18966874 -0.0047981287 -0.101730034 -0.055899095 0.053356025 0.077674665
0.05182457 -0.13389276 -0.13288745 -0.004327513 -0.042207584 -0.18075499 0.20683582 -0.06417337
-0.20478894 0.09122779 0.038220078 -0.1600659 0.10518354 -0.133181 0.080782205 0.24622525
0.12132648 0.08683702 -0.025536153 0.04525618 0.055131216 0.05264173 -0.030634087 0.029747292
-0.0608759 -0.083645456 -0.23295529 -0.14772092 -0.19614707 0.20596406 0.05086954 -0.21077421
-0.12891865 0.02629589 -0.052979164 -0.09343429 -0.0882337 -0.01856235 -0.045543794 -0.0030758532
0.16241795 0.14727484 0.13297202 -0.03361825 -0.1402945 -0.045871284 -0.14593278 0.059544884
-0.10451775 -0.12637962 -0.24294233 0.10326058 0.06308128 0.21134253 -0.109363556 -0.01304568
-0.04148547 -0.07979808 -0.15944606 0.11757637 -0.11290566 0.09322644 0.07084461 0.068146065
0.165248 0.102956966 0.11954225 0.06349084 -0.099839404 -0.113056384 -0.0746649 0.08647226
0.13151404 0.21093556 -0.068472855 0.003206655 -0.18427715 0.11173748 -0.17225024 -0.08520474
0.17605379 0.04596407 -0.055310763 -0.1841151 -0.21251245 0.113119274 -0.19486637 0.1326521

network.2.weight f4 [64, 128]
00000000: de68 833d e767 d3bb 0514 ad3b 5769 883d
00000010: eebd c13c b29f c73d 6838 6f3d efd2 4bbd
00000020: 73e4 323d 2836 283d 5151 9cbd 82e0 2d3d
00000030: dc86 6fbd e60c 6ebd 8022 d83a bf54 48bc
00000040: e704 6fbc ca91 86bd 7223 183d 2b7d b43d
00000050: de41 18bd a8ee 73bd 83a7 4cbc 6997 9dbd
00000060: 3f55 a3bd 1344 18bd b8d3 283d 8839 3abd
00000070: 5628 c6bc f2fe 3bbd 18d1 bbbd bb3f fabc
00000080: 9f0d 183c f2dd 48bc faeb 883d b708 ed3c
00000090: 7c12 813d 7816 4b3d e737 de3b 7744 233d
000000a0: 179c 83bd 4fad 713d cdcb 583d be7e fdbc
000000b0: dd7e d93b 3443 a4bd 9e09 98bd db50 32bc
000000c0: f861 833c cc81 fdbc 98b5 4f3c 990a 5cbd
000000d0: a61c 36bd dfbd 9e3d 01fc c3bd 0656 e43c
000000e0: 3e2e a43d bcfd 513d c056 b83c 990b bcbd
000000f0: 7360 ca39 ee73 d4bc 2be0 48bc 15b2 8a3d
00000100: f3ac 2cbd 3da0 5cbd 708b a8bd bab7 2e3d
00000110: 58fd 18bc 0b9d ba3d 6236 ba3b 4afa 8bbd
00000120: 06a1 673c 8a6b 9b3d fb58 463d 096c 273d
00000130: 2cf6 9cbd 9e3f 5abd 9399 8b3d 0230 90bd
00000140: b02f a53c 7072 87bc 903d b33c 29e2 8f3c
00000150: d86f 60bd 6ebb 25bd 0c00 943d 1d09 2f3b
00000160: 398d 693d e996 f5bc 35bf a73d 199e dfbb
00000170: 48ec f4bc 7454 053c 0b3e 30bd 144d 2abd
00000180: ba58 bbbc e6ab 8dbb f3cf 45bd 1b79 933c
00000190: 4317 97bd 8d44 7a3d 30ce c53d bacb 003c
000001a0: 8312 0bbd 3a9d 9dbd 2d37 e53c 059f 733d
000001b0: 0fc2 9a3d d021 013c 9fdb 1d3c 5774 ad3d
000001c0: 1fae e03c 2bb7 0ebd 2289 93bd 5d4d f03c
000001d0: d1b5 2c3d 23ad bc3d ce16 51bd ef7f 553d
000001e0: 6890 efbc c274 d8bc b546 303d 33d9 aabd
000001f0: b9cf a03d b6fa f43c a52a 57bd ddb1 4d3d
00000200: 4f6f 0bbd b0bf e7b9 396a ccbc f890 c5bd
00000210: ddc6 afbc 2258 2b3d ff6a b3bc 8b85 37bd
00000220: 66ca c6bb 69d8 183c 8139 0dbd ab60 8cbd
00000230: 2f80 65bd 6563 a6bb b862 023d f08f 863d
00000240: fd4d 30bb 06a0 013d c3ab 1e3d 1ade 1dbd
00000250: 4919 1dbd 7224 703d 8510 6b3d 6ac0 8d3c
00000260: 56fc 99bd fe7c 4d3d 0c8c b3bd 29ec cebb
00000270: f998 d4bc 3ce3 e93c 4f6a b8bd 2bd0 17bd
00000280: ba76 143d 124c 823d ca85 92bc f015 893d
00000290: 0cf3 acbc 4e5b 6dbd bdc7 3dbd 2680 02bb
000002a0: 9409 adbc d2fd 1d3d 9aa8 4dbd 73a4 d7bc
000002b0: c452 bcbd 766b 883d 99ed b7bc 51a7 a2bd
000002c0: 84ad 71bc f124 1ebc 1410 7b3c b6d4 64bc
000002d0: e62c 073d 1987 07bd c552 ffbc 0c4b f4bc
000002e0: f0f4 693c df39 6e3d 2350 93bc 52cf 603d
000002f0: 19cc 653d 8f6a bdbd a473 12bc 53e7 2abd
00000300: 9404 cf3c 5027 2abd 67ae 8b3c 8d45 06bc
00000310: 4ec0 87bd b9bc 9abd ccc6 bebd 920b 5cbd
00000320: bdba dc3c 3592 69bb e226 6c3d 87b1 a6bd
00000330: 8c91 f6bb b293 a9bd de5b 7ebb 98b2 b53c
00000340: 4860 cdbd a473 923d 52e4 e0bc fc8f 973d
00000350: c7a2 9abc 9dd9 2b3d c4d2 a13d 06cf 03bd
00000360: 4541 cdbc 9eec 313d ab2c a0bd b10a 513d
00000370: 9a38 71bd fe39 983d 993f 88bd abbc 26bd
00000380: d349 673d 4a9d 5bbd 3b84 913d e124 4b3d
00000390: c7fe 963d dc9d b8bd 5ff7 92b9 1001 f9bc
000003a0: ac8c 293c 9d57 9cbd 28db ff3c 3452 80bc
000003b0: af21 2bbd 7cd8 a2bd e94a 1a3d a52a 3bbd
000003c0: cbe9 823d 9d36 76bb 3c61 b83c f9c6 0dbc
000003d0: 4be3 95bc 074a 00bd ecc5 b0bd bbd8 513d
000003e0: 96fd 63bd 9f3d 2a3d 3117 28bd d5d3 463d
000003f0: 6f2f 923d 13af 6fbd e778 953d 99c9 02bb
0.06416486 -0.006451595 0.0052819275 0.06660717 0.023650136 0.09747256 0.058403403 -0.04976171
0.043674897 0.041067272 -0.076326974 0.042450435 -0.05847822 -0.05811777 0.0016489774 -0.012227236
-0.014588571 -0.06570776 0.03714318 0.088129364 -0.03717219 -0.059553772 -0.01249111 -0.07694895
-0.07975244 -0.037174296 0.041217536 -0.045465022 -0.024189156 -0.04589743 -0.09170741 -0.030547967
0.009280591 -0.012259947 0.06685634 0.02893482 0.06302354 0.049581975 0.0067815664 0.039860215
-0.06426256 0.05900317 0.052928735 -0.030944224 0.0066374377 -0.080206305 -0.07423709 -0.010883535
0.016037926 -0.030945681 0.012677573 -0.053721044 -0.044460915 0.07751059 -0.0956955 0.02787305
0.080166325 0.05126737 0.022502303 -0.091818996 0.00038600303 -0.025934186 -0.012260477 0.06772248
-0.042157125 -0.053863753 -0.082297206 0.042655684 -0.009337746 0.09111985 0.0056827525 -0.06834848
0.014137512 0.07588871 0.048424702 0.040874515 -0.07664141 -0.053283326 0.06816401 -0.07040407
0.02016434 -0.01653406 0.021879941 0.017563896 -0.054794163 -0.04046195 0.072265714 0.0026708313
0.057019446 -0.029979186 0.08190767 -0.0068242666 -0.029897824 0.008137811 -0.04302792 -0.041577414
-0.022869457 -0.0043234704 -0.04829402 0.018002084 -0.07377484 0.06110053 0.09658468 0.007861072
-0.0339532 -0.07696004 0.027980411 0.059477825 0.07556545 0.007881597 0.009634881 0.08469456
0.027426777 -0.03484265 -0.072038904 0.029333765 0.04216558 0.09212711 -0.05104714 0.05212396
-0.029243663 -0.026422862 0.04303618 -0.08342209 0.0785212 0.029904705 -0.052530903 0.05021845
-0.0340417 -0.00044202572 -0.024952995 -0.09646791 -0.02145713 0.041832097 -0.021901606 -0.04480509
-0.0060666082 0.00932894 -0.034478668 -0.068543755 -0.05603045 -0.0050777667 0.031832427 0.06570423
-0.0026901953 0.03164675 0.038738023 -0.03854189 -0.038354192 0.058628507 0.0573888 0.017303664
-0.075188324 0.05016803 -0.08766946 -0.0063147736 -0.02595185 0.028550737 -0.09004652 -0.03706376
0.03624604 0.063621655 -0.017886061 0.06693637 -0.021111988 -0.057948403 -0.046333063 -0.0019912808
-0.021122731 0.03857214 -0.05020962 -0.026323533 -0.09195474 0.066611215 -0.022452163 -0.07942069
-0.014750842 -0.009652362 0.015323658 -0.01396673 0.033001803 -0.033087824 -0.031167397 -0.029820941
0.014279589 0.05816066 -0.017982548 0.054885216 0.056102846 -0.0924884 -0.008938704 -0.041724514
0.025270738 -0.041541398 0.017050935 -0.008195293 -0.06628476 -0.07555527 -0.09315261 -0.05372197
0.026944513 -0.0035640125 0.05765427 -0.081393294 -0.0075246748 -0.08280124 -0.0038812081 0.022179887
-0.1002813 0.07150963 -0.027452622 0.0740051 -0.018876446 0.04195558 0.079015285 -0.032179855
-0.025055537 0.043438546 -0.0782102 0.051035587 -0.05889187 0.07432936 -0.06652755 -0.04070727
0.05646689 -0.0536168 0.07105299 0.049595717 0.07372814 -0.09014484 -0.00028031596 -0.030396014
0.01034848 -0.076338984 0.031232432 -0.015664198 -0.04178017 -0.07951447 0.037669096 -0.045694966
0.06392249 -0.0037569173 0.022507302 -0.008653396 -0.018296858 -0.031320598 -0.086315006 0.05123208
-0.05566176 0.041562673 -0.041037742 0.048541863 0.071379535 -0.058516573 0.07298451 -0.0019956587

network.2.bias f4 [64]
00000000: 489a a3bd 9adc 82bc 79b9 d2bc fd30 b7bd
00000010: 33c3 2b3d 4fb5 30bb 497a 333c baf3 41bc
00000020: 0274 b5bc bf28 2abd 72cd 0f3c 2742 8ebd
00000030: b2bb b03c 7da6 803b 05e3 8d3d 7e21 a0bd
00000040: 7143 fabc 9275 41bd da6e f13c d3a0 eb3b
00000050: 679d 7abc ffe3 1cbc a95c 5dbd 7586 573c
00000060: 79e7 45bd 4cbb 88bc a135 9a3c 6cb5 8b3d
00000070: c64a 9b3c a333 573d ba8e d63c 5b60 f13c
00000080: e70f 03bc 3165 19bd b80a c7bb 972f 053d
00000090: 7982 22bd 5673 303d 105f a2bd 5d19 2c3d
000000a0: c951 9c3d 3e54 203c 3ff7 99bd 83db 64bc
000000b0: e314 123d 077b 783d 18d4 9bbb f42f fc3b
000000c0: 7f10 333d 362a a4bb d2cd b33d b59e b13d
000000d0: 554a 8fbd 6811 5ebd f23c 44bd fb7d c2bc
000000e0: eece 763d e407 93bd d67f 1a3d c777 8c3d
000000f0: 93be 88bb b48a bbbd 1844 89bd f688 a83b
-0.07988411 -0.015974332 -0.025723206 -0.08944891 0.041934203 -0.0026963537 0.010954448 -0.011837894
-0.022150043 -0.041542765 0.008777009 -0.06946211 0.021573875 0.003926097 0.06928066 -0.07818888
-0.030549737 -0.047231264 0.029471803 0.0071908026 -0.015296317 -0.009575843 -0.054043446 0.013154616
-0.048316453 -0.016690873 0.0188244 0.06821713 0.018956553 0.05253948 0.026191104 0.029464891
-0.007999397 -0.03745002 -0.006074276 0.03251609 -0.03967521 0.043078743 -0.07928288 0.042016376
0.07632787 0.00978571 -0.075178616 -0.013968351 0.03566445 0.060664203 -0.004755508 0.007696146
0.043716904 -0.0050099147 0.087794915 0.08672849 -0.069965996 -0.05421582 -0.047909684 -0.023741713
0.060255937 -0.071792394 0.03771957 0.06858783 -0.004173109 -0.09157315 -0.06702441 0.00514328

output_layer.weight f4 [3, 64]
00000000: 45c8 133d 2b7f 363d 10bd 843d 606b 9f3d
00000010: d04f e1bd 985c a73c 3251 493d a0d1 5cbd
00000020: 43d2 78bd 2c52 f3bd 04ea fbbd 04c2 853d
00000030: 4918 ef3c abf9 9abd af7f debd 5dcb b3bd
00000040: 9a5c bc3d df49 653d f91f 313c ff1c 28bb
00000050: 32b0 0a3c ac4c 243c 5517 013d 59e7 533c
00000060: b6e2 83bd ae63 42bd c94b 8a3c d93d 843d
00000070: 528d 803d 5574 80bd 78a0 653d bf6e d4bd
00000080: 6256 67bc 1ff3 7dbd 5d0f f9bc 6d0a 82bd
00000090: 3544 f83d 22f8 eb3d 12cf 46bd b650 8b3b
000000a0: 5f7d 67bd 102d e7bc ca09 74bd 482e b23c
000000b0: f5fb c9bd db9d a4bc 1157 633a 9431 8abc
000000c0: 34c2 97bc f97b 0d3d 9f20 543d e7a5 90bd
000000d0: 4ec8 b2bd f8ea f43c d756 b53c c441 c23d
000000e0: b262 cc3d 1b57 bbbd e1d4 75bc a005 d4bd
000000f0: cae0 0d3d a8f5 2d3d b547 b7bd 5a6c 87bd
00000100: c1f5 8d3d 1752 3f3d f753 6cbd 7769 df3a
00000110: 589a afbd 2cbc 463d 9b32 163d 5c0b d33c
00000120: 44a4 12bd ef9d d139 c140 68bd b8f8 ee3d
00000130: ffc7 163c 2720 31bd f7c8 943b 4830 17be
00000140: c065 6b3d 87d2 c83d 5c95 4b3d 2ecd 1d3c
00000150: 49e0 543d a2bc 033d 4dd5 d5ba b0a8 0f3d
00000160: f8a7 283d 6849 013d a2f4 45bd 61cd a73c
00000170: c95d ea3d 0396 ae3d 95c2 97bd dde2 013d
00000180: ad28 8cbd 938b 113b 93e4 2e3d 54e0 8bbd
00000190: 2dc1 9d3d 9e7a ca3d 7352 cc3d 61e2 e73c
000001a0: eb87 533d 42c8 95bd 8f6b 77bd 1660 023d
000001b0: 62c0 75bd 3796 d13c 45bb 3cbd a994 78bd
000001c0: 8885 c3bd 2fa0 c5bb dccf 7f3d 887a 0b3d
000001d0: 9a20 503a a6e0 723d 4dec e13d 2790 1abd
000001e0: a24f 48bd 0cbe bb3d 319c d6bd 19fa c2bd
000001f0: b862 b7bd 5afc 7bbd 9fe5 a4bd 325e 3abb
00000200: 0176 5abd fdb5 8e3d b935 e1bd 9646 aebd
00000210: 10be e0bd 25d5 92bd d2bd 363d 025c aebd
00000220: 072c 78bc d432 62bd 6784 89bd b459 56bd
00000230: 935c 863d a1c5 59bc 1617 58bd 5490 9c3d
00000240: 3f59 e83d fe2a d03d cfe8 673c d0d7 b63c
00000250: 1657 36bd 2eab 4dbc a266 1a3d d782 19bd
00000260: 1891 95bc 0a50 343d 8949 b53c 7e2c 823d
00000270: 9494 72bd d608 abbd 36c5 e0bd 54ec 753d
00000280: 7d20 51bd 86a6 cebd ad50 06bc 0fad 74bd
00000290: 6b5f 86bd 5d8c a73d d4da 9abd 635d 783d
000002a0: 2602 883d 4d15 a53d afd0 6ebd b6ab bd3d
000002b0: 4f46 bdbd 5282 cc3d 8684 22bd d3c9 fdbc
000002c0: b643 b23c df74 b13d b58e 423d 38ce 873d
000002d0: 1020 723c aa17 1cbd 4374 9cbd c18b d23d
000002e0: 93f5 c13d 0fb7 9d3d 47fa d83d eab5 afbd
000002f0: 2e93 71bd c06f b0bc 0f6a a0bd fc8a d4bc
0.036079664 0.04455487 0.06481373 0.07784152 -0.11001551 0.020429894 0.0491497 -0.05391085
-0.060747396 -0.118809074 -0.12300494 0.06531146 0.029186385 -0.07567152 -0.108641975 -0.08779023
0.0919735 0.055978652 0.0108108455 -0.0025652049 0.00846486 0.010028046 0.03151639 0.012933576
-0.06439726 -0.047458343 0.01688184 0.06457109 0.06276955 -0.062721886 0.056061238 -0.10372686
-0.014119716 -0.061999436 -0.030402834 -0.06349645 0.121223845 0.11521937 -0.04853732 0.004251565
-0.056516048 -0.02821973 -0.059579648 0.021750584 -0.0986251 -0.020094803 0.00086723367 -0.016869344
-0.01852522 0.034542058 0.051788922 -0.07062893 -0.08729611 0.029897198 0.022136135 0.094852
0.09979762 -0.091474734 -0.015004368 -0.103526354 0.034638204 0.042470604 -0.08949224 -0.06612463
0.069316395 0.046709146 -0.057697263 0.0017044981 -0.085743606 0.0485193 0.036669355 0.025762253
-0.035801187 0.00039981256 -0.05670238 0.11668533 0.009202956 -0.043243553 0.0045405584 -0.14764512
0.057470083 0.0980578 0.049702987 0.009631438 0.051971707 0.032162316 -0.0016314179 0.035072982
0.041175812 0.031564146 -0.048329003 0.020483674 0.11443669 0.08524706 -0.074101605 0.031710494
-0.06843696 0.0022208437 0.042698454 -0.068298966 0.07702861 0.098866686 0.099766634 0.028306188
0.051643293 -0.07313587 -0.06040531 0.031829916 -0.059997924 0.025584323 -0.04607703 -0.06068865
-0.095469534 -0.0060310583 0.06245409 0.0340524 0.00079394283 0.059296273 0.11031399 -0.03773513
-0.04890407 0.09167108 -0.1047901 -0.095203586 -0.08954376 -0.061519958 -0.08051609 -0.0028437492
-0.053335194 0.06968305 -0.10996575 -0.08509557 -0.109737515 -0.0716956 0.04461462 -0.08513643
-0.015147216 -0.055224255 -0.06714707 -0.05233164 0.06560626 -0.013291747 -0.05275639 0.07644716
0.11345147 0.1016445 0.014154627 0.022319704 -0.044516645 -0.012553019 0.037695535 -0.037478294
-0.018257663 0.044021644 0.02212979 0.063561425 -0.059223726 -0.08351295 -0.10975115 0.060039833
-0.051056374 -0.100903556 -0.008197946 -0.059735354 -0.06561168 0.08181069 -0.075612694 0.060635936
0.06641035 0.080607034 -0.058304485 0.09261267 -0.09241926 0.09985794 -0.039677165 -0.030980026
0.021760803 0.086648695 0.047499377 0.0663113 0.014778152 -0.038108505 -0.07639363 0.10280562
0.09470668 0.07700931 0.105946116 -0.08579619 -0.058978252 -0.021537662 -0.07832729 -0.02594518

output_layer.bias f4 [3]
00000000: d536 7bbb c3c0 7c3d bca1 9e3d
-0.0038332243 0.06170727 0.07745692

network.0.weight f4 [128, 22]
00000000: bcfe d7bd abe4 f13d ae27 80be 0dce df3d
00000010: fb13 173e 710f f53c 6ba5 963e 951f 0f3d
00000020: 5e75 1ebc f0e7 ff3a 6950 6bbe a727 0cbe
00000030: 155a 43be a617 0fbe 9fec 33be 71f9 89be
00000040: 6de0 113e b73f 04be 28af 1dbd 2830 bf3d
00000050: af0f b23c 3455 25be 40f1 723d 461a 08be
00000060: 8d63 2dbe a70d 03be 493e 2abe c607 2b3e
00000070: 54f3 a63d aa4e 3f3e 0db0 2fbe 8b50 2dbe
00000080: c036 ad3d a067 ccbd c8d1 85bd 5244 00be
00000090: b7b1 37be a69c 00be 7c49 09be e4b4 df3d
000000a0: 0065 b8bb 0a6e 083e 88cd 3d3e 422d 103e
000000b0: ccc1 78be 189b a23d c43b db3e 04aa 72be
000000c0: 07e5 61be 7aff c9bd 33db 00be 669e 79be
000000d0: 8613 07be daa0 a6bd 0052 dd3b ba3d 103e
000000e0: 4bd9 823d b69a 49bd e9aa 28be 3a1c 0e3e
000000f0: ab81 22bd 1d22 8b3d 1279 04be 4499 503b
00000100: 7c62 f9ba b6e3 b2be 94c0 25be 9780 e23c
00000110: 0e46 2f3e 451e 8d3d 2a5a e3bc f324 61bc
00000120: 7a8c ac3d 77c9 dabd 302e 193e 2062 e63d
00000130: 96d4 7ebe a08a 5c3e c2dc ecbc 48fd 42be
00000140: 4d32 94bd b52a 2c3e 9a3b 54be 0bd3 633d
00000150: 1d55 2bbd a79f 03be 0145 083d 1e7d b63d
00000160: 29ae ff3d fa3a c6be 0b55 693e 10e5 163e
00000170: bdd3 53bc cc08 5cbd 89f4 9a3e cabd 07bf
00000180: 7a71 183e c81b 503d 99aa 93be 646c ab3c
00000190: ddc9 95bd 19f3 9bbe 8dfb e43d e6b2 803c
000001a0: 27ca 09be a0f8 c0bd b0eb febd 0ccb 723e
000001b0: 274c bfbe 8622 d1be 5acb 91bd ba94 ed3d
000001c0: 1236 d5bd 5017 51be bc15 0cbe ee44 59be
000001d0: b344 043e 55d0 b8bd 3a5f ccbd b06e 27be
000001e0: 5715 563d df7d 3cbe 0d5a 21be b2e7 93bd
000001f0: bbf8 0c3e a107 06be bf88 3fbe 83ac f63c
00000200: a2a4 35be 0a44 3e3e 4448 383d 8c21 803d
00000210: 8df0 cc3d 6ef7 073e c17f 8bbd 760e ed3d
00000220: 930c d73d 7425 703d 9dfa 4c3d 6a7a a2be
00000230: f028 3dbd c8b9 17bd 7f95 3fbe 8a65 043e
00000240: 00d9 df3d 262f 5dbe dfd1 193e ac8b 36bd
00000250: 9100 75bd 5435 173e 6bd8 be3d fde4 0dbe
00000260: 7985 83bd 5303 38bf ac79 0bbe afb3 47be
00000270: 7b02 bf3d 9572 07bd f57a 1dbe 405a 77bd
00000280: 18af a9bc bb26 5b3d 1df5 2f3e 31f5 10be
00000290: 8b89 07bd bb92 5d3e 2667 fa3d 1794 a93d
000002a0: 5fd9 63bd 1ce9 803b 6ac4 35ba 4480 e83c
000002b0: d06b 1d3e 55ea 3dbd ef60 a4bd da10 073e
000002c0: e843 2bbd f918 89be 66ba b3bc 8a0c 5f3d
000002d0: 3a13 123d 3e62 8c3d 088f 39be 5e78 51be
000002e0: 697e 9c3c 768a 273e c111 f33d 3a12 053e
000002f0: e20c 203d 538b 4fbe d718 353d 5be1 8ebd
00000300: beee 61bd 7fa7 df3d 9893 31be a601 a23d
00000310: 5043 12be 3bdf a43d f983 8abe bee6 01be
00000320: 4d70 9abe b05c c13d aff1 a23d a0b8 813e
00000330: d535 863e 140f c13d d004 923d 070c 9dbd
00000340: e454 9a3d 199f 8a3d ccdd 3fbe f3da 103e
00000350: 0908 50be 4fb1 f93d bde7 a73d bf98 e83d
00000360: 75bb 773c 2ee5 553d 9384 a1bd 1965 6d3d
00000370: 71ce f7bd 194b 27be 8ca5 a6bd 97ab c63b
00000380: d8b8 13bc 551c d03d ebd2 883e 6bf9 b3bd
00000390: a199 ffbc 5ca6 98bd c4b2 cf3d e72a 7fbe
000003a0: 8f48 be3d 73a4 213e 9563 a13d 4bf9 32bc
000003b0: 20bb 9ebd bcf8 2d3e 1463 64be bd04 ba3c
000003c0: 592a 0ebd a096 2a3e f348 99bd 995f 1cbe
000003d0: 054c bebd 3afa bc3d a51d 373d 18cc 16be
000003e0: ccb5 ebbd c356 c0bd c1eb 4f3b 0487 75bd
000003f0: 31d6 be3d 18a5 8e3c 5fc3 5cbd deaf e3bc
-0.105466336 0.11811193 -0.25030273 0.10927973 0.14753716 0.02991459 0.2942308 0.03494223
-0.009671537 0.0019524079 -0.22979893 -0.13687001 -0.19077332 -0.13973865 -0.17570733 -0.2694812
0.14245768 -0.1291493 -0.03849712 0.09335357 0.021735994 -0.16145784 0.059312105 -0.13291273
-0.16932507 -0.12798177 -0.16625322 0.16702184 0.0815188 0.18682352 -0.17157002 -0.16925256
0.08457708 -0.099807024 -0.06534153 -0.12526062 -0.17938887 -0.12559757 -0.13406938 0.10923174
-0.0056272745 0.13323227 0.18535435 0.14079764 -0.24292678 0.07939738 0.42819035 -0.23697668
-0.22060023 -0.098631814 -0.12583618 -0.2437683 -0.13191041 -0.08136149 0.00675416 0.14086047
0.063891016 -0.04921981 -0.16471447 0.13877955 -0.039674442 0.06793616 -0.1293681 0.0031829635
-0.0019026543 -0.34939355 -0.16186744 0.027649207 0.17116567 0.06890539 -0.027752955 -0.01374172
0.08425231 -0.106829576 0.14959025 0.112491846 -0.24885783 0.21537256 -0.02891386 -0.19041932
-0.072361566 0.16813166 -0.20725861 0.055621188 -0.041829217 -0.12853871 0.033268932 0.08910583
0.1248439 -0.3871687 0.22786348 0.14735818 -0.0129289 -0.053719327 0.3026469 -0.5302397
0.14887038 0.050807744 -0.28841093 0.020925708 -0.07313893 -0.30458906 0.11180792 0.015710305
-0.13456021 -0.094224215 -0.124472976 0.23710269 -0.37362787 -0.40846652 -0.07118864 0.11600633
-0.10410704 -0.2041905 -0.13680166 -0.21217701 0.12916832 -0.09024111 -0.099791005 -0.16350818
0.052266445 -0.18407391 -0.15757008 -0.07221927 0.13766758 -0.13088848 -0.18704508 0.030111557
-0.17738584 0.18580642 0.044990793 0.062563986 0.10006819 0.1327798 -0.068114765 0.11575024
0.10500445 0.058629468 0.05004369 -0.3173402 -0.04618162 -0.03704241 -0.18709372 0.12929359
0.10930061 -0.21600017 0.15021466 -0.044566795 -0.059814993 0.14766437 0.09318622 -0.13856883
-0.06421942 -0.7188007 -0.13620633 -0.19502138 0.09326645 -0.03306826 -0.15378936 -0.060388803
-0.020713374 0.053503733 0.17183347 -0.14156033 -0.033090156 0.21638004 0.12226705 0.08280199
-0.055627223 0.003934039 -0.000693387 0.028381474 0.15373158 -0.046366055 -0.08026301 0.13190022
-0.041812807 -0.26776865 -0.021939468 0.054455318 0.035662867 0.06854676 -0.18120968 -0.20456073
0.019103246 0.16361412 0.11868621 0.12995234 0.039074786 -0.20267992 0.044213142 -0.06976577
-0.055159323 0.10920619 -0.17341459 0.07910471 -0.1428349 0.0805039 -0.27053812 -0.12685677
-0.30163804 0.09441507 0.07956254 0.2533617 0.26212946 0.09426704 0.07129824 -0.0766831
0.07535723 0.06768627 -0.18736953 0.14146022 -0.20315565 0.12192022 0.081984974 0.11357259
0.015120377 0.052220516 -0.07886615 0.057957742 -0.120999224 -0.16337241 -0.08137044 0.0060629356
-0.009016238 0.10161654 0.26723418 -0.08787807 -0.031201186 -0.074536055 0.10141519 -0.2491871
0.09291183 0.15785389 0.07880322 -0.010923694 -0.07750535 0.16989416 -0.2230342 0.022707338
-0.034708355 0.16659021 -0.07484617 -0.15270843 -0.09291843 0.092274144 0.044706006 -0.14726293
-0.115092844 -0.093915485 0.0031726214 -0.059943214 0.093181975 0.017412707 -0.053897258 -0.027793821

network.0.bias f4 [128]
00000000: a053 8a3c 6426 f7bd 47e9 c4be 8693 0a3d
00000010: 7fe1 b6be d3b5 8b3d b8e1 32be 5012 f2bc
00000020: 3762 11be 585a 213d 1481 2fbd c32e 33be
00000030: 65a6 2c3e e670 eb3d 1725 ebbd 2a7f 413e
00000040: 2dc5 9b3c d748 07be a7c2 40bc ea39 f6bd
00000050: a580 a1bc 559d 04bd 7a7f 3abe aa2a 063e
00000060: d21f cb3d 5cd8 afbd 79dc 5dbd 134f 39bd
00000070: d9b5 0f3e 21bc a0bd b667 833d 0202 2bbe
00000080: 6f5f f3bb aac2 643d ea2e e53d 41de 4abe
00000090: 366c 08bd dd6e b63e 3d61 2dbe 5c5a b23c
000000a0: 0e43 57be 35ba 5bbe 48f9 203e 8886 fcbd
000000b0: cc4a 41be 765a 6bbe 974f 25be 4f5d 013f
000000c0: e3f8 883c a1f3 38bd 5991 cebd 9ca1 523e
000000d0: c243 023e 74b7 933e a57b 0d3e fa70 63bd
000000e0: 9fe8 80bd d425 cbba 1880 aebd 61c7 7fbd
000000f0: 54ac a73e f675 703e 2e22 3e3b d3a3 7ebd
00000100: b492 b0be 8e0f 24be 8688 a4be e90f c23a
00000110: ca40 4b3c 7dcc 95be 97f9 113e ebc0 103e
00000120: b030 b83d 3ec3 b0bd 951c ccbd 491a 5f3b
00000130: 051e 213e 208f b43d a806 cc3d e1ab 02bf
00000140: cb7e 72be 5a87 9c3e ffc6 4cbe aae0 3ebe
00000150: d268 15bd fd38 c7bd b1fc d43d f49a 25bf
00000160: b201 dc3b 29a7 51be 1ed6 043f 6220 733e
00000170: 4e7b dabc 0f94 19be 1754 6e3d 445a e73e
00000180: 9d86 59be 5af8 0cbe c6c4 093e df68 22be
00000190: dbf4 1fbe 7cba a63d 0c24 a73c 6cb5 29be
000001a0: c22f 51be 8e14 1d3d 8a31 153e 8fbb 693d
000001b0: ac31 043e 806a 9d3e d424 8a3e ccc3 12be
000001c0: 4f50 f93e 5787 88be a805 a33e 0956 b5be
000001d0: e53e 1cbe f0e6 74be 016f e6bd b306 f0bd
000001e0: c0c1 af3d 1182 28be 89a4 1cbd b8a8 05be
000001f0: 4258 92bd bb26 2bbe d752 163d 758e cf3d
0.016885579 -0.12067869 -0.38459226 0.033832096 -0.35718915 0.068217896 -0.17468917 -0.029549748
-0.14197622 0.0393928 -0.042847708 -0.17498307 0.1686035 0.11496143 -0.11481684 0.18896165
0.01901492 -0.1321138 -0.011765159 -0.12022765 -0.019714663 -0.032376606 -0.18212691 0.13102213
0.099181786 -0.08586189 -0.054165337 -0.045241427 0.14034213 -0.07848383 0.06416266 -0.16699985
-0.007427148 0.05584971 0.11190589 -0.19811346 -0.033306323 0.35631457 -0.16931625 0.021771602
-0.21021673 -0.21457751 0.15720093 -0.12330347 -0.18876189 -0.22983727 -0.16143642 0.50533
0.016720241 -0.045154218 -0.100863166 0.20569462 0.1272116 0.288509 0.13816698 -0.055527665
-0.06294369 -0.0015498945 -0.08520526 -0.062446002 0.32748663 0.23482499 0.0029012072 -0.062167954
-0.34486926 -0.16021559 -0.3213541 0.0014805767 0.012405584 -0.29257575 0.14255367 0.14136092
0.089936614 -0.086309895 -0.09966389 0.0034042767 0.15734108 0.088163614 0.09962207 -0.51043516
-0.2368118 0.30572015 -0.19997786 -0.1864039 -0.036476918 -0.097276665 0.103997596 -0.64689565
0.0067140693 -0.20473923 0.51889217 0.23742822 -0.026670124 -0.14997886 0.058185663 0.45186055
-0.21242757 -0.13766614 0.1345397 -0.15860318 -0.15620749 0.08141038 0.02040293 -0.16573113
-0.20428374 0.03834968 0.14569679 0.057063635 0.12909573 0.30745316 0.26981223 -0.14332503
0.48694083 -0.26665756 0.31840253 -0.35417202 -0.15258367 -0.2391622 -0.11251641 -0.11720028
0.08581877 -0.16455866 -0.03824285 -0.13052642 -0.0714574 -0.16713993 0.036700096 0.101345934

network.2.weight f4 [64, 128]
00000000: 8cc2 cb3c c48e db3c d94c 5cbd 76ff b7bd
00000010: 3899 c53a b7c9 bd3d aec2 4b3c 9489 7d3d
00000020: 51bf 62bd 99bc 883d b917 b93d dc97 463d
00000030: 0289 7bbd d1ce 603d 4415 9dbd 09d7 5bbd
00000040: d254 3d3d 268e 523d 4878 1d3d 034d 9fbd
00000050: 9b0b e1bd c99b d03c 730c 79bd 2ea0 573d
00000060: 7fc9 0dbc dee8 113d 675e 7c3b 766f 08bd
00000070: 2450 4fbd 0e92 07bd d67a a9bc 03f1 bfbd
00000080: 0c0f c93c 155b 9a3c 246d c0bd 61b1 15bd
00000090: 14f2 bebd 7739 813c f360 4abd d466 4b3d
000000a0: 190c 8abd e8d3 74bd a7dc 9f3d 793f 80bc
000000b0: 6f2a d13c e2c8 b0bd 918a 9c3d c8f6 cfbd
000000c0: 1bee 0fbd 9c07 c7bd 7e49 903d 420a 0a3d
000000d0: a55b 00bd dec1 8c3d 1015 4cbd 2a1c 9fbd
000000e0: 81c7 8ebd f454 b63c 5f5b 833d 0438 2abb
000000f0: 400f ba3d 14d3 64bc 2953 0e3d f9d6 d23d
00000100: d8b9 663d 7bb0 b13c 83e7 8bbd 46dd 7d3d
00000110: 6d8a 60bd 27ab d3bd f0d4 77bd 405a 453d
00000120: dde5 cc3b 147e 003d a933 47bd 0c9e bcbd
00000130: f7fa b63c 779d aebd 9087 983c cf46 88bd
00000140: 777f 2e3a d793 4a3d 091f c9bd 6f86 d13c
00000150: 4851 8cbd 9f59 efbc 3902 07be cd8f 8fbd
00000160: d41b 093c 86d6 033d 53a5 bfbd f5a2 b9bc
00000170: 9966 083d 4009 2e3d e3c7 15bd 595d 653d
00000180: ca7b 703d f34a e3bd 669f 533d a0a0 8cbc
00000190: 7f3e a6bc a395 5cbd 3469 52bd 4ec1 243c
000001a0: 345b 0dbd d6b6 933c 0910 a4bc 789d 6fbd
000001b0: 6d49 c13d b66d bfbd 99f1 01bd 83c1 6f3d
000001c0: d010 503d e942 963c 34bd 053d 2374 9bbd
000001d0: d025 3b3d 8e07 8dbc f8fd 7d3d b815 8fbc
000001e0: 613d 3f3d 172a 9c3c 752d 283d c331 b2bc
000001f0: 05ff 85bd 1c8d 263d c600 cf3c 1f8d 48bd
00000200: 6624 45bd 74f1 f53c 0547 aebd adb2 59bd
00000210: 5063 363c d1bd aa3d e908 b7bd 28be 7bbc
00000220: 843a 85bd b812 1abc 1b19 a03d a5d6 8abd
00000230: bed1 733d 5436 b13c 20ce 3d3c 123e 6e3d
00000240: 62da 323d 189b e53c 08f2 4c3c 8870 6bbd
00000250: d7ab e2bd 4e9c 723d 1e44 04bd 18c3 a3bd
00000260: 06a4 ecbc 7ae8 7ebd 6391 933d 43b5 853d
00000270: 89d7 d7bd d00b 133d 05bd 13bd 6904 ad3d
00000280: 808f 083c 90c8 b1bb 7a78 0e3d 7942 9bbd
00000290: 4f99 0fbd f583 953d fd12 9b3d c93d 2dbd
000002a0: 0737 883d a08e 94bd a0a7 8ebd 60e5 36bd
000002b0: f336 e0bd 6bcb 493d 8090 54bc c7ec 40bd
000002c0: acbd dd3c 4c82 2abd 52f3 543d fab7 4f3d
000002d0: 997b 85bd 7086 a03c 833d 36bd 6204 323d
000002e0: e5e3 7bbd 808b bb3a 94b0 da3c aecd 8fbd
000002f0: bce3 de3c 09ec 0abd 2e57 063d 9d93 19bd
00000300: 0843 9dbc eb4a adbd c393 1ebd 5750 883d
00000310: 7016 ff3c 78f1 bebd d8c6 96bd 271f 893d
00000320: 00bf 1bbd 46fa 8fbd ef4b 14bd bb31 a13c
00000330: 00c4 2f3c 5313 39bd aa79 333d ccb3 7b3d
00000340: 68e4 a23c d579 bebd a8ed c5bc 8f36 b4bd
00000350: 197a 9a3d e2ed 6cbd a0f3 26bb ebf9 a0bd
00000360: 2b84 f0bc 2cf6 7fbd faff 8ebd 1180 82bd
00000370: be23 1a3d bf04 b5bd 1328 403d 8a1c 1c3d
00000380: e21e 423d 0a29 653d ca39 a5bc 386e b8bc
00000390: e9e9 a6bd e91e 57bd 8668 77bd c18d dcbd
000003a0: 140f 16bd c067 eeba 8da3 f0bc 6072 613c
000003b0: 08e2 78bd 76db d23c ac33 a8bd 3c5c f73c
000003c0: 1df9 0fbd c71b 483d 34cf 95bd addd a83d
000003d0: 80c4 83bd 7e5b adbd 8897 14bc 04f6 7bbd
000003e0: 581f 133c d562 81bd 90a6 18bc a87c 39bc
000003f0: fa2d 00bd 101f 6b3c 0bb2 4dbd 0243 533d
0.02487304 0.026801474 -0.053784225 -0.08984272 0.001507557 0.0926699 0.012436552 0.061898783
-0.055358235 0.06676597 0.09037728 0.048484668 -0.061409958 0.054884735 -0.07670072 -0.05367187
0.04622347 0.051405095 0.038444787 -0.07778361 -0.10988542 0.02546491 -0.060802888 0.052642994
-0.008653997 0.03562247 0.0038508417 -0.033309422 -0.050613537 -0.033098273 -0.020688456 -0.09372141
0.024543308 0.01884226 -0.09395817 -0.036546115 -0.093235165 0.015774472 -0.049408864 0.04965861
-0.06740589 -0.059772402 0.07805758 -0.015655266 0.02553293 -0.08632065 0.07643617 -0.10154492
-0.035139184 -0.09718248 0.070452675 0.03370119 -0.0313374 0.06872915 -0.049824774 -0.07769044
-0.06971646 0.022257306 0.06413912 -0.002597333 0.0908494 -0.013966341 0.034747276 0.10294909
0.05632958 0.021690598 -0.06831267 0.0619786 -0.054819513 -0.10335379 -0.060505807 0.048181772
0.006252988 0.031370237 -0.04863325 -0.092098325 0.022336466 -0.08526128 0.018619329 -0.06654131
0.0006656567 0.049457397 -0.098203726 0.025576798 -0.06851441 -0.02921754 -0.13184442 -0.0700985
0.008368451 0.032187007 -0.09357705 -0.022660712 0.03330097 0.04248929 -0.03656758 0.055997226
0.058711804 -0.1109828 0.051665686 -0.017166436 -0.020293472 -0.053853642 -0.05136986 0.010055853
-0.034510806 0.018031519 -0.020027177 -0.058499783 0.09437833 -0.093470976 -0.031724546 0.058534157
0.050797284 0.018342452 0.03265114 -0.07590511 0.045690358 -0.017215516 0.06200978 -0.017466411
0.046689395 0.019063039 0.041058976 -0.021752244 -0.06542782 0.040661916 0.025268923 -0.04896271
-0.048130415 0.03002236 -0.0850964 -0.053148914 0.011132076 0.08336986 -0.08937246 -0.015365161
-0.065053016 -0.009403877 0.078172885 -0.067792214 0.059526198 0.021632351 0.011584789 0.058164664
0.043665297 0.028028056 0.012508877 -0.057480365 -0.11067932 0.059231095 -0.032291524 -0.079961956
-0.028886806 -0.062233426 0.07205465 0.065287136 -0.10539157 0.035899937 -0.036068935 0.08448107
0.008334994 -0.0054255202 0.034782864 -0.07581038 -0.035058316 0.073005594 0.07571981 -0.04229525
0.06651121 -0.07253766 -0.06965566 -0.044652343 -0.10947981 0.04926626 -0.012973905 -0.04710081
0.027067982 -0.041628167 0.05198986 0.050712563 -0.06517715 0.019595355 -0.044492256 0.04346121
-0.061496634 0.0014308542 0.026695527 -0.07021652 0.027208202 -0.033916507 0.032797985 -0.03749429
-0.019197002 -0.08461555 -0.038715135 0.066559486 0.031138629 -0.093234 -0.07362145 0.06695395
-0.03802395 -0.07030158 -0.03620523 0.019677034 0.010727882 -0.045184445 0.0438172 0.061450765
0.019884303 -0.09300581 -0.024161175 -0.08799469 0.075428195 -0.05784405 -0.0025474802 -0.07860168
-0.029359898 -0.062490627 -0.069824174 -0.06372083 0.037631743 -0.08838796 0.046913218 0.038113154
0.047392733 0.05594734 -0.020169158 -0.022513494 -0.081500836 -0.052519713 -0.060402416 -0.10769225
-0.036635473 -0.0018188879 -0.029374862 0.013760179 -0.060762435 0.025739413 -0.08212981 0.030195348
-0.035149682 0.048854616 -0.073149115 0.08245406 -0.06433964 -0.084647164 -0.009069331 -0.061513916
0.008979641 -0.06317679 -0.009317055 -0.011321224 -0.031293847 0.014350668 -0.050218623 0.051577576

network.2.bias f4 [64]
00000000: bc30 a13d f6e1 21bc 7635 4a3d 9145 46bd
00000010: 2ec6 713e f9c7 c2bc 18fa fd3c 70ad b4bc
00000020: 6420 a5bc 2c31 f23d a2fc e6bc 6073 6fbe
00000030: fcdb 9fbc 5ae3 a8bd 3ca6 07be 23d4 b6bd
00000040: 8a00 243e 8e8e 12bd a5df 95bc 3aab 533d
00000050: b701 193c 6e03 5f3d 55dc e93d 8a0d 46bd
00000060: 4943 bbbc 4f4e a4bd ab68 843c 4d7d 6c3d
00000070: 9d75 3bbc 589e 9ebd 66b9 84bd f375 c53c
00000080: 27d9 313d 55fa 83bd fe48 12bd be49 b3bd
00000090: f0a9 453d ae8b a7bd bc23 333e a094 babd
000000a0: 7b99 b23d 7024 f13c 52d5 fcbc 5a8a 603c
000000b0: 160c 18bd b8ac 8e3e cb4f 923d 77b1 05be
000000c0: af94 0d3e 61ba b73d 1162 003e b8cb 0fbe
000000d0: 90ca adbd cf77 0d3d 463e 61bd af69 8d3c
000000e0: d3a1 10be c5f5 543e 99f9 41be 4443 413e
000000f0: 5258 c63d 18c9 4abd b7ea 9e3b 6288 8a3c
0.078706235 -0.009880533 0.04936739 -0.048406187 0.23610756 -0.023776995 0.031003043 -0.022055358
-0.020157047 0.11825785 -0.028196637 -0.23383856 -0.019514076 -0.08246489 -0.13247007 -0.089271806
0.1601583 -0.035780482 -0.018295119 0.051676966 0.009338788 0.05444663 0.11418978 -0.048352756
-0.022859233 -0.08022749 0.01616319 0.057736684 -0.011441615 -0.077450454 -0.064806744 0.024104094
0.043419983 -0.064442314 -0.035714142 -0.087542996 0.04825777 -0.08180939 0.174941 -0.09110379
0.0872068 0.02943632 -0.030863438 0.013704861 -0.0371209 0.2786615 0.071441256 -0.13055979
0.1382625 0.08971096 0.1253741 -0.14042556 -0.08485901 0.034538087 -0.05499103 0.017262308
-0.14124231 0.20796879 -0.1894287 0.18873316 0.096848145 -0.049508184 0.0048497575 0.016910736

network.4.weight f4 [1, 64]
00000000: 856e 1c3b 4758 a4bd a648 b2bd 329b 843d
00000010: 2d7d dbbd 7f5e 003d 9ad2 983d c4e2 28bc
00000020: 2dda dd3d 6e7e c5ba 5ae0 68bc 9da6 043c
00000030: 35db 9b3b 3839 9b3d 796d 9ebb 6310 59bd
00000040: 198f 7f3c 9b73 05bd cdcd 9a3b 5fd6 d3b9
00000050: 8f3c 7f3d d4e0 1ebc 281d babc 7829 f43c
00000060: 2df5 b3bb 95bf 0e3b d4f2 573c 8d17 57bd
00000070: 93cb a2bd 9a5a 8dbc ea42 143c f58f 3abb
00000080: 8a20 0cba 83d9 823d b9a1 273d a97d b3bb
00000090: 02e6 1a3a 15c3 85bd ab1a 1bbc f4b5 953c
000000a0: 5969 a53b 84b9 b1bb b8d4 723d 1024 e33b
000000b0: 3dee bebb 3f4d a4bd e0b6 173b 3adf 13bd
000000c0: 96dc 16bd 6b68 bab8 c0ea 0dbc b281 273c
000000d0: b4c2 c7bc 3772 a83d b3cd 613c a00f 4fbc
000000e0: e3a9 453b 143a efbc fb70 753c e3de 11bd
000000f0: 3464 21bc ea7f 82bc 30ed 853b e353 70bc
0.0023869586 -0.0802465 -0.08705263 0.06474914 -0.10717235 0.03134012 0.07462044 -0.010307971
0.10832629 -0.0015067586 -0.014213646 0.008096364 0.004756356 0.07579273 -0.0048348275 -0.052994143
0.015598082 -0.032580953 0.0047242404 -0.00040404775 0.062313613 -0.009697158 -0.02271898 0.02980493
-0.0054918737 0.0021781672 0.013180453 -0.052512694 -0.07948985 -0.017255116 0.009049157 -0.0028467153
-0.0005345425 0.06389143 0.040925715 -0.0054776263 0.00059089076 -0.065313496 -0.009466807 0.018275239
0.005047959 -0.0054237265 0.059284896 0.006931789 -0.00582674 -0.08022546 0.0023149773 -0.036101557
-0.03683146 -8.8886205e-05 -0.008661926 0.010223793 -0.024384834 0.0822491 0.013781953 -0.012638003
0.0030161075 -0.029202498 0.01498055 -0.035612952 -0.00985055 -0.015930135 0.004087113 -0.014668438

exp_avg f4 [128, 22]
00000000: 3bf2 91b8 8c39 bcba 0540 2836 c7fc 78b4
00000010: e667 79b8 d6ef 71b8 20c7 9ab8 f382 7437
00000020: 03ce 9bb8 6031 a2b6 61e9 a637 fd14 edb3
00000030: e01b 9db8 c423 4bba 69a0 8634 4a0b a9b8
00000040: bc93 77ba 9461 1f35 4ceb c2b7 edf8 8c35
00000050: db1d 58b9 1f0a a8b7 e8cb 43b8 f729 97ba
00000060: 9c52 0736 6089 acb4 499b 2eb8 fceb 26b8
00000070: f8b3 71b8 98ee 8837 2cbd 5fb8 29a4 75b6
00000080: 87b5 8337 51a3 58b5 c0c0 52b8 de46 0bba
00000090: 4115 46b5 9ed1 62b8 eb25 3bba 91e6 1734
000000a0: 4adb 50b8 9007 87b5 9d74 b1b9 6569 6cb7
000000b0: d097 ed23 f0f9 1d22 b44e f79b 8d4c b11c
000000c0: b3d8 781f 591c 721f d82e 731f 3502 0000
000000d0: d82e 731f 0000 0000 3502 0000 27a2 149d
000000e0: 32de ff23 f0dd ac21 6918 b61b f90f a01c
000000f0: 9bab 9021 12d9 059c d82e 731f 86c0 3b1c
00000100: ccd1 d120 df8b c21e ac21 17b9 5796 e53b
00000110: bb77 cab6 5f42 c735 7b21 4e39 c28f 4739
00000120: 5481 1f39 cc3d 3438 9ac4 0739 4765 3137
00000130: 69d7 6638 1923 bc35 3adf 22b9 92f8 b63b
00000140: f018 1236 7a76 2fb9 184f c83b 69d7 61b5
00000150: 988d 2039 198b 0d37 9ddf 473b 1fee 0d38
00000160: 00f6 08b9 9516 26bc 8e25 c536 4aa3 e2b5
00000170: 5dc6 89b9 025c 86b9 1d28 4db9 4f39 89b8
00000180: 32a5 30b9 1ada a8b7 9808 98b8 9349 10b6
00000190: a063 13b9 cfb7 f3bb e160 07b6 3aad 1eb9
000001a0: e54f 05bc f573 5d35 0a4e 6eb9 0938 c2b6
000001b0: 591f 58bb eff5 82b8 6d2f 74a5 0d5c a2a3
000001c0: 542b 7e1d e937 369e 42c0 ffa0 16d4 f8a0
000001d0: 2eee f9a0 431a 0080 2eee f9a0 0000 0000
000001e0: 431a 0080 e8c1 981e d27b 83a5 d4a9 31a3
000001f0: d825 3b9d e580 249e 35af 14a3 cb8f 891d
00000200: 2eee f9a0 22f6 c09d 25a4 57a2 c2f1 47a0
00000210: 4690 c938 ffaf 243b 67c8 48b5 4aab b434
00000220: 6eb2 7838 26b3 7438 aba6 2138 9237 ab37
00000230: 8d15 1038 ed3d cf36 598a 9a37 7b62 4535
00000240: a8fc d838 9545 ee3a 7b91 a434 98a2 e938
00000250: cb25 f83a 5d30 29b5 3c3c e5b6 2d15 2835
00000260: c2c4 e839 e803 b337 582e e6a5 4c0c 19a4
00000270: a097 ef1d 97c4 ab9e 5815 71a1 ca8e 6aa1
00000280: b698 6ba1 ba30 0080 b698 6ba1 0000 0000
00000290: ba30 0080 1fff 0f1f c5e2 f7a5 6179 a7a3
000002a0: 2a6a b09d aa11 9b9e 3b28 8ca3 1cac 011e
000002b0: b698 6ba1 18e5 359e 1946 cba2 2e7a bca0
000002c0: 0a0e 3d38 b32b 27bb d49b 7036 e69a 82b5
000002d0: a5ed b2b8 7eb4 abb8 a13c 8fb8 c08e 86b7
000002e0: 1379 6cb8 965f 4ab6 3043 d1b7 d440 97b3
000002f0: 2704 4c38 4c70 10bb 338b 58b5 d2ef 5b38
00000300: 7b53 1dbb be35 3d35 3cce a5b8 406f 36b6
00000310: e47c 97ba e168 4fb7 761b 20b7 6687 93bb
00000320: f2a1 8d36 91c5 8db5 dd15 02b9 7dc8 fab8
00000330: 8d1a ceb8 7f5d cfb7 8764 b4b8 3915 65b6
00000340: 75c9 0cb8 5253 70b5 3844 2bb7 f26f 71bb
00000350: 868b d2b5 833e 37b7 bfc7 84bb 0467 dd32
00000360: acad 0db9 06ef c0b6 832d 18bb 3cfa 8ab7
00000370: 556f b538 f5ca 7bbb 6b6f d435 2016 b1b4
00000380: 081d bdb8 55d9 b8b8 f948 2ab8 0791 4eb8
00000390: 81ba 01b8 c1d9 99b6 4ae4 63b8 585f 64b5
000003a0: ca5c c338 c6b5 4cbb 71ed 99b5 3651 d238
000003b0: 0976 5cbb 8627 ad33 e221 8fb8 d13c b4b6
000003c0: b3c9 edba df11 34b7 0000 0000 0000 0000
000003d0: 0000 0000 0000 0000 0000 0000 0000 0000
000003e0: 0000 0000 0000 0000 0000 0000 0000 0000
000003f0: 0000 0000 0000 0000 0000 0000 0000 0000
-6.959258e-05 -0.0014360412 2.5071215e-06 -2.318876e-07 -5.946299e-05 -5.7682242e-05 -7.380382e-05 1.4574022e-05
-7.4293486e-05 -4.8337242e-06 1.9897418e-05 -1.103999e-07 -7.4915355e-05 -0.0007749165 2.507616e-07 -8.060651e-05
-0.00094443164 5.937411e-07 -2.323617e-05 1.050326e-06 -0.00020610487 -2.0031874e-05 -4.6681525e-05 -0.0011532892
2.0164653e-06 -3.213745e-07 -4.1629453e-05 -3.979726e-05 -5.7626487e-05 1.6323567e-05 -5.3343523e-05 -3.6603399e-06
1.5700947e-05 -8.0703927e-07 -5.0247414e-05 -0.0005312989 -7.3791676e-07 -5.407782e-05 -0.0007139134 1.414685e-07
-4.9795293e-05 -1.0060485e-06 -0.00033846954 -1.4091235e-05 2.5759887e-17 2.1409783e-18 -4.0913583e-22 1.1732665e-21
5.2695292e-20 5.1268942e-20 5.1496e-20 7.92e-43 5.1496e-20 0.0 7.92e-43 -1.9671468e-21
2.7741259e-17 1.171392e-18 3.012515e-22 1.0592041e-21 9.803243e-19 -4.4286565e-22 5.1496e-20 6.212194e-22
3.554481e-19 2.0598398e-20 -0.00014413026 0.0070064473 -6.0340076e-06 1.4845972e-06 0.00019658163 0.00019031673
0.000152116 4.2972897e-05 0.00012947843 1.0573603e-05 5.503689e-05 1.4017306e-06 -0.00015532682 0.005583831
2.177021e-06 -0.00016733436 0.0061129443 -8.4132495e-07 0.00015311537 8.436641e-06 0.0030498274 3.3838787e-05
-0.00013061613 -0.01013722 5.8754295e-06 -1.6885836e-06 -0.00026278468 -0.00025627023 -0.00019565267 -6.5433436e-05
-0.00016846208 -2.0128722e-05 -7.2495255e-05 -2.1500498e-06 -0.00014056126 -0.007437683 -2.0172959e-06 -0.00015132586
-0.008136724 8.2497655e-07 -0.0002272652 -5.788174e-06 -0.003297767 -6.244692e-05 -2.1179695e-16 -1.760306e-17
3.363902e-21 -9.646562e-21 -4.3325906e-19 -4.215318e-19 -4.2339855e-19 -9.421e-42 -4.2339855e-19 0.0
-9.421e-42 1.6173824e-20 -2.2808781e-16 -9.631152e-18 -2.4768809e-21 -8.7087425e-21 -8.060198e-18 3.6412276e-21
-4.2339855e-19 -5.1076472e-21 -2.922483e-18 -1.6935947e-19 9.6113e-05 0.0025129316 -7.479743e-07 3.3652242e-07
5.9293983e-05 5.834098e-05 3.8540613e-05 2.0410665e-05 3.4352346e-05 6.17629e-06 1.8422654e-05 7.3531527e-07
0.000103467435 0.0018178696 3.065323e-07 0.00011140591 0.0018932162 -6.3027784e-07 -6.831744e-06 6.261569e-07
0.00044397084 2.1340282e-05 -3.9930044e-16 -3.3187002e-17 6.341955e-21 -1.8186637e-20 -8.1682224e-19 -7.9471264e-19
-7.982321e-19 -1.748e-41 -7.982321e-19 0.0 -1.748e-41 3.049246e-20 -4.3001335e-16 -1.8157582e-17
-4.6696583e-21 -1.6418569e-20 -1.5195869e-17 6.8647945e-21 -7.982321e-19 -9.629436e-21 -5.509748e-18 -3.192929e-19
4.5074186e-05 -0.0025508224 3.585349e-06 -9.730836e-07 -8.531966e-05 -8.187535e-05 -6.8300644e-05 -1.6040518e-05
-5.6379544e-05 -3.0155984e-06 -2.4946028e-05 -7.0432776e-08 4.8641257e-05 -0.002203959 -8.066883e-07 5.243702e-05
-0.0024006057 7.048619e-07 -7.906227e-05 -2.718487e-06 -0.0011557606 -1.23625805e-05 -9.543137e-06 -0.0045022247
4.2209804e-06 -1.0562818e-06 -0.00012405911 -0.00011958273 -9.827791e-05 -2.471986e-05 -8.6017935e-05 -3.4136012e-06
-3.3566223e-05 -8.9528214e-07 -1.0208278e-05 -0.0036840406 -1.5686826e-06 -1.0922205e-05 -0.004052132 2.5774632e-08
-0.00013511506 -5.749872e-06 -0.0023220486 -1.6567406e-05 8.65149e-05 -0.0038420532 1.5827658e-06 -3.2984917e-07
-9.01763e-05 -8.814285e-05 -4.059912e-05 -4.9249295e-05 -3.0929692e-05 -4.585105e-06 -5.433363e-05 -8.507536e-07
9.315608e-05 -0.0031236275 -1.1468493e-06 0.00010028707 -0.003363969 8.0631295e-08 -6.8250825e-05 -5.371498e-06
-0.0018141776 -1.0732997e-05 0.0 0.0 0.0 0.0 0.0 0.0
0.0 0.0 0.0 0.0 0.0 0.0 0.0 0.0
