models/rl/ppo/ppo_20250315_232423/ppo_episode_1.pt (torch, 286334 bytes, 33 tensors)

network.0.weight f4 [128, 22]
00000000: 679b 283e ad4f 343e 5cb6 5fbd caa7 503e
00000010: 5a96 35bd dd87 393d 9406 b3bd f140 a23d
00000020: 8530 503e 6b6a 56be 3458 113e d2d6 e23c
00000030: c2fa 223e 2fed cc3c d4e4 e23d 35e2 e0bc
00000040: d137 263e 28f1 83bc 15ec f2bd 7f55 603d
00000050: 70fd cabd f183 98bc 74f4 b9bd fa14 033e
00000060: d9f4 17be 9380 d5bd c5bc 9bbd 356c 13be
00000070: bbac 633c 63a9 71be de79 393e 85e3 21be
00000080: ba41 183e 702d 4f3d 1364 96bd e22c ef3d
00000090: fab1 9abb e516 2c3e 1943 0c3c 0a28 abbd
000000a0: 7e40 323d 34cb 3dbd b5f3 9e3d 43e8 3d3e
000000b0: df93 f73d 56cc c6bd 3115 033e 0ad5 093d
000000c0: 368c d03d 2b81 0bbe a039 63be 8a0f a0bd
000000d0: 85b2 30be 5623 333e 76ba 803d 2aa8 b13d
000000e0: 8544 853d ba21 04bc b79b 2b3e 7775 1ebe
000000f0: 9efd 1a3c 1cf7 18be 7b1f 953d 0545 91bd
00000100: a881 813d 80b5 49bd 361a 343e 541f 06be
00000110: 2325 0dbe 2391 02be 7c37 443e 71d0 903d
00000120: 2b1d 533e 44f8 39be 4381 53be 875c 4bbe
00000130: 7274 21be 003a 6a3d 9862 9a3d 1ea3 2f3e
00000140: b265 86bd 422d 17be f204 dd3d a614 bebd
00000150: d3f6 083e b89b 3abd 9b1e f03d ebf0 27be
00000160: 14c2 cebd 7f59 823d 5c2c 553d 3ad0 47bd
00000170: 3973 003e f8c0 123e 0e71 11be f358 15be
00000180: bebb 4f3e 15e8 a3bd 9981 ccbd 9adc 47be
00000190: d481 ecbd 4584 483d b6cd 83bd 02ab 17be
000001a0: 6046 db3a aa52 3fbe 6fa7 53be a5d9 efbd
000001b0: fe35 40be 790a 06be 5712 5a3e 2f94 013d
000001c0: c4b0 9b3d d1d3 52be 4050 19be e8f4 a4bd
000001d0: cc7c a03c 0d55 3dbe 8617 d2bd 29b3 02be
000001e0: 334d fcba 8d7c a8bd 8a9f 74bc 64f2 1dbe
000001f0: 74d7 1bbe 275e 01be 611b a8bd cc3d 37be
00000200: f30e 423e 8011 15bd fad6 353e 3929 523d
00000210: ca17 41be 89e2 123e 098a 72bd 7ce7 b5bd
00000220: 3ef2 39be 95cf 5dbe 68f3 333d 7d57 27bc
00000230: 2266 8f3d 5d57 e0bd 81d8 3e3e d78a 23be
00000240: f25a 37bd dac0 313d c532 0c3e 5e1f 283e
00000250: 223d 453e 8d8f fbbd 11e1 a23d 3d8f b5bd
00000260: 0625 d2bc 098c 2cbe 6c98 483e 2569 1ebe
00000270: f620 e93d 72f5 993d bc79 913d 0a7b e8bd
00000280: c8b6 463e e9b2 463d 87dd e23c b464 40be
00000290: 70b1 ba3d 57fe 02bd 278e c4bd 624a 3d3e
000002a0: 72a6 423d b99f f0bd 047c d9bd 1e61 25bc
000002b0: 9662 f73d b408 66bd c1a0 f5bd 15ab 92bd
000002c0: befd 16be 7d9d 8b3d 0d51 2f3e 747a 4dbe
000002d0: f58d 2e3d 1a63 d33d fc2a 333d 07a2 d9bd
000002e0: 78c7 e73d b930 ba3d 95dd 673d 1caf 03bd
000002f0: 18d5 36bd 04a8 633c cd66 8dbd 10bf 53bd
00000300: 3546 023e ebcf 1c3e 30a9 42bd fed2 2ebd
00000310: 1f9e 43bb a6af 64bc 202d 503d 5d81 693d
00000320: 1201 3dbe e327 acbd d9ea 313e 5a58 9e3d
00000330: f919 cbbc 4102 d4bd d9a2 14be 7b8c 18be
00000340: d947 30bd 8057 b93d 2ecb 0a3e e91c c93d
00000350: 5854 59be a48d 09be cc43 10bd 530e 7a3e
00000360: f041 2e3d e71a 5ebd 20d6 b23d b6e5 babd
00000370: bcc5 14be 239f 193e 32ff bbbd 17d8 51bd
00000380: c491 60be 3fb9 0a3e e872 123e b3c4 e73d
00000390: 4f4f 29be e297 1dbe 4553 10be d995 2d3e
000003a0: 9dc0 c23d 2b4d 353e 19d3 e03d 2441 3f3d
000003b0: 371a b7bb 4163 e7bd c4d1 23be a21f 49be
000003c0: 9670 ad3d b628 eebd 74bf 2fbd 2949 fbbd
000003d0: 6021 1fbd d5a8 19be f0a6 0ebe 28d6 903d
000003e0: 30c4 81bd e0c6 063e 8c13 8cbd 8d26 20be
000003f0: 3014 1abd 60a8 d3bd b895 85bd 5cd6 4fbe
0.16465531 0.17608519 -0.05461727 0.20376506 -0.04433284 0.045295585 -0.08741489 0.07922543
0.20331009 -0.20939033 0.14193803 0.027690325 0.15915969 0.025015442 0.11078802 -0.027451614
0.1623223 -0.016106203 -0.11861435 0.054769035 -0.099116206 -0.018617602 -0.09079829 0.1280097
-0.14839496 -0.10424914 -0.07604364 -0.14396746 0.013896163 -0.23599772 0.18112895 -0.15809448
0.14868823 0.050580442 -0.073433064 0.116784826 -0.0047209235 0.16805609 0.008560919 -0.08357246
0.043518536 -0.046336368 0.07761327 0.18545632 0.12088751 -0.09706943 0.12801053 0.033650436
0.10182993 -0.13623492 -0.22189951 -0.07815464 -0.172556 0.17493948 0.062855646 0.08674653
0.0650721 -0.008064682 0.16758619 -0.15474497 0.009459881 -0.14938015 0.07281395 -0.070932426
0.06323558 -0.049245358 0.17588124 -0.13097888 -0.13783698 -0.12750678 0.1916179 0.07071007
0.20616595 -0.18161112 -0.20654778 -0.19859515 -0.15767077 0.05718422 0.075383365 0.17152068
-0.065623656 -0.14763358 0.10791959 -0.09281282 0.13375406 -0.04555866 0.117245875 -0.16400497
-0.10095611 0.06364726 0.052044258 -0.048782565 0.12543954 0.14331424 -0.14203283 -0.14584713
0.20286462 -0.080032505 -0.09985656 -0.19517747 -0.115482 0.048954267 -0.064357206 -0.14811328
0.0016729347 -0.18683878 -0.2066934 -0.11711434 -0.18770596 -0.13089933 0.21296059 0.03163546
0.07602075 -0.20588614 -0.14972019 -0.08054525 0.019590758 -0.18489476 -0.10258393 -0.12763657
-0.0019249081 -0.08226881 -0.014930615 -0.15424496 -0.15218908 -0.12633573 -0.08208347 -0.17894667
0.18951015 -0.036393642 0.17757788 0.051308844 -0.18856731 0.14344229 -0.05921367 -0.08882043
-0.18158814 -0.21661218 0.043933302 -0.01021373 0.07001902 -0.10954163 0.18637277 -0.15970932
-0.044764467 0.04339681 0.13691242 0.16418216 0.19261602 -0.122832395 0.07953084 -0.08865211
-0.02565242 -0.16850294 0.19589394 -0.15469797 0.1138324 0.07517518 0.07103297 -0.11351593
0.19405663 0.048510466 0.027693523 -0.18788415 0.09115875 -0.03198084 -0.09597426 0.18485406
0.047522016 -0.11749215 -0.10619357 -0.010093955 0.12079351 -0.056160644 -0.11993552 -0.071615376
-0.14745232 0.06817148 0.17120762 -0.20066243 0.04261585 0.103216365 0.043742165 -0.106266074
0.113173425 0.09091324 0.0566078 -0.03214942 -0.044636816 0.0138950385 -0.06904373 -0.051695883
0.12722094 0.1531369 -0.04752463 -0.042681687 -0.0029848886 -0.0139578935 0.050824285 0.057008136
-0.1845744 -0.08406045 0.17374744 0.077316955 -0.024792658 -0.103519924 -0.14515246 -0.14897339
-0.04303727 0.090498924 0.1355407 0.09819967 -0.21223581 -0.13432938 -0.035220906 0.24419527
0.04254335 -0.054224875 0.08732247 -0.09125845 -0.14528555 0.15002112 -0.09179534 -0.05123147
-0.21930605 0.13547228 0.14301646 0.11316814 -0.1653416 -0.1538997 -0.14094265 0.16951694
0.09509394 0.17705218 0.10977764 0.046692982 -0.005587842 -0.11298228 -0.15997988 -0.19640973
0.0846874 -0.11628859 -0.042907193 -0.122698136 -0.03885019 -0.1500581 -0.13930869 0.07072097
-0.06336248 0.13161802 -0.06839666 -0.15639706 -0.03761691 -0.10334849 -0.06522697 -0.20296615

network.0.bias f4 [128]
00000000: a078 1b3e 501f 02be 5a7b cfbd 5876 273e
00000010: 58ff a63d 2bfd 05be 79dc 753d 86b5 df3d
00000020: d00c 49be be84 0b3d c23b 2a3d a00b 08bc
00000030: 7cc2 433e a499 10be 04b5 ec3d 6653 e0bd
00000040: 983d 2ebe 96c9 143e 531b d5bd 2ed8 d1ba
00000050: d9bf da3d 8138 36be 1f4b 39be e80a 7e3d
00000060: 081b 373e d0cf b8bc 2176 1c3e 50bf 913d
00000070: 2e5e 8a3d c77a 0ebe fa67 453e 349a c73d
00000080: 1ee6 ec3c 9d54 143e eacb 44be ec0a 3c3d
00000090: d990 c5bd 8729 d4bc 9ba7 833d d1b9 af3d
000000a0: 5170 633d 600f 37be 2ed7 07be 98d3 883b
000000b0: 4820 60bd 945b 37be aa52 543e 072f 683c
000000c0: 9b1c 23be 98c3 b03d e4ce ad3d 68d7 eebd
000000d0: a825 dd3d dde3 0cbe f8b6 a13d 7a45 573e
000000e0: 4f42 0d3e b2b0 d73d cffd 3ebd 3d99 3a3d
000000f0: a800 9d3d 87ee 2f3d 309e 18bd 98b0 f33c
00000100: 8669 b2bd 7074 e8bd 9308 4bbe 7876 32be
00000110: 1d27 11be 62b8 533e a01f 0f3d b0e1 3dbe
00000120: 7bd8 f4bd f1ad 553d da80 89bd f6e4 84bd
00000130: 1b71 9cbd d760 62bd 4a11 cf3c 9982 243c
00000140: 1d7d 083e 5cba 093e d5b2 223e 2596 c0bc
00000150: f871 b1bd 9eba 7ebb ab0f 15be 364f 9c3d
00000160: 39a2 e7bc bb4c a0bd 0300 40be 4cf0 cd3d
00000170: 7632 ec3d 8536 4a3e a763 99bd 02de 463d
00000180: 46a2 0dbb 0bbc eabd ebf1 02be 1710 e53d
00000190: b4dc efbd e3cf 113e b2f1 933d 0283 923d
000001a0: aaeb 0b3e db10 d13d 2f9c bc3d 3bd2 d53d
000001b0: 1f4b b9bd 1b8a e7bd 7c2b eabc 9033 e93d
000001c0: a7f8 0f3e 8000 203e 871d 9dbd 0a66 9cbc
000001d0: cd58 1cbe d131 063e 5f6a 15be ffec c6bd
000001e0: 7247 343e aff5 863d 41a9 d0bd 4d4f 19be
000001f0: 5310 04be 43b6 2d3e 0d8b 47be bae9 313e
0.15182734 -0.12707257 -0.10130949 0.16353738 0.08154172 -0.13084857 0.060024712 0.10923295
-0.19633794 0.03406214 0.041560896 -0.008303553 0.19117159 -0.14121109 0.115579635 -0.10953407
-0.17015684 0.14530024 -0.10405602 -0.0016009861 0.10681123 -0.17794992 -0.18095063 0.06202212
0.17881405 -0.02256003 0.15279438 0.07116568 0.067562446 -0.13914023 0.19277945 0.09746209
0.028918322 0.14485402 -0.19218412 0.045908853 -0.09646768 -0.025898708 0.064284526 0.085803635
0.055527035 -0.17876959 -0.13265678 0.0041756146 -0.054718286 -0.17906028 0.20734659 0.014171368
-0.15928881 0.086310565 0.08486727 -0.11662179 0.10798198 -0.13758798 0.07896227 0.21022597
0.13794826 0.10531749 -0.04662877 0.045556296 0.07666141 0.042952087 -0.037260234 0.029747292
-0.08711533 -0.11350334 -0.1982749 -0.17428005 -0.14175077 0.20675805 0.03494227 -0.18543124
-0.11955353 0.052167837 -0.067140296 -0.06488983 -0.07638761 -0.055268135 0.025276799 0.0100409025
0.13328977 0.13449997 0.15888532 -0.023509094 -0.08664316 -0.0038868557 -0.14556758 0.07632296
-0.028275596 -0.07827135 -0.18750004 0.100555986 0.11533062 0.1974736 -0.0748971 0.048551567
-0.0021611615 -0.114616476 -0.12787597 0.111847095 -0.11712018 0.14239459 0.07223834 0.07153894
0.13664117 0.10208293 0.09209477 0.10440489 -0.09047531 -0.113056384 -0.028585188 0.11386788
0.14059697 0.1562519 -0.076716475 -0.019091625 -0.1526825 0.13104941 -0.14591359 -0.09713172
0.17605379 0.06589829 -0.101885326 -0.14971657 -0.12896852 0.16964059 -0.19486637 0.17374316

network.2.weight f4 [64, 128]
00000000: 97ac 873d 9389 4f3a 664b e1bb cbab 833d
00000010: 4c09 0b3d 6a77 ab3d 8f2a 893d 9842 6dbd
00000020: d574 4d3d ca3c 223d b855 8abd 82e0 2d3d
00000030: bfe3 4fbd b2c1 62bd 8022 d83a c58c 51bc
00000040: eebe d4bc 7c6d 6dbd 0c72 343d 2b7d b43d
00000050: ec87 c9bc a8ee 73bd 2edd 1bbc 7a97 9dbd
00000060: 2d90 9bbd ce34 f1bc e4fa 4f3d 7b13 86bd
00000070: f632 0bbc f2fe 3bbd 1766 b1bd 2d5b d8bc
00000080: d247 a1bb 554c 9cbc faeb 883d 4837 fe3c
00000090: dcb4 633d bb9d 143d 057c b03b 9132 313d
000000a0: b5ea 7abd 3827 393d 42c3 2c3d 7e9e 1bbd
000000b0: a08f 34bb 2ba0 93bd 9e09 98bd 68f2 91bb
000000c0: 7992 2d3c 7468 c1bc 4c71 b53c 095c 8bbd
000000d0: 4045 5bbd aeaf 7b3d 3dcf b5bd 8668 683c
000000e0: 6b4f 8c3d e931 7c3d 0c60 d33c de3f aebd
000000f0: 1e80 e23b 7c5b 09bd 7818 d8bc 15b2 8a3d
00000100: 8653 0dbd d200 84bd a4ee 99bd aece 503d
00000110: 6228 c7b9 ba89 a83d 2bdb 583c 9d5b a8bd
00000120: 6c24 b33c 5337 9d3d f115 4d3d 4090 da3c
00000130: f11d 92bd 1539 62bd ba89 783d eba3 82bd
00000140: b02f a53c b667 70bc d09f f23c fb0d c33b
00000150: 249f 89bd c4a0 23bd 0c00 943d 7878 2a3c
00000160: b342 383d c706 36bd 6b7a 8f3d f8a0 98bc
00000170: 47ec f4bc 1b1d 723c 4790 14bd 1a32 0cbd
00000180: 12d0 8abc 005a a5bb da86 64bd d149 d63c
00000190: aa74 b0bd e865 623d c180 a83d c973 7f3c
000001a0: c7a1 cebc e174 b0bd 5f9d 133d 28dd 8a3d
000001b0: 0fc2 9a3d d021 013c 70af bc3c 5774 ad3d
000001c0: f51d 5c3c 12a1 34bd 6f8c abbd b4bb 173d
000001d0: adde 033d 7e4d a13d 39ae 49bd 492c 1c3d
000001e0: 6890 efbc 837e c0bc 5be1 423d 5a69 aebd
000001f0: b186 853d 600f 0f3d a52a 57bd 3a67 3a3d
00000200: 8ba6 bfbc 1ce4 e43b 396a ccbc 82bd b4bd
00000210: f898 17bc 2258 2b3d b608 3abc 8b85 37bd
00000220: 3ffd 0a3b 88c4 783c 6938 d3bc ab60 8cbd
00000230: 2050 45bd 06ce 61bc b862 023d 7d76 a23d
00000240: c33d b93b 06a0 013d 3ddf 4a3d 1ade 1dbd
00000250: b115 f5bc 7224 703d ab92 743d 6ac0 8d3c
00000260: 9693 8dbd fe7c 4d3d 777c 99bd d709 c03b
00000270: 5caa 80bc 3ce3 e93c 4fb3 b0bd 7af0 0dbd
00000280: ba76 143d 1704 863d ca85 92bc 140d 9e3d
00000290: ed5d c9bc 2d39 6ebd 0e3b 4ebd 429e 833b
000002a0: ea6c 8abc d2fd 1d3d 9aa8 4dbd 73a4 d7bc
000002b0: c452 bcbd f873 913d 7c45 b1bc b527 91bd
000002c0: af6f dcbb f465 44ba d760 bd3c b6d4 64bc
000002d0: 0dcb 453d 1987 07bd b665 f5bc c1be 59bc
000002e0: fd8f 9e3c 8ff3 8d3d 52ac b6bb b368 883d
000002f0: cbf3 893d ea07 75bd 9463 99bb 53e7 2abd
00000300: 11f3 0e3d 1704 02bd 055d d93c c67e 793a
00000310: fe4b 70bd 71cc 81bd 4abc b2bd 920b 5cbd
00000320: bdba dc3c 8fc1 913b bdad 833d 87b1 a6bd
00000330: d143 bebb cc61 99bd 8cc5 94bb 2e72 fd3c
00000340: 8a6d abbd 1986 9f3d 52e4 e0bc fc8f 973d
00000350: c7a2 9abc 1f2c 483d efcc 9a3d 06cf 03bd
00000360: 4541 cdbc 9eec 313d ab2c a0bd b10a 513d
00000370: 9a38 71bd 4f2f a83d fb78 73bd abbc 26bd
00000380: 2d63 863d 533b 4ebd 441c 963d 51d4 753d
00000390: 1614 7d3d dc9d b8bd 5ff7 92b9 1001 f9bc
000003a0: d508 a93c b139 90bd 6b22 143d 1335 afbb
000003b0: af21 2bbd 7cd8 a2bd 0511 3d3d a22a 3bbd
000003c0: cbe9 823d 60a0 ff3c 3c61 b83c 3997 a3bc
000003d0: 2190 a5bc 074a 00bd 9058 9ebd bbd8 513d
000003e0: 96fd 63bd 899f 583d 6e9f fbbc ee03 5e3d
000003f0: 6f2f 923d b1cb 67bd e778 953d 99c9 02bb
0.06624716 0.00079169235 -0.0068754433 0.06429251 0.033944413 0.08372386 0.066975705 -0.057924837
0.050160248 0.039608754 -0.06754631 0.042450435 -0.050754305 -0.055360503 0.0016489774 -0.01278991
-0.025969949 -0.05796574 0.044054076 0.088129364 -0.024600945 -0.059553772 -0.009513183 -0.076949075
-0.07595859 -0.029444125 0.050776377 -0.06546684 -0.008496037 -0.04589743 -0.0866205 -0.026410664
-0.0049218917 -0.019079367 0.06685634 0.03103222 0.055592403 0.036283236 0.005385878 0.043261115
-0.06125899 0.045203418 0.0421784 -0.037992947 -0.0027551427 -0.07208284 -0.07423709 -0.004453946
0.010594004 -0.023609377 0.02214875 -0.06804664 -0.05353284 0.061446838 -0.08877418 0.014185077
0.06851085 0.061571036 0.025802635 -0.085082754 0.0069122454 -0.033534512 -0.026378855 0.06772248
-0.034503482 -0.06445469 -0.0751622 0.050978355 -0.00037986325 0.08229394 0.0132358475 -0.08220599
0.021867953 0.07676568 0.050069753 0.026680112 -0.07134617 -0.05523022 0.06067822 -0.06378921
0.02016434 -0.014673164 0.02961722 0.0059525943 -0.06719807 -0.03994824 0.072265714 0.010404699
0.044985484 -0.044440057 0.07005771 -0.018631443 -0.029897822 0.014777447 -0.036270406 -0.034227468
-0.016944919 -0.005046129 -0.055792667 0.026158245 -0.08616002 0.055272967 0.08227683 0.01559157
-0.025223626 -0.08616043 0.036038753 0.067804635 0.07556545 0.007881597 0.023032874 0.08469456
0.013434877 -0.04409892 -0.08376395 0.037044242 0.032194782 0.078761086 -0.049238417 0.03812817
-0.029243663 -0.023497825 0.047578197 -0.08516188 0.06519831 0.034926772 -0.052530903 0.0455086
-0.023394844 0.0069852006 -0.024952995 -0.08825208 -0.009252779 0.041832097 -0.011354616 -0.04480509
0.0021208075 0.015183575 -0.025783734 -0.068543755 -0.048172116 -0.01378203 0.031832427 0.07932756
0.0056531145 0.03164675 0.049529303 -0.03854189 -0.02991757 0.058628507 0.059710186 0.017303664
-0.069129154 0.05016803 -0.07494443 0.005860548 -0.015706234 0.028550737 -0.086279504 -0.034653164
0.03624604 0.06543749 -0.017886061 0.07717338 -0.02458092 -0.058159996 -0.050349288 0.0040166685
-0.016897637 0.03857214 -0.05020962 -0.026323533 -0.09195474 0.071021974 -0.021639578 -0.07087652
-0.006727181 -0.0007491999 0.023117466 -0.01396673 0.048289347 -0.033087824 -0.029955726 -0.013290108
0.019355768 0.06931221 -0.0055747414 0.06660595 0.06735953 -0.059822 -0.00468106 -0.041724514
0.034899775 -0.03174218 0.026533613 0.0009517487 -0.05866622 -0.06337822 -0.087273195 -0.05372197
0.026944513 0.004448123 0.06429622 -0.081393294 -0.005806424 -0.074893564 -0.004540151 0.030938234
-0.08370502 0.07789249 -0.027452622 0.0740051 -0.018876446 0.048870202 0.07558619 -0.032179855
-0.025055537 0.043438546 -0.0782102 0.051035587 -0.05889187 0.082121484 -0.059441548 -0.04070727
0.06561885 -0.050349545 0.0732961 0.060016934 0.061786734 -0.09014484 -0.00028031596 -0.030396014
0.020634094 -0.07042254 0.036165636 -0.005346903 -0.04178017 -0.07951447 0.04615881 -0.045694955
0.06392249 0.031204402 0.022507302 -0.01996957 -0.020210328 -0.031320598 -0.07731736 0.05123208
-0.05566176 0.05288652 -0.03071567 0.054202966 0.071379535 -0.05659074 0.07298451 -0.0019956587

network.2.bias f4 [64]
00000000: 1d8d 98bd a2a4 1cbc 36ce 16bc 637f acbd
00000010: 334e 303d 3367 563b 6241 073d 0518 53bb
00000020: 66a8 98bc 120b 0fbd 517f 66bb 2742 8ebd
00000030: c313 2e3d f3cd bb3c ab78 873d 2d0b 9ebd
00000040: 9a57 08bc d497 36bd 3f1d 2bbb 2020 5d3c
00000050: 0421 a0bc c484 03bc 2c24 97bc 1606 9f3c
00000060: 79e7 45bd 10d1 27bc ddac 373d 0711 823d
00000070: f02e 723b 9f8c 32bc 589f 723c 65b5 193d
00000080: 3e2d 543c a7c0 4fbd cab7 8fbd f10a 313d
00000090: 0ba4 1bbd ed05 023d ea5e a2bd 15ae 3e3d
000000a0: 2b6e 283d 5eac 55bc fc57 89bd 72f9 3cbc
000000b0: 2d16 3a3d 077b 783d 409d 56bb 6e71 47bc
000000c0: 4ab4 973d bbf6 9a3c 4e67 a53d cfcd ab3d
000000d0: 12a9 77bd d94c 8cbd c303 03bd d0f0 92bc
000000e0: 62f3 973d e407 93bd 4dcb 1e3d a293 8e3d
000000f0: f10e e039 28b8 9abd 4c0e 7bbd e578 2b3c
-0.0744879 -0.009560736 -0.009204438 -0.084227346 0.043043327 0.003271532 0.03302134 -0.0032210362
-0.018634986 -0.034922667 -0.0035171101 -0.06946211 0.042499315 0.022925353 0.066148125 -0.07716975
-0.008321667 -0.04457839 -0.0026109961 0.013496429 -0.019546993 -0.008027259 -0.018449865 0.019412082
-0.048316453 -0.0102427155 0.04484259 0.06350904 0.0036954246 -0.0108977845 0.014808498 0.037526507
0.01295024 -0.050720837 -0.07017477 0.043223325 -0.03799824 0.031743933 -0.0792826 0.046552736
0.04112069 -0.013041584 -0.06706235 -0.011534082 0.045431305 0.060664203 -0.0032747537 -0.01217304
0.07407434 0.018916478 0.080763444 0.08388864 -0.060463972 -0.06850595 -0.03198601 -0.017937094
0.074194685 -0.071792394 0.0387681 0.069617525 0.00042735742 -0.07554656 -0.06129293 0.010465835

output_layer.weight f4 [3, 64]
00000000: 36f9 203d 546e 1e3d d978 9d3d af2e a13d
00000010: 33be e1bd 73ef 5c3d ff7e 8e3d 3f98 79bd
00000020: 79dc 96bd 1a23 ddbd a736 f2bd 04c2 853d
00000030: 8bed 123d 510b 7fbd 1414 d2bd cda3 ebbd
00000040: 4238 e53d bf9f 453d 174d bd3c 6051 29bc
00000050: e751 483d 05d6 883c 479c 533d c04c 1c3d
00000060: b6e2 83bd 9c4e 6fbd 300c f83c fd64 013d
00000070: 24bc b13d 86fe b2bd b4b2 783d 04f2 e3bd
00000080: ddea fb3b 4cd7 cbbd 0db4 60bd e4ab 89bd
00000090: e864 e43d b08d e03d 66cf 46bd 8f77 64bb
000000a0: e23e ccbd b5a5 c5bd d7b6 7abd 5503 663c
000000b0: 5eae ddbd df9d a4bc f82d 8d3c 0dc7 50bb
000000c0: 4ca9 c9bb 30ce b53c d62c f43d 6232 c8bd
000000d0: 745f a5bd d713 863d bea2 2b3d 2b59 c43d
000000e0: ea39 ca3d 1b57 bbbd 76ef a7bc 950f dfbd
000000f0: 8e28 2d3d 0643 963d 5d12 babd ba76 81bd
00000100: 4b0f 813d 188d 103d 49e8 98bd afb6 763a
00000110: 9a85 afbd 00f6 3d3d a40e ee3c 454c 063d
00000120: b24c 09bc b0cd 963b 174d b8bd b8f8 ee3d
00000130: fcf3 383b 0329 02bb 440c 163c db78 ecbd
00000140: 00e9 153d f2a4 d83d 7d05 8b3d a08b 8e3c
00000150: 1cfc 0c3d 2dfd 8d3c 39dd 0c3b 7591 743d
00000160: f8a7 283d 6849 263d 76b0 92bd 7c08 aabb
00000170: e4b9 9b3d 2998 9b3d 9c20 90bd 8fe0 203d
00000180: 50dc a6bd 9a5d 143d 778a 263d d01d 8fbd
00000190: ac05 be3d d90d ba3d 9d52 cc3d d4a1 133d
000001a0: fa9b 4f3d 0b66 d8ba 5c0e 85bd 141f 223d
000001b0: f1d9 5abd 5696 d13c a661 83bd 560c 53bd
000001c0: 6498 bfbd 1923 9cbc 6f27 983d bd16 183d
000001d0: 251b 06bc 5f64 9b3d de24 b03d dfe8 20bd
000001e0: 2c4e a8bd 0cbe bb3d 11aa d6bd 78cc c5bd
000001f0: f7fd bdbd 6be8 94bd 97c3 a8bd 578d 433a
00000200: 9aac 55bd ce88 ac3d b7b5 ddbd 3aee bdbd
00000210: f762 e0bd cb34 d1bd a6e4 043d cee5 aebd
00000220: 7634 e3bc 9324 83bd b5a9 23bd b459 56bd
00000230: b0b2 943d f326 5bbd 2057 83bd 7731 8d3d
00000240: 893f e43d fe2a d03d 3e0c 75bc d0d7 b63c
00000250: 8919 76bd a17e 12bc 9262 783c eea2 97bd
00000260: 1891 95bc a0c1 743d 1b54 fb3c dd60 dd3d
00000270: e59b 1ebd b919 4abd 6cb5 f1bd d2f0 723d
00000280: 3cb1 71bd 226c f6bd 356e 483c e092 64bd
00000290: cec0 9abd 7262 9a3d d4da 9abd 635d 783d
000002a0: df58 d43d c524 963d 91d1 57bd b6ab bd3d
000002b0: 7a90 b2bd 5282 cc3d 8801 aabc 3310 58bd
000002c0: 660f ca3b 4e45 d73d 6b75 e7bc ac83 b03d
000002d0: f006 bd3c 3f6b afbd 952a b7bd 5fa0 d33d
000002e0: 2309 e53d 0fb7 9d3d e58e e33d ed0f aebd
000002f0: 6cfc 81bd fba6 3cbd 800a 9bbd 1855 f5bc
0.039300166 0.038679436 0.076890655 0.07870232 -0.11022606 0.053939294 0.06957816 -0.06093621
-0.073662706 -0.10797711 -0.1182683 0.06531146 0.03587107 -0.06226665 -0.10257736 -0.11505852
0.11192371 0.04824805 0.023108048 -0.010334343 0.048906233 0.016703615 0.05166271 0.038159132
-0.06439726 -0.058424577 0.030279249 0.03159045 0.08678463 -0.08739953 0.0607173 -0.11130145
0.00768791 -0.09953174 -0.05485921 -0.06722239 0.11152059 0.10964525 -0.048537634 -0.0034861302
-0.099729314 -0.09650747 -0.061209526 0.01403888 -0.108242735 -0.02009481 0.017233834 -0.0031856925
-0.006154215 0.022193044 0.11922614 -0.09775235 -0.08074847 0.06546753 0.04190325 0.0958732
0.098743275 -0.091474734 -0.020499926 -0.10891644 0.042275004 0.073370025 -0.09085534 -0.063214734
0.06301745 0.035290807 -0.0746618 0.0009411377 -0.08570404 0.046377182 0.029059716 0.03278758
-0.008380102 0.0046021566 -0.08999079 0.11668533 0.0028221598 -0.001986087 0.009158198 -0.11546489
0.03659916 0.10578336 0.06788156 0.017400563 0.034420118 0.017332638 0.0021494164 0.05970903
0.041175812 0.04059735 -0.071625635 -0.0051889997 0.07603815 0.075973816 -0.0703747 0.039276656
-0.0814749 0.036222078 0.040659394 -0.06988108 0.092784256 0.090846725 0.09976695 0.036043003
0.05068586 -0.0016509903 -0.064968795 0.03958042 -0.0534305 0.025584381 -0.06415109 -0.051525436
-0.09355238 -0.019059705 0.07429396 0.03713106 -0.008185183 0.07587504 0.08600782 -0.039284583
-0.08218035 0.09167108 -0.10481656 -0.0965814 -0.092769556 -0.07270893 -0.08240431 0.0007459721
-0.05216656 0.08424531 -0.10825675 -0.09273954 -0.10956376 -0.102151476 0.03244462 -0.085399255
-0.027734976 -0.0640346 -0.039956767 -0.05233164 0.072606444 -0.05350394 -0.06413102 0.068942
0.11144931 0.1016445 -0.014956532 0.022319704 -0.060082946 -0.0089413235 0.01516022 -0.07404123
-0.018257663 0.059754968 0.030679753 0.10809491 -0.03872289 -0.049340937 -0.118021816 0.059311695
-0.059006914 -0.120323434 0.012233307 -0.055804133 -0.07556306 0.07538308 -0.075612694 0.060635936
0.10368513 0.07331232 -0.052690092 0.09261267 -0.08718963 0.09985794 -0.020752683 -0.052749824
0.0061663864 0.10511266 -0.028254231 0.086188644 0.023074597 -0.085653774 -0.08943669 0.10333323
0.11183383 0.07700931 0.11111239 -0.08499131 -0.06346974 -0.046057682 -0.07570362 -0.029947802

output_layer.bias f4 [3]
00000000: d13e 2b3d a375 833c d6e6 a53d
0.041807953 0.016047304 0.08100669

network.0.weight f4 [128, 22]
00000000: 681e c5bd cb44 2e3e fbbc 7fbe 48aa f03d
00000010: d3ef 2b3e 6957 d23d 53a7 9f3e b3df f73d
00000020: 31aa 67bc 9231 143e ccda e1bd 29cb cc3a
00000030: e190 32be 434a bbbd 09c8 15be c9b3 81be
00000040: f6ad 3b3e 5054 79bd 9035 a6bd eb04 9bbc
00000050: 4512 da3b f08e 95bd 40f1 723d 461a 08be
00000060: 8d63 2dbe a70d 03be 493e 2abe c607 2b3e
00000070: 54f3 a63d aa4e 3f3e 0db0 2fbe 8b50 2dbe
00000080: c036 ad3d a067 ccbd c8d1 85bd 5244 00be
00000090: b7b1 37be a69c 00be 7c49 09be e4b4 df3d
000000a0: 0065 b8bb 0a6e 083e 88cd 3d3e 422d 103e
000000b0: b245 53be ece1 d03d 3bb7 c63e e3e0 65be
000000c0: 16fc 38be 01b8 71bd 20f9 e9bd 3469 45be
000000d0: 48c5 0cbe 52bf 52be 9e90 ad3d 5519 113e
000000e0: 28d1 cd3d 695c d9bc fa81 1bbe 0298 333e
000000f0: cdfb 86bc 0a07 9b3d 8c0b ccbd 704d af3c
00000100: 58d4 173d 1cfb 6fbe ffbc 21be 1a99 e93c
00000110: 4cab 303e 63df ee3d 229d a33c cea9 55bc
00000120: a35f aa3d 985c d6bd 8422 183e 2062 e63d
00000130: 8986 7cbe 071b 5c3e dbdc ecbc ff09 42be
00000140: c20f 93bd b32a 2c3e 2456 53be e7bc 613d
00000150: 99ea 29bd c396 04be 714a 0e3d 928d b63d
00000160: f9d8 163e 54cd 70be af9c 3e3e 69c5 1a3e
00000170: f375 eabb 56e1 903d 2270 893d a2ac 14be
00000180: 0e78 cdbc c81b 503d 550f 823d bcd1 ea3d
00000190: 3460 4ebd 3503 13be 32e9 3d3e 96c3 363d
000001a0: b436 193d 90b4 c2bc d142 a7bd f22d d33b
000001b0: 9c69 97bd d30d 9cbd 262b 86bd a900 0e3e
000001c0: 8701 dfbd 0145 3dbe 9d27 f7bd caa1 48be
000001d0: cbe6 133e d400 a8bd 410f adbd b06e 27be
000001e0: 86b2 733d eeb2 3abe a228 1cbe 1fd2 44bd
000001f0: de7c 0c3e e5fd 00be 529e 27be 8d2f 983c
00000200: 9dac 73be 420c 303e 469f a23d 2993 db3d
00000210: 4e49 2b3e 5fd5 443e 590a 053e 817f 013e
00000220: 3a8d e53d 8117 033d 42df ccbd 6d7a 1bbe
00000230: 608f 40be 47ee 70bd 3a9d cbbc 09e9 9d3d
00000240: e4af 343e 705e 22be 6f8b c83d 96a1 da3c
00000250: 2051 5dbb 4bbe 0b3e 8552 e43d 155b 17be
00000260: cb09 4c3d de8a 6fbe ac79 0bbe afb3 47be
00000270: 7b02 bf3d 9572 07bd f57a 1dbe 405a 77bd
00000280: 18af a9bc bb26 5b3d 1df5 2f3e 31f5 10be
00000290: 8b89 07bd bb92 5d3e 2667 fa3d 1794 a93d
000002a0: 5fd9 63bd 1ce9 803b 6ac4 35ba 4480 e83c
000002b0: d06b 1d3e 55ea 3dbd ef60 a4bd da10 073e
000002c0: 29ae 673b d947 6fbe 15cb 19bd 6c07 c73d
000002d0: 38b5 a03d 224a db3d aaae 12be 1cd0 42be
000002e0: c8a9 663d 768a 273e 2faa 083e 8af4 be3d
000002f0: ff95 a23d 0792 35be 32f8 673d a7e0 8ebd
00000300: 3fdf 02bd 6815 ba3d 2a61 09be 1c7e 6e3d
00000310: ca98 e7bd 3f3c b03d c1b3 68be 0e9b 12be
00000320: 3444 e9be e187 113e a23c 053e fdc7 903e
00000330: 785f 9f3e 3619 983d 5c3f 0a3e c5a1 523e
00000340: 273c d03c 26f4 0abd 5385 59be c319 0b3e
00000350: f5f4 4abe 98a0 c53d 1af5 9a3d 05f1 9f3d
00000360: 1a59 ad3d 8a30 123d 3e2c d9bd d118 0cbc
00000370: 40cf f7bd 8a1a 10be 6b89 bebd 05a0 c93b
00000380: 64a6 afb9 ec4e f93d 6ab7 923e 0767 a2bd
00000390: aa31 41bc a669 9dbd a6b1 e03d 9f6e 7cbe
000003a0: 7e45 be3d d920 393e 7c70 b13d 0529 33bc
000003b0: 3fdc 5dbd 7543 363e 1943 6bbe 64c8 713c
000003c0: 6c9c 6bbc aee7 393e e142 b3bd 0891 2fbe
000003d0: bbb4 a3bd 8e0a a73d 683b 0b3d 8df0 2cbe
000003e0: ee4f 0ebe 4410 c8bd baaa a9bc 0487 75bd
000003f0: bb1c b73d f104 6e3c bc02 7bbd e46f 37bd
-0.0962494 0.1701843 -0.24974434 0.117512286 0.16790704 0.102705784 0.31182346 0.12103214
-0.014139698 0.14472035 -0.1102806 0.0015624511 -0.1743808 -0.09145024 -0.14627089 -0.25332478
0.1832808 -0.060871422 -0.08115685 -0.018923244 0.00665501 -0.07302654 0.059312105 -0.13291273
-0.16932507 -0.12798177 -0.16625322 0.16702184 0.0815188 0.18682352 -0.17157002 -0.16925256
0.08457708 -0.099807024 -0.06534153 -0.12526062 -0.17938887 -0.12559757 -0.13406938 0.10923174
-0.0056272745 0.13323227 0.18535435 0.14079764 -0.20632055 0.10199341 0.3881167 -0.22449069
-0.18064913 -0.05901337 -0.1142447 -0.19278413 -0.13747132 -0.20580795 0.08474849 0.1416982
0.10049659 -0.026533322 -0.15186301 0.17538455 -0.01647749 0.07569702 -0.0996314 0.02139923
0.03706774 -0.23435634 -0.15794753 0.028515387 0.17252845 0.116637014 0.019972388 -0.013040973
0.083190225 -0.104668796 0.14856917 0.112491846 -0.24660696 0.21494685 -0.028913906 -0.18949126
-0.0718074 0.16813163 -0.20638329 0.055111792 -0.041483495 -0.12948136 0.03473896 0.08913721
0.14731206 -0.23515826 0.18614458 0.15114368 -0.007155174 0.070742294 0.06710841 -0.14518979
-0.02508166 0.050807744 0.063505806 0.11465785 -0.050384715 -0.14356692 0.18545988 0.04462012
0.037405685 -0.02376774 -0.08167041 0.006444686 -0.0739319 -0.07619824 -0.06551199 0.1386744
-0.10888963 -0.18483354 -0.120681025 -0.19592968 0.1444351 -0.08203283 -0.08450175 -0.16350818
0.059496425 -0.18232319 -0.15249875 -0.04805195 0.13719508 -0.12596853 -0.16368988 0.018577361
-0.23796315 0.17192176 0.07940535 0.10721428 0.16727182 0.1922202 0.12992229 0.12646295
0.112085775 0.032004837 -0.100035205 -0.1518342 -0.18804693 -0.05882099 -0.024855245 0.077104636
0.17645222 -0.15856338 0.0979222 0.026688378 -0.0033770278 0.1364681 0.11148552 -0.14780839
0.049814027 -0.23392817 -0.13620633 -0.19502138 0.09326645 -0.03306826 -0.15378936 -0.060388803
-0.020713374 0.053503733 0.17183347 -0.14156033 -0.033090156 0.21638004 0.12226705 0.08280199
-0.055627223 0.003934039 -0.000693387 0.028381474 0.15373158 -0.046366055 -0.08026301 0.13190022
0.003535161 -0.23367251 -0.03754719 0.097182125 0.07847065 0.10707499 -0.14324442 -0.190247
0.05631426 0.16361412 0.1334617 0.09323986 0.07938766 -0.17731486 0.056633182 -0.06976443
-0.031951185 0.09086114 -0.13415971 0.058225736 -0.11308439 0.08605241 -0.2272482 -0.14316961
-0.45559847 0.1421199 0.13011411 0.2827758 0.31127524 0.074266836 0.13500732 0.20569523
0.025419308 -0.033924244 -0.21242265 0.13584046 -0.19820006 0.096497715 0.07566281 0.07809643
0.084642604 0.03569082 -0.10604142 -0.008550839 -0.12100077 -0.14072624 -0.09303554 0.006153109
-0.00033502572 0.12173256 0.2865556 -0.07929807 -0.011791626 -0.076861665 0.10971384 -0.24651574
0.09290598 0.18078937 0.08664033 -0.010935073 -0.05416512 0.1779917 -0.22974814 0.0147572495
-0.014380556 0.18154785 -0.087529905 -0.17145169 -0.07993456 0.0815631 0.0339922 -0.16888638
-0.13897678 -0.097687274 -0.020711292 -0.059943214 0.08941027 0.014527545 -0.061281905 -0.04478444

network.0.bias f4 [128]
00000000: 0980 b53d 6426 f7bd 1f57 b0be f360 0d3d
00000010: 7e6a 6dbe a58f ac3d ed82 52be 5012 f2bc
00000020: a361 d3bd e06a 923d c240 bbbc 9d73 49be
00000030: 65a6 2c3e 4072 2ebd 1725 ebbd 2a7f 413e
00000040: 08f2 de3c 3866 79bd 2cf8 4e3c 4eb3 87bc
00000050: f7c7 07bd 195d 5b3d 95ce 043c 5a37 243e
00000060: 6dad d43d 5cd8 afbd 0ed0 0ebd 0713 26bd
00000070: b242 a73d 1c17 91bd 1724 b43d 542e 46be
00000080: 5bb0 693d 8462 243d 538e f73d 1009 36be
00000090: ef4a 69bc 0ab6 5e3e 3d61 2dbe abd1 b93c
000000a0: 0e43 57be 0645 59be 48f9 203e d68f c5bc
000000b0: b9b9 f2bd 9629 94bd 974f 25be 4757 1e3e
000000c0: 78d2 2a3d e94a 02be b47b b1bd 9ca1 523e
000000d0: c843 023e 3d52 933e d0b7 9b3e 3e5f 37bc
000000e0: 2d4f c1bb d425 cbba 1880 aebd 6639 59be
000000f0: 83fb a63e f2e5 8b3e 299d 30bc 88df 84bd
00000100: 5931 093e f0c7 14be 2e90 19be e763 2dbb
00000110: 168f eabd 9f84 a7be 80fa a23d 0911 243e
00000120: 96c0 b23d fd7e aabd e29a 9abd 8203 a0bc
00000130: 051e 213e 989c 4f3e a806 cc3d bd44 02be
00000140: 8c7b 6ebe 0072 af3e 4890 27be aae0 3ebe
00000150: 1a7e 31bd 73ed 87bd dc96 e33d a99a 43be
00000160: fbee 933d 46c5 49be f3e2 093e 10cf e73c
00000170: 08ef b9bd ebba e6bd c28e 353d c935 2d3e
00000180: 4ba4 45be a563 bfbc cc41 913c f2d2 233d
00000190: dbf4 1fbe 7cba a63d b50e 543d 70cc abbc
000001a0: 0367 3dbe fd8f 9abc bda6 003e 9879 b43d
000001b0: 51be 163e 9eed 973d 8b3d 9e3e d687 09be
000001c0: 7082 c5bd ddb4 79be face 0f3e 10d3 64be
000001d0: 0060 50be e5d0 85be 9e71 ccbd 678f eabd
000001e0: c4f8 c43d 1811 17be c7a1 12bd f879 02be
000001f0: d3d4 5fbd c66a 20be c9bc 25bd e985 183e
0.088623114 -0.12067869 -0.34441468 0.034516286 -0.23185155 0.084258355 -0.20557757 -0.029549748
-0.10321357 0.07149291 -0.022858027 -0.19673009 0.1686035 -0.042589426 -0.11481684 0.18896165
0.027215019 -0.0608885 0.012632411 -0.016564991 -0.033149686 0.05355558 0.008105894 0.1603674
0.10384641 -0.08586189 -0.034866385 -0.04054549 0.08167018 -0.07084486 0.08795946 -0.1935361
0.05705295 0.040133014 0.12087693 -0.17776895 -0.014239057 0.2174913 -0.16931625 0.022682985
-0.21021673 -0.21217737 0.15720093 -0.024116438 -0.1185183 -0.072344944 -0.16143642 0.15462981
0.041704625 -0.12723888 -0.086661726 0.20569462 0.12721169 0.2877368 0.30413675 -0.011192141
-0.005899331 -0.0015498945 -0.08520526 -0.21213302 0.32613763 0.27323872 -0.010779657 -0.06487948
0.13397731 -0.14529395 -0.14996406 -0.0026457252 -0.11453073 -0.3271837 0.07957935 0.16022123
0.08728139 -0.08325002 -0.07549073 -0.019532923 0.15734108 0.2027458 0.09962207 -0.12721534
-0.23289317 0.34266663 -0.16363633 -0.1864039 -0.04333315 -0.06637087 0.111127585 -0.19101967
0.07223316 -0.1970416 0.1346548 0.028296977 -0.09078795 -0.112661205 0.044325598 0.16915049
-0.19300954 -0.023362944 0.01773157 0.039996095 -0.15620749 0.08141038 0.05177184 -0.020971507
-0.18496327 -0.018867487 0.12563606 0.08812255 0.14721037 0.07418369 0.3090633 -0.13430724
-0.096440196 -0.243854 0.14043799 -0.22346139 -0.20349121 -0.26135936 -0.09982608 -0.11453133
0.09617761 -0.14752614 -0.035798814 -0.1274184 -0.054646324 -0.15665731 -0.040463243 0.14894833

network.2.weight f4 [64, 128]
00000000: d613 1a3d c48e db3c b48f 2cbd 4e95 d6bd
00000010: 0954 f43b d4a5 bb3d bfdb 053d 9489 7d3d
00000020: 5bc4 81bd bc48 6f3d 8095 d13d bcfe 3b3d
00000030: 0289 7bbd a8f9 703d 4415 9dbd 09d7 5bbd
00000040: d254 3d3d 268e 523d 4878 1d3d f739 09bd
00000050: 2ec2 94bd 8858 603d 7ecd 88bd c1ff 683d
00000060: 7fc9 0dbc dee8 113d b8ff 91ba 3132 debc
00000070: 156d 06bd e154 22bd 4a94 dcbc 7c6f b4bd
00000080: d30f 1a3d 7a0e 723c df45 debd 61b1 15bd
00000090: 13eb a8bd 1dad 6d3c f360 4abd 9441 953d
000000a0: 190c 8abd e8d3 74bd a7dc 9f3d a691 aa3b
000000b0: a9f0 933d e77f 19bd 918a 9c3d cd83 90bd
000000c0: 1bee 0fbd 5b73 babd 7e49 903d 420a 0a3d
000000d0: a55b 00bd 0f75 603d c4e2 a9bb 2863 acbd
000000e0: e021 a1bd f454 b63c 5f5b 833d aded e73a
000000f0: 6950 d43d 3a51 05bc 7928 113d 6a27 b63d
00000100: 23bd 923d b6c2 8b3c 1286 6cbd 773b 993d
00000110: 5123 7ebd 5433 93bd 9421 71bd 304b a13d
00000120: 3abd f1b9 147e 003d a933 47bd 678d 97bd
00000130: f7fa b63c 779d aebd 9087 983c e660 00bd
00000140: d3b4 483c fcd0 943d 091f c9bd 6f86 d13c
00000150: 2851 18bd 262d 14bd 1b3a f6bd 8b4e 22bd
00000160: 0afb 403d 86d6 033d 50ca b4bd a665 0e3c
00000170: 61dc 8b3a 8d3b 243d f789 7e3a 5159 923d
00000180: abb5 703d 3bd3 9cbd 987b 723d acdf 57bc
00000190: 7f3e a6bc a395 5cbd 6812 44bd 0e18 cc3c
000001a0: 3d4d 2ebd ca34 523c 825e 29bc ceb1 dfbc
000001b0: 40c9 b43d 69f4 7dbd 94a5 78bc ea6d 7d3d
000001c0: db98 073d b761 783d 860f 373d 8e82 adbd
000001d0: 4a2a 3e3d b688 25bc 5ae4 813d b815 8fbc
000001e0: 613d 3f3d 160a 9b3c b98a 2c3d 63f5 afbc
000001f0: d6c0 5dbb 86a2 153d 9000 3f3d 5c64 88bd
00000200: 6624 45bd 74f1 f53c 1b1b 6fbd adb2 59bd
00000210: 5063 363c d1bd aa3d ce46 80bd 28be 7bbc
00000220: 843a 85bd b812 1abc 1b19 a03d a5d6 8abd
00000230: bed1 733d a20e 463d 20ce 3d3c 123e 6e3d
00000240: 62da 323d 189b e53c 08f2 4c3c 8870 6bbd
00000250: 9deb abbd 4e9c 723d 1e44 04bd 18c3 a3bd
00000260: 06a4 ecbc 7ae8 7ebd 6391 933d 43b5 853d
00000270: a420 a1bd d00b 133d 05bd 13bd 6904 ad3d
00000280: 808f 083c 90c8 b1bb 7a78 0e3d 7942 9bbd
00000290: 4f99 0fbd f583 953d fd12 9b3d 60eb 7ebc
000002a0: 0737 883d a08e 94bd a0a7 8ebd bcf0 92bc
000002b0: 8f74 a9bd f3a4 9b3d 8090 54bc c7ec 40bd
000002c0: acbd dd3c 209e 74bc 52f3 543d fab7 4f3d
000002d0: 997b 85bd 7086 a03c 9c72 91bc 6204 323d
000002e0: e5e3 7bbd 808b bb3a 94b0 da3c aecd 8fbd
000002f0: bce3 de3c 09ec 0abd 2e57 063d 9d93 19bd
00000300: 0843 9dbc eb4a adbd f8c7 44bc 5750 883d
00000310: 7016 ff3c 792f 88bd d8c6 96bd 271f 893d
00000320: 00bf 1bbd 46fa 8fbd ef4b 14bd d211 3e3d
00000330: 00c4 2f3c 5313 39bd aa79 333d 2799 b43d
00000340: 68e4 a23c a0c0 87bd a8ed c5bc 8f36 b4bd
00000350: 197a 9a3d e2ed 6cbd a0f3 26bb 4992 54bd
00000360: a014 4cbb 2cf6 7fbd faff 8ebd 1180 82bd
00000370: be23 1a3d bf04 b5bd d1d5 963d 8a1c 1c3d
00000380: e21e 423d 9f57 a93d 2098 d63b 386e b8bc
00000390: e9e9 a6bd e91e 57bd 8668 77bd d3d5 a5bd
000003a0: 140f 16bd c067 eeba 8073 31bb 6072 613c
000003b0: 08e2 78bd 52ef 563d ac33 a8bd 3c5c f73c
000003c0: 1df9 0fbd 4bd0 9a3d db22 3ebd addd a83d
000003d0: 80c4 83bd 5b76 6fbd 8897 14bc 04f6 7bbd
000003e0: 581f 133c d562 81bd 90a6 18bc a87c 39bc
000003f0: fa2d 00bd 101f 6b3c 0bb2 4dbd 0243 533d
0.037616573 0.026801474 -0.042129233 -0.10477696 0.007456307 0.091624886 0.03268027 0.061898783
-0.0633628 0.058418974 0.10233593 0.04589723 -0.061409958 0.05883184 -0.07670072 -0.05367187
0.04622347 0.051405095 0.038444787 -0.033502545 -0.07263599 0.05477193 -0.066798195 0.05688453
-0.008653997 0.03562247 -0.0011138832 -0.027123543 -0.032818872 -0.039631728 -0.026926178 -0.088103265
0.037612747 0.014773959 -0.108531706 -0.036546115 -0.08247962 0.014506605 -0.049408864 0.07287899
-0.06740589 -0.059772402 0.07805758 0.005205351 0.07223637 -0.037475493 0.07643617 -0.07056389
-0.035139184 -0.091040336 0.070452675 0.03370119 -0.0313374 0.054799136 -0.0051845033 -0.0841735
-0.07867789 0.022257306 0.06413912 0.0017694734 0.103668995 -0.008137042 0.03543899 0.088942364
0.07164981 0.017060619 -0.057745047 0.07482045 -0.0620454 -0.071875244 -0.058869913 0.07875669
-0.00046108087 0.031370237 -0.04863325 -0.07400017 0.022336466 -0.08526128 0.018619329 -0.03134241
0.012250143 0.07266423 -0.098203726 0.025576798 -0.03718677 -0.03617587 -0.120228015 -0.039625686
0.04711441 0.032187007 -0.088276505 0.008691227 0.0010670536 0.040095855 0.00097098894 0.07145942
0.058767002 -0.076574765 0.0591999 -0.013175886 -0.020293472 -0.053853642 -0.047869116 0.024913814
-0.04255413 0.012829969 -0.010337474 -0.027306464 0.08827448 -0.062000666 -0.015176196 0.0618724
0.03310476 0.060640063 0.04469254 -0.08472167 0.04642705 -0.010103395 0.06342383 -0.017466411
0.046689395 0.018925708 0.042124484 -0.021479314 -0.0033836863 0.036531948 0.046631396 -0.06659767
-0.048130415 0.03002236 -0.05837546 -0.053148914 0.011132076 0.08336986 -0.06263505 -0.015365161
-0.065053016 -0.009403877 0.078172885 -0.067792214 0.059526198 0.0483538 0.011584789 0.058164664
0.043665297 0.028028056 0.012508877 -0.057480365 -0.08394549 0.059231095 -0.032291524 -0.079961956
-0.028886806 -0.062233426 0.07205465 0.065287136 -0.07867554 0.035899937 -0.036068935 0.08448107
0.008334994 -0.0054255202 0.034782864 -0.07581038 -0.035058316 0.073005594 0.07571981 -0.015559047
0.06651121 -0.07253766 -0.06965566 -0.017937057 -0.08274185 0.07599821 -0.012973905 -0.04710081
0.027067982 -0.014930278 0.05198986 0.050712563 -0.06517715 0.019595355 -0.017754845 0.04346121
-0.061496634 0.0014308542 0.026695527 -0.07021652 0.027208202 -0.033916507 0.032797985 -0.03749429
-0.019197002 -0.08461555 -0.012010567 0.066559486 0.031138629 -0.0664968 -0.07362145 0.06695395
-0.03802395 -0.07030158 -0.03620523 0.046403714 0.010727882 -0.045184445 0.0438172 0.08818274
0.019884303 -0.06628537 -0.024161175 -0.08799469 0.075428195 -0.05784405 -0.0025474802 -0.05189732
-0.0031140223 -0.062490627 -0.069824174 -0.06372083 0.037631743 -0.08838796 0.07365001 0.038113154
0.047392733 0.082686655 0.0065488964 -0.022513494 -0.081500836 -0.052519713 -0.060402416 -0.08097424
-0.036635473 -0.0018188879 -0.00270769 0.013760179 -0.060762435 0.052474327 -0.08212981 0.030195348
-0.035149682 0.0755926 -0.04641996 0.08245406 -0.06433964 -0.058462482 -0.009069331 -0.061513916
0.008979641 -0.06317679 -0.009317055 -0.011321224 -0.031293847 0.014350668 -0.050218623 0.051577576

network.2.bias f4 [64]
00000000: 0a21 8b3d 4ca2 893c 2fa4 a03d 9145 46bd
00000010: 6809 5c3e 9983 9ebd 18fa fd3c c6e8 f7bc
00000020: 6420 a5bc 6ea1 c33d 0cda b4b9 ddd2 29be
00000030: e7ca d63d bd3a 8abd 778b cbbd c9a9 9cbd
00000040: b4c0 f03b aac2 f1bc 52d3 c0bc 3aab 533d
00000050: 2e0d 3c3c 8181 613d f355 db3d 6adc c3ba
00000060: e62c 44bc 0955 adbd d825 873c 4d7d 6c3d
00000070: 0ed3 8a3c c2a4 a73d 6468 96bd 16da 583d
00000080: a514 e23c b739 5fbd 7d33 6b3a 71fe 9cbd
00000090: 5ef7 9a3d c264 a7bd a0a3 543e c0c5 85bd
000000a0: e83a ab3c 31bf 5e3d f94e ebbc db36 833c
000000b0: 2f3e 43bd db03 2f3e e3b7 ba3d e7bd b2bd
000000c0: 0d9b b03d 7104 763d e1a9 183e c4f7 0abe
000000d0: f37a f4bd 2090 0f3d 9dfa 27be 80ec 5c3d
000000e0: 4ba1 0fbe b12d 323e 311b 41be e324 353e
000000f0: 1642 f63d 392a b53d b7ea 9e3b a9e1 393e
0.06793411 0.016801022 0.078438155 -0.048406187 0.21487963 -0.07739944 0.031003043 -0.030262362
-0.020157047 0.09552275 -0.00034494733 -0.16584344 0.10487919 -0.06749485 -0.0993871 -0.076495714
0.0073471908 -0.029511768 -0.023538265 0.051676966 0.011477752 0.055055145 0.10709753 -0.0014943008
-0.011973595 -0.08463485 0.016497537 0.057736684 0.016946342 0.08185722 -0.0734413 0.052942358
0.027597735 -0.0544984 0.0008972211 -0.07665718 0.07566713 -0.08173515 0.20765543 -0.065318584
0.020902112 0.054381553 -0.02872418 0.016017368 -0.047666725 0.17091314 0.09117105 -0.08727627
0.086233236 0.06006283 0.14908554 -0.13571078 -0.11937513 0.035049558 -0.16404195 0.05393648
-0.14026372 0.17400242 -0.18858029 0.17689852 0.12024324 0.08845944 0.0048497575 0.18152489

network.4.weight f4 [1, 64]
00000000: b4eb 87bd b010 dbbd 0ced e9bd 329b 843d
00000010: c311 a5bd 59cf 423d 9ad2 983d 6673 1abb
00000020: 2dda dd3d 3911 26bc 5fb5 98bb 934b 863c
00000030: fab6 63bd 3d82 c43d 3ce0 4ebc 5725 95bd
00000040: d9f0 0f3c 930e a0bc 2b48 2c3d 5fd6 d3b9
00000050: 88ff 833d 0008 87bc 93e1 6ebd 6b89 17bc
00000060: 6156 65b8 5c49 323c bcf4 6d3b 8d17 57bd
00000070: 7d0c b9bd 87b5 abbd fb00 933d 4823 d63c
00000080: 261c 23b9 4bbb 9d3d 0cb2 6b39 2d50 593c
00000090: 5bbe 00bd eae0 85bd 5168 90bd 400e f7bb
000000a0: f8ce 67bb e8c1 2dbd e521 903d f725 4bbb
000000b0: 5522 e63b cfb3 cbbc 2ee8 efba 396c 69bd
000000c0: 5a18 52bc 22d0 a0bc 2e51 21bd fc43 5d3d
000000d0: b6a4 933d 71ab dd3d b060 cd3d 8e05 e4bc
000000e0: 04d5 003d ad8f 94bc 0c12 7a3d f971 5abc
000000f0: d78e 29bd 2b21 0dbd 30ed 853b a926 a0bd
-0.06636754 -0.10696542 -0.11422166 0.06474914 -0.080600284 0.047561023 0.07462044 -0.0023567318
0.10832629 -0.010135942 -0.004660293 0.016393458 -0.055594422 0.095951535 -0.012626704 -0.07282513
0.00878545 -0.0195382 0.042061012 -0.00040404775 0.06445223 -0.016483307 -0.058320593 -0.009249072
-5.46783e-05 0.010881748 0.0036309203 -0.052512694 -0.09035585 -0.08384233 0.071779214 0.02613987
-0.00015555377 0.07701739 0.00022477674 0.013263744 -0.031431537 -0.065370396 -0.07051147 -0.0075395405
-0.0035371166 -0.04242125 0.07037715 -0.003099797 0.0070231357 -0.024866013 -0.0018303448 -0.056987975
-0.012823189 -0.019630495 -0.03938406 0.054019913 0.072091505 0.108237155 0.10028207 -0.02783468
0.031453148 -0.018134916 0.061052367 -0.013332837 -0.04139599 -0.03445546 0.004087113 -0.07819874

exp_avg f4 [128, 22]
00000000: 422f 5438 57d9 a038 63dc e934 d778 a3b3
00000010: 9e77 9fb6 67fe 93b6 9687 2cb7 6231 bc36
00000020: c396 29b7 9c12 0b31 5c3e b636 6a3a 1333
00000030: 9c8c 6438 665e 6538 ec24 2134 622b 7638
00000040: e1c1 da38 18a9 cf33 2539 d0b6 ec38 e635
00000050: 55f9 ffb7 f73e beb5 1914 5db7 54ad ccb9
00000060: a08e 7133 f1e3 1533 efc2 24b7 b6ce 24b7
00000070: 3708 8db6 83a9 bdb6 ea06 8eb6 50b4 5731
00000080: ccc5 bcb6 1f7e c2b3 5727 6eb7 f67f c8b9
00000090: 68f7 1f34 fb29 80b7 2324 f0b9 8d60 05b4
000000a0: 671e 96b6 2d0c 9436 24d4 beb8 77e1 a136
000000b0: 66da 4db8 9c87 4fb6 a5a3 5b30 7bf0 bcaf
000000c0: e4dc a2b3 5ff7 a0b3 6c8b f9b0 cb38 9eb3
000000d0: 62c2 2ab3 0000 0000 917b 19b3 eaac a4af
000000e0: 15b0 5db8 cb0d 5cb6 3cec 2cb0 62b3 6eb8
000000f0: 1eaf 71b6 7ac5 03b0 4b19 a233 51a0 3233
00000100: 25e3 6cb5 9311 c3b3 8c5f b9b7 be32 683a
00000110: c4be 3f35 4796 02b4 92d2 0b37 a3b1 1437
00000120: 539f 41b7 19bc a737 b9f9 3ab7 ac1c 9830
00000130: ed66 a437 3af8 8434 c57b c7b7 3f75 4f3a
00000140: 3f61 8fb2 97d4 d6b7 52ca 8c3a 6b7d ac34
00000150: 9615 bdb6 3ef1 a5b6 8b9e f038 f232 45b7
00000160: a044 1336 8aa0 08ba e79c 6535 154e ceb3
00000170: 6d20 c1b7 0832 bcb7 2f63 a2b7 6756 6fb6
00000180: eb7a a2b7 67ed 2e32 7947 6fb6 8fe2 d0b3
00000190: 9e82 1f36 c368 04ba 13b8 d034 2cd5 2d36
000001a0: 5ddf 21ba d35d e8b3 51bc 57b6 7c7b 2237
000001b0: dfd7 46b9 81b0 0537 44ac 1fb8 c85a 8bb6
000001c0: 3896 c0af c3ae 7eaf 360f 9fb3 a832 9fb3
000001d0: c890 00b1 ae8a 9ab3 49dc 07b3 0000 0000
000001e0: 1f42 35b3 943f a2af 91f4 2bb8 6240 8cb6
000001f0: 6066 cbaf 7d2b 39b8 f927 97b6 ee09 beaf
00000200: 5b8d 9e33 cd28 5f33 fd87 95b5 1adf 3cb4
00000210: 6782 c5b7 a979 8339 801f 0ab6 0b17 7734
00000220: 6dcf 1738 4b12 1238 bbf0 3238 fddd e0b6
00000230: 1dbf 3138 9cee a7b2 18a9 d6b6 3d62 07b4
00000240: 7800 d5b7 189d 9539 05a8 4eb5 1dcd e5b7
00000250: b476 7a39 5911 fbb2 d14d 2d36 ee8b 58b7
00000260: 28ce 6f39 6da2 b3b6 bcba 3eb0 9713 a0ad
00000270: 910f a826 63dc 42a7 0eff f6aa b606 f5aa
00000280: 6845 bd26 5635 f6aa 6845 bd26 0000 0000
00000290: 5635 f6aa e95d aba5 9766 4db0 8175 a1ad
000002a0: 5c41 2f25 715d d7a7 f99e a0ad 42c2 8fa6
000002b0: 0e78 f5aa c948 8a2a 200c b6ac 99c8 43a9
000002c0: 7f0a c936 1d36 f638 3017 ac34 3dee 28b2
000002d0: 05c8 43b6 ac4e 38b6 1a4a 8fb6 3cf2 b635
000002e0: 3615 90b6 5c2e 7631 91a3 b935 1239 0933
000002f0: cb9b d836 1745 f038 fdda 2734 5364 e936
00000300: 7094 f038 bf04 09b3 a4c3 2c36 275b 8d34
00000310: e078 c436 6566 4e36 0f44 c0b7 6c02 0bba
00000320: 4585 01b6 b892 a034 3a55 8937 b616 7b37
00000330: f001 2738 8e34 c7b7 765c 2438 c07d 48b2
00000340: 8bd0 c1b7 adb4 96b4 4b6a cfb7 9abf d9b9
00000350: e290 dbb4 1e93 dfb7 9d07 3bba 3ef8 d4b4
00000360: c4a0 2137 4d26 a8b6 3059 9f38 65b4 3137
00000370: 738c 14b6 a39e 26b8 f567 c2b5 3078 6e34
00000380: f750 a437 3974 9b37 c50d 0638 a957 53b7
00000390: 6f48 0438 721a 33b2 8f15 4cb7 d1c4 2ab4
000003a0: 6818 22b6 bce4 b037 14f4 c1b4 40a5 30b6
000003b0: da06 08b9 b5f5 71b4 cfa6 0037 76c8 f7b6
000003c0: 7084 0d39 892d ac36 0000 0000 0000 0000
000003d0: 0000 0000 0000 0000 0000 0000 0000 0000
000003e0: 0000 0000 0000 0000 0000 0000 0000 0000
000003f0: 0000 0000 0000 0000 0000 0000 0000 0000
5.058875e-05 7.669877e-05 4.3559984e-07 -7.6122596e-08 -4.7524945e-06 -4.4105577e-06 -1.02835675e-05 5.6085855e-06
-1.0108287e-05 2.023774e-09 5.4312823e-06 3.4279232e-08 5.449039e-05 5.468577e-05 1.5007726e-07 5.8691374e-05
0.00010431163 9.6699466e-08 -6.2055356e-06 1.7152902e-06 -3.0514473e-05 -1.4174428e-06 -1.3177306e-05 -0.00039039052
5.6241902e-08 3.4899077e-08 -9.820548e-06 -9.82329e-06 -4.203084e-06 -5.6523727e-06 -4.2327347e-06 3.1389114e-09
-5.625863e-06 -9.05677e-08 -1.4195065e-05 -0.0003824231 1.4898035e-07 -1.5278338e-05 -0.0004580329 -1.2421715e-07
-4.4738877e-06 4.412161e-06 -9.09942e-05 4.8244215e-06 -4.9079208e-05 -3.0924339e-06 7.990429e-10 -3.4367872e-10
-7.5838926e-08 -7.495577e-08 -1.815676e-09 -7.367779e-08 -3.9758e-08 0.0 -3.573547e-08 -2.995429e-10
-5.2854495e-05 -3.2790583e-06 -6.2908945e-10 -5.6910685e-05 -3.601373e-06 -4.7938153e-10 7.5483136e-08 4.158966e-08
-8.824739e-07 -9.083592e-08 -2.2098211e-05 0.0008857659 7.1430645e-07 -1.2161864e-07 8.334073e-06 8.862847e-06
-1.1540792e-05 1.9995541e-05 -1.1144607e-05 1.1067605e-09 1.9598252e-05 2.4767525e-07 -2.3780283e-05 0.00079138944
-1.6691613e-08 -2.5609783e-05 0.0010741448 3.212875e-07 -5.635152e-06 -4.9454675e-06 0.00011473623 -1.1753977e-05
2.1944652e-06 -0.00052119105 8.553747e-07 -9.6068256e-08 -2.3022492e-05 -2.2434644e-05 -1.935809e-05 -3.5664068e-06
-1.9369143e-05 1.0182112e-08 -3.5655378e-06 -9.7269655e-08 2.3768876e-06 -0.0005051011 3.887695e-07 2.5903091e-06
-0.00061749463 -1.08204084e-07 -3.2147111e-06 9.684703e-06 -0.0001896317 7.968513e-06 -3.806899e-05 -4.153091e-06
-3.5031333e-10 -2.3163253e-10 -7.406781e-08 -7.413229e-08 -1.870875e-09 -7.1964095e-08 -3.1632485e-08 0.0
-4.2202483e-08 -2.9512803e-10 -4.0997347e-05 -4.1798203e-06 -3.6998227e-10 -4.414794e-05 -4.504804e-06 -3.4567854e-10
7.383161e-08 5.195834e-08 -1.1140943e-06 -1.7590028e-07 -2.3544953e-05 0.0002507691 -2.0581938e-06 2.301205e-07
3.6194386e-05 3.482615e-05 4.2662705e-05 -6.701563e-06 4.2378077e-05 -1.9549866e-08 -6.397382e-06 -1.2608594e-07
-2.5391797e-05 0.0002853654 -7.698548e-07 -2.739444e-05 0.00023886078 -2.9228135e-08 2.5824304e-06 -1.2907183e-05
0.00022869615 -5.3535246e-06 -6.9386963e-10 -1.8198594e-11 1.1661561e-15 -2.704238e-15 -4.3875358e-13 -4.35254e-13
1.3133322e-15 -4.3735387e-13 1.3133322e-15 0.0 -4.3735387e-13 -2.9727407e-16 -7.4724354e-10 -1.8355763e-11
1.5200975e-16 -5.9775797e-15 -1.8260492e-11 -9.975272e-16 -4.3604047e-13 2.456423e-13 -5.1740973e-12 -4.347269e-14
5.9914887e-06 0.000117402735 3.2054368e-07 -9.833056e-09 -2.917369e-06 -2.746393e-06 -4.2703587e-06 1.3630556e-06
-4.2940037e-06 3.5824064e-09 1.3831178e-06 3.1949703e-08 6.4554383e-06 0.00011456961 1.5632754e-07 6.9556204e-06
0.000114717404 -3.1902115e-08 2.5743875e-06 2.632962e-07 5.855327e-06 3.0755994e-06 -2.2919876e-05 -0.000530279
-1.930007e-06 2.9909074e-07 1.637136e-05 1.4966054e-05 3.9817707e-05 -2.3747121e-05 3.9186758e-05 -1.1670124e-08
-2.3104503e-05 -2.8071136e-07 -2.472582e-05 -0.0004153222 -4.0897345e-07 -2.6652178e-05 -0.00071346184 -3.9668697e-07
9.633779e-06 -5.011249e-06 7.598323e-05 1.05920235e-05 -2.213547e-06 -3.9725226e-05 -1.4484382e-06 2.2209201e-07
1.9588026e-05 1.853156e-05 3.1960913e-05 -1.259699e-05 3.153871e-05 -1.0425184e-08 -1.2164367e-05 -1.5904085e-07
-2.4154087e-06 2.1087348e-05 -3.6126642e-07 -2.6322232e-06 -0.00012972523 -2.2534262e-07 7.668233e-06 -7.3845104e-06
0.00013496145 5.1313004e-06 0.0 0.0 0.0 0.0 0.0 0.0
0.0 0.0 0.0 0.0 0.0 0.0 0.0 0.0
