models/rl/ppo/ppo_20250315_232423/ppo_episode_19.pt (torch, 286386 bytes, 33 tensors)

network.0.weight f4 [128, 22]
000000 58 77 b7 3d db 4e 13 3e e6 62 a9 be 1c 10 4b 3e
       0.0895831 0.1438555 -0.33083266 0.19830364
000010 e9 2a 04 3d c1 77 d8 3d 9a 3b e8 bb 1c 50 a5 3d
       0.032267485 0.10569716 -0.007087183 0.0807192
000020 a6 3f 9f 3e 6e 71 02 bf fc c3 e9 3d d9 4e 9a 3e
       0.31103247 -0.5095433 0.11414334 0.3013828
000030 36 42 ab 3d 4b 5c 5f bc 99 9e fc 3d d9 fd cb bd
       0.08362238 -0.013632844 0.123349376 -0.09960527
000040 21 19 06 3e 91 62 81 be 3d 3b a7 be 81 0e ea 3d
       0.13095523 -0.25270513 -0.32662383 0.11428548
000050 a0 c5 f9 bd 8f 7a 4c 3e 5b 04 0c be 02 d7 9a 3d
       -0.12195897 0.19968627 -0.13673536 0.07560541
000060 b6 7d af be 0e 25 3e be 1c 50 9f bd d9 18 18 be
       -0.34275597 -0.18568823 -0.077789515 -0.14853229
000070 6e 6c 98 bd f3 82 16 be 45 36 19 3e ca c3 53 be
       -0.07442556 -0.1469839 0.14962108 -0.20680156
000080 33 de 40 3e 0d 1c c9 3e 92 6f f4 bd 2d 63 8b 3d
       0.18834762 0.39279214 -0.11935343 0.06806026
000090 10 da b3 3d e8 26 fa 3d eb 49 35 bd a8 18 c8 be
       0.087818265 0.12214452 -0.044259947 -0.3908131
0000a0 f8 e6 a5 be 67 17 8e 3c bf 0e a3 3b 6e c6 b4 3e
       -0.32402778 0.017345143 0.004976123 0.3530764
0000b0 49 a0 d7 3d 29 e2 ee bd bb 13 0d 3e 3b 75 e8 3c
       0.10528619 -0.116642304 0.13777058 0.028376212
0000c0 56 0d c4 3d d2 04 20 be 4f 3a 74 be 9e ef ab bd
       0.09572856 -0.15626839 -0.23850368 -0.08395313
0000d0 61 5e 41 be 56 23 33 3e 60 0e 68 3d 27 38 c2 3d
       -0.18883659 0.17493948 0.056654334 0.094833665
0000e0 e0 c9 47 3d 93 67 cf bc 80 67 23 3e c6 cc 1d be
       0.048776507 -0.025317943 0.15957451 -0.15410146
0000f0 e6 57 23 bc 98 28 15 be ae f7 9e 3d e2 c7 6a bd
       -0.009969687 -0.14566267 0.07762085 -0.05731953
000100 dd 2e 32 3d f7 75 7c bd 45 d5 30 3e 8f 08 24 be
       0.043501724 -0.061635938 0.17268856 -0.1601889
000110 38 f7 66 3c bd ff 0e be 7e a5 04 3e be 88 8d 3c
       0.0140970275 -0.13964744 0.12953755 0.017277118
000120 c3 f0 82 3e a9 20 a2 be ac 7e 59 be 55 f6 84 be
       0.25574312 -0.31665543 -0.21239728 -0.25969186
000130 f1 44 7b be 53 89 7d be 18 a8 94 3d 09 30 1f 3e
       -0.24538018 -0.24759416 0.07258624 0.15545668
000140 83 34 07 be f6 75 1d be 8b ed aa 3d 79 91 ea 3d
       -0.13203625 -0.1537703 0.08346089 0.11453528
000150 d8 12 29 3f 53 2a 6a bd 3a b0 b8 3d 0b e8 87 be
       0.6604438 -0.05716927 0.090179875 -0.26544222
000160 c9 74 06 bc f1 f0 91 3d fd ad 18 be 55 a8 e8 bc
       -0.008206555 0.07126034 -0.14910121 -0.02840058
000170 18 42 37 3e 07 26 4b 3e e7 e1 41 be 49 1b 2b bc
       0.17896307 0.19838725 -0.18933831 -0.010443517
000180 1c 41 5d 3e 5d 74 98 bd f5 a4 ab bc a7 39 d8 3d
       0.21606869 -0.074440695 -0.020952681 0.10557871
000190 c7 ba 97 bc 5e d4 4c 3d 67 89 1f bd 06 21 5f bd
       -0.01852168 0.050007217 -0.038949396 -0.054474853
0001a0 8a 05 46 3c 47 98 00 bf d6 20 2d bf 4d 4e e2 bd
       0.012086282 -0.50232357 -0.6762823 -0.11050091
0001b0 41 6f 28 be 27 85 0e 3d ff 38 44 3e 1a b5 68 36
       -0.1644869 0.034794953 0.19162367 3.467611e-06
0001c0 35 66 8d 3d de 00 5d be 6c ad 37 be 17 33 e2 bd
       0.0690426 -0.21582362 -0.17937249 -0.11044901
0001d0 39 b6 80 3a f2 11 53 be 2e 77 f5 bd 29 b3 02 be
       0.0009819932 -0.20612314 -0.11985622 -0.12763657
0001e0 88 1f d6 bc 94 ba a3 bd 70 8c 14 bd 62 8a 3e be
       -0.026138082 -0.07994571 -0.036266744 -0.18607476
0001f0 09 df 19 be 95 39 19 be 78 ba ea bd 37 29 32 be
       -0.15026487 -0.14963372 -0.11461347 -0.17398535
000200 06 84 4c 3e f4 45 ae bc 46 95 16 3e ac 59 f1 3c
       0.19972238 -0.02127359 0.14705381 0.029461704
000210 af ca 1e be cc df b2 3d b8 99 2b 3e 9a 6c 0b be
       -0.15507005 0.08734092 0.16757858 -0.13615647
000220 63 a0 99 be 1f ea a9 be dd 93 d9 3b 25 49 10 be
       -0.30005178 -0.33186433 0.006639941 -0.14090402
000230 00 47 93 bc 07 9a 4a 3c fa 2e e5 3d dd c1 e7 be
       -0.017978191 0.012365825 0.11190601 -0.45265093
000240 00 b5 38 bc fe b6 17 bc b7 ea bb 3d 54 6a 4a 3e
       -0.0112736225 -0.009259937 0.09175628 0.19767123
000250 0c b1 11 3e 5d 70 06 3e fe fe d9 3e 8b 60 c4 bd
       0.14227694 0.131288 0.42577356 -0.095887266
000260 62 e1 86 bd c9 24 d1 be 64 30 31 3e 33 bc 34 be
       -0.06585957 -0.40848377 0.17303616 -0.17649917
000270 88 b9 f6 3d 89 75 76 3d 15 12 55 3d 9a 64 0a be
       0.12047106 0.060170684 0.052019197 -0.13514939
000280 38 0b 31 3e 73 a9 32 3d 2f 08 d6 3b b4 64 40 be
       0.17289436 0.04361863 0.0065317373 -0.18788415
000290 b4 ac b0 3d 0a 1c 99 bc fd 96 ed bd 10 6e 26 3e
       0.086266905 -0.018690128 -0.11601064 0.16252923
0002a0 60 d4 2c 3d f9 73 03 be b4 bf 03 be da 69 4d bb
       0.042194724 -0.12837209 -0.12866098 -0.003134361
0002b0 f4 b4 f4 3d 88 af 21 bd 62 8c 11 be 9b 6d c5 bd
       0.119485766 -0.03947404 -0.14213708 -0.09640046
0002c0 8f 50 9c bd 16 c8 30 3c ca 7a 6f bc 01 52 52 be
       -0.07632553 0.010789892 -0.014616678 -0.20539095
0002d0 33 61 23 3d b0 50 c5 3d 41 05 08 3c d6 83 91 bd
       0.03988762 0.096345305 0.008302034 -0.07105224
0002e0 16 94 09 3e ca 44 c2 3d 24 a5 d5 3c e3 0a 98 3e
       0.13435397 0.09485777 0.026079722 0.29695806
0002f0 4c 8f d9 3c a9 ff 50 bd 81 c2 2a 3d 93 05 a0 3c
       0.026557587 -0.051025067 0.0416894 0.019533908
000300 af 32 92 3d 1b 8c 6e bd c9 ad 03 bf 99 5e d0 3b
       0.071385734 -0.058239084 -0.5143705 0.006358933
000310 85 53 de bc 41 26 9e 3c c5 f8 55 3d 4b e2 d0 3c
       -0.027139435 0.01930535 0.0522392 0.02549853
000320 6d 41 8c be fd 17 d1 bd 95 20 16 3e 27 57 52 3d
       -0.27393666 -0.102096535 0.14660867 0.051352646
000330 6d 63 d2 bd e0 36 24 bd bf f8 2d be d0 88 9e bd
       -0.1027287 -0.040091395 -0.1698942 -0.07740939
000340 93 2f ec bc ea f3 a6 3e 9b 70 0c 3e 6a 22 6f 3d
       -0.028831279 0.32607967 0.1371483 0.05838243
000350 13 dd 01 be 6e aa 0c be 73 1e 91 bd b7 cf 04 3e
       -0.1268199 -0.13736889 -0.07085886 0.12969862
000360 45 36 dd be 2e c9 8d bc da da 82 3d ef 8f fd bd
       -0.43205467 -0.017307844 0.06389399 -0.12380969
000370 55 72 14 be 1c 59 e4 3d e0 40 3f be a6 82 af bc
       -0.14496739 0.11149809 -0.18677092 -0.021424603
000380 5f 07 81 be 6e be cb 3d f0 fb 71 3d de c5 28 3e
       -0.25200936 0.09948431 0.059078157 0.1648173
000390 7c de 47 be b5 8f 9b bd 6b 37 0e be 69 2c bd 3e
       -0.19518465 -0.07595769 -0.13888328 0.36947945
0003a0 23 74 c3 3d 35 e4 08 3e b4 58 45 3e c6 a7 40 3d
       0.09543636 0.13368304 0.19272119 0.047035
0003b0 af 51 2d bd c5 99 45 be 04 7b 21 bf 36 f6 24 be
       -0.042314228 -0.1929694 -0.6307833 -0.16109547
0003c0 be 70 82 3d d8 f7 6d be cf ff 76 bd bd 25 11 be
       0.0636916 -0.23239076 -0.06030255 -0.14174552
0003d0 e3 e2 a4 bc 4d 13 2c be 1b 1f 22 be d0 d0 53 3d
       -0.02012772 -0.16804238 -0.15832178 0.05171281
0003e0 e0 b3 a8 bd e0 c6 06 3e 3c 03 b3 bd 8d 26 20 be
       -0.082374334 0.13161802 -0.08740851 -0.15639706
0003f0 30 14 1a bd 3a 32 b2 bd 39 ff a8 bd 8d 57 63 be
       -0.03761691 -0.08700986 -0.08251805 -0.22201367

network.0.bias f4 [128]
000000 63 3d 5e 3e 55 ef 02 be d1 99 f8 bd 06 59 db 3d
       0.21703105 -0.1278661 -0.12138713 0.10710339
000010 c9 a0 0f 3e 2a 7c 24 be 90 74 71 bd fa 64 b3 3d
       0.14026178 -0.1606299 -0.058949053 0.08759494
000020 38 d5 4b be cf 0d 2b 3c e5 04 06 3c ad c4 df bc
       -0.19905555 0.010440304 0.008179878 -0.027315462
000030 cd 6f 84 3e 61 30 1d be 04 b5 ec 3d ec a1 49 bd
       0.25866547 -0.15350486 0.115579635 -0.049226686
000040 4e 3e 23 be df 7b 18 3e 51 80 21 be f6 e8 75 bd
       -0.15941736 0.14891003 -0.15771605 -0.060036622
000050 df e6 fc 3d 81 38 36 be d4 f2 49 be 3c ea 95 3d
       0.12348723 -0.17794992 -0.19721538 0.07320067
000060 e5 74 25 3e e7 4a b0 bc f6 13 f9 3d b9 24 0e 3e
       0.16157873 -0.021520091 0.1216201 0.13881196
000070 78 24 81 3d c7 7a 0e be 68 be 2b 3e c0 b1 bb 3d
       0.06305784 -0.13914023 0.16771853 0.091647625
000080 1d f8 9b 3a 90 bf c0 3d 86 38 42 be 89 38 1c bd
       0.0011899505 0.09411538 -0.18966874 -0.038139854
000090 6c e5 8c bd e9 13 fd 3c e5 a8 c8 3c 63 05 ea 3d
       -0.06879696 0.030893283 0.024494598 0.11426809
0000a0 1d 61 86 3d 5f 35 ac bd 43 35 08 be cf cd 8d bb
       0.06561492 -0.08408617 -0.13301568 -0.004327513
0000b0 f5 9f 65 bd 22 33 44 be c5 cc 53 3e 73 ed b0 bd
       -0.05606075 -0.1916013 0.20683582 -0.0863904
0000c0 c9 3a 70 be 8d cf c2 3d 31 4c 0f 3d ac 9f 52 be
       -0.23459925 0.095122434 0.03498477 -0.20568722
0000d0 a1 fb b0 3d 14 7f bd bd 7b 7a 84 3d a5 1a 85 3e
       0.086417444 -0.09252754 0.06468674 0.2599689
0000e0 e9 7f f8 3d 7d d7 86 3d 87 12 f4 bc 92 07 06 3d
       0.12133772 0.0658407 -0.02979399 0.032722063
0000f0 73 60 7b 3d c1 73 ad 3c f3 f2 19 bd 98 b0 f3 3c
       0.061371278 0.02117336 -0.03758521 0.029747292
000100 d3 98 4e bd ed f3 7a bd c0 0f 68 be 1f e8 38 be
       -0.050438713 -0.061267782 -0.22662258 -0.18057297
000110 57 ef 68 be 02 ce 5f 3e d8 4b 27 3d ab a0 34 be
       -0.22747551 0.2185593 0.040843815 -0.17639415
000120 7c 69 3d be 97 f7 d9 3c 4b 5b 95 bd 95 f6 ce bd
       -0.1849727 0.026607318 -0.072928034 -0.101056255
000130 c7 23 d0 bd e4 c5 dd 3b bd c9 28 bd 1d 87 36 ba
       -0.10163074 0.006767975 -0.041208018 -0.00069628825
000140 64 20 18 3e b9 18 24 3e d1 29 08 3e 31 aa 79 bd
       0.14856106 0.16025056 0.13297202 -0.060953323
000150 d9 18 13 be 9d 49 76 bd 68 5d 31 be 56 e5 73 3d
       -0.14364947 -0.060128797 -0.17320788 0.059544884
000160 0d 6c 14 be ae 4c 2d be 12 5e 7c be de 9f d3 3d
       -0.14494343 -0.16923782 -0.2464526 0.103332266
000170 11 85 0d 3d bf bb 6c 3e 84 8b e6 bd 93 9f df bc
       0.03455073 0.23118494 -0.11257079 -0.02729777
000180 2d cd 7a bc 68 8f 91 bd 6f 62 11 be 0c 48 fc 3d
       -0.015307707 -0.07107431 -0.14197706 0.12318429
000190 c1 37 1a be 08 de b8 3d 99 f9 90 3d 2a 90 8b 3d
       -0.15060331 0.09026724 0.07078857 0.068146065
0001a0 7d 7a 30 3e cf f8 d0 3d 08 59 f1 3d f0 0a 8f 3d
       0.17234226 0.102037065 0.117845595 0.06984508
0001b0 8e 9d 92 bd 1b 8a e7 bd 1e 2b 9e bd 5e 18 b1 3d
       -0.071589574 -0.113056384 -0.07723068 0.08647226
0001c0 d0 c4 06 3e 04 02 5e 3e f0 df e8 bd 56 24 b7 bb
       0.13161016 0.21680456 -0.11370838 -0.0055890484
0001d0 fb ee 7a be 41 e1 e4 3d 27 df 42 be 19 d5 ed bd
       -0.24505226 0.11175776 -0.19030438 -0.11612911
0001e0 72 47 34 3e bc 5f 34 3d dd f7 d5 bc c0 d3 2f be
       0.17605379 0.044036612 -0.026119167 -0.1717062
0001f0 a7 28 78 be bf 59 b6 3d 0d 8b 47 be ce f7 06 3e
       -0.24234258 0.089038365 -0.19486637 0.13180467

network.2.weight f4 [64, 128]
000000 be ec 82 3d e7 67 d3 bb 33 37 91 3b c5 4a 87 3d
       0.06392811 -0.006451595 0.004431629 0.06606058
000010 b4 bd c1 3c 9b de c5 3d 68 38 6f 3d 21 7d 4d bd
       0.023650028 0.09661599 0.058403403 -0.05016816
000020 73 e4 32 3d 5f e5 25 3d 51 51 9c bd 82 e0 2d 3d
       0.043674897 0.04050195 -0.076326974 0.042450435
000030 ec 86 6f bd e6 0c 6e bd 80 22 d8 3a 32 27 4f bc
       -0.05847828 -0.05811777 0.0016489774 -0.012643622
000040 49 43 78 bc ca 91 86 bd 72 23 18 3d 2b 7d b4 3d
       -0.015152761 -0.06570776 0.03714318 0.088129364
000050 de 41 18 bd a8 ee 73 bd 83 a7 4c bc 69 97 9d bd
       -0.03717219 -0.059553772 -0.01249111 -0.07694895
000060 3f 55 a3 bd 13 44 18 bd 5a b7 28 3d 88 39 3a bd
       -0.07975244 -0.037174296 0.041190483 -0.045465022
000070 56 28 c6 bc f2 fe 3b bd af 09 bc bd bb 3f fa bc
       -0.024189156 -0.04589743 -0.091815345 -0.030547967
000080 d0 d5 02 3c b3 9c 4e bc fa eb 88 3d 38 af e8 3c
       0.007985547 -0.012610602 0.06685634 0.028403863
000090 7c 12 81 3d 5d ee 47 3d de a1 c1 3b 40 dd 22 3d
       0.06302354 0.048811305 0.0059091887 0.03976178
0000a0 36 d2 83 bd 9f d6 6d 3d 25 1a 55 3d be 7e fd bc
       -0.06436579 0.058066007 0.052026886 -0.030944224
0000b0 18 1f a9 3b 89 a5 a4 bd 9e 09 98 bd 67 0d 34 bc
       0.0051611774 -0.08039386 -0.07423709 -0.0109895235
0000c0 be 74 7d 3c cc 81 fd bc 98 b5 4f 3c 26 57 5c bd
       0.015469728 -0.030945681 0.012677573 -0.05379405
0000d0 77 aa 39 bd 3b a0 9b 3d 01 fc c3 bd b7 dc dd 3c
       -0.045328584 0.07598921 -0.0956955 0.027082784
0000e0 b2 11 a3 3d 1a d9 51 3d 43 af b6 3c e8 2b bc bd
       0.079623595 0.051232435 0.022300368 -0.09188062
0000f0 60 20 95 39 76 16 db bc 80 00 56 bc 15 b2 8a 3d
       0.00028443616 -0.026744109 -0.013061643 0.06772248
000100 a8 5e 2d bd ed 8f 5d bd a9 9d a8 bd ba b7 2e 3d
       -0.0423266 -0.054092336 -0.08233196 0.042655684
000110 58 fd 18 bc 22 15 b9 3d 3c 4f b9 3b 4d 9d 8d bd
       -0.009337746 0.09037234 0.0056551974 -0.06914768
000120 06 a1 67 3c 33 49 9b 3d 58 27 45 3d 9b 9e 26 3d
       0.014137512 0.07582321 0.048133224 0.0406786
000130 fe 5d 9f bd 9e 3f 5a bd a6 91 8b 3d 10 30 90 bd
       -0.077815995 -0.053283326 0.068148896 -0.07040417
000140 b0 2f a5 3c 70 72 87 bc 90 3d b3 3c 42 5b 87 3c
       0.02016434 -0.01653406 0.021879941 0.016523007
000150 ac 26 64 bd bf 37 27 bd 0c 00 94 3d 1d 09 2f 3b
       -0.055700943 -0.040824648 0.072265714 0.0026708313
000160 52 dc 66 3d ed 47 ff bc 92 06 a6 3d e8 82 06 bc
       0.056362458 -0.031162227 0.08106722 -0.008209921
000170 57 66 02 bd 74 54 05 3c 15 3e 30 bd 14 4d 2a bd
       -0.03183588 0.008137811 -0.043027956 -0.041577414
000180 98 ae bd bc dc a9 90 bb d0 3e 49 bd 1b 79 93 3c
       -0.023154542 -0.00441478 -0.04913217 0.018002084
000190 f6 17 99 bd 8d 44 7a 3d 86 e9 c4 3d ba cb 00 3c
       -0.07475273 0.06110053 0.096148536 0.007861072
0001a0 d0 54 0b bd c0 6f 9f bd 46 f3 e2 3c 05 9f 73 3d
       -0.03401643 -0.077849865 0.027703892 0.059477825
0001b0 0f c2 9a 3d d0 21 01 3c 9f db 1d 3c 57 74 ad 3d
       0.07556545 0.007881597 0.009634881 0.08469456
0001c0 9f 2c d9 3c e9 94 11 bd af a7 94 bd 5d 4d f0 3c
       0.026510535 -0.035542402 -0.072585456 0.029333765
0001d0 fc b5 2c 3d 40 61 bb 3d 2b 89 52 bd 72 2d 53 3d
       0.04216574 0.09149408 -0.051400345 0.051557012
0001e0 68 90 ef bc c2 74 d8 bc c1 39 30 3d b2 65 ab bd
       -0.029243663 -0.026422862 0.04302383 -0.08369006
0001f0 1c 55 9f 3d b6 fa f4 3c a5 2a 57 bd dd b1 4d 3d
       0.07779905 0.029904705 -0.052530903 0.05021845
000200 25 c1 1b bd 01 22 21 bb 39 6a cc bc 8a 65 c9 bd
       -0.038025994 -0.0024586918 -0.024952995 -0.0983382
000210 73 a5 dc bc 22 58 2b 3d e2 c8 ce bc 8b 85 37 bd
       -0.026934361 0.041832097 -0.025242273 -0.04480509
000220 0a 96 e8 bb ff c4 02 3c 96 4e 1a bd ab 60 8c bd
       -0.007097964 0.007981538 -0.0376726 -0.068543755
000230 ef 59 74 bd 65 63 a6 bb b8 62 02 3d f8 42 83 3d
       -0.05965608 -0.0050777667 0.031832427 0.06409258
000240 6e 59 44 bc 06 a0 01 3d bb 1a 10 3d 1a de 1d bd
       -0.011984212 0.03164675 0.035181742 -0.03854189
000250 80 fb 2c bd 72 24 70 3d 68 e9 64 3d 6a c0 8d 3c
       -0.042232037 0.058628507 0.055886656 0.017303664
000260 05 1e 9a bd fe 7c 4d 3d f8 55 be bd 29 ec ce bb
       -0.07525257 0.05016803 -0.09293741 -0.0063147736
000270 f9 98 d4 bc 3c e3 e9 3c 4f 6a b8 bd 2b d0 17 bd
       -0.02595185 0.028550737 -0.09004652 -0.03706376
000280 ba 76 14 3d 12 4c 82 3d ca 85 92 bc 2a 62 85 3d
       0.03624604 0.063621655 -0.017886061 0.06512864
000290 0c f3 ac bc 4e 5b 6d bd bd c7 3d bd 69 a9 63 bb
       -0.021111988 -0.057948403 -0.046333063 -0.0034738427
0002a0 7b 86 b8 bc d2 fd 1d 3d 9a a8 4d bd 73 a4 d7 bc
       -0.022525063 0.03857214 -0.05020962 -0.026323533
0002b0 c4 52 bc bd 7f db 84 3d 99 ed b7 bc 38 44 a7 bd
       -0.09195474 0.06487178 -0.022452163 -0.081673086
0002c0 b2 a1 8f bc 43 84 3f bc a5 62 45 3c b6 d4 64 bc
       -0.017533157 -0.0116892485 0.0120474445 -0.01396673
0002d0 4e b8 d8 3c 19 87 07 bd c5 52 ff bc 82 7d 02 bd
       0.02645507 -0.033087824 -0.031167397 -0.031857975
0002e0 f0 f4 69 3c 00 35 5e 3d dd 7d b7 bc 8b 7e 4e 3d
       0.014279589 0.054249763 -0.022398883 0.05041365
0002f0 63 2c 54 3d 8f 6a bd bd a4 73 12 bc 53 e7 2a bd
       0.051800143 -0.0924884 -0.008938704 -0.041724514
000300 78 29 bb 3c 50 27 2a bd 9d ff 6c 3c 8d 45 06 bc
       0.022846922 -0.041541398 0.01446524 -0.008195293
000310 35 e1 88 bd b8 b1 a5 bd 21 a9 c2 bd 92 0b 5c bd
       -0.0668358 -0.08090538 -0.09504915 -0.05372197
000320 bd ba dc 3c 5c 7b cc bb 25 74 64 3d 87 b1 a6 bd
       0.026944513 -0.0062402915 0.055774827 -0.081393294
000330 8c 91 f6 bb 66 9f aa bd de 5b 7e bb 6a b3 99 3c
       -0.0075246748 -0.08331184 -0.0038812081 0.01876231
000340 48 60 cd bd 72 1a 92 3d 52 e4 e0 bc fc 8f 97 3d
       -0.1002813 0.0713395 -0.027452622 0.0740051
000350 c7 a2 9a bc fc 73 24 3d c4 d2 a1 3d 06 cf 03 bd
       -0.018876446 0.040149674 0.079015285 -0.032179855
000360 45 41 cd bc 9e ec 31 3d ab 2c a0 bd b1 0a 51 3d
       -0.025055537 0.043438546 -0.0782102 0.051035587
000370 9a 38 71 bd e1 c0 91 3d 2a 28 8a bd ab bc 26 bd
       -0.05889187 0.07116867 -0.06745942 -0.04070727
000380 6f b7 59 3d 4a 9d 5b bd c4 5c 8a 3d ca 33 3e 3d
       0.05315345 -0.0536168 0.06755975 0.04643611
000390 c7 fe 96 3d dc 9d b8 bd 5f f7 92 b9 10 01 f9 bc
       0.07372814 -0.09014484 -0.00028031596 -0.030396014
0003a0 b7 aa d0 3b 25 43 9f bd a3 a0 f4 3c 45 74 98 bc
       0.006368007 -0.07776479 0.029861754 -0.01861013
0003b0 af 21 2b bd 7c d8 a2 bd bc 25 18 3d a5 2a 3b bd
       -0.04178017 -0.07951447 0.03714536 -0.045694966
0003c0 cb e9 82 3d 74 b4 55 bc 3c 61 b8 3c f9 c6 0d bc
       0.06392249 -0.013043512 0.022507302 -0.008653396
0003d0 4b e3 95 bc 07 4a 00 bd bf 17 b6 bd bb d8 51 3d
       -0.018296858 -0.031320598 -0.08891248 0.05123208
0003e0 96 fd 63 bd 9c 95 19 3d e5 4d 35 bd d2 db 44 3d
       -0.05566176 0.037496194 -0.04426374 0.0480612
0003f0 6f 2f 92 3d 13 af 6f bd e7 78 95 3d 99 c9 02 bb
       0.071379535 -0.058516573 0.07298451 -0.0019956587

network.2.bias f4 [64]
000000 dc ac a3 bd 39 6e a6 bc 80 7e e5 bc 8f 95 c8 bd
       -0.07991955 -0.02031623 -0.028014421 -0.09794151
000010 41 02 19 3d a9 6f a0 3b bd a0 b2 3b ba f3 41 bc
       0.037355665 0.0048961234 0.0054512904 -0.011837894
000020 02 7e 15 bd 81 78 2a bd 6d 2a 0b 3d 27 42 8e bd
       -0.036497124 -0.041618828 0.033976007 -0.06946211
000030 76 43 a5 3c a0 8b 88 bc 05 e3 8d 3d fd c7 85 bd
       0.02017377 -0.01666814 0.06928066 -0.06532285
000040 35 04 65 b9 92 75 41 bd c9 08 2c 3d 36 d8 18 bb
       -0.00021840709 -0.047231264 0.042000566 -0.002332223
000050 7c 66 9d 3c 57 f1 83 bc f3 17 50 bd 3d 11 11 3d
       0.019213907 -0.01610629 -0.05080409 0.03541683
000060 22 84 6c bd 4c bb 88 bc 33 fe 6c 3c 1e e9 a3 3d
       -0.0577432 -0.016690873 0.014464903 0.08003448
000070 ca dc 12 3d c0 af 8b 3d 02 46 a4 3c c8 aa a3 3c
       0.035855092 0.06820631 0.020052914 0.019978896
000080 e7 0f 03 bc 2d 86 31 bd 77 5d 2d 3c 09 7a f8 3c
       -0.007999397 -0.04334085 0.010581366 0.030331628
000090 5b 9c 45 bd 56 73 30 3d 10 5f a2 bd 5d 19 2c 3d
       -0.048244815 0.043078743 -0.07928288 0.042016376
0000a0 32 0c c2 3d 8c 6a 29 3d 8c fe a6 bd 83 db 64 bc
       0.09474982 0.041361377 -0.0815402 -0.013968351
0000b0 e3 14 12 3d 98 4d 77 3d 18 d4 9b bb 1a b4 0f 3d
       0.03566445 0.060376734 -0.004755508 0.035083868
0000c0 e9 c3 82 3d 36 2a a4 bb 97 1d bd 3d 63 70 b3 3d
       0.06385023 -0.0050099147 0.092341594 0.087616704
0000d0 55 4a 8f bd 4a 21 17 bd c7 d4 4a bd 9f 2a f8 bc
       -0.069965996 -0.03689698 -0.049519327 -0.03029376
0000e0 ee ce 76 3d e4 07 93 bd f9 b7 ff 3c 63 f5 86 3d
       0.060255937 -0.071792394 0.031215655 0.065897726
0000f0 93 be 88 bb b4 8a bb bd 18 44 89 bd ae c8 a7 3b
       -0.004173109 -0.09157315 -0.06702441 0.0051203584

output_layer.weight f4 [3, 64]
000000 ee c5 16 3d 13 90 36 3d 5b 73 80 3d b2 fd 9e 3d
       0.036809854 0.044570994 0.06272002 0.07763232
000010 d2 bc ce bd 70 0a 12 3d b5 44 5c 3d a0 d1 5c bd
       -0.10094608 0.035654485 0.05377646 -0.05391085
000020 12 e5 46 bd b5 67 ec bd 23 77 2f be 04 c2 85 3d
       -0.048558302 -0.11543218 -0.17135291 0.06531146
000030 dd 48 05 bd 42 b9 90 bd af 7f de bd 71 10 bf bd
       -0.03254019 -0.07066585 -0.108641975 -0.09329308
000040 f2 ef 8a 3d df 49 65 3d 1d dc 71 3c ad 69 bc 3b
       0.06784047 0.055978652 0.014761952 0.005749902
000050 c0 e8 e9 bb 39 3a 3f 3c 58 41 44 3c c5 27 90 bd
       -0.0071383417 0.011671596 0.01197847 -0.070388354
000060 09 48 96 bd ae 63 42 bd f6 e4 62 3c 00 2e 4a 3d
       -0.07337958 -0.047458343 0.013848534 0.049360275
000070 f9 4e 13 3d cb f8 82 bd 41 59 60 3d a4 dd d3 bd
       0.035963986 -0.0639511 0.05477262 -0.10345009
000080 62 56 67 bc 90 57 01 be 67 c8 25 bd e2 d2 81 bd
       -0.014119716 -0.12631059 -0.04047432 -0.06339051
000090 15 fc f6 3d 22 f8 eb 3d 12 cf 46 bd b6 50 8b 3b
       0.120597996 0.11521937 -0.04853732 0.004251565
0000a0 69 b6 61 bd dc 9a d0 bc bf 06 71 bd 48 2e b2 3c
       -0.0551056 -0.025464468 -0.058844324 0.021750584
0000b0 f5 fb c9 bd 89 ef 9d bc 11 57 63 3a 15 9f 40 bd
       -0.0986251 -0.019279258 0.00086723367 -0.047026712
0000c0 1b dd 3f bd f9 7b 0d 3d 87 05 48 3d c9 b2 72 bd
       -0.046841722 0.034542058 0.048833396 -0.059252534
0000d0 4e c8 b2 bd 16 64 95 3b 80 56 be 3c fd ec c2 3d
       -0.08729611 0.0045590503 0.023234606 0.09517858
0000e0 b2 62 cc 3d 1b 57 bb bd c2 c5 cb bc 15 4a d7 bd
       0.09979762 -0.091474734 -0.024874572 -0.10512177
0000f0 ca e0 0d 3d a8 f5 2d 3d b5 47 b7 bd ef 1a 87 bd
       0.034638204 0.042470604 -0.08949224 -0.06596934
000100 34 78 8c 3d f0 74 3f 3d 2b 49 79 bd 68 4c 08 3b
       0.068588644 0.04674238 -0.060860794 0.0020797495
000110 a2 fe c4 bd 92 c7 14 3d 16 f2 09 3d 5c 0b d3 3c
       -0.0961888 0.036323138 0.033678137 0.025762253
000120 95 af de bc c9 a8 68 ba 8c 20 29 bd b8 f8 ee 3d
       -0.027183333 -0.00088752486 -0.041290805 0.11668533
000130 01 5e 67 bc a3 5d 1d bd f7 c8 94 3b 16 54 25 be
       -0.014121533 -0.038419377 0.0045405584 -0.16145357
000140 1c c6 65 3d 87 d2 c8 3d 82 fd 56 3d 9d 62 a6 3b
       0.056097135 0.0980578 0.052487858 0.0050776736
000150 f4 20 cb 3d c1 48 e6 3c f8 43 cb bb 1c 47 ab 3d
       0.09918395 0.028110864 -0.006203171 0.083631724
000160 e7 cb 03 3d 68 49 01 3d c3 63 48 bd 24 a9 65 3b
       0.03217688 0.031564146 -0.048923265 0.0035043443
000170 4c 6e 18 3e 84 4e d8 3d 99 01 93 bd 23 7e 03 3d
       0.14885825 0.10561851 -0.07178039 0.032102715
000180 ad 28 8c bd c8 2f 14 3d 56 63 81 3d 25 b9 8b bd
       -0.06843696 0.03617838 0.06317775 -0.06822423
000190 37 f5 93 3d 9e 7a ca 3d 73 52 cc 3d 61 e2 e7 3c
       0.072245054 0.098866686 0.099766634 0.028306188
0001a0 bc 95 80 3d e6 98 a9 bd 18 6c 67 bd 16 60 02 3d
       0.062785596 -0.08281116 -0.05649957 0.031829916
0001b0 62 c0 75 bd 00 8f ba 3c 45 bb 3c bd a9 a7 63 bd
       -0.059997924 0.022773266 -0.04607703 -0.055579815
0001c0 27 61 92 bd 2f a0 c5 bb 61 8b 92 3d 7a 78 27 3d
       -0.071474366 -0.0060310583 0.07155491 0.04088638
0001d0 9a 20 50 3a e2 9d 09 3d 6e ab df 3d 62 60 12 bd
       0.00079394283 0.033597834 0.109213695 -0.03573645
0001e0 a2 4f 48 bd 0c be bb 3d 5a 2d bd bd ef 81 bd bd
       -0.04890407 0.09167108 -0.09237166 -0.092532985
0001f0 b8 62 b7 bd 5a fc 7b bd 9f e5 a4 bd 5c 72 43 bb
       -0.08954376 -0.061519958 -0.08051609 -0.0029822802
000200 04 71 5a bd 7c a0 8e 3d f7 cf cf bd 92 8e be bd
       -0.053330436 0.06964204 -0.10147088 -0.09304537
000210 99 2a cb bd c1 ae a6 bd d9 66 2c 3d 02 5c ae bd
       -0.09920234 -0.081388004 0.04209027 -0.08513643
000220 ad e2 db bc b2 31 62 bd 7d 9c 39 bd b4 59 56 bd
       -0.026841486 -0.055223174 -0.045315254 -0.05233164
000230 28 b8 e0 3d ea 53 97 bc 16 17 58 bd d5 44 c0 3d
       0.10972625 -0.01847263 -0.05275639 0.09388129
000240 af 79 09 3e fe 2a d0 3d 19 3a e8 3b 8a eb 51 3c
       0.13425325 0.1016445 0.007087004 0.012812505
000250 22 ee b8 bd 8b 0a ba bb 45 20 70 3d 8d 50 f7 bc
       -0.09029795 -0.0056775264 0.058624525 -0.030189777
000260 98 8b 13 bc 0a 50 34 3d 9b 61 cc 3c 18 2c bc 3d
       -0.00900545 0.044021644 0.024948886 0.09188098
000270 bc a9 92 bd 59 5f d5 bd 1e 65 e3 bd 0c f1 6e 3d
       -0.071612805 -0.10418577 -0.11103271 0.05833535
000280 7d 20 51 bd 87 1c a4 bd 4c bf ac bc 07 47 75 bd
       -0.051056374 -0.08013254 -0.021087311 -0.05988219
000290 2e 0b 72 bd 5d 8c a7 3d d4 da 9a bd 63 5d 78 3d
       -0.059092693 0.08181069 -0.075612694 0.060635936
0002a0 17 74 65 3d af db b3 3d 03 2a 81 bd b6 ab bd 3d
       0.056018915 0.08782136 -0.06306841 0.09261267
0002b0 4f 46 bd bd 9b 82 cc 3d 86 84 22 bd bf 4c 05 bc
       -0.09241926 0.099858485 -0.039677165 -0.0081359735
0002c0 93 e8 d2 3c df 74 b1 3d b0 5b 25 3d 2e 81 44 3d
       0.025745666 0.086648695 0.040370643 0.047974758
0002d0 10 20 72 3c a1 3a e9 3a 39 74 9c bd e1 f4 cd 3d
       0.014778152 0.0017793962 -0.07639355 0.100564726
0002e0 93 f5 c1 3d 0f b7 9d 3d 72 1a be 3d c1 cc b3 bd
       0.09470668 0.07700931 0.09282388 -0.08779288
0002f0 2e 93 71 bd c0 6f b0 bc 0f 6a a0 bd de 8a d4 bc
       -0.058978252 -0.021537662 -0.07832729 -0.025945123

output_layer.bias f4 [3]
000000 8f 85 e5 3c cc 80 31 3d 8f c2 7c 3d
       0.028017787 0.04333572 0.061708983

network.0.weight f4 [128, 22]
000000 c4 86 0e be dd c6 da 3d 1d 0f 04 be fe 0d c4 3d
       -0.13918597 0.106824614 -0.1289639 0.09572981
000010 e8 79 06 3e 98 99 0e bb 63 a8 d2 3e 98 86 3d be
       0.13132441 -0.002175903 0.41144094 -0.18508375
000020 c2 57 08 3e 22 48 97 bd bb 0a 00 bf 91 f7 6b be
       0.13314727 -0.07386805 -0.50016373 -0.23043658
000030 ec b8 98 3c 2a 0f 17 be 00 12 e8 bd c2 f5 74 bd
       0.018642865 -0.14751878 -0.11331558 -0.059804685
000040 5d f0 fe 3d d1 b8 3c be f1 e9 9d bd ed f5 cb 3d
       0.124481894 -0.18429877 -0.077106364 0.09959016
000050 2a 54 40 3d d8 79 2b be 40 f1 72 3d 46 1a 08 be
       0.046955265 -0.16745698 0.059312105 -0.13291273
000060 8d 63 2d be a7 0d 03 be 49 3e 2a be c6 07 2b 3e
       -0.16932507 -0.12798177 -0.16625322 0.16702184
000070 54 f3 a6 3d aa 4e 3f 3e 0d b0 2f be 8b 50 2d be
       0.0815188 0.18682352 -0.17157002 -0.16925256
000080 c0 36 ad 3d a0 67 cc bd c8 d1 85 bd 52 44 00 be
       0.08457708 -0.099807024 -0.06534153 -0.12526062
000090 b7 b1 37 be a6 9c 00 be 7c 49 09 be e4 b4 df 3d
       -0.17938887 -0.12559757 -0.13406938 0.10923174
0000a0 00 65 b8 bb 0a 6e 08 3e 88 cd 3d 3e 42 2d 10 3e
       -0.0056272745 0.13323227 0.18535435 0.14079764
0000b0 e6 f7 79 be 16 ae 9d 3d 64 37 e2 3e 11 2f 81 be
       -0.24410972 0.0769922 0.44182885 -0.2523122
0000c0 3c c1 69 be 8a ca d8 bd 94 9a 18 be e1 65 68 be
       -0.2282762 -0.10585506 -0.14902717 -0.22695114
0000d0 3c f5 1b be da a0 a6 bd bb ac b0 3c 34 fb 18 3e
       -0.15230268 -0.08136149 0.02156674 0.14939576
0000e0 e6 6f 80 3d 89 c3 50 bd 81 9d 33 be 8f e7 0c 3e
       0.06271343 -0.050967727 -0.17540552 0.13760208
0000f0 3c dd 2a bd e9 d7 95 3d 2e 5a ee bd 9a b5 9e ba
       -0.04171489 0.07316572 -0.11638294 -0.0012108565
000100 e6 b7 cf ba 54 c3 b3 be bc fc cd bd d3 5b eb 3c
       -0.0015847653 -0.3510996 -0.10057971 0.028730309
000110 8e 5f 22 3e d1 8f 1c 3e 4c 49 66 3d a1 f7 53 bc
       0.15856764 0.15289237 0.056222245 -0.012937457
000120 05 13 2c 3d b8 74 79 bd d3 3a db 3d 20 62 e6 3d
       0.042010326 -0.060902327 0.10704579 0.112491846
000130 6d 68 4f be a2 bc 66 3e b6 41 93 bd e8 69 40 be
       -0.20254679 0.22532895 -0.07190268 -0.187904
000140 1a 16 9e bd a0 24 00 3e 04 d5 51 be 9c 4c 6c 3d
       -0.07719059 0.12513971 -0.20491415 0.057690248
000150 41 cc 76 bd df f0 0d be 31 54 87 3d 07 bd b2 3d
       -0.060253385 -0.13861416 0.06607855 0.0872746
000160 89 d5 0c 3e c5 58 db be f5 8f 83 3e a7 c1 d3 3d
       0.13753332 -0.42841163 0.25695768 0.10339671
000170 c2 51 6d bd 5d 4c f1 bd 06 9f 23 3e 23 27 04 bf
       -0.0579393 -0.11782143 0.15978631 -0.5162222
000180 32 0c 7e bd c8 1b 50 3d 4a 20 61 be e2 02 33 3d
       -0.06202335 0.050807744 -0.21984974 0.04370392
000190 da 41 2d bd 12 38 af be fe 80 13 3e 25 9f 57 bc
       -0.04229913 -0.34222466 0.14404675 -0.013160502
0001a0 48 96 25 be 31 1a ad bd 4f 4a 53 be 7c 1a 8c 3e
       -0.16170609 -0.08452261 -0.20633815 0.27363956
0001b0 49 b3 d0 be 38 8a f0 be a3 1f 96 bd 8e 16 e1 3d
       -0.40761784 -0.46980453 -0.07330253 0.1099063
0001c0 e4 14 cf bd 68 6d 54 be e5 02 12 be 78 3e 5f be
       -0.101114064 -0.2074486 -0.14258917 -0.21801174
0001d0 4d 75 fc 3d 55 d0 b8 bd ca 40 d8 bd b0 6e 27 be
       0.12327061 -0.09024111 -0.105592325 -0.16350818
0001e0 57 15 56 3d f2 94 3e be 99 64 23 be 9f 29 a0 bd
       0.052266445 -0.18611506 -0.15956344 -0.078204386
0001f0 d2 d7 0b 3e 21 0e 08 be 59 f6 44 be fd 3a 09 3d
       0.13656548 -0.1328664 -0.19234599 0.03350352
000200 ca 52 2e be b1 0c 49 3e 30 7e 0a 3d a4 92 75 3d
       -0.17023769 0.19633748 0.033811748 0.0599543
000210 33 22 8f 3d dd 9b fc 3d 16 0e f4 3d 93 60 b3 3d
       0.06988945 0.12334416 0.11916749 0.087586544
000220 7b 56 9a 3d 40 20 83 3a 90 4d 37 bc 56 5d a8 be
       0.07536026 0.0010004118 -0.011187926 -0.3288371
000230 b6 d5 fd bd c8 b9 17 bd 5e fa 33 be da 18 ad 3d
       -0.12394278 -0.03704241 -0.17575976 0.08452006
000240 fb 26 a4 3d 71 5d 65 be 8f d8 1b 3e 13 75 73 bd
       0.080152474 -0.22398926 0.1521933 -0.059437823
000250 4d 74 88 bd 54 dc cd 3d ca 22 82 3d 20 00 bf bd
       -0.066628076 0.1005179 0.06354292 -0.09326196
000260 31 dd d1 bd e6 89 41 bf ac 79 0b be af b3 47 be
       -0.10247267 -0.7560104 -0.13620633 -0.19502138
000270 7b 02 bf 3d 95 72 07 bd f5 7a 1d be 40 5a 77 bd
       0.09326645 -0.03306826 -0.15378936 -0.060388803
000280 18 af a9 bc bb 26 5b 3d 1d f5 2f 3e 31 f5 10 be
       -0.020713374 0.053503733 0.17183347 -0.14156033
000290 8b 89 07 bd bb 92 5d 3e 26 67 fa 3d 17 94 a9 3d
       -0.033090156 0.21638004 0.12226705 0.08280199
0002a0 5f d9 63 bd 1c e9 80 3b 6a c4 35 ba 44 80 e8 3c
       -0.055627223 0.003934039 -0.000693387 0.028381474
0002b0 d0 6b 1d 3e 55 ea 3d bd ef 60 a4 bd da 10 07 3e
       0.15373158 -0.046366055 -0.08026301 0.13190022
0002c0 e3 a1 2d bd 46 b6 8a be d4 99 bc bc 42 7a 65 3d
       -0.042390715 -0.2709219 -0.02302257 0.056024797
0002d0 18 80 18 3d 30 e6 87 3d 8d 1a 27 be 7a 15 65 be
       0.037231535 0.06635702 -0.16318722 -0.22371474
0002e0 bd 05 18 3d 76 8a 27 3e 05 d6 cb 3d 04 36 05 3e
       0.037114847 0.16361412 0.0995293 0.13008887
0002f0 a6 08 20 3d 53 da 52 be 27 80 33 3d 68 e5 8e bd
       0.039070748 -0.20591097 0.043823387 -0.069773495
000300 dc 5a 6d bd 4d 21 e1 3d 49 61 10 be 64 c0 a6 3d
       -0.05794798 0.1099268 -0.14099611 0.08142164
000310 b6 3c 14 be fa 0b a3 3d 96 d1 59 be be 09 1b be
       -0.14476284 0.07961269 -0.21271357 -0.15140435
000320 8d 63 32 be c4 6c c7 3d 4f b8 94 3d 05 09 40 3e
       -0.17420788 0.09737542 0.072617166 0.1875344
000330 9c 0a 5b 3e 79 56 4c 3d b5 4b 9c 3b ee 67 17 3e
       0.21390766 0.049887154 0.004769767 0.1478574
000340 ae aa 47 3d e7 7a 49 3e 38 cf e8 bd 30 70 d1 3d
       0.048746757 0.1967579 -0.11367649 0.10226476
000350 c4 32 a3 be 35 45 48 3e 05 76 27 3d 86 02 0e 3e
       -0.3187467 0.1955765 0.040884037 0.1386815
000360 fa d4 b0 3b 2c ad ec 3c 42 1e 95 bd c0 44 9f 3c
       0.0053964825 0.028891169 -0.07281162 0.019441962
000370 71 ce f7 bd 19 4b 27 be 8c a5 a6 bd 97 ab c6 3b
       -0.120999224 -0.16337241 -0.08137044 0.0060629356
000380 d8 b8 13 bc 55 1c d0 3d eb d2 88 3e 6b f9 b3 bd
       -0.009016238 0.10161654 0.26723418 -0.08787807
000390 a1 99 ff bc 5c a6 98 bd c4 b2 cf 3d e7 2a 7f be
       -0.031201186 -0.074536055 0.10141519 -0.2491871
0003a0 8f 48 be 3d 73 a4 21 3e 95 63 a1 3d 4b f9 32 bc
       0.09291183 0.15785389 0.07880322 -0.010923694
0003b0 20 bb 9e bd bc f8 2d 3e 14 63 64 be bd 04 ba 3c
       -0.07750535 0.16989416 -0.2230342 0.022707338
0003c0 59 2a 0e bd a0 96 2a 3e 5b 1a 0b be 8f 2d 57 be
       -0.034708355 0.16659021 -0.13584273 -0.21013473
0003d0 0b 5d b8 bd 73 77 fc 3c 3e 35 89 bc 84 7d 3b be
       -0.090021215 0.030818677 -0.01674902 -0.18309599
0003e0 b5 0a 0b be 1a 48 e9 bd 1d 81 8f bc 04 87 75 bd
       -0.13578303 -0.113907054 -0.01751762 -0.059943214
0003f0 da e4 95 3d 6d ee 8b 3c c1 8d 64 bd ed 63 b0 bd
       0.073190406 0.017081464 -0.05579925 -0.08612809

network.0.bias f4 [128]
000000 a5 d4 91 bc 64 26 f7 bd 73 be c8 be 0b 81 0d 3d
       -0.017801592 -0.12067869 -0.392078 0.034546893
000010 a1 45 d8 be 97 b4 7f 3d a1 5e 72 be 50 12 f2 bc
       -0.42240623 0.062428083 -0.2366891 -0.029549748
000020 18 52 13 be 25 dd eb bc 14 81 2f bd 2d ef 57 be
       -0.14386785 -0.028791973 -0.042847708 -0.21087332
000030 65 a6 2c 3e 3a f7 a5 3e 17 25 eb bd 2a 7f 41 3e
       0.1686035 0.3241518 -0.11481684 0.18896165
000040 40 9f 79 bc d7 48 07 be a7 c2 40 bc d2 2d 2d bd
       -0.015235722 -0.1321138 -0.011765159 -0.042280026
000050 58 f5 a0 bd 16 a3 56 be 53 08 84 be aa 2a 06 3e
       -0.078592956 -0.2096065 -0.257876 0.13102213
000060 d2 1f cb 3d 5c d8 af bd 2c 92 88 bd d7 e5 3a bd
       0.099181786 -0.08586189 -0.06668505 -0.04562935
000070 e1 90 5e 3e 12 90 ac bd ec 0b 40 3d da 95 2f be
       0.21734954 -0.08425917 0.04688637 -0.17147008
000080 85 be 73 be 43 f1 9b 3c 9d 47 00 3e 41 de 4a be
       -0.23803146 0.019035941 0.12527318 -0.19811346
000090 31 67 12 bc bf c4 2e 3f 3d 61 2d be 7c be 6d 3e
       -0.008935736 0.6826896 -0.16931625 0.23217195
0000a0 0e 43 57 be 35 ba 5b be 48 f9 20 3e 12 9f 4b be
       -0.21021673 -0.21457751 0.15720093 -0.198849
0000b0 db 09 bf be d1 7f b9 be 97 4f 25 be 47 5a 00 3f
       -0.37312207 -0.3623033 -0.16143642 0.5013775
0000c0 e3 f8 88 3c d9 ef 57 bd 59 91 ce bd 9c a1 52 3e
       0.016720241 -0.05271897 -0.100863166 0.20569462
0000d0 c2 43 02 3e 2b 31 8a 3e 7a 07 34 3d a9 a5 a5 bd
       0.1272116 0.26990637 0.043952443 -0.08088238
0000e0 ae f3 40 bd d4 25 cb ba 18 80 ae bd d3 ae ed bd
       -0.04710739 -0.0015498945 -0.08520526 -0.11605611
0000f0 fc 36 9c 3e 69 f4 2f 3e a6 a2 3a bb 98 e8 a9 bd
       0.305107 0.17183079 -0.0028478294 -0.08296317
000100 42 8e f2 be a5 5a 3a be 86 9e fd be 85 11 00 3d
       -0.4737416 -0.1819864 -0.49535006 0.031266708
000110 96 7a 8f bc 0f ee c6 be f7 c6 3e 3e ec 1d 18 3e
       -0.017514508 -0.388535 0.18630587 0.14855164
000120 2f 65 95 3d 67 76 d7 bc 95 1c cc bd fa 26 f5 bc
       0.0729469 -0.026301576 -0.09966389 -0.029925812
000130 05 1e 21 3e 1c 52 85 3c a8 06 cc 3d 55 7b 0b bf
       0.15734108 0.016274504 0.09962207 -0.54485065
000140 80 38 5a be c5 4b ba 3e ff c6 4c be aa e0 3e be
       -0.21310616 0.36385933 -0.19997786 -0.1864039
000150 00 69 16 bc 60 ed f9 bd b4 e1 4a 3e 54 fd 41 bf
       -0.009180307 -0.12203479 0.19812661 -0.75777173
000160 80 85 ed bd 29 a7 51 be 98 7d 13 3f 0c 04 2c 3e
       -0.11597729 -0.20473923 0.57613516 0.16798419
000170 52 53 5e bd 12 71 41 be 08 1f 33 3e 8e 2e e1 3e
       -0.05427868 -0.18890789 0.17492306 0.4398083
000180 6d 53 7d be 61 8e 30 be 2c e5 05 3e 5b 24 38 be
       -0.24738856 -0.17241813 0.13075703 -0.17982619
000190 db f4 1f be 7c ba a6 3d c7 9b 5f 3c e9 13 97 be
       -0.15620749 0.08141038 0.01364798 -0.29507378
0001a0 9f c4 87 be a6 ef 2a 3d 94 78 18 3e 44 ad c5 3c
       -0.26517197 0.041732453 0.14889747 0.024130471
0001b0 4a aa cc 3d da 44 fc 3e e3 53 95 3e 1d 17 b4 bd
       0.099934176 0.4927128 0.29165563 -0.08793471
0001c0 9f 5d 27 3f 4b 84 99 be e1 37 00 3f fb 59 d8 be
       0.6537723 -0.29983744 0.50085264 -0.4225615
0001d0 8c f8 0d be 1a a8 8a be 01 6f e6 bd b3 06 f0 bd
       -0.13864344 -0.27081376 -0.11251641 -0.11720028
0001e0 81 f6 8a 3d 04 4e 35 be 71 be 1e bd dc 5f 0b be
       0.06785298 -0.17705542 -0.038755838 -0.13610786
0001f0 fa d7 34 be 84 48 42 be 1a 16 a4 3d b0 73 df 3d
       -0.17660514 -0.18972975 0.08012028 0.109107375

network.2.weight f4 [64, 128]
000000 6b b1 08 bb c4 8e db 3c bc 40 5c bd 91 e4 f8 bd
       -0.0020857702 0.026801474 -0.053772673 -0.121529706
000010 81 c8 f7 bc 81 47 be 3d 56 e3 9d bc 94 89 7d 3d
       -0.030246975 0.09290982 -0.019273441 0.061898783
000020 87 62 b2 bd 79 c4 2a 3d b9 17 b9 3d ed 02 89 3c
       -0.08710199 0.041691277 0.09037728 0.016725028
000030 02 89 7b bd 5b 3c 35 3d 44 15 9d bd 09 d7 5b bd
       -0.061409958 0.044247013 -0.07670072 -0.05367187
000040 d2 54 3d 3d 26 8e 52 3d 48 78 1d 3d ec 8e 92 bd
       0.04622347 0.051405095 0.038444787 -0.071561664
000050 22 c1 e0 bd c5 c1 d0 3c 46 91 bd bd 2e a0 57 3d
       -0.10974337 0.025483022 -0.09256224 0.052642994
000060 7f c9 0d bc de e8 11 3d dd 9f e4 bc e4 41 85 bd
       -0.008653997 0.03562247 -0.02790826 -0.06506708
000070 4d 67 a3 bd 8c d4 84 bd c3 c4 56 bd 59 55 bc bd
       -0.079786874 -0.064858526 -0.05243374 -0.09195966
000080 ac 04 a1 bb 3e a1 53 bc 06 b8 00 be 61 b1 15 bd
       -0.004913887 -0.012916861 -0.125702 -0.036546115
000090 da c7 ff bd ac 34 d2 3b f3 60 4a bd e7 31 c0 3c
       -0.124892905 0.0064149704 -0.049408864 0.023461295
0000a0 19 0c 8a bd e8 d3 74 bd a7 dc 9f 3d 29 bf 38 bd
       -0.06740589 -0.059772402 0.07805758 -0.04510418
0000b0 63 d0 78 3a 08 93 a9 bd 91 8a 9c 3d dd 97 00 be
       0.0009491501 -0.08279997 0.07643617 -0.12557931
0000c0 1b ee 0f bd d8 05 04 be 7e 49 90 3d 42 0a 0a 3d
       -0.035139184 -0.12892854 0.070452675 0.03370119
0000d0 a5 5b 00 bd ca 47 1f 3d ff 66 49 bd 8b 27 e0 bd
       -0.0313374 0.038886823 -0.04917049 -0.10945042
0000e0 2c d1 cf bd f4 54 b6 3c 5f 5b 83 3d bd 5b 98 3a
       -0.10147318 0.022257306 0.06413912 0.001162402
0000f0 0f 2d 8b 3d 5c 64 28 bd e0 50 44 3b 4d 28 d4 3d
       0.067957036 -0.041111335 0.0029955432 0.10359249
000100 7e 9a ca 3c 5e 08 24 bc 6a d0 8b bd e0 9c 29 3d
       0.02473187 -0.0100117605 -0.06826861 0.041409373
000110 94 4c b1 bd 0a 60 cd bd 84 17 bc bd 40 5a 45 3d
       -0.08657184 -0.100280836 -0.09184173 0.048181772
000120 82 c0 d0 bc 14 7e 00 3d a9 33 47 bd e6 d1 b1 bd
       -0.02548242 0.031370237 -0.04863325 -0.08682613
000130 f7 fa b6 3c 77 9d ae bd 90 87 98 3c 0c cb c5 bd
       0.022336466 -0.08526128 0.018619329 -0.09657869
000140 0e 51 f7 bc 8d 23 a6 3c 09 1f c9 bd 6f 86 d1 3c
       -0.030190017 0.020280624 -0.098203726 0.025576798
000150 48 51 8c bd 7a c3 79 bd c1 18 0f 3c cd 8f 8f bd
       -0.06851441 -0.060977437 0.008733929 -0.0700985
000160 70 dd 9e 3c 86 d6 03 3d 95 4e 00 be f5 a2 b9 bc
       0.019392699 0.032187007 -0.12529977 -0.022660712
000170 9a f3 ca 3a a9 f0 2f 3c cd f0 fc bc 01 eb cc 3c
       0.0015483976 0.01073853 -0.030876542 0.025014402
000180 ca 7b 70 3d bd 93 d7 bd 4d a4 29 3d e2 67 48 bd
       0.058711804 -0.10526226 0.041416455 -0.048927195
000190 7f 3e a6 bc a3 95 5c bd 34 69 52 bd 4a 72 99 bc
       -0.020293472 -0.053853642 -0.05136986 -0.018731255
0001a0 64 b7 87 bd fb 69 60 bc d6 f5 53 bd 78 9d 6f bd
       -0.06626776 -0.013697143 -0.05174812 -0.058499783
0001b0 f7 eb 84 3d 34 7a f8 bd de 14 3f bd 3e 4b db 3c
       0.06490319 -0.121326834 -0.04665076 0.026769277
0001c0 8e 64 a9 3c 6d eb b9 3c 8d 54 6c 3a 6f 7c dc bd
       0.020677831 0.022695268 0.00090152846 -0.10765921
0001d0 cf 6f 64 3c 8e 07 8d bc f8 fd 7d 3d b8 15 8f bc
       0.013942673 -0.017215516 0.06200978 -0.017466411
0001e0 61 3d 3f 3d 53 67 8f 3d 75 2d 28 3d 5c 25 ab bc
       0.046689395 0.070021294 0.041058976 -0.020891838
0001f0 8f 7a 80 bd 24 1f 12 3c 0d 2f 19 3d 1b 50 a5 bd
       -0.06273376 0.008918557 0.037398387 -0.080719195
000200 66 24 45 bd 74 f1 f5 3c 05 47 ae bd ad b2 59 bd
       -0.048130415 0.03002236 -0.0850964 -0.053148914
000210 50 63 36 3c d1 bd aa 3d f6 64 c2 bd 28 be 7b bc
       0.011132076 0.08336986 -0.09491913 -0.015365161
000220 84 3a 85 bd b8 12 1a bc 1b 19 a0 3d a5 d6 8a bd
       -0.065053016 -0.009403877 0.078172885 -0.067792214
000230 be d1 73 3d ae 0e 14 bc 20 ce 3d 3c 12 3e 6e 3d
       0.059526198 -0.009036703 0.011584789 0.058164664
000240 62 da 32 3d 18 9b e5 3c 08 f2 4c 3c 88 70 6b bd
       0.043665297 0.028028056 0.012508877 -0.057480365
000250 d7 ab e2 bd 4e 9c 72 3d 1e 44 04 bd 18 c3 a3 bd
       -0.11067932 0.059231095 -0.032291524 -0.079961956
000260 06 a4 ec bc 7a e8 7e bd 63 91 93 3d 43 b5 85 3d
       -0.028886806 -0.062233426 0.07205465 0.065287136
000270 02 85 01 be d0 0b 13 3d 05 bd 13 bd 69 04 ad 3d
       -0.12648395 0.035899937 -0.036068935 0.08448107
000280 73 ea b6 bc 90 c8 b1 bb 7a 78 0e 3d 79 42 9b bd
       -0.022328591 -0.0054255202 0.034782864 -0.07581038
000290 4f 99 0f bd f5 83 95 3d fd 12 9b 3d 24 cd 92 bd
       -0.035058316 0.073005594 0.07571981 -0.07168034
0002a0 07 37 88 3d a0 8e 94 bd a0 a7 8e bd 60 e5 36 bd
       0.06651121 -0.07253766 -0.06965566 -0.044652343
0002b0 d4 8a 0e be a9 d9 9d 3c 80 90 54 bc c7 ec 40 bd
       -0.13920146 0.019268828 -0.012973905 -0.04710081
0002c0 ac bd dd 3c 4c 82 2a bd 52 f3 54 3d fa b7 4f 3d
       0.027067982 -0.041628167 0.05198986 0.050712563
0002d0 99 7b 85 bd 70 86 a0 3c 4a f7 93 bd 62 04 32 3d
       -0.06517715 0.019595355 -0.07224901 0.04346121
0002e0 e5 e3 7b bd 80 8b bb 3a 94 b0 da 3c ae cd 8f bd
       -0.061496634 0.0014308542 0.026695527 -0.07021652
0002f0 bc e3 de 3c 09 ec 0a bd 2e 57 06 3d 9d 93 19 bd
       0.027208202 -0.033916507 0.032797985 -0.03749429
000300 08 43 9d bc eb 4a ad bd c3 93 1e bd 57 50 88 3d
       -0.019197002 -0.08461555 -0.038715135 0.066559486
000310 70 16 ff 3c fd b1 f8 bd d8 c6 96 bd 27 1f 89 3d
       0.031138629 -0.121433236 -0.07362145 0.06695395
000320 00 bf 1b bd 46 fa 8f bd ef 4b 14 bd de 60 30 bc
       -0.03802395 -0.07030158 -0.03620523 -0.010765282
000330 00 c4 2f 3c 53 13 39 bd aa 79 33 3d cc 47 02 3d
       0.010727882 -0.045184445 0.0438172 0.031806752
000340 68 e4 a2 3c d5 79 be bd a8 ed c5 bc 8f 36 b4 bd
       0.019884303 -0.09300581 -0.024161175 -0.08799469
000350 19 7a 9a 3d e2 ed 6c bd a0 f3 26 bb eb f9 a0 bd
       0.075428195 -0.05784405 -0.0025474802 -0.07860168
000360 2b 84 f0 bc 2c f6 7f bd fa ff 8e bd 11 80 82 bd
       -0.029359898 -0.062490627 -0.069824174 -0.06372083
000370 be 23 1a 3d bf 04 b5 bd a6 87 85 3c 8a 1c 1c 3d
       0.037631743 -0.08838796 0.016300034 0.038113154
000380 e2 1e 42 3d 30 68 d6 3c 4c 52 51 bd 38 6e b8 bc
       0.047392733 0.026172727 -0.051103875 -0.022513494
000390 e9 e9 a6 bd e9 1e 57 bd 86 68 77 bd c1 8d dc bd
       -0.081500836 -0.052519713 -0.060402416 -0.10769225
0003a0 14 0f 16 bd c0 67 ee ba 8d a3 f0 bc 60 72 61 3c
       -0.036635473 -0.0018188879 -0.029374862 0.013760179
0003b0 08 e2 78 bd 91 b3 6d bb ac 33 a8 bd 3c 5c f7 3c
       -0.060762435 -0.003627036 -0.08212981 0.030195348
0003c0 1d f9 0f bd 1b 53 c1 3c 34 cf 95 bd ad dd a8 3d
       -0.035149682 0.023599198 -0.073149115 0.08245406
0003d0 80 c4 83 bd 7e 5b ad bd 88 97 14 bc 04 f6 7b bd
       -0.06433964 -0.084647164 -0.009069331 -0.061513916
0003e0 58 1f 13 3c d5 62 81 bd 90 a6 18 bc a8 7c 39 bc
       0.008979641 -0.06317679 -0.009317055 -0.011321224
0003f0 fa 2d 00 bd 10 1f 6b 3c 2f fe 8e bd 02 43 53 3d
       -0.031293847 0.014350668 -0.069820754 0.051577576

network.2.bias f4 [64]
000000 e4 df f2 3d 5f 6e 1c bd 76 35 4a 3d c8 ab 9b bd
       0.1185911 -0.038191196 0.04936739 -0.07601124
000010 f0 bf 5b 3e 67 36 37 bd db 02 1a ba 17 4e fb bd
       0.21459937 -0.044729616 -0.0005875059 -0.12270754
000020 0e 93 54 bd 17 2d 5b 3e d3 b1 a1 bd 62 0c 7a be
       -0.051898055 0.21403919 -0.078952454 -0.24418786
000030 c0 7b 24 bd 8f 31 e2 bd d2 a2 55 be f9 b5 08 be
       -0.04015708 -0.11044609 -0.20862892 -0.13350667
000040 e3 80 b6 3e 1f 1e ea bd 0e c8 cd bc b1 02 99 3c
       0.35645208 -0.114315264 -0.025119808 0.018678041
000050 a5 7a 3d bc 50 14 15 3d af 01 ef 3d 8a 0d 46 bd
       -0.011564885 0.036396325 0.11670243 -0.048352756
000060 49 43 bb bc 58 ef db bd dc 41 77 3a c8 c9 db 3c
       -0.022859233 -0.107390106 0.0009432116 0.026829615
000070 9d 75 3b bc a0 29 9e bd 0b 52 59 bd f3 75 c5 3c
       -0.011441615 -0.07722783 -0.053056758 0.024104094
000080 85 f5 7a 3c 55 fa 83 bd 4b 10 31 bd f2 e3 e7 bd
       0.0153173255 -0.064442314 -0.04322843 -0.11322774
000090 06 be 0e 3d ae 8b a7 bd 40 cf 35 3e a0 94 ba bd
       0.03484919 -0.08180939 0.17754841 -0.09110379
0000a0 7b 99 b2 3d 66 e6 8b 3c 16 54 3f bd 5a 8a 60 3c
       0.0872068 0.017077636 -0.04671105 0.013704861
0000b0 7f ee 90 bd 33 91 96 3e f0 f1 80 3d 77 b1 05 be
       -0.070767395 0.29407653 0.06296146 -0.13055979
0000c0 25 5a ec 3d 80 bb 98 3d dd b4 f0 3d e1 0e 1c be
       0.11540631 0.07457638 0.11753247 -0.15240051
0000d0 55 94 bf bd 98 bf 64 3b 4e 4e 23 3e ba c1 6e 3d
       -0.09354464 0.0034904238 0.1594784 0.05829022
0000e0 e2 80 15 be 58 db 79 3e fe 40 4a be a1 5a 2c 3e
       -0.14599946 0.24400079 -0.19751355 0.16831447
0000f0 df d3 43 3e bc 82 58 bd 0b 0e 90 bc d4 dd cf bd
       0.19123791 -0.052859053 -0.017584821 -0.10149732

network.4.weight f4 [1, 64]
000000 df 7c 5f bc 21 e0 6e bd a6 48 b2 bd ba 2f 54 3d
       -0.013640611 -0.058319215 -0.08705263 0.051803328
000010 2a 27 e4 bd 8e c5 c9 bc d2 a6 2f 3d f3 e1 6a bc
       -0.111402825 -0.024630334 0.0428837 -0.014336097
000020 fe cc 9c 3d 3e a1 d6 bc ee 30 03 3b 0a 1a 08 3c
       0.07656287 -0.026199933 0.0020018178 0.008306989
000030 c7 3e 14 3c df 70 9a 3d b2 2a e4 38 54 88 11 bc
       0.00904817 0.0754106 0.0001087984 -0.008882601
000040 cc 78 38 3d 86 46 a2 3b 54 90 9a 3b 90 31 80 ba
       0.045037076 0.0049522547 0.0047169123 -0.0009780396
000050 07 b8 1c 3d 44 7f c5 3c 46 19 58 bc 78 29 f4 3c
       0.03826144 0.024108537 -0.013189619 0.02980493
000060 2d f5 b3 bb 4a b2 8a bc e5 b9 f2 3b 8b 30 14 bd
       -0.0054918737 -0.016930718 0.0074074143 -0.036179107
000070 93 cb a2 bd ac 42 f5 bb 4e cf 80 3b f5 8f 3a bb
       -0.07948985 -0.0074847545 0.0039309626 -0.0028467153
000080 da 4b 1a ba 83 d9 82 3d 57 18 ae 3b ca d6 80 3c
       -0.00058859366 0.06389143 0.00531296 0.01572742
000090 ed e8 0d b9 15 c3 85 bd 08 48 c1 bb f4 b5 95 3c
       -0.0001353358 -0.065313496 -0.0058984794 0.018275239
0000a0 59 69 a5 3b dd b2 97 bb 1a a8 72 3d 10 24 e3 3b
       0.005047959 -0.0046294765 0.059242345 0.006931789
0000b0 0b 4f 6a 3c 4d d6 83 bd da 46 21 bb 3a df 13 bd
       0.014301072 -0.06437359 -0.0024608881 -0.036101557
0000c0 1a ab e1 bc 35 ad 44 3b cc 2c c5 bb ab 9c 09 3c
       -0.027547408 0.0030010466 -0.006017303 0.008399169
0000d0 e0 3a 76 bc e2 24 a3 3d 15 2a 8a 3b bc 4f 9d bc
       -0.015028685 0.07966019 0.0042164424 -0.01920306
0000e0 77 02 12 3b 24 0c 38 bd ea bd d6 bb 3a 46 83 bc
       0.0022279301 -0.044933453 -0.0065534012 -0.016024698
0000f0 9d e2 02 3d 90 a9 39 bc 54 d9 80 3b ba 61 21 bc
       0.031954397 -0.011331931 0.0039321575 -0.00984996
